Pretrained_cnn/main/saved_ckpt/best_model_epoch_2.pt (torch, 835282 bytes, 10 tensors)

features.0.weight f4 [32, 3, 3, 3]
0	0xbc9accc9	-0.018896477
1	0xbd948ec0	-0.0725379
2	0x3d4b5fd6	0.049651943
3	0x3d8af643	0.06785252
4	0xbd9c5044	-0.07632497
5	0xbe174609	-0.1477281
6	0x3c8f7b22	0.017514769
7	0x3c1193f8	0.008885376
8	0xbd0ecee4	-0.034865275
9	0x3d18ae39	0.037275527
10	0x3dc5d2f8	0.0965938
11	0x3d4888a4	0.048958436
12	0x3d723294	0.059130266
13	0xbcf9fcf7	-0.03051613
14	0xbdfd8286	-0.12378411
15	0xbd82cfac	-0.063872665
16	0xbdadb12f	-0.08481061
17	0xbc978e45	-0.018500457
18	0x3de4ee2b	0.111782394
19	0x3e139f04	0.14416128
20	0xbdce3ea4	-0.100705415
21	0x3d3303c2	0.043704756
22	0x3e03b9d3	0.12863855
23	0xbdd0362f	-0.10166585
24	0xbb553db0	-0.003253799
25	0x3b4d86b2	0.0031360802
26	0xbcf316d9	-0.02967398
27	0x3e049cf9	0.12950505
28	0xbdcbc09d	-0.099488474
29	0xbde8031e	-0.113287196
30	0xbd73d766	-0.05953159
31	0x3d18db89	0.03731874
32	0x3e046b12	0.12931469
33	0x3da35cea	0.07976706
34	0x3d894914	0.06703392
35	0xbdd15630	-0.10221517
36	0xbdc776d5	-0.09739462
37	0x3cd153f8	0.025552735
38	0xbd4f27de	-0.05057513
39	0xbbc28e85	-0.0059374
40	0xbd9a50ce	-0.075349435
41	0xbe109430	-0.14119029
42	0x3d4c774f	0.04991847
43	0xbd96cb50	-0.073629975
44	0x3d4e68be	0.05039286
45	0xbdc5b4e4	-0.09653643
46	0xbde1e907	-0.110307746
47	0xbdf61355	-0.12015406
48	0xbde1bd94	-0.11022487
49	0xbdace24f	-0.084416024
50	0x3d3751f7	0.044755902
51	0x3c37f592	0.011227982
52	0xbd995752	-0.07487358
53	0xbd9f5bc3	-0.07781174
54	0x3e0c21f7	0.13684832
55	0x3dc62032	0.096741095
56	0xbd316897	-0.043312635
57	0xbd388898	-0.04505214
58	0x3cfa375e	0.03054398
59	0x3d470d2e	0.048596554
60	0x3cc9efae	0.024650421
61	0xbd9f7ec0	-0.077878475
62	0xbc549925	-0.012975966
63	0x3df9f125	0.12204198
64	0xbc2fe449	-0.01073558
65	0xbd2c4702	-0.042059906
66	0x3d856f46	0.06515364
67	0xbdc3b8ed	-0.09556756
68	0x3db523a2	0.08844687
69	0xbd9c71d2	-0.07638897
70	0x3e0202ec	0.12696427
71	0x3bd4462e	0.0064780926
72	0xbe123810	-0.14279199
73	0xbe0d8cd6	-0.13823256
74	0xbdbd3e5b	-0.09240409
75	0x3d836f66	0.06417732
76	0xbd5760fe	-0.052582733
77	0xbb76ef8a	-0.0037679398
78	0xbbf7331c	-0.0075439345
79	0xbd915a85	-0.07097343
80	0x3cfeb97f	0.03109431
81	0xbdc99fe2	-0.09844948
82	0xbdc16bc2	-0.09444381
83	0xbddf27e7	-0.10896283
84	0xbdd00940	-0.10158014
85	0xbcbb0faf	-0.022834627
86	0xbe131268	-0.1436249
87	0xbe202fcc	-0.15643233
88	0x3d6a95bc	0.057271704
89	0x3cb4f460	0.022089183
90	0xbc0f7496	-0.008755824
91	0x3d91c327	0.071173005
92	0x3e441164	0.19147259
93	0x3e0624c6	0.13099965
94	0x3dd215b6	0.10258047
95	0x3e30a2b6	0.1724957
96	0x3ddd4011	0.10803235
97	0x3de463d1	0.11151851
98	0xbbb7ef5c	-0.0056132507
99	0xbd0628ae	-0.03275364
100	0xbde4769b	-0.11155435
101	0xbc9a6d8d	-0.018851066
102	0xbdc3dd2a	-0.09563668
103	0x3c83bcba	0.016081203
104	0xbdd14d51	-0.10219825
105	0xbe1860b3	-0.14880638
106	0x3c25bc56	0.010115704
107	0x3c500b69	0.012698033
108	0x3d71ac1e	0.059002034
109	0x3db5de35	0.08880273
110	0x3dfabecc	0.12243423
111	0x3d4b162a	0.049581684
112	0x3e455d58	0.19273889
113	0x3b920946	0.004456672
114	0x3dd7812e	0.10522686
115	0xbc3ae621	-0.011407406
116	0xbccc4f9d	-0.024940306
117	0x3dd9f846	0.106430575
118	0xbd94686d	-0.0724648
119	0x3e228a14	0.15872985
120	0xbdbf7e9b	-0.0935032
121	0xbd9c0b5e	-0.076193556
122	0xbceb0e1d	-0.028693253
123	0xbd2bae42	-0.041914232
124	0xbdd68490	-0.10474503
125	0xbda976c3	-0.08274605
126	0xbe03e60a	-0.12880722
127	0xbdf62a45	-0.12019781
128	0xbd0afdca	-0.03393344
129	0xba4e0fc1	-0.0007860624
130	0xbc1bc0d6	-0.009506425
131	0x3d1f2f60	0.03886354
132	0x3d7fb642	0.062429674
133	0xbdb8c4b3	-0.090218924
134	0xbdbafe2e	-0.09130512
135	0xbe1949d8	-0.14969575
136	0xbcfbcf09	-0.03073837
137	0x3e0a099d	0.1348023
138	0x3baa0051	0.005188026
139	0x3bcb6cbd	0.006208031
140	0x3d6f2f67	0.058394816
141	0xbde1a1d0	-0.110171914
142	0x3b45d12b	0.0030184488
143	0x3e1bfe08	0.15233624
144	0xbdd92b75	-0.10603992
145	0x3d0f7d89	0.03503183
146	0xbdcd8730	-0.100355506
147	0xbbf80bad	-0.0075697512
148	0xbdfbf3b5	-0.12302343
149	0x3dc600bb	0.09668108
150	0xbd9a0b18	-0.07521647
151	0x3d1603e9	0.036624823
152	0x3deab25e	0.11459802
153	0xbd514b70	-0.051097333
154	0x3d07918b	0.033097785
155	0xbce046f2	-0.02737758
156	0xbe247c7e	-0.16063115
157	0x3c3caadc	0.011515345
158	0x3d56d2c0	0.05244708
159	0x3ca4eead	0.02013334
160	0x3d420951	0.047372166
161	0x3dfccb46	0.12343459
162	0x3d425eff	0.047453877
163	0xbdec7094	-0.1154491
164	0xbccfdde6	-0.025374364
165	0xbc5123c5	-0.012764876
166	0xbe129ccb	-0.14317624
167	0x3dd370b7	0.10324233
168	0x3d1e795b	0.038689952
169	0xbc88d6da	-0.016704012
170	0xbdd42081	-0.10357762
171	0xbd38f4b3	-0.04515524
172	0xbb307fcd	-0.0026931644
173	0x3dc98b6d	0.098410465
174	0xbd0b3f66	-0.03399601
175	0x3cd4545e	0.025919136
176	0x3dfc7b7e	0.12328242
177	0x3d089689	0.033346687
178	0xbdea1879	-0.11430449
179	0x3dce3fd9	0.10070772
180	0x3d9b8b6f	0.07594954
181	0x3d4d12a3	0.0500666
182	0xbdf79b5b	-0.120901786
183	0x3e068803	0.13137822
184	0xbc4cb0d1	-0.012493328
185	0x3da0fbbb	0.07860514
186	0xbd34b299	-0.044115636
187	0x3c068bdc	0.008212056
188	0xbc85d8f3	-0.016338801
189	0xbdff46a1	-0.12464643
190	0x3d87f3ba	0.06638284
191	0x3d920907	0.07130628
192	0xbe10d90a	-0.14145294
193	0xbd5f7af5	-0.05456062
194	0xbdfb63da	-0.122749045
195	0x3da5682b	0.08076509
196	0xbd7a9b1d	-0.061183084
197	0x3dce93f8	0.100868165
198	0x3e015dc6	0.12633428
199	0x3e05ae31	0.1305473
200	0xbced8dc2	-0.02899826
201	0xbd2e2d48	-0.042523652
202	0xbd935a2e	-0.07194935
203	0xbdfca500	-0.12336159
204	0xbde11a9a	-0.10991402
205	0x3d60fa5d	0.054926265
206	0x3e0394e3	0.12849765
207	0x3dc2b767	0.095076375
208	0x3dcb7efa	0.09936328
209	0x3cf5e735	0.030017475
210	0x3dcf2105	0.1011372
211	0xbd1afaa3	-0.037836682
212	0xbe0f8127	-0.14014111
213	0x3dde088b	0.10841473
214	0x3c8cea20	0.017201483
215	0xbd9e16d8	-0.07719201
216	0x3e06b1d2	0.1315377
217	0x3d8c2b49	0.068441935
218	0x3d51b5f4	0.051198915
219	0x3de98df0	0.114040256
220	0x3d926acf	0.07149278
221	0x3dad0bfc	0.084495515
222	0x3ba2efca	0.0049724327
223	0x3d3fed30	0.04685706
224	0xbd11072e	-0.035407238
225	0x3d5f3c63	0.05450095
226	0x3dfb5056	0.12271182
227	0xbd64752c	-0.055775806
228	0xbda4bf4e	-0.08044301
229	0xbe0dc244	-0.13843638
230	0xbd91bb0e	-0.07115756
231	0xbddaf6b2	-0.10691585
232	0x3d05627a	0.032564618
233	0x3da8c605	0.08240894
234	0x3d003d06	0.031308196
235	0xbdac903c	-0.08425948
236	0xbdaa76b4	-0.08323422
237	0xbd605d2e	-0.054776363
238	0xbdfac30e	-0.12244235
239	0x3d2281d3	0.03967459
240	0x3df9deee	0.122007236
241	0x3d76260c	0.060094878
242	0xbe0e6135	-0.13904269
243	0xbdd6167f	-0.104535095
244	0x3de52363	0.1118839
245	0x3d9b4987	0.075823836
246	0xbe467459	-0.1938032
247	0xbd3d6dc4	-0.04624726
248	0x3dde56d8	0.10856408
249	0xbe6265f3	-0.22109203
250	0xbea69419	-0.32534865
251	0xbc0fa2e6	-0.008766865
252	0xbe849cf6	-0.25901002
253	0x3db6df09	0.08929259
254	0x3d9591b4	0.07303181
255	0xbe6d5b46	-0.2317935

features.0.bias f4 [32]
0	0xbb49cd14	-0.0030792402
1	0xbc87ce18	-0.016577765
2	0x3cc8f3fa	0.0245304
3	0xbb0f16f3	-0.0021833747
4	0xbbf5104e	-0.0074787503
5	0xbd1abc25	-0.037777085
6	0xbd0b695d	-0.03403603
7	0xbc8aa691	-0.016925128
8	0x3cce35b6	0.025172096
9	0x3cdaa25e	0.02668875
10	0x3d81c9b1	0.06337298
11	0xbdb1e928	-0.08687049
12	0xbda9a252	-0.08282913
13	0xbd8634ca	-0.065530375
14	0xbc8336e8	-0.016017392
15	0xbc444ee7	-0.011981702
16	0x3dfabd83	0.12243178
17	0xbcd18381	-0.025575401
18	0xbbf575a1	-0.007490829
19	0xbda91883	-0.08256628
20	0xbc80ed01	-0.015738012
21	0xbdce8fb7	-0.10086005
22	0xbda18c24	-0.07888058
23	0xbca0a2b8	-0.01960884
24	0x3d59ce1c	0.053175077
25	0x3b0c6f0e	0.0021428498
26	0xbd573447	-0.05254009
27	0x3d0118ff	0.03151798
28	0xbda13071	-0.078705676
29	0xbd41e193	-0.047334265
30	0x3cdc03e5	0.026857326
31	0xbc3120bb	-0.010811026

features.3.weight f4 [16, 32, 3, 3]
0	0x3cfd8fc5	0.030952344
1	0x3d60c08f	0.05487114
2	0xbc303091	-0.010753767
3	0x3bbacd8a	0.0057007717
4	0x3c7e160e	0.015508188
5	0xbd2ea508	-0.042637855
6	0xbce318bd	-0.027721757
7	0x3d6a7534	0.05724068
8	0xbdc9cdd7	-0.09853714
9	0x3d7a7cb2	0.061154075
10	0x3aa4f15e	0.001258414
11	0xbe0cb8f6	-0.13742432
12	0xbde861fe	-0.113468155
13	0xbca4596f	-0.020062177
14	0x3cf7e8ec	0.030262433
15	0xbd566594	-0.052342966
16	0xbcd376d2	-0.025813494
17	0xbd0e9cca	-0.034817494
18	0xbd876e5e	-0.06612848
19	0x3d7240c9	0.059143815
20	0xbd1afa3a	-0.03783629
21	0xbd447fcb	-0.047973435
22	0xbdd49708	-0.103803694
23	0xbd9b9e7a	-0.075985864
24	0xbd4fb58c	-0.050710246
25	0xbdbaf45c	-0.09128639
26	0xbc47a88c	-0.012186181
27	0x3e0f9241	0.14020635
28	0x3d619829	0.05507675
29	0xbd40056d	-0.046880174
30	0x3d961697	0.073285274
31	0x3cbfa9ce	0.023396399
32	0x39c581f8	0.00037671602
33	0x3d2a5681	0.041586403
34	0x3da2f7c2	0.07957412
35	0xbd35258e	-0.044225268
36	0xbdf913f5	-0.121620096
37	0xbe1d1fd0	-0.15344167
38	0xbdea8c63	-0.11452558
39	0xbd524356	-0.051333748
40	0xbdbe9c48	-0.09307152
41	0x3d7290f1	0.05922026
42	0x3d9d82f8	0.07690996
43	0x3deee98c	0.11665639
44	0x3db3e6c0	0.087842464
45	0xbcabbd30	-0.020964235
46	0xbd2e214a	-0.042512216
47	0xbda4933c	-0.08035895
48	0xbd0cecd4	-0.034405544
49	0xbe280769	-0.16409077
50	0xbc1b1da9	-0.009467521
51	0xba8c191d	-0.0010688637
52	0xbc8db6c7	-0.01729907
53	0xbe02eadb	-0.12784903
54	0x3d8be509	0.06830794
55	0x3dcc7846	0.09983878
56	0xbda297e4	-0.07939127
57	0x3cf4de6d	0.029891217
58	0xbdaeaccb	-0.085290514
59	0x3d979e67	0.0740326
60	0x3d936009	0.071960516
61	0x3db84135	0.08996812
62	0x3b298134	0.0025864365
63	0x3c8e993e	0.017407056
64	0x3d55d3e9	0.052204046
65	0x3d70a1de	0.05874812
66	0x3ddee33d	0.10883186
67	0xbdb640e0	-0.08899093
68	0xbdd89206	-0.10574727
69	0x3d4f5684	0.050619617
70	0xbca9b474	-0.02071593
71	0xbd6a1c34	-0.057155803
72	0x3d9c02bb	0.07617708
73	0xbd733fa4	-0.059386864
74	0x3dd4a2e1	0.10382629
75	0xbdce3e7d	-0.100705124
76	0xbd94a049	-0.072571345
77	0xbdb59b5d	-0.08867524
78	0xbd80df85	-0.06292633
79	0x3db13515	0.08652703
80	0x3ded16bb	0.11576601
81	0x3e21a076	0.15783867
82	0xbdf2dcb5	-0.11858503
83	0xbd602776	-0.054725133
84	0xbe196bfd	-0.149826
85	0xbd896bb9	-0.067099996
86	0x3d452ae6	0.048136614
87	0x3d010b1d	0.03150474
88	0x3cecfb86	0.02892853
89	0x3c59c495	0.013291498
90	0x3d9055b7	0.07047599
91	0x3ce575ca	0.028010268
92	0x3cfd65e0	0.030932367
93	0x3de024f7	0.109445505
94	0xbd8776f2	-0.06614484
95	0x3d2a707c	0.04161118
96	0x3daf8ad5	0.08571402
97	0xbda19453	-0.07889619
98	0xbdbfd614	-0.09367004
99	0xbe52d137	-0.20587622
100	0xbd4ffb4e	-0.050776772
101	0x3da9ebf4	0.082969576
102	0x3d078157	0.033082332
103	0x3cd4ca6b	0.025975427
104	0xbe0afecf	-0.13573764
105	0x3e21fc39	0.15818872
106	0xbd2f6433	-0.042820167
107	0x3d95086b	0.07276996
108	0xbdde3c4e	-0.10851346
109	0x3d7c8447	0.061649587
110	0xbc9d75ec	-0.019221269
111	0x3dd20c4e	0.10256253
112	0x3d5dae04	0.054121032
113	0x3dd201a6	0.10254221
114	0x3da7bcaf	0.081902854
115	0xbd5a187f	-0.053246018
116	0x3b905e98	0.0044058077
117	0x3d84db74	0.0648717
118	0xbcf2f1aa	-0.02965625
119	0xbdc68383	-0.096930526
120	0xbd559b20	-0.05214989
121	0xbd1f73ec	-0.03892891
122	0x3d8477fb	0.06468197
123	0x3d0fe2a0	0.035128236
124	0xbc6a101b	-0.014286066
125	0x3d3ce1e9	0.046113882
126	0x3cda25d1	0.02662936
127	0x3b5416c2	0.0032362198
128	0xbd26d316	-0.04072865
129	0x3dc1099f	0.09425663
130	0xbcbebc70	-0.023283213
131	0xbca9b7b8	-0.020717487
132	0xbdb80448	-0.089851916
133	0x3dac8428	0.08423644
134	0xbdeba480	-0.11505985
135	0xbe50f92c	-0.20407552
136	0xbe54781b	-0.20748942
137	0xbdd336bb	-0.103131734
138	0xbe215d60	-0.15758276
139	0xbe331021	-0.17486621
140	0xbe5766d3	-0.21035318
141	0xbe2a9015	-0.16656525
142	0xbe5559d8	-0.20835054
143	0xbe17f51b	-0.14839594
144	0xbe00f585	-0.12593658
145	0xbe1892cf	-0.14899753
146	0xbe5c3110	-0.21503091
147	0xbcb53ede	-0.022124704
148	0x3d11d27c	0.035601124
149	0xbda8393b	-0.08214041
150	0x3db36938	0.08760303
151	0xbd7f8aef	-0.062388357
152	0xbdbfa157	-0.09356945
153	0xbda3f63a	-0.08005948
154	0x3c99d4e1	0.018778266
155	0xbd88e214	-0.06683746
156	0x3d50ea62	0.051004775
157	0xbc5d41c5	-0.01350445
158	0x3de808f0	0.1132983
159	0x3d369aaa	0.044581093
160	0x3dbdb794	0.092635304
161	0x3d751618	0.059835523
162	0xbd702472	-0.058628507
163	0xbd8c8e54	-0.068630844
164	0xbd68c0c1	-0.05682445
165	0xbb7b5ed2	-0.0038356078
166	0xbd283506	-0.041066192
167	0x3d3fe319	0.046847437
168	0xbcc60ed0	-0.024176985
169	0x3d8dc94f	0.06923162
170	0x3c7e054b	0.015504192
171	0x3d3ed350	0.046588242
172	0xbc8dae87	-0.017295135
173	0xbd850595	-0.06495205
174	0xbd75da13	-0.060022425
175	0x3d3caad5	0.046061356
176	0x3d44bd9c	0.048032388
177	0x3d0b77f4	0.034049943
178	0x3da20fde	0.07913183
179	0x3db08bb4	0.08620396
180	0xbe162221	-0.14661457
181	0xbe1054ee	-0.14094898
182	0xbe2a446a	-0.1662766
183	0xbc0f4e11	-0.00874664
184	0x3df1714e	0.11789189
185	0xbd93ad54	-0.07210794
186	0x3d8025df	0.06257223
187	0x3c2c1210	0.010502353
188	0xbb042228	-0.002016196
189	0xbd42c3b8	-0.047549933
190	0xbc553b3b	-0.01301461
191	0x3df762ef	0.12079417
192	0x3dbe8075	0.09301845
193	0xbd928503	-0.07154276
194	0x3d4b2f2f	0.049605545
195	0x3da76c94	0.081750065
196	0xbd650528	-0.05591312
197	0x3d11c91b	0.03559218
198	0xbde40239	-0.111332364
199	0x3d49b8bb	0.04924844
200	0x3c5ed04e	0.013599468
201	0x3d3ea8c6	0.046547674
202	0x3d8c6d0c	0.068567365
203	0xbe0a8c18	-0.13530004
204	0xbdac208b	-0.084046446
205	0xbddf79b4	-0.10911885
206	0xbd914f45	-0.070951976
207	0x3dd9bb25	0.10631398
208	0x3d9dd47d	0.077065445
209	0xbd4862c2	-0.048922308
210	0x3d744e5e	0.05964505
211	0x3d0cb6cf	0.034354027
212	0x3ce182e2	0.02752823
213	0xbd76a1ca	-0.060212888
214	0x3ae00038	0.0017089909
215	0x3d5c1bbf	0.0537374
216	0x3dec3aad	0.11534629
217	0x3d501be4	0.05080785
218	0xbd8edfa3	-0.06976249
219	0x3c18457b	0.009293909
220	0x3d4172cc	0.04722862
221	0xbda8c0b9	-0.08239884
222	0x3e0cbd8e	0.13744184
223	0x3ca3c55d	0.019991571
224	0x3cb4920e	0.0220423
225	0xbd650364	-0.055911437
226	0xbd5abe28	-0.053404003
227	0x3d863301	0.06552697
228	0x3db66275	0.08905498
229	0xbcd56f8f	-0.026054172
230	0x3d656d76	0.056012593
231	0x3ca25810	0.019817382
232	0x3e199e3b	0.15001766
233	0x3d173dce	0.036924176
234	0xbdc07a22	-0.09398295
235	0x3d81e223	0.0634196
236	0xbe13e756	-0.14443716
237	0xbd89d17e	-0.067294106
238	0x3dcc3aa7	0.099721245
239	0xbdc2ecdd	-0.09517834
240	0xbe1329e5	-0.1437145
241	0xbdea1ac7	-0.114308886
242	0xbd02f024	-0.031967297
243	0x3cad639f	0.021165667
244	0xbde96b3c	-0.113974065
245	0xbda7ba91	-0.081898816
246	0xbd04ce08	-0.03242305
247	0x3db519e9	0.088428326
248	0xbe00fa8c	-0.12595576
249	0x3d29151e	0.041279905
250	0x3db50371	0.08838547
251	0xbc87392b	-0.016506752
252	0xbddd2005	-0.10797123
253	0x3d018b19	0.031626794
254	0x3b7b9966	0.0038390993
255	0xbdada249	-0.08478219

features.3.bias f4 [16]
0	0xbcfdb1f2	-0.03096864
1	0x3ccd356f	0.025049893
2	0xbbe77417	-0.0070633995
3	0x3d48b065	0.048996348
4	0x3d30c151	0.04315311
5	0xbd64218e	-0.055696063
6	0x3d4cc1c8	0.04998949
7	0xbc1753e0	-0.009236306
8	0xbc50c179	-0.01274144
9	0xbd148acc	-0.03626518
10	0xbcbed348	-0.023294106
11	0xbb82c3b7	-0.003990616
12	0x3cb30848	0.021854535
13	0xbd10273a	-0.03519366
14	0x3cfb4dbe	0.030676719
15	0x3d889451	0.06668914

features.6.weight f4 [8, 16, 3, 3]
0	0x3c542551	0.01294835
1	0x3de25013	0.11050429
2	0xbcfd090a	-0.0308881
3	0x3e0545b9	0.13014878
4	0x3c971c35	0.018446067
5	0xbc0a6dac	-0.008448999
6	0x3cd5eba6	0.026113342
7	0xbde77ff9	-0.11303706
8	0x3dd60084	0.10449317
9	0x3dd409fa	0.103534654
10	0xbdf729ab	-0.120684944
11	0xbdb21987	-0.08696275
12	0xbd1c251a	-0.03812132
13	0x3d92be38	0.071651876
14	0x3cb18408	0.021669403
15	0xbc5366ab	-0.012902896
16	0x3dfa1ddf	0.12212729
17	0x3cded17c	0.0271995
18	0xbd164f39	-0.036696646
19	0x3aaac3aa	0.0013028283
20	0xbd41967e	-0.04726266
21	0x3d891be7	0.06694775
22	0xbe2b0664	-0.16701657
23	0x3e09bd12	0.13451031
24	0x3df0101a	0.11721821
25	0x3bfa02db	0.007629735
26	0xbd2423c5	-0.040073175
27	0xbc3859ea	-0.011251906
28	0xbe1522ca	-0.14564052
29	0x3d5e88ca	0.05432967
30	0xbd1b662c	-0.037939236
31	0x3d8548fb	0.065080605
32	0x3db248ff	0.08705329
33	0x3dcaf319	0.099096484
34	0x3dcb8645	0.09937719
35	0x3dc1b37b	0.09458061
36	0xbd3edcff	-0.046597477
37	0x3cb3c157	0.021942778
38	0x3e15909f	0.1460595
39	0xbddca220	-0.107731104
40	0x3d6a35c9	0.0571802
41	0x3d947541	0.07248927
42	0xbe07f484	-0.13276869
43	0xbdfe0703	-0.12403681
44	0x3d89694e	0.067095384
45	0xbcbe5e7b	-0.023238411
46	0x3e03f4c6	0.12886342
47	0x3d981dcd	0.07427559
48	0xbcb1fac8	-0.021726027
49	0xbd41b61f	-0.047292825
50	0xbc6c04cd	-0.0144054415
51	0x3dee359f	0.11631321
52	0x3d83088c	0.063981146
53	0xbe39d2e3	-0.18146853
54	0x3e230a96	0.15922007
55	0xbdbfac1f	-0.09359001
56	0x3e46b1fe	0.19403836
57	0xbe00cf79	-0.12579145
58	0xbdedd5d1	-0.11613048
59	0x3bd33bed	0.0064463527
60	0xbd17c702	-0.037055023
61	0xbdc2ae4d	-0.095059015
62	0x3d30616e	0.043061666
63	0xbdddefbe	-0.10836743
64	0x3d7ade6b	0.06124727
65	0xbdc04de1	-0.09389854
66	0x3e29e9c6	0.16593084
67	0x3dc377ba	0.095443204
68	0xbbe3abe2	-0.0069479803
69	0xbdf18279	-0.11792464
70	0x3da6a1d9	0.08136339
71	0xbd85f8d9	-0.065416045
72	0xbdf7a203	-0.12091448
73	0xbd19d890	-0.037560046
74	0xbe0d1251	-0.13776518
75	0xbca3bbde	-0.019987043
76	0xbdb98c2e	-0.0905994
77	0x3e010dc8	0.12602913
78	0xbd3c1787	-0.045920875
79	0x3db053a9	0.08609707
80	0x3d8d4198	0.06897277
81	0xbdce52a1	-0.10074354
82	0x3ac7f9cf	0.0015256944
83	0xbe1b92f7	-0.15192781
84	0xbdbe067b	-0.0927858
85	0xbe3c3243	-0.18378548
86	0xbe128bf5	-0.14311202
87	0xbdcdda6a	-0.10051425
88	0xbd89b551	-0.067240365
89	0xbcfe4c2c	-0.031042181
90	0x3dec21e5	0.11529902
91	0xbd29855b	-0.041386943
92	0xbbd9d33d	-0.006647496
93	0x3e1b4ad8	0.1516527
94	0x3d8c059c	0.068370074
95	0xbd80bc1b	-0.06285878
96	0x3dfc7e7f	0.12328815
97	0xbe3b5795	-0.18295129
98	0x3d5edb04	0.05440809
99	0x3d39f7bc	0.045402274
100	0xbd0e60bd	-0.034760226
101	0xbcb25897	-0.021770759
102	0x3d85c668	0.065319836
103	0xbe0c30d5	-0.13690503
104	0xbe4c16f0	-0.19930625
105	0xbe105dfe	-0.14098355
106	0xbe27551a	-0.16341057
107	0x3e14e55f	0.14540623
108	0x3ded8130	0.11596906
109	0x3e0d189c	0.13778919
110	0x3dff16c5	0.12455515
111	0xbcc2dc23	-0.02378661
112	0xbca7617d	-0.020432228
113	0xbd25f83e	-0.040519945
114	0xbe5508bc	-0.20804113
115	0x3ddbde48	0.10735756
116	0xbe2f3658	-0.17110574
117	0x3d8c33b5	0.068458
118	0xbd686c64	-0.056743994
119	0x3d8a72cb	0.06760176
120	0xbdd584e4	-0.104257375
121	0x3dd3db52	0.103445664
122	0x3c5ce387	0.013481981
123	0x3da7bacc	0.081899256
124	0xbdfe08d2	-0.12404026
125	0x3e0dbde4	0.13841969
126	0x3ccbd912	0.02488378
127	0x3e3bd785	0.18343933
128	0xbdbbd415	-0.09171311
129	0x3d274f2d	0.040846992
130	0xbdbc5108	-0.09195143
131	0x3e1f00c6	0.15527639
132	0xbd2de884	-0.042458072
133	0x3d8850db	0.06656047
134	0x3e1d7b47	0.15379058
135	0xbc9984ce	-0.018740084
136	0x3e814492	0.25247627
137	0x3deb4df0	0.11489475
138	0x3e5337d6	0.20626768
139	0x3e79a2c9	0.24378504
140	0xbd8bdb8b	-0.06828984
141	0x3e1dbb5c	0.15403503
142	0xbd3247ac	-0.043525383
143	0xbd2b129e	-0.0417658
144	0xbd5f9338	-0.054583758
145	0x3c1015bc	0.008794244
146	0x3de2e018	0.11077899
147	0xbd2e06e1	-0.04248703
148	0xbde09fbf	-0.10967969
149	0xbdb25017	-0.08706682
150	0xbe319a26	-0.17343959
151	0x3dc44426	0.09583311
152	0xbd35c7a2	-0.044379838
153	0x3e208d08	0.15678799
154	0x3da212bc	0.079137295
155	0xbd6ea049	-0.05825833
156	0xbddd375c	-0.108015746
157	0xbd9059cc	-0.070483774
158	0x3dbda7f7	0.092605524
159	0x3d87e8d7	0.066362076
160	0xbda31f4b	-0.07964953
161	0x3e2020d4	0.15637523
162	0x3cd67ab4	0.026181556
163	0x3ce1b54b	0.027552268
164	0x3d0c3f15	0.034239847
165	0xbe2cb19b	-0.16864626
166	0xbe1a23ee	-0.15052769
167	0xbaf27164	-0.0018496928
168	0x3d52d276	0.051470242
169	0x3df11b0d	0.11772738
170	0x3e2b7c46	0.16746625
171	0xbda2b1ee	-0.07944094
172	0xbd46400a	-0.048400916
173	0xbd874579	-0.06605048
174	0xbe26789b	-0.16256945
175	0xbcbdf466	-0.023187827
176	0x3dcf9aa4	0.10136917
177	0x3df73914	0.12071434
178	0xbdc65f3d	-0.09686134
179	0x3db65f10	0.089048505
180	0xbceabc6b	-0.028654298
181	0xbd8c4b3c	-0.06850287
182	0x3de464dd	0.11152051
183	0xbde1f229	-0.110325165
184	0xbd6f5d50	-0.0584386
185	0x3d90741f	0.07053398
186	0x3dbcccdb	0.092187606
187	0x3dd29db3	0.10283985
188	0xbd66793f	-0.056267973
189	0x3cf11cff	0.029432772
190	0xbddf1563	-0.10892751
191	0xbd6f4579	-0.058415864
192	0x3d12113c	0.035660967
193	0x3d2d0b17	0.042246904
194	0x3d24daaf	0.040247615
195	0xbdf80950	-0.12111151
196	0xbb0d56b4	-0.0021566572
197	0x3e245598	0.16048276
198	0x3d39fdde	0.045408122
199	0xbccd1edb	-0.025039127
200	0xbdb4ab6d	-0.088217594
201	0x3ddd9ffa	0.10821529
202	0xbd1f4d7b	-0.03889225
203	0x3ae6b46a	0.0017601375
204	0x3b754ed2	0.0037431014
205	0x3e3bcc2c	0.18339604
206	0xbdaa5eeb	-0.083188854
207	0xbe33e670	-0.17568374
208	0xbc8cbfd9	-0.017181324
209	0x3e003ddf	0.12523602
210	0xbdaf9a14	-0.0857431
211	0xbdc701bb	-0.09717127
212	0xbbe4796e	-0.0069724834
213	0xbda3fe57	-0.08007496
214	0x3d494268	0.049135596
215	0x3e1fa007	0.1558839
216	0x3c2f81f3	0.010712135
217	0x3de1c4ae	0.11023842
218	0xbd485f06	-0.048918746
219	0x3d8327d0	0.06404078
220	0x3d3fb3b2	0.04680223
221	0x3d2dd287	0.042437103
222	0x3dee476a	0.11634715
223	0xbdd1cf30	-0.10244596
224	0xbe09803c	-0.13427824
225	0x3d896471	0.06708611
226	0x3db34ef3	0.08755293
227	0x3e88a4e1	0.26688293
228	0xbe0c4ddd	-0.13701577
229	0x3e0472a5	0.12934358
230	0x3e27bd31	0.16380765
231	0x3e04ca51	0.12967803
232	0xbdaecd14	-0.08535209
233	0x3e83555a	0.25651056
234	0xbdda6fd8	-0.10665864
235	0x3d053799	0.032523725
236	0x3e0166cc	0.1263687
237	0x3dea3fc4	0.114379436
238	0x3d687687	0.05675366
239	0xbd2a6801	-0.041603092
240	0xbd96ff27	-0.07372885
241	0x3db63468	0.088967144
242	0xbd9a7342	-0.07541515
243	0xbd21aa94	-0.039469317
244	0x3e120be0	0.14262342
245	0x3e3690c7	0.17828666
246	0x3ddda7d3	0.108230256
247	0x3e6266be	0.22109506
248	0xbd93f58b	-0.07224568
249	0x3e1474ab	0.1449763
250	0xbce2abea	-0.027669866
251	0x3e363ed4	0.17797405
252	0xbdfdbcd4	-0.12389532
253	0x3e5dbd23	0.21654181
254	0x3e039064	0.1284805
255	0x3d2f20b3	0.042755794

features.6.bias f4 [8]
0	0xbd501655	-0.050802547
1	0xbd80c342	-0.062872425
2	0x3c637397	0.013882539
3	0x3c50ce1b	0.012744452
4	0x3d855f4e	0.065123186
5	0xbd82f1a1	-0.06393743
6	0x3d339636	0.043844424
7	0xbd255498	-0.040363878

classifier.0.weight f4 [128, 1568]
0	0xbd383393	-0.04497106
1	0x3c8056e8	0.01566644
2	0xbd32a73a	-0.04361651
3	0xbd7fb26f	-0.062426027
4	0x3cb7ab39	0.022420513
5	0x3c353615	0.011060257
6	0xba8b3195	-0.0010619635
7	0x3cb16fbe	0.021659728
8	0xbd94fb9f	-0.072745554
9	0xbd578f36	-0.05262681
10	0x3c1761dc	0.00923964
11	0xbd4417f8	-0.04787442
12	0x3ab319fe	0.0013664362
13	0xbd3cf3f7	-0.0461311
14	0x3cbacf4e	0.022803929
15	0x3d50324f	0.050829228
16	0xbcbdb655	-0.023158232
17	0xbd675d62	-0.05648554
18	0xbd307986	-0.043084644
19	0x3d001c14	0.031276777
20	0x3d8fb9bb	0.07017847
21	0x3d43ac01	0.047771458
22	0x3c0634c2	0.008191289
23	0xbcaf2577	-0.02138017
24	0xbd280a41	-0.041025404
25	0xbc0b02d3	-0.00848456
26	0x3c20554c	0.009785961
27	0x3b281b2f	0.0025650968
28	0x3c78bd91	0.015181915
29	0x3d414866	0.047188185
30	0xbd302f89	-0.043014083
31	0x3d0968df	0.03354728
32	0xbd8cf742	-0.06883098
33	0x3d3ebd89	0.046567474
34	0x3dad6f45	0.084684886
35	0x3c550a1e	0.0130029
36	0xba51bde8	-0.00080010155
37	0xbd580205	-0.0527363
38	0x3ae803e8	0.001770136
39	0x3d12f846	0.035881303
40	0x3c62b901	0.013838054
41	0xbd765807	-0.060142543
42	0x3ccfba41	0.025357367
43	0xbd66c8d1	-0.056343857
44	0x3d2a76d9	0.04161725
45	0x3ced774e	0.028987553
46	0x3d08dd5c	0.03341423
47	0x3d3fc6ea	0.04682056
48	0x3cf1806d	0.029480183
49	0x3b48ff7e	0.0030669863
50	0x3d1546ac	0.03644435
51	0xbd73d1a3	-0.059526097
52	0xbdb556df	-0.0885446
53	0xbcc844de	-0.024446901
54	0x3cc5f354	0.02416388
55	0x3b95cdf6	0.0045716716
56	0xbd0cfa48	-0.034418374
57	0xbd562bc5	-0.052287836
58	0x3c26731e	0.010159282
59	0x3cb8b3ae	0.022546615
60	0x3d0211c4	0.031755224
61	0x3d410986	0.047128223
62	0x3b8944a6	0.0041890917
63	0x3d7a4bc6	0.06110742
64	0x3ce8bb37	0.028409583
65	0xbc1a7631	-0.009427593
66	0xbd8cf563	-0.06882741
67	0xbc1f2f3a	-0.0097158495
68	0x3c96aab4	0.018391944
69	0xbcfd95d8	-0.03095524
70	0xbd60c032	-0.05487079
71	0x3cc32f46	0.023826253
72	0xbbbd1341	-0.0057701175
73	0x3d03f642	0.03221727
74	0x3d21279a	0.039344408
75	0x3c9d1bdc	0.019178323
76	0x3c6ef31b	0.014584328
77	0x3cc95597	0.024576945
78	0xbdb44cad	-0.08803687
79	0xbd7da0be	-0.061920874
80	0x3c5d2005	0.013496404
81	0xbd00ddd4	-0.03146155
82	0xbbddf046	-0.0067730276
83	0x3bca2100	0.0061684847
84	0xbd8364aa	-0.064156845
85	0xbc7b801b	-0.015350367
86	0x3dd1a21b	0.10235997
87	0x3cd3965a	0.02582853
88	0xbba1aefb	-0.0049341894
89	0xbc5ac586	-0.013352757
90	0x3d51e2c5	0.051241655
91	0x3d82b26e	0.06381689
92	0xbb7dbca6	-0.003871718
93	0x3c8ba7bd	0.017047757
94	0x3bd1cef1	0.006402843
95	0xbccc34da	-0.024927545
96	0x3c55e643	0.013055387
97	0xbdc917e4	-0.0981901
98	0xbd10ccd6	-0.035351597
99	0x3d79949b	0.060932737
100	0x3d519756	0.051169716
101	0x3da41ca3	0.080132745
102	0x3d620d87	0.055188682
103	0x3da4337b	0.080176316
104	0x3cc20895	0.023685733
105	0x3d178e34	0.03700085
106	0x3db0e78c	0.08637914
107	0xbc07955e	-0.008275358
108	0x3cefa24f	0.0292522
109	0x3d1b9c01	0.037990574
110	0xbb5e1460	-0.0033886656
111	0x3c881e26	0.016615938
112	0x3c15b5d8	0.009137593
113	0xbc20e510	-0.009820238
114	0x3caa47c6	0.020786177
115	0x3d6e75c7	0.05821779
116	0x3d058431	0.03259677
117	0x3d892913	0.066972874
118	0x3ce80b45	0.028325686
119	0x3dc10d8d	0.09426413
120	0x3d93be55	0.07214037
121	0x3ce80a5c	0.028325252
122	0x3bfc9fe9	0.0077094925
123	0xbbe1a5ca	-0.0068862187
124	0xbd0ecfc2	-0.034866102
125	0xbd590429	-0.052982483
126	0xbc6d2749	-0.014474698
127	0xbd64ba64	-0.05584182
128	0x3b9cee77	0.0047891694
129	0xbb1d48e2	-0.002399974
130	0x3d165800	0.036705017
131	0x3da7d801	0.08195496
132	0x3d19eb24	0.037577763
133	0x3d305faa	0.043059982
134	0x3cd945cf	0.026522545
135	0x3c8c004b	0.017089983
136	0xbd3932ad	-0.045214344
137	0xbd5b48aa	-0.053536095
138	0x3b07c58a	0.0020717108
139	0xbd2f7294	-0.04283388
140	0xbd63ddd9	-0.055631492
141	0x3c67999b	0.0141357435
142	0xbcb92cb8	-0.022604331
143	0x3d91755e	0.07102464
144	0x3c98a230	0.018632025
145	0xbc22e1f7	-0.0099415695
146	0x3da6c231	0.08142508
147	0x3d542b7c	0.051799282
148	0xbd169ae0	-0.036768794
149	0xbd10d3e9	-0.035358343
150	0x3ceb1303	0.028695589
151	0xbc8f4142	-0.017487172
152	0xbc9d9930	-0.019238085
153	0xbd7d2fb1	-0.06181306
154	0xbd251bac	-0.040309593
155	0xbc670fdf	-0.014102905
156	0xbd2d740d	-0.042347003
157	0x3bfa2d31	0.0076347818
158	0x3d08715f	0.033311244
159	0x3aaf1955	0.001335899
160	0x3c0c3280	0.008556962
161	0xbcba48d2	-0.022739802
162	0xbcea6809	-0.028614061
163	0xbd73e456	-0.05954393
164	0x3c142d8a	0.0090440605
165	0xbda56ed1	-0.08077777
166	0x3c6a0770	0.014284
167	0x3c37a357	0.011208377
168	0x3b364a87	0.0027815418
169	0xbd5d9158	-0.05409369
170	0xbcb68fd0	-0.022285372
171	0xbd76a507	-0.060215976
172	0xbca408e9	-0.02002378
173	0xbd36fb42	-0.044673212
174	0xbb35674a	-0.0027679973
175	0x3c944d85	0.01810337
176	0xbc190e77	-0.009341828
177	0xbdad97d6	-0.08476226
178	0xbd1ba4d3	-0.037998985
179	0x3d07dcd3	0.03316958
180	0x3ce1d1d0	0.027565867
181	0xbb3a1881	-0.0028395953
182	0x3b700cb5	0.0036628668
183	0xbb022af3	-0.0019862026
184	0xbd8ff9bc	-0.07030055
185	0x3ce62694	0.028094567
186	0xbc85238b	-0.0162523
187	0x3c3bbbb0	0.011458322
188	0xbbb9e0d6	-0.0056725545
189	0x3d459212	0.048235007
190	0x3d0963c6	0.033542417
191	0x3c4bdaad	0.012442273
192	0xbcd9d19a	-0.026589204
193	0x3d4cbab8	0.049982756
194	0x3d32be62	0.043638594
195	0xbd341864	-0.043968573
196	0x3d6c6244	0.0577109
197	0x3d8856fa	0.066572145
198	0xbcf16794	-0.029468335
199	0xbc2f8dee	-0.010714991
200	0xbd6a3582	-0.057179935
201	0xb9a60bb6	-0.00031670713
202	0xbbecf0a9	-0.0072308374
203	0xbcc617cc	-0.02418127
204	0xbd686528	-0.056737095
205	0xbd06e02a	-0.032928623
206	0x3d2ca9a1	0.04215396
207	0xbccd5d9e	-0.025069054
208	0x3c145a3a	0.009054715
209	0xbc9d3f21	-0.019195141
210	0x3ce51b09	0.027966993
211	0x3c2b1b2a	0.010443488
212	0xba822584	-0.0009929393
213	0xbb320563	-0.0027163855
214	0xbd434b26	-0.04767909
215	0xbcbe113f	-0.023201583
216	0xbda5e08c	-0.080994695
217	0xbd979fb9	-0.074035116
218	0xbddf7f84	-0.109129936
219	0xbcad8444	-0.021181233
220	0xbdb9cec3	-0.0907264
221	0xbda64702	-0.081190124
222	0xbafd90ff	-0.001934558
223	0x3d84efd6	0.064910576
224	0xbd7a76aa	-0.061148323
225	0xbc175a62	-0.009237858
226	0xbd505f46	-0.05087211
227	0xbd8b12a0	-0.06790662
228	0xbdec97cf	-0.11552393
229	0xbda81ad6	-0.082082435
230	0xbe23ee2a	-0.16008821
231	0xbd5278f8	-0.051384896
232	0xbc4a0312	-0.012329834
233	0xbd633227	-0.05546775
234	0x3a6ebf4a	0.0009107484
235	0xbd9c543b	-0.07633253
236	0xbce1afe8	-0.027549699
237	0x3ca36d48	0.01994957
238	0x3ca5b96f	0.020230023
239	0xbd8c9f14	-0.06866279
240	0xbd850e90	-0.06496918
241	0xbe004d1e	-0.12529418
242	0xbd561dc9	-0.0522745
243	0xbb00e866	-0.001966977
244	0xbdb7e74b	-0.089796625
245	0xbc32d9c7	-0.01091618
246	0xbc1c1d53	-0.009528476
247	0xbc4b68d9	-0.012415134
248	0x3d226880	0.03965044
249	0xbcadc527	-0.021212174
250	0xbd99a9a4	-0.075030595
251	0x3d60e425	0.054905076
252	0xbd40f2fc	-0.047106728
253	0xbca46720	-0.020068705
254	0xbe01e89b	-0.12686388
255	0xbe1bc5bc	-0.15212148

classifier.0.bias f4 [128]
0	0xbd56bd62	-0.052426703
1	0xbb86710a	-0.004102831
2	0xbbfcc36d	-0.0077137263
3	0x3ce0b2a5	0.027428934
4	0xbbdfa554	-0.0068251286
5	0x3de22932	0.11043014
6	0xbc06ed33	-0.008235264
7	0xbbf99017	-0.007616054
8	0xbc020452	-0.0079356
9	0xbbe3526d	-0.006937316
10	0x3d24b4f5	0.040211637
11	0x3c23d78d	0.010000122
12	0xbc00b903	-0.00785661
13	0xbb88724a	-0.004164015
14	0x3d1cdfca	0.03829936
15	0xbbfb0b3a	-0.0076612504
16	0xbbdc06d1	-0.0067146798
17	0x3bd69653	0.0065486818
18	0x3b012064	0.0019703144
19	0x3deacc26	0.114647195
20	0xbcedc031	-0.029022308
21	0xbd355a02	-0.04427529
22	0xbc9f1743	-0.019420272
23	0x3c8261f5	0.01591585
24	0x3d2226cc	0.03958778
25	0x3d3c55db	0.045980316
26	0x3cd039d0	0.025418192
27	0x3d16ac72	0.03678555
28	0x3d44ed6a	0.04807798
29	0x3dceea79	0.10103316
30	0x3d7db6db	0.061941963
31	0x3d144042	0.036194094
32	0x3c08e6d6	0.008355817
33	0x3daa6aa7	0.083211236
34	0x3d762135	0.060090262
35	0xbcae5dd7	-0.02128498
36	0x3d85b462	0.06528546
37	0xbd73840a	-0.059452094
38	0x3b7dd43b	0.0038731236
39	0xbbddb9fd	-0.0067665563
40	0xbcaf7055	-0.021415869
41	0xbc705e55	-0.014670928
42	0xbc50c12f	-0.012741371
43	0x3d1bf94d	0.03807955
44	0xbc0d5bcc	-0.008627843
45	0x3d51b5c6	0.051198743
46	0x3d815725	0.063154496
47	0x3d48d23e	0.049028628
48	0xbbedbd0b	-0.0072552017
49	0x3cf76583	0.030199772
50	0x3d8ed1a9	0.06973583
51	0xbc5b691c	-0.013391759
52	0xbc471666	-0.012151336
53	0xbbdc562e	-0.0067241406
54	0x3d100986	0.035165332
55	0x3da749e5	0.08168391
56	0x3d3c3368	0.045947462
57	0xbc896a30	-0.016774267
58	0xbbd80587	-0.006592456
59	0x3ce1bf97	0.027557177
60	0xbd28d0ee	-0.041214876
61	0x3bdd4ca7	0.0067535224
62	0xbd2521e4	-0.040315524
63	0xbc512507	-0.012765176
64	0xbbf17461	-0.00736861
65	0x3d4962a7	0.049166348
66	0x3d425be9	0.047450934
67	0x3c8213de	0.015878614
68	0xbc021a82	-0.00794089
69	0xbcca75ed	-0.024714435
70	0x3d48ed0e	0.049054198
71	0xbc0026e3	-0.007821771
72	0xbbccd87d	-0.0062513934
73	0xbcc09dc6	-0.023512732
74	0x3c3ad0a0	0.011402279
75	0xbcff1a97	-0.031140609
76	0x3d7b1a65	0.06130447
77	0x3da63636	0.08115809
78	0x3d1ed6f6	0.03877922
79	0x3da30846	0.079605624
80	0xbb35a42e	-0.0027716267
81	0x3d13d6c7	0.0360935
82	0xbbe16bc7	-0.006879303
83	0x3c4adb9c	0.0123814605
84	0x3d3ce0e0	0.046112895
85	0x3c3bc983	0.011461618
86	0xbbf90211	-0.0075991233
87	0xbbe95e05	-0.0071218037
88	0xbc2c1c1f	-0.0105047515
89	0xba3b1b12	-0.00071375177
90	0xbbea3cf7	-0.007148381
91	0x3d444b8a	0.047923602
92	0x3c9d82fe	0.019227501
93	0x3d2d8484	0.042362705
94	0xbbd5f622	-0.0065295855
95	0x3d1a9d60	0.03774774
96	0xbc1678b7	-0.009184054
97	0x3d6e633d	0.05820011
98	0xbc924115	-0.0178533
99	0xbc4df636	-0.012570908
100	0x3c908d22	0.017645422
101	0x3e046fec	0.1293332
102	0x3d5c32b0	0.053759277
103	0xbc177475	-0.009244074
104	0x3d142e84	0.036177173
105	0x3d189ad4	0.03725703
106	0xbc4020a3	-0.011726531
107	0xbb336ad9	-0.0027376919
108	0x3d0395e9	0.032125387
109	0x3dab1d47	0.083551936
110	0xbbd4ceee	-0.0064943945
111	0xbbc0c169	-0.0058824313
112	0x3bfd5649	0.0077312333
113	0xbc1cfcc9	-0.009581753
114	0xbcc13b8d	-0.023587966
115	0x3c2a3c17	0.010390303
116	0x3b520b02	0.0032050018
117	0xbbd6c355	-0.006554047
118	0x3cf8bbaa	0.030362923
119	0x3d608fa5	0.05482449
120	0xbc60da5f	-0.013723939
121	0xbbde298d	-0.0067798556
122	0xbc8f7f58	-0.017516777
123	0x3d236d47	0.039899137
124	0x3d3f82ef	0.046755727
125	0xbc357716	-0.011075756
126	0x3d2d95d0	0.0423792
127	0xbb8420c3	-0.004032226

classifier.3.weight f4 [2, 128]
0	0x3e852c88	0.26010537
1	0x3e8c1e15	0.273667
2	0x3e2c231d	0.1681027
3	0x3e6f51f3	0.23371105
4	0xbded9ed6	-0.11602561
5	0xbdab75c2	-0.0837207
6	0x3e4d8f7d	0.20074268
7	0x3e3563e4	0.17713886
8	0x3c5de04a	0.013542244
9	0x3e514fad	0.2044055
10	0xbcd54ba4	-0.026037045
11	0x3e554590	0.20827317
12	0x3bb0c0f9	0.005394098
13	0xbd12db64	-0.03585376
14	0xbe4b83fc	-0.19874567
15	0xbda5db90	-0.08098519
16	0xbe06959a	-0.13143006
17	0x3e770a0e	0.2412493
18	0xbe368fc6	-0.17828283
19	0xbe78fa15	-0.24314149
20	0xbda503a0	-0.08057332
21	0x3ceb6db7	0.02873884
22	0x3e1a85e9	0.15090145
23	0x3e896262	0.26832873
24	0xbde4dec4	-0.11175302
25	0xbe311098	-0.17291486
26	0xbe082e6d	-0.1329896
27	0xbd5762d9	-0.052584503
28	0xbc533275	-0.012890448
29	0xbe9fd421	-0.3121653
30	0x3cbced6f	0.023062436
31	0xbe605529	-0.21907486
32	0x3d91f458	0.07126683
33	0xbe90434e	-0.2817635
34	0x3d4382ab	0.047732037
35	0x3e1e3e6a	0.15453497
36	0xbe8b6ab0	-0.27229834
37	0x3e5b9813	0.2144473
38	0x3b906816	0.0044069393
39	0x3e500f27	0.2031828
40	0x3e7ac87f	0.24490546
41	0x3da03f4a	0.078245714
42	0xbe09e63a	-0.1346673
43	0xbd018379	-0.031619523
44	0x3e279932	0.16367033
45	0xbe7c759c	-0.2465424
46	0xbe5b8208	-0.21436322
47	0xbe53b9b3	-0.20676307
48	0x3e56c6c6	0.20974264
49	0xbbd29499	-0.0064264056
50	0x3edecf93	0.43517742
51	0x3e32bfa8	0.17455924
52	0x3c32d5cc	0.010915231
53	0x3d8db659	0.06919546
54	0xbd68f8c5	-0.05687787
55	0xbd6b62e0	-0.05746734
56	0xbde1a741	-0.11018229
57	0xbcf3ce83	-0.029761558
58	0x3e530e31	0.20610882
59	0xbe2a44a4	-0.16627747
60	0x3e4ca72d	0.19985647
61	0x3e47aba4	0.1949907
62	0x3e4da802	0.20083621
63	0x3da7e695	0.08198277
64	0xbccf369e	-0.025294598
65	0x3e936b0a	0.28792602
66	0x3e6b2aa3	0.22965483
67	0x3c1a6878	0.009424321
68	0x3db86ec1	0.090055
69	0x3e40fe6e	0.18847057
70	0x3e98717f	0.2977409
71	0xbb49bc97	-0.0030782574
72	0x3b974552	0.004616418
73	0xbdf65854	-0.12028566
74	0x3e880a8e	0.26570553
75	0xbe2e88ff	-0.17044447
76	0xbe0307bd	-0.1279592
77	0xbdb32ab1	-0.08748377
78	0xbe28159e	-0.16414496
79	0xbdd5f6b0	-0.104474425
80	0x3d223bd8	0.039607853
81	0xbe44a3aa	-0.19203058
82	0xbdcd26ba	-0.10017152
83	0x3cb94560	0.022616088
84	0xbdceaa3b	-0.10091063
85	0x3d68043a	0.056644656
86	0x3e32f6ad	0.17476912
87	0xbc063120	-0.008190423
88	0x3d89fa1f	0.0673716
89	0xbe3a5613	-0.18196897
90	0x3dbeb50f	0.09311878
91	0x3de83a03	0.1133919
92	0x3e50dfc3	0.20397858
93	0xbe426ed9	-0.18987598
94	0xbe1907b4	-0.14944345
95	0xbe5090be	-0.20367715
96	0xbd5c161d	-0.053732026
97	0xbe88cae0	-0.2671728
98	0x3e42c441	0.19020177
99	0x3d9ae9ae	0.07564102
100	0x3e406bb7	0.1879109
101	0xbc887039	-0.016655074
102	0xbdeefb7f	-0.11669063
103	0x3d661b87	0.056178596
104	0xbc8333d0	-0.016015917
105	0xbe6427b5	-0.22280772
106	0x3dc8a2b3	0.097966574
107	0xbe2fb806	-0.17160043
108	0xbdc819de	-0.09770559
109	0xbe5a3acf	-0.21311496
110	0x3e2d13fa	0.16902152
111	0x3dc90468	0.098152936
112	0xbdd621e9	-0.104556866
113	0x3d8dade1	0.069179304
114	0xbe1217aa	-0.1426684
115	0x3df55dd8	0.1198079
116	0x3e7cd4e2	0.24690583
117	0x3e4469e0	0.19181013
118	0xbba28abe	-0.004960387
119	0x3d5abf9c	0.05340539
120	0x3d3b5706	0.04573729
121	0x3e79c993	0.243933
122	0x3de1817f	0.110110275
123	0xbe463c6c	-0.19358987
124	0xbe2349f3	-0.15946178
125	0x3d2ed2f0	0.042681634
126	0x3d5fbbb7	0.05462238
127	0x3e87ba0d	0.26509133
128	0xbd986abe	-0.074422345
129	0xbdaf8467	-0.085701756
130	0x3d3dbe3c	0.046324
131	0xbdd786ad	-0.10523734
132	0xbe0696f1	-0.13143517
133	0x3e655eb3	0.22399406
134	0x3cbee6aa	0.023303349
135	0xbddf05c8	-0.108897746
136	0xbdf2111e	-0.11819671
137	0x3c24ae8f	0.010051384
138	0x3d83a873	0.064286135
139	0xbe35d6a9	-0.17757668
140	0xbe4fb095	-0.20282204
141	0xbd2e1e8d	-0.042509604
142	0xbdaae295	-0.08343998
143	0x3e2b94a2	0.16755918
144	0xbc3a0b63	-0.011355254
145	0x3a480cc9	0.00076312997
146	0x3e4fe0ea	0.20300642
147	0x3d8f0a79	0.069844194
148	0xbd923616	-0.07139222
149	0xbc1a32f0	-0.0094115585
150	0xbded87e3	-0.11598184
151	0xbe8b25d3	-0.27177295
152	0x3dbdc1e3	0.092654966
153	0x3d718052	0.058960266
154	0x3e0d1421	0.1377721
155	0x3dfc44b5	0.12317792
156	0x3dd25748	0.10270554
157	0x3ea88717	0.32915565
158	0x3e0245e3	0.12721972
159	0xbe006909	-0.12540068
160	0xbe5a1d81	-0.21300317
161	0x3d4cf752	0.05004055
162	0x3e80e269	0.25172737
163	0x3e0e8d7a	0.13921157
164	0xbd7a2312	-0.061068602
165	0xbe103cae	-0.14085647
166	0xbe5f7d24	-0.21825081
167	0xbd0ad576	-0.03389498
168	0x3db636d4	0.088971764
169	0xbe4d1a5a	-0.20029584
170	0xbd522e8c	-0.05131392
171	0x3d35f372	0.04442162
172	0xbdf18150	-0.117922425
173	0x3d791226	0.060808323
174	0xbd98fa86	-0.074696586
175	0x3e55dc09	0.20884718
176	0x3e4f08e3	0.20218234
177	0x3da76c65	0.081749715
178	0xbda5e4a8	-0.08100253
179	0x3a1b5a81	0.0005926267
180	0xbdc440ff	-0.095827095
181	0xbe3ad8e3	-0.18246798
182	0x3e13a4bd	0.14418311
183	0x3d84772e	0.06468044
184	0x3c8521c2	0.016251449
185	0xbd7784de	-0.060429446
186	0xbe40cf13	-0.18828993
187	0x3e3f6648	0.18691361
188	0xbe716c19	-0.23576392
189	0xbe5a9ecc	-0.21349639
190	0xbe3381dd	-0.17530008
191	0xbcb06324	-0.021531649
192	0xbd7f6320	-0.062350392
193	0xbeb68220	-0.35646152
194	0xbed02a12	-0.40657097
195	0xbe9bd457	-0.3043544
196	0x3d705e74	0.058683828
197	0xbda8f953	-0.0825068
198	0x3bb9f55c	0.005675001
199	0xbdf1edfe	-0.118129715
200	0xbd3076db	-0.0430821
201	0x3e36c6e8	0.17849314
202	0xbda8c974	-0.08241549
203	0xbdfbbc33	-0.122917555
204	0x3e916e10	0.28404284
205	0x3e683fcb	0.22680585
206	0xbca1edd2	-0.019766722
207	0x3e694232	0.22779158
208	0xbe30c4c8	-0.17262566
209	0x3d792bef	0.060832914
210	0xbe14b897	-0.1452354
211	0x3de6419c	0.11242983
212	0x3d483e2c	0.048887417
213	0xbe858ff3	-0.26086387
214	0xbd88007a	-0.06640716
215	0x3e0bc741	0.13650228
216	0xbd62c446	-0.055362962
217	0x3e0d0051	0.13769652
218	0xbe239340	-0.1597414
219	0x3e3e8e07	0.18608867
220	0xbe6d1d00	-0.23155594
221	0x3e67faa6	0.22654209
222	0xbe209050	-0.15680051
223	0x3e0f2e3d	0.13982482
224	0xbe210cf3	-0.15727596
225	0x3e5098ce	0.2037079
226	0x3e16c4a3	0.14723448
227	0x3dabada7	0.08382731
228	0xbe9f43da	-0.31106454
229	0x3eaa15b1	0.33219674
230	0x3e8c55a8	0.274091
231	0xbdc68d17	-0.096948795
232	0x3dff8e45	0.12478308
233	0xbd76d34a	-0.060260095
234	0x3c3f2271	0.011665926
235	0xbd5afc16	-0.053463064
236	0x3dbd63d2	0.09247555
237	0x3e74a7b6	0.23892102
238	0x3c425f7e	0.011863587
239	0xbe53b864	-0.20675808
240	0x3e021094	0.12701637
241	0xbd363b6e	-0.04449027
242	0xbe3b0aca	-0.18265834
243	0xbe98f469	-0.2987397
244	0xbe374f60	-0.17901373
245	0xbc8a25b9	-0.01686369
246	0xbe76dab3	-0.24106865
247	0xbeb7fb8c	-0.35934103
248	0xbdc8819a	-0.097903445
249	0xbe861995	-0.26191393
250	0x3d884a43	0.06654789
251	0xbd04014e	-0.032227807
252	0x3cd497a4	0.025951214
253	0xbe06b0c8	-0.13153374
254	0x3e56d6ef	0.20980428
255	0xbea54e65	-0.32286373

classifier.3.bias f4 [2]
0	0xbcc47c2f	-0.023984997
1	0x3cc47c2f	0.023984997
