Pretrained_cnn/main/saved_ckpt/best_model_epoch_1.pt (torch, 835282 bytes, 10 tensors)

features.0.weight f4 [32, 3, 3, 3]
-0.0353008 -0.07554205 0.0567081 0.062366143 -0.06787821 -0.12267882 0.02036373 0.026969697
-0.004123168 0.0213673 0.09360734 0.055406533 0.054447215 -0.022254704 -0.10054291 -0.059700046
-0.066767715 0.01144019 0.08039178 0.12622614 -0.10935998 0.023627728 0.12273397 -0.091717504
-0.0152129885 0.0068463515 -0.011969573 0.12974523 -0.09915777 -0.11281616 -0.059955206 0.03726145
0.12999353 0.07387227 0.06737828 -0.10337408 -0.09757058 0.02519623 -0.05077403 -0.0069625895
-0.07642421 -0.14113833 0.040836737 -0.07450636 0.04728799 -0.089455925 -0.10861977 -0.11975597
-0.1076995 -0.08411098 0.051622752 -0.003458807 -0.05982386 -0.0825887 0.13209577 0.091822244
-0.047582038 -0.050865974 0.02461679 0.04463284 0.019352082 -0.08091927 -0.015179916 0.12635477
-0.006120934 -0.037906073 0.06798774 -0.09266872 0.091083586 -0.07459259 0.12996888 0.0086193215
-0.13863981 -0.13392375 -0.088363275 0.066919915 -0.049825832 -0.00046503346 -0.0051743453 -0.06684442
0.034806047 -0.10235158 -0.0933349 -0.106850214 -0.09694172 -0.012865429 -0.13619788 -0.1528256
0.07071986 0.030673165 -0.037327986 0.04405361 0.16561121 0.108932085 0.083317 0.15041009
0.08643203 0.09746849 -0.024107276 -0.03617844 -0.10978615 -0.015146516 -0.08749669 0.029686479
-0.09117635 -0.13855024 0.030951448 0.027718704 0.045355152 0.073241115 0.11401639 0.035830192
0.18096772 -0.007873764 0.09625858 -0.024185807 -0.03731604 0.09949198 -0.07965651 0.15481035
-0.09743327 -0.076916814 -0.0326576 -0.04302406 -0.106785215 -0.08726084 -0.119570576 -0.11266709
-0.022675684 0.009083868 0.003943643 0.049294475 0.074921325 -0.07733626 -0.080329455 -0.13819316
-0.028587095 0.12630273 0.01218649 0.0005891174 0.04215906 -0.114244364 -0.011816293 0.1378759
-0.091342695 0.04330077 -0.10198517 0.0038664802 -0.12062536 0.08835566 -0.07509178 0.028878527
0.10702825 -0.025277678 0.049071115 -0.022525702 -0.13851492 0.02118743 0.048776567 0.028949188
0.045225117 0.12048345 0.048745662 -0.111865275 -0.023004085 -0.010152733 -0.1379096 0.10199902
0.040627375 -0.01179236 -0.10146177 -0.045797966 -0.0016196315 0.09849161 -0.03344793 0.028348088
0.12007253 0.03383525 -0.1118982 0.10099642 0.07506293 0.051768694 -0.12056339 0.13232426
-0.008773294 0.07502285 -0.04332264 0.0122463545 -0.015276257 -0.11898461 0.068884276 0.078258626
-0.13348803 -0.04418637 -0.10858019 0.08948832 -0.050493136 0.108733736 0.12578955 0.12695803
-0.029164722 -0.04277252 -0.07084215 -0.1193052 -0.11001453 0.056357116 0.12825365 0.09640018
0.09646104 0.03247752 0.10428801 -0.03239471 -0.12960505 0.11247841 0.02352371 -0.07341478
0.12821567 0.06401843 0.049994215 0.10938977 0.06786572 0.084757395 0.004069113 0.046256937
-0.035173733 0.059819553 0.12901543 -0.046088617 -0.07615811 -0.13147959 -0.06153814 -0.10201115
0.03851423 0.08872526 0.036045775 -0.07944789 -0.07472009 -0.05177965 -0.11707276 0.048442595
0.12677859 0.06556159 -0.13306937 -0.007677173 0.076417714 0.05129631 -0.086611465 -0.037399486
0.08630467 -0.18651854 -0.23410918 -0.019666294 -0.20216173 0.05625317 0.049399227 -0.16347599
00000000: 9297 10bd cab5 9abd c146 683d a473 7f3d
00000010: bb03 8bbd 083f fbbd d6d1 a63c 8eef dc3c
00000020: a41b 87bb 7a0a af3c 34b5 bf3d f6f1 623d
00000030: 0b04 5f3d 7f4f b6bc 71e9 cdbd 0988 74bd
00000040: 83bd 88bd a26f 3b3c 72a4 a43d 6d41 013e
00000050: 20f8 dfbd f08e c13c f35b fb3d 63d6 bbbd
00000060: e63f 79bc 5c57 e03b 071c 44bc efdb 043e
00000070: 3b13 cbbd 290c e7bd 9793 75bd 769f 183d
00000080: 061d 053e 584a 973d a0fd 893d cab5 d3bd
00000090: 16d3 c7bd 5368 ce3c 6ef8 4fbd 6f26 e4bb
000000a0: 4c84 9cbd 9186 10be 6c44 273d ca96 98bd
000000b0: 0db1 413d ab34 b7bd 0b74 debd 9e42 f5bd
000000c0: 8e91 dcbd 6142 acbd 6172 533d 27ad 62bb
000000d0: dd09 75bd 4424 a9bd 1d44 073e 4d0d bc3d
000000e0: 62e5 42bd d758 50bd 26a9 c93c edd0 363d
000000f0: 4288 9e3c 01b9 a5bd 2fb5 78bc 2563 013e
00000100: 1e92 c8bb 6643 1bbd 283d 8b3d 19c9 bdbd
00000110: 088a ba3d 00c4 98bd 9016 053e 0e38 0d3c
00000120: 98f7 0dbe 4f23 09be cef7 b4bd 4f0d 893d
00000130: 2c16 4cbd bccf f3b9 8e8d a9bb bae5 88bd
00000140: c990 0e3d b59d d1bd 5e26 bfbd 49d4 dabd
00000150: 6189 c6bd 85c9 52bc 7577 0bbe 507e 1cbe
00000160: 93d5 903d 4a46 fb3c 3be5 18bd 8f71 343d
00000170: fc95 293e c917 df3d 1aa2 aa3d 1a05 1a3e
00000180: 4703 b13d 8f9d c73d 9f7c c5bc d82f 14bd
00000190: 90d7 e0bd 1829 78bc 7731 b3bd 0f31 f33c
000001a0: abba babd 1de0 0dbe e48d fd3c 5612 e33c
000001b0: 53c6 393d 70ff 953d 6d81 e93d aec2 123d
000001c0: 9a4f 393e f600 01bc 3823 c53d 5021 c6bc
000001d0: b4d8 18bd 74c2 cb3d f422 a3bd 9b86 1e3e
000001e0: 188b c7bd 9086 9dbd fac3 05bd ff39 30bd
000001f0: 35b2 dabd d0b5 b2bd 6be1 f4bd 01be e6bd
00000200: 5bc2 b9bc 81d4 143c ad39 813b 01e9 493d
00000210: 5a70 993d 7962 9ebd c583 a4bd 8282 0dbe
00000220: 7c2f eabc 8155 013e d8a9 473c 006f 1a3a
00000230: faae 2c3d f3f8 e9bd 2099 41bc 572f 0d3e
00000240: e111 bbbd 265c 313d 9add d0bd c664 7d3b
00000250: 6e0a f7bd d0f3 b43d b8c9 99bd a992 ec3c
00000260: a131 db3d 2213 cfbc cbfe 483d d287 b8bc
00000270: dbd6 0dbe 4391 ad3c f0c9 473d d926 ed3c
00000280: f93d 393d 07c0 f63d 88a9 473d 9f19 e5bd
00000290: 1073 bcbc a657 26bc 2d38 0dbe dde4 d03d
000002a0: e468 263d be34 41bc 30cb cfbd a696 3bbd
000002b0: d149 d4ba f8b5 c93d b200 09bd 403a e83c
000002c0: 96e8 f53d d596 0a3d e22a e5bd 36d7 ce3d
000002d0: 98ba 993d 690b 543d f0e9 f6bd 0380 073e
000002e0: ddbd 0fbc 94a5 993d 1573 31bd efa4 483c
000002f0: 4449 7abc 34ae f3bd 3313 8d3d 0f46 a03d
00000300: 16b1 08be c4fc 34bd 4a5f debd a745 b73d
00000310: e4d1 4ebd cbaf de3d face 003e 4901 023e
00000320: dbea eebc 3d32 2fbd b015 91bd 4956 f4bd
00000330: 4c4f e1bd b8d6 663d ed54 033e 756d c53d
00000340: 5e8d c53d 2607 053d f494 d53d 51b0 04bd
00000350: 30b7 04be 155b e63d ccb4 c03c 7d5a 96bd
00000360: f84a 033e 181c 833d bcc6 4c3d be07 e03d
00000370: 2ffd 8a3d 4995 ad3d 3256 853b ea77 3d3d
00000380: 5512 10bd 5905 753d 9f1c 043e 6bc7 3cbd
00000390: c8f8 9bbd 96a2 06be 6b0f 7cbd 39eb d0bd
000003a0: 19c1 1d3d 97b5 b53d bca4 133d 93b5 a2bd
000003b0: d906 99bd e616 54bd d8c3 efbd be6b 463d
000003c0: 3fd2 013e 2845 863d 5643 08be cb90 fbbb
000003d0: e480 9c3d 141c 523d 5a61 b1bd 3430 19bd
000003e0: 81c0 b03d b7fe 3ebe 51ba 6fbe 351b a1bc
000003f0: 7c03 4fbe b969 663d d856 4a3d 4066 27be

features.0.bias f4 [32]
-0.00031703536 -0.023233274 0.027349925 0.01735944 -0.0051995874 -0.025571678 -0.029090047 -0.019307477
0.014431122 0.015428665 0.050166447 -0.070723906 -0.042324673 -0.047536336 -0.010623638 -0.0057751457
0.10476577 -0.029228436 -0.0018560975 -0.06968128 -0.0096199615 -0.07886014 -0.06381934 -0.018512057
0.050742585 0.0054129534 -0.043330826 0.015540899 -0.062894866 -0.044329796 0.021856368 -0.0072670765
00000000: c437 a6b9 b553 bebc f30c e03c 6235 8e3c
00000010: 4d61 aabb b27b d1bc 404e eebc b72a 9ebc
00000020: 8370 6c3c 83c8 7c3c 557b 4d3d b2d7 90bd
00000030: a35c 2dbd 76b5 42bd c40e 2ebc 6f3d bdbb
00000040: 708f d63d 7970 efbc 4c48 f3ba 0fb5 8ebd
00000050: 0b9d 1dbc 6d81 a1bd b7b3 82bd 99a6 97bc
00000060: 75d7 4f3d 255f b13b aa7b 31bd 419f 7e3c
00000070: 06cf 80bd 2993 35bd 200c b33c a820 eebb

features.3.weight f4 [16, 32, 3, 3]
0.01490604 0.05311872 -0.006997564 -0.004497608 0.016540056 -0.036472812 -0.044941302 0.0645269
-0.08718276 0.06542696 0.026197368 -0.13365316 -0.11201056 -0.0045464 0.035268866 -0.048709698
-0.02216274 -0.025801914 -0.064599544 0.057359904 -0.042234603 -0.047496922 -0.105793394 -0.08164098
-0.050291307 -0.0923982 -0.019167848 0.10800395 0.041410357 -0.040120445 0.044058546 0.012201973
0.017003652 0.020949703 0.085565 -0.01004832 -0.11502182 -0.15547514 -0.14871883 -0.037534013
-0.12385391 0.013870208 0.06675361 0.07626491 0.008908409 -0.05122915 -0.051196486 -0.025913753
-0.057268124 -0.16059966 0.0036008547 -0.007509163 -0.027003728 -0.09168537 0.05983956 0.10144581
-0.063938305 0.025747107 -0.07988389 0.09392739 0.076062165 0.102254525 0.022692936 0.009448656
0.04854043 0.05750546 0.103990644 -0.09134672 -0.106225654 0.04526551 -0.021076176 -0.05575734
0.0796462 -0.06231325 0.09674866 -0.09758804 -0.07506108 -0.09850227 -0.06080536 0.081721164
0.104169145 0.097261906 -0.10658526 -0.02210684 -0.13145329 -0.0955016 0.052066058 0.083804406
0.011665918 0.013833545 0.057426855 0.023413802 0.0339417 0.09754379 -0.06867853 0.04793891
0.07888752 -0.08150918 -0.090340815 -0.1685318 -0.036872927 0.09059465 0.013650195 0.021880362
-0.14477807 0.13881361 -0.04550737 0.06236632 -0.10839583 0.060558975 -0.020321256 0.104769915
0.055162475 0.10173501 0.0864345 -0.05182006 0.003702735 0.05796193 -0.034250308 -0.09945739
-0.055336233 -0.042530358 0.06301569 0.03464753 -0.01514932 0.0463744 0.0052089617 -0.0051834737
-0.03301674 0.07827252 -0.026659582 -0.008272383 -0.10054202 0.083415404 -0.101395465 -0.16671248
-0.17057152 -0.03403806 -0.12738395 -0.121736534 -0.14005072 -0.14973009 -0.14525028 -0.07015628
-0.106623486 -0.11511629 -0.1475553 -0.015173922 0.034783512 -0.07325701 0.11704771 -0.0440813
-0.06640065 -0.027324969 0.058538307 -0.051104795 0.11329368 0.016957184 0.12245554 0.08273518
0.1088364 0.048940565 -0.061112203 -0.066879086 -0.050281942 -0.005966153 -0.038443238 0.05297992
-0.023815354 0.0780525 0.026683107 0.05228968 -0.013604262 -0.06131504 -0.05423175 0.05384275
0.050350893 0.045942914 0.08614798 0.08468177 -0.1501294 -0.12771975 -0.121567175 -0.015558885
0.12737747 -0.06585776 0.03408729 -0.01670636 0.002397534 -0.058112457 -0.022716103 0.115522444
0.08664713 -0.07707642 0.045933872 0.07852634 -0.06018258 0.03157072 -0.108732104 0.06937174
0.035495035 0.06675048 0.06991427 -0.13686328 -0.061308365 -0.098778345 -0.035099182 0.09630098
0.08454275 -0.029614093 0.057851654 0.04889614 0.04833462 -0.054741155 0.021057049 0.079921305
0.12807249 0.06122202 -0.06580629 0.020846233 0.04766805 -0.0956428 0.1427186 0.027778212
0.007412827 -0.019393723 -0.043618225 0.04437682 0.10710929 -0.03728098 0.009823265 0.016207276
0.12094229 -0.019312065 -0.07585238 0.06838743 -0.13283944 -0.046679813 0.09927965 -0.10274944
-0.10791691 -0.09480711 -0.015946008 0.023016877 -0.1080661 -0.06715743 -0.03312664 0.09429512
-0.1165888 0.042521514 0.09277125 -0.00834585 -0.10431916 0.04914596 0.02116388 -0.08026022
00000000: 7738 743c 0493 593d d24b e5bb ac60 93bb
00000010: 037f 873c 8464 15bd 5f14 38bd ae26 843d
00000020: e08c b2bd 92fe 853d dd9b d63c 60dc 08be
00000030: cb65 e5bd f8f9 94bb 1676 103d d283 47bd
00000040: a28e b5bc 895e d3bc c44c 84bd 38f2 6a3d
00000050: 31fe 2cbd 228c 42bd 35aa d8bd 6333 a7bd
00000060: 42fe 4dbd 443b bdbd e405 9dbc 2d31 dd3d
00000070: e89d 293d 5655 24bd bc76 343d c9ea 473c
00000080: 3e4b 8b3c b69e ab3c b43c af3d b5a1 24bc
00000090: 8f90 ebbd e034 1fbe c049 18be 44bd 19bd
000000a0: 1ea7 fdbd de3f 633c 1eb6 883d c730 9c3d
000000b0: 93f4 113c a8d5 51bd 68b3 51bd 1449 d4bc
000000c0: fb91 6abd 3d74 24be 51fc 6b3b 6d0f f6bb
000000d0: ec36 ddbc 8ac5 bbbd 541a 753d d2c2 cf3d
000000e0: 16f2 82bd 99eb d23c 2a9a a3bd 015d c03d
000000f0: 7bc6 9b3d d26a d13d 89e6 b93c 89ce 1a3c
00000100: 54d2 463d d88a 6b3d 0cf9 d43d fd13 bbbd
00000110: d68c d9bd 5468 393d f2a7 acbc cf61 64bd
00000120: 8c1d a33d 2e3c 7fbd 2924 c63d 3ddc c7bd
00000130: a0b9 99bd 8fbb c9bd 0b0f 79bd 6d5d a73d
00000140: a256 d53d 4031 c73d 5f49 dabd 6719 b5bc
00000150: b19b 06be 5896 c3bd 3843 553d a5a1 ab3d
00000160: 6822 3f3c 18a6 623c 6c38 6b3d 4dce bf3c
00000170: 7406 0b3d 0ac5 c73d 54a7 8cbd 975b 443d
00000180: c88f a13d 49ee a6bd 9b04 b9bd 9a93 2cbe
00000190: 1108 17bd b089 b93d 11a5 5f3c 723e b33c
000001a0: b440 14be 2825 0e3e f065 3abd d473 7f3d
000001b0: a2fe ddbd b00c 783d c378 a6bc 9c91 d63d
000001c0: 0cf2 613d 725a d03d 9204 b13d 4541 54bd
000001d0: 96a9 723b 7d69 6d3d 0d4a 0cbd 51b0 cbbd
000001e0: 3fa8 62bd 5034 2ebd 5f0e 813d 92ea 0d3d
000001f0: da34 78bc 15f3 3d3d f0af aa3b 21da a9bb
00000200: 903c 07bd 584d a03d 3265 dabc e488 07bc
00000210: f9e8 cdbd b2d5 aa3d 6da8 cfbd adb6 2abe
00000220: 4daa 2ebe 7e6b 0bbd f070 02be 0151 f9bd
00000230: 7569 0fbe d852 19be 7dbc 14be 19ae 8fbd
00000240: 6a5d dabd 17c2 ebbd bd18 17be 0b9c 78bc
00000250: 2879 0e3d c507 96bd b6b6 ef3d 988e 34bd
00000260: 10fd 87bd 9dd8 dfbc ddc5 6f3d 4353 51bd
00000270: 8406 e83d cbe9 8a3c f8c9 fa3d 1071 a93d
00000280: 9ee5 de3d e775 483d ca50 7abd e7f7 88bd
00000290: 70f4 4dbd b87f c3bb a876 1dbd 7901 593d
000002a0: 6b18 c3bc fdd9 9f3d 8896 da3c b42d 563d
000002b0: 69e4 5ebc 7b25 7bbd 1d22 5ebd 378a 5c3d
000002c0: bd3c 4e3d a32e 3c3d 5a6e b03d a36d ad3d
000002d0: 85bb 19be f7c8 02be 36f8 f8bd b2ea 7ebc
000002e0: 3d6f 023e 6fe0 86bd 1d9f 0b3d c7db 88bc
000002f0: f21f 1d3b 5407 6ebd 1f17 babc 0897 ec3d
00000300: 0d74 b13d 3eda 9dbd 2825 3c3d 6bd2 a03d
00000310: 0282 76bd 4d50 013d f0ae debd c512 8e3d
00000320: 3e63 113d 7ab4 883d 362f 8f3d e325 0cbe
00000330: 7b1e 7bbd 4d4c cabd 29c4 0fbd 7339 c53d
00000340: c024 ad3d 4199 f2bc dbf5 6c3d 5247 483d
00000350: 86fa 453d 4338 60bd d57f ac3c c8ad a33d
00000360: 6f25 033e f1c3 7a3d 73c5 86bd b8c5 aa3c
00000370: 933f 433d 5fe0 c3bd d324 123e 228f e33c
00000380: 4de7 f23b 96df 9ebc 06a9 32bd 78c4 353d
00000390: 1e5c db3d f1b3 18bd c2f1 203c 1fc5 843c
000003a0: 97b0 f73d 5634 9ebc 7e58 9bbd b50e 8c3d
000003b0: 1007 08be 5533 3fbd 2153 cb3d 4c6e d2bd
000003c0: 8a03 ddbd 3b2a c2bd 34a1 82bc e48d bc3c
000003d0: c251 ddbd d689 89bd cdaf 07bd cd1d c13d
000003e0: 1cc6 eebd 0a2b 2e3d dafe bd3d 08bd 08bc
000003f0: 49a5 d5bd 464d 493d e05f ad3c 785f a4bd

features.3.bias f4 [16]
-0.023746299 0.011805794 -0.0069696535 0.026776945 0.02584194 -0.045425747 0.03510389 -0.012618037
-0.011242079 -0.020104306 -0.027360838 0.0050406484 0.004867696 -0.014293099 0.026918504 0.05426267
00000000: 9987 c2bc 176d 413c b161 e4bb 535b db3c
00000010: 7ab2 d33c 5910 3abd 19c9 0f3d e2bb 4ebc
00000020: b230 38bc c9b1 a4bc d623 e0bc 062c a53b
00000030: 3281 9f3b 9a2d 6abc 3284 dc3c 8942 5e3d

features.6.weight f4 [8, 16, 3, 3]
0.009398519 0.110694446 -0.022619382 0.1280349 0.019714424 0.0009226771 0.024398517 -0.11037558
0.122991726 0.10773863 -0.121616416 -0.09602266 -0.044525318 0.06529771 0.008695819 -0.013642458
0.12253136 0.02176608 -0.036696646 0.0013028283 -0.04726266 0.06694775 -0.16701657 0.13451031
0.11721821 0.007629735 -0.043389603 -0.0057857153 -0.14068833 0.060783867 -0.02881453 0.06646202
0.09259009 0.116247796 0.10939879 0.10504604 -0.041361775 0.016576255 0.14151485 -0.10381526
0.05810799 0.06682131 -0.11659902 -0.11201844 0.07437761 -0.03830895 0.11696517 0.07353403
-0.039503373 -0.05631854 -0.011905099 0.10921659 0.062185746 -0.17081329 0.13678959 -0.13029025
0.14553057 -0.122103065 -0.12733077 -0.031958885 -0.009181607 -0.08974028 0.01714651 -0.11357168
0.046305187 -0.109519936 0.16275051 0.08571671 -0.015982278 -0.10777538 0.08839239 -0.05728073
-0.118911214 -0.04061612 -0.14174353 -0.016925007 -0.08853583 0.124872975 -0.04591741 0.087808974
0.07163867 -0.15237446 -0.063717514 -0.15626225 -0.115779154 -0.16386664 -0.14307699 -0.12342177
-0.017457277 -0.013219903 0.11656293 -0.042969365 0.0028130068 0.1478191 0.06864569 -0.0548068
0.13349481 -0.16787894 0.07776038 0.043065205 -0.031329773 -0.032143805 0.07686029 -0.12261605
-0.19099115 -0.13832544 -0.16366586 0.12729955 0.111311585 0.1298651 0.12680188 -0.008764782
0.005398999 -0.024414467 -0.1798095 0.1375211 -0.15733935 0.036100615 -0.09334117 0.0401841
-0.13202503 0.069203675 -0.018763933 0.046200305 -0.15888141 0.104353905 0.020100694 0.17836039
-0.09022776 0.037150282 -0.097116746 0.15643315 -0.042319905 0.064180315 0.16026877 -0.04216748
0.2262241 0.097930595 0.18295403 0.21660273 -0.08314485 0.13685937 -0.066716515 -0.05282163
-0.065124445 0.0027529148 0.09716641 -0.056376103 -0.11877072 -0.10781005 -0.18020234 0.08382567
-0.069205135 0.16229421 0.09460967 -0.034719773 -0.10530109 -0.062552445 0.098396644 0.08288362
-0.06432822 0.16739435 0.026181556 0.027552268 0.034239847 -0.17100792 -0.152648 -0.0018496928
0.051470242 0.11772738 0.16746625 -0.08023601 -0.056408662 -0.09218889 -0.14921878 -0.026532296
0.09065029 0.13212356 -0.08854263 0.10314592 -0.036162537 -0.07478677 0.10850131 -0.11828395
-0.07443605 0.057279166 0.0927092 0.09899639 -0.057901777 0.0411857 -0.10213856 -0.06150368
0.044352792 0.044313055 0.029029975 -0.11328761 -0.0064151566 0.14789666 -0.001639049 -0.059248947
-0.1176874 0.08201157 -0.06623964 -0.018596623 0.0038203974 0.1658935 -0.09695993 -0.15662654
-0.0033919415 0.12040247 -0.065054335 -0.08345449 -0.019517928 -0.062008306 0.04564541 0.13381357
0.009583492 0.110303506 -0.051948097 0.06293785 0.04464263 0.04073151 0.1161867 -0.10498388
-0.13733807 0.08046172 0.075864136 0.23979652 -0.12524478 0.10532667 0.14157815 0.12774137
-0.11553024 0.23774599 -0.10529294 0.033820063 0.12648137 0.117821805 0.05422574 -0.05013513
-0.065847434 0.08928275 -0.07971258 -0.036991645 0.13390994 0.17858458 0.086822994 0.20126636
-0.0712254 0.13408686 -0.0404461 0.17241539 -0.10151535 0.20515326 0.10912199 0.044966154
00000000: 3ffc 193c c5b3 e23d 484c b9bc 951b 033e
00000010: 2580 a13c d0df 713a 66df c73c 980c e2bd
00000020: 16e3 fb3d 12a6 dc3d 0712 f9bd 87a7 c4bd
00000030: 2e60 36bd ceba 853d e978 0e3c 9e84 5fbc
00000040: b9f1 fa3d c74e b23c 394f 16bd aac3 aa3a
00000050: 7e96 41bd e71b 893d 6406 2bbe 12bd 093e
00000060: 1a10 f03d db02 fa3b 4cb9 31bd 1996 bdbb
00000070: 9a10 10be 81f8 783d 730c ecbc 3d1d 883d
00000080: e09f bd3d 5313 ee3d 790c e03d 6122 d73d
00000090: f76a 29bd edca 873c 45e9 103e 189d d4bd
000000a0: a502 6e3d 9cd9 883d 78cb eebd ed69 e5bd
000000b0: 4a53 983d d8e9 1cbd 6f8b ef3d 0299 963d
000000c0: 4ace 21bd 45ae 66bd 9b0d 43bc f3ac df3d
000000d0: 7bb6 7e3d aee9 2ebe 9212 0c3e cf6a 05be
000000e0: f705 153e 2c11 fabd ff62 02be 52e7 02bd
000000f0: 736e 16bc c0c9 b7bd d676 8c3c 4598 e8bd
00000100: 82aa 3d3d fd4b e0bd 12a8 263e 3e8c af3d
00000110: 44ed 82bc 57b9 dcbd 1207 b53d 339f 6abd
00000120: b987 f3bd 175d 26bd 3725 11be 50a6 8abc
00000130: 4652 b5bd 67bd ff3d e513 3cbd 31d5 b33d
00000140: 4cb7 923d 0d08 1cbe 547e 82bd 3603 20be
00000150: 9f1d edbd a8cc 27be c682 12be 8ec4 fcbd
00000160: 9002 8fbc 4b98 58bc 8cb8 ee3d a500 30bd
00000170: 6c5a 383b e45d 173e 1d96 8c3d 187d 60bd
00000180: ddb2 083e 75e8 2bbe d640 9f3d 2465 303d
00000190: a653 00bd 39a9 03bd ed68 9d3d 201e fbbd
000001a0: 2f93 43be 2fa5 0dbe 0698 27be d05a 023e
000001b0: 54f7 e33d 5bfb 043e 5ad8 013e 299a 0fbc
000001c0: 16ea b03b d900 c8bc fb1f 38be 55d2 0c3e
000001d0: 911d 21be 3dde 133d a829 bfbd 1598 243d
000001e0: 9231 07be a8ba 8d3d d2b6 99bc 883c 3d3d
000001f0: cfb1 22be 80b7 d53d 36aa a43c 1ba4 363e
00000200: 55c9 b8bd e52a 183d 25e5 c6bd 0330 203e
00000210: a357 2dbd f870 833d 7f1d 243e cfb7 2cbd
00000220: 4aa7 673e d68f c83d 4d58 3b3e 1bcd 5d3e
00000230: d947 aabd dd24 0c3e aba2 88bd 7e5b 58bd
00000240: f75f 85bd 3f6a 343b 2fff c63d a1ea 66bd
00000250: 103e f3bd 84cb dcbd f686 38be cbac ab3d
00000260: 6cbb 8dbd 7430 263e b7c2 c13d 5236 0ebd
00000270: 19a8 d7bd 7f1b 80bd 2e84 c93d e3be a93d
00000280: 84be 83bd 6d69 2b3e b47a d63c 4bb5 e13c
00000290: 153f 0c3d b31c 2fbe c24f 1cbe 6471 f2ba
000002a0: 76d2 523d 0d1b f13d 467c 2b3e c752 a4bd
000002b0: c50c 67bd 87cd bcbd cfcc 18be 425a d9bc
000002c0: dca6 b93d 664b 073e d755 b5bd 2b3e d33d
000002d0: 2b1f 14bd ce29 99bd ef35 de3d db3e f2bd
000002e0: ee71 98bd 8f9d 6a3d 52de bd3d 9fbe ca3d
000002f0: 6a2a 6dbd 56b2 283d 052e d1bd 48eb 7bbd
00000300: 46ab 353d 9b81 353d 45d0 ed3c 5603 e8bd
00000310: 3c36 d2bb 3972 173e 5cd5 d6ba 06af 72bd
00000320: 1706 f1bd aff5 a73d a6a8 87bd f257 98bc
00000330: a25f 7a3b fcdf 293e ee92 c6bd b562 20be
00000340: 564b 5ebb 9295 f63d 353b 85bd 30ea aabd
00000350: 10e4 9fbc 6cfc 7dbd aef6 3a3d 6d06 093e
00000360: 1404 1d3c cee6 e13d 87c7 54bd 8fe5 803d
00000370: 31db 363d 15d6 263d 4bf3 ed3d ca01 d7bd
00000380: 5aa2 0cbe 1dc9 a43d a85e 9b3d 388d 753e
00000390: 2b40 00be 82b5 d73d ddf9 103e a2ce 023e
000003a0: 1e9b ecbd af73 733e d3a3 d7bd e886 0a3d
000003b0: 5584 013e 8f4c f13d cf1b 5e3d 7e5a 4dbd
000003c0: 05db 86bd e0d9 b63d 5940 a3bd 8d84 17bd
000003d0: b01f 093e e0de 363e 41d0 b13d c518 4e3e
000003e0: 9fde 91bd 114e 093e cfaa 25bd a98d 303e
000003f0: 48e7 cfbd b213 523e 5a7b df3d 6e2e 383d

features.6.bias f4 [8]
-0.040054623 -0.0561742 0.0067947493 -0.006215926 0.052850414 -0.063069865 -0.01002565 -0.0131245665
00000000: 5110 24bd eb16 66bd 7da6 de3b f7ae cbbb
00000010: ad79 583d c62a 81bd a042 24bc 6c08 57bc

classifier.0.weight f4 [128, 1568]
-0.036995538 0.0151646435 -0.045857426 -0.049116682 0.033430003 0.023923317 0.007995635 0.031628873
-0.05498517 -0.050908625 0.017652571 -0.03186489 0.019294381 -0.026447201 0.01722864 0.04769349
-0.006433625 -0.04796553 -0.038469017 0.048385933 0.055920836 0.04264856 0.014768961 -0.0039198534
-0.018798135 -0.0026959968 0.0063628596 0.015968893 -0.003788395 0.05496693 -0.0414651 0.0347377
-0.059377972 0.025845783 0.043758962 -0.0075343493 0.005358737 -0.03915766 0.026609646 0.043174107
0.022372559 -0.04380987 0.021588154 -0.044491183 0.036551837 0.002269112 -0.0036166445 -0.0010055199
-0.02074206 -0.014954031 0.041607253 -0.046427995 -0.06302742 -0.010920749 0.04021769 -0.0024879922
-0.026903458 -0.034366086 2.1542772e-05 -0.011088502 -0.018882552 -0.011335828 -0.0485117 0.032940805
0.021801827 0.005578528 -0.051004644 -0.0028074575 0.022765927 -0.025682652 -0.02789616 0.03601875
-0.022029512 -0.0402391 -0.037644316 -0.023563858 -0.00011784109 0.009647173 -0.09264 -0.067199014
0.03158595 -0.004492 0.011155709 0.018432023 -0.034099758 -0.014352482 0.050158225 -0.050550744
-0.06918418 -0.04042477 0.023832524 0.0088427495 -0.032558184 0.0052850177 0.010885296 -0.003133648
0.026037095 -0.061711688 -0.01395357 0.04725006 0.0058781407 0.0025401912 -0.014620448 0.038597107
-0.028889887 -0.019169064 0.034902778 -0.036963377 0.009800041 0.028674768 -0.0145222815 0.050934833
0.020519873 -0.0031135643 0.010066405 -0.0027697338 -0.039127596 0.021435168 -0.014298907 0.04261606
0.030237177 0.0072497125 -0.011679321 -0.0065155793 -0.014478815 -0.013649877 -0.004720257 -0.0468862
0.0027937253 -0.030101685 -0.013954712 0.020313438 -0.012145977 0.00092415285 -0.0102228895 0.0056907325
-0.03067168 -0.026717301 0.012957561 -0.024037061 -0.036508225 0.020905228 -0.017895874 0.046309493
-0.017974753 -0.033847135 0.04541829 0.014231891 -0.06193042 -0.041036285 0.040923763 -0.00038343633
0.0057984153 -0.0388883 -0.03664016 0.0034605018 -0.026498817 0.005956437 0.028245982 -0.0016522476
-0.003951171 -0.06100734 -0.053294707 -0.047012318 0.032997593 -0.04822432 0.051507022 0.034056075
0.005907456 -0.046292353 0.009346381 -0.05222962 -0.020961402 -0.030386955 -0.0067787217 -0.004400853
-0.006061094 -0.041438147 -0.0101685375 0.051352203 0.045888834 0.013300515 0.019113544 0.009816525
-0.03253055 0.052968133 -0.004540808 0.025793334 -0.0012708242 0.03492189 0.05127199 0.04042351
-0.020566836 0.0655682 0.0453708 -0.03400726 0.0732713 0.09262006 -0.027363272 -0.006372765
-0.04793941 0.0072730863 0.008235936 -0.027378386 -0.051640525 -0.010859916 0.043051954 -0.0062386086
0.02668753 -0.03261316 0.053787384 0.028051376 -0.0029003462 0.009397196 -0.03968348 -0.012790683
-0.03773975 -0.043972813 -0.07560014 0.001566208 -0.08727489 -0.032797035 0.036045205 0.047561847
-0.032430526 -0.01265265 -0.049809564 -0.07298631 -0.07359031 -0.023145907 -0.10353663 -0.023630852
0.0129178045 -0.04642404 0.0052463054 -0.028986646 0.010997563 0.015573722 0.04749252 -0.06355852
-0.0066972007 -0.08887515 -0.0049030483 0.029980645 -0.0680661 -0.026072785 0.007657239 -0.005517609
0.049794428 0.004993229 -0.054363865 0.07282209 -0.047261477 0.0022743188 -0.05193352 -0.095137075
00000000: a288 17bd 2075 783c ffd4 3bbd 932e 49bd
00000010: e6ed 083d d5fa c33c 2000 033c 478d 013d
00000020: 2138 61bd 9085 50bd 209c 903c c284 02bd
00000030: 400f 9e3c cda7 d8bc 1423 8d3c 405a 433d
00000040: 28d1 d2bb 8177 44bd b091 1dbd 5430 463d
00000050: 3f0d 653d 42b0 2e3d 83f9 713c 1d72 80bb
00000060: 8cfe 99bc 52af 30bb 897f d03b 32d1 823c
00000070: b946 78bb 0125 613d 4fd7 29bd 1e49 0e3d
00000080: 5136 73bd 89ba d33c 993c 333d b4e2 f6bb
00000090: 5898 af3b c863 20bd 79fc d93c 55d7 303d
000000a0: a846 b73c fa71 33bd a4d9 b03c 633c 36bd
000000b0: 61b7 153d 62b5 143b 3a05 6dbb a6cb 83ba
000000c0: 41eb a9bc c101 75bc 5e6c 2a3d 482b 3ebd
000000d0: 8514 81bd f1ec 32bc 4ebb 243d 950d 23bb
000000e0: a464 dcbc 74c3 0cbd c0b6 b437 8cac 35bc
000000f0: 95af 9abc e9b9 39bc 34b4 46bd f0ec 063d
00000100: bf99 b23c 16cc b63b 3fea 50bd 52fd 37bb
00000110: 9c7f ba3c 6d64 d2bc 7d86 e4bc 6688 133d
00000120: 3c77 b4bc c1d1 24bd ed30 1abd fe08 c1bc
00000130: 7421 f7b8 2d0f 1e3c 0aba bdbd a39f 89bd
00000140: 4560 013d a131 93bb 6fc6 363c c1fe 963c
00000150: 30ac 0bbd ac26 6bbc b672 4d3d 4c0e 4fbd
00000160: 6fb0 8dbd 7294 25bd 6d3c c33c 2ee1 103c
00000170: bb5b 05bd f12d ad3b 3e58 323c e45d 4dbb
00000180: bf4b d53c 65c5 7cbd 849d 64bc 4789 413d
00000190: 6b9d c03b 5679 263b 9b8a 6fbc 0018 1e3d
000001a0: 7caa ecbc 7108 9dbc 37f6 0e3d e966 17bd
000001b0: 5a90 203c 59e7 ea3c ddee 6dbc 0ba1 503d
000001c0: 4b19 a83c f10c 4cbb 90ed 243c 6c84 35bb
000001d0: 4244 20bd ce98 af3c f645 6abc 2d8e 2e3d
000001e0: f5b3 f73c ff8e ed3b 9f5a 3fbc a480 d5bb
000001f0: 8d38 6dbc bca3 5fbc 63ac 9abb be0b 40bd
00000200: ef16 373b cf97 f6bc 4ea2 64bc 5e68 a63c
00000210: ebff 46bc d942 723a e87d 27bc 5379 ba3b
00000220: 2d43 fbbc 3ede dabc f34b 543c 5fe9 c4bc
00000230: a689 15bd 7141 ab3c 5e9a 92bc 06af 3d3d
00000240: ca3f 93bc 4ba3 0abd 8708 3a3d e12c 693c
00000250: c1aa 7dbd aa15 28bd ad9f 273d f407 c9b9
00000260: a200 be3b 5749 1fbd fe13 16bd 96c9 623b
00000270: 0c14 d9bc 372e c33b 1e64 e73c 3b90 d8ba
00000280: d378 81bb d5e2 79bd 8d4b 5abd fd8f 40bd
00000290: 7c28 073d dd86 45bd 07f9 523d 627e 0b3d
000002a0: 5593 c13b 0d9d 3dbd 9021 193c baee 55bd
000002b0: 3fb7 abbc 10ee f8bc 0a20 debb 0835 90bb
000002c0: 249c c6bb 0cbb 29bd f099 26bc b056 523d
000002d0: eef5 3b3d 67ea 593c 0294 9c3c 7dd5 203c
000002e0: c13e 05bd 1df5 583d 0fcb 94bb 8b4c d33c
000002f0: c991 a6ba 410a 0f3d 9402 523d 1f93 253d
00000300: c87b a8bc 9f48 863d bbd6 393d 324b 0bbd
00000310: 430f 963d 96af bd3d f128 e0bc a1d2 d0bb
00000320: 1d5c 44bd 1253 ee3b 05f0 063c a348 e0bc
00000330: 0485 53bd caed 31bc 3f57 303d 3e6d ccbb
00000340: cf9f da3c 6095 05bd 2950 5c3d 00cc e53c
00000350: bc13 3ebb b2f6 193c 258b 22bd 0390 51bc
00000360: ff94 1abd d61c 34bd 3fd4 9abd 3849 cd3a
00000370: 2dbd b2bd 2f56 06bd 23a4 133d 36d0 423d
00000380: dfd5 04bd 0f4d 4fbc 1d05 4cbd d979 95bd
00000390: 84b6 96bd 7c9c bdbc 030b d4bd 7d95 c1bc
000003a0: 33a5 533c 2227 3ebd 33e9 ab3b 6775 edbc
000003b0: 1f2f 343c ed28 7f3c 8487 423d f82a 82bd
000003c0: 3174 dbbb 2d04 b6bd c0a9 a0bb f899 f53c
000003d0: 3d66 8bbd 9896 d5bc 94e9 fa3b 0fcd b4bb
000003e0: 3ef5 4b3d 3e9e a33b a5ac 5ebd bf23 953d
000003f0: 4095 41bd bd0c 153b 3eb8 54bd 3ad7 c2bd

classifier.0.bias f4 [128]
-0.035260465 -0.010201074 -0.0058844066 -0.00042973628 -0.0068251286 0.05813396 -0.008235264 -0.0141252
-0.0073655425 -0.006937316 0.036334645 -0.0073879943 -0.00785661 -0.00340749 0.03792773 -0.0076612504
-0.0056200954 -0.0066043534 0.0075037717 0.052565414 -0.029022308 -0.015932057 -0.0073191193 0.0026082692
0.033995077 0.026776697 0.02498635 0.03274087 0.034479517 0.05941021 0.04430115 0.03236194
-0.009792148 0.037581664 0.032061443 -0.02128498 0.03515721 -0.051643565 -0.014539309 -0.0067665563
-0.015130225 -0.010422326 -0.012741381 0.036326542 -0.008627843 0.035053562 0.033295907 0.024474485
-0.007007651 0.023476092 0.059289604 -0.009253262 -0.010592098 -0.0067241406 0.03415209 0.042470597
0.04050456 -0.004001589 -0.006558734 0.027305346 -0.033746805 0.015955616 -0.033614438 -0.011933555
-0.00736861 0.033486776 0.035691526 -0.007821435 -0.0055900356 -0.020993287 0.02565334 -0.007821771
-0.0061857407 0.009308704 -0.009347107 -0.031140609 0.036263697 0.03845035 0.033746466 0.03979597
-0.010435105 0.029394137 -0.006879303 0.0029088843 0.035706736 -0.0028423085 -0.0075991233 -0.0071218037
-0.0105047515 -0.00034407497 -0.0071695927 0.040947527 -0.00821044 0.031638294 -0.006529264 0.029253246
-0.009184054 0.03361623 -0.015363777 -0.012570908 0.0025387001 0.06568304 0.027967056 -0.011378373
0.028700028 0.03173203 -0.020146975 -0.0033312237 0.03278698 0.03796127 -0.0062482427 -0.0058824313
0.007585404 -0.009581753 -0.023587575 -0.003297775 -0.0041823136 -0.006507651 0.0022251634 0.03560383
-0.01372393 -0.013288866 -0.017515518 0.030919211 0.032342743 -0.011075756 0.033420436 -0.012323218
00000000: 476d 10bd 6822 27bc fbd1 c0bb 3a4e e1b9
00000010: 54a5 dfbb e01d 6e3d 33ed 06bc 626d 67bc
00000020: a65a f1bb 6d52 e3bb a3d3 143d fd16 f2bb
00000030: 03b9 00bc 3250 5fbb 1b5a 1b3d 3a0b fbbb
00000040: c728 b8bb 5569 d8bb 33e2 f53b d54e 573d
00000050: 31c0 edbc f283 82bc 39d5 efbb 7fef 2a3b
00000060: 6c3e 0b3d ce5a db3c 2db0 cc3c 4a1b 063d
00000070: 653a 0d3d 1f58 733d 1f75 353d f48d 043d
00000080: 3f6f 20bc 3bef 193d dc52 033d d75d aebc
00000090: 0201 103d 3488 53bd 4836 6ebc fdb9 ddbb
000000a0: c3e4 77bc 67c2 2abc 3ac1 50bc 24cb 143d
000000b0: cc5b 0dbc 5394 0f3d 4a61 083d b77e c83c
000000c0: 70a0 e5bb ef50 c03c a8d9 723d fe9a 17bc
000000d0: 7b8a 2dbc 2e56 dcbb 10e3 0b3d a6f5 2d3d
000000e0: 1ce8 253d c31f 83bb a6ea d6bb 76af df3c
000000f0: 173a 0abd 5ab5 823c 4baf 09bd f584 43bc
00000100: 6174 f1bb 6e29 093d 4731 123d 7a25 00bc
00000110: 9e2c b7bb 1dfa abbc f426 d23c e326 00bc
00000120: c1b1 cabb 8983 183c 9c24 19bc 971a ffbc
00000130: 3e89 143d 1d7e 1d3d bc39 0a3d 1901 233d
00000140: 01f8 2abc f9cb f03c c76b e1bb fba2 3e3b
00000150: 3a41 123d 0646 3abb 1102 f9bb 055e e9bb
00000160: 1f1c 2cbc f664 b4b9 e7ee eabb 98b8 273d
00000170: 1585 06bc 2897 013d 70f3 d5bb 81a4 ef3c
00000180: b778 16bc 2cb1 093d 5ab8 7bbc 36f6 4dbc
00000190: 5260 263b d484 863d 2b1b e53c 5b6c 3abc
000001a0: 521c eb3c 72f9 013d 450b a5bc a950 5abb
000001b0: a44b 063d 477d 1b3d 0fbe ccbb 69c1 c0bb
000001c0: fb8e f83b c9fc 1cbc bb3a c1bc 7c1f 58bb
000001d0: ca0b 89bb 223e d5bb 0cd4 113b 52d5 113d
000001e0: 56da 60bc 8bb9 59bc b47c 8fbc 494a fd3c
000001f0: d379 043d 1677 35bc dee3 083d 53e7 49bc

classifier.3.weight f4 [2, 128]
0.21312849 0.25120506 0.16859399 0.14786631 -0.11602561 -0.019079393 0.20074268 0.16772771
0.013753475 0.2044055 -0.043612495 0.16771781 0.005394098 -0.035234 -0.20414229 -0.08098519
-0.18092018 0.19050798 -0.11958805 -0.17213501 -0.08057332 0.02411171 0.18508825 0.2376253
-0.11989123 -0.15913297 -0.075745836 -0.056403656 -0.018140743 -0.24218942 0.016798662 -0.22269271
0.045466177 -0.23108396 0.06710995 0.15453497 -0.25138786 0.17409271 -0.030761445 0.2031828
0.2277449 0.06536541 -0.13466707 -0.05169179 0.16367033 -0.22937338 -0.1947472 -0.1833202
0.20975569 -0.01918775 0.36918348 0.17028041 0.018877357 0.06919546 -0.07593958 -0.05455332
-0.111244366 -0.053824678 0.1813703 -0.18909623 0.18711467 0.16808805 0.19180998 0.08432704
-0.025294598 0.22952236 0.18135408 -0.03361753 0.09036114 0.17141256 0.2542734 -0.0030782549
0.004640479 -0.096028164 0.21379106 -0.17044447 -0.089978844 -0.058219306 -0.17385904 -0.05914789
0.015631715 -0.20303394 -0.10017152 0.031643197 -0.101109035 0.00882304 0.17476912 -0.008190423
0.0673716 -0.18441303 0.09310048 0.1094664 0.16300756 -0.1734889 -0.14944345 -0.19950919
-0.053732026 -0.1972768 0.183817 0.07564102 0.124941714 0.079462394 -0.078745425 0.029451232
-0.014344877 -0.22830392 0.09615876 -0.18470187 -0.1096292 -0.1692824 0.16905828 0.098152936
-0.10452758 0.069179304 -0.1426679 0.056301787 0.22289212 0.1918736 -0.058345877 0.006077473
0.04573731 0.2100989 0.1101109 -0.20462632 -0.17038788 0.042681634 0.048353817 0.21052851
-0.027445452 -0.06323972 0.045832645 -0.019392539 -0.13143517 0.15935265 0.023303349 -0.099486865
-0.118407935 0.010051384 0.08186167 -0.13702132 -0.20282204 -0.043129362 -0.07804342 0.16755918
0.038134746 0.051504344 0.14431168 -0.0011622491 -0.07139222 -0.0047843787 -0.1501687 -0.24106953
0.1007932 0.045178756 0.080528356 0.12699708 0.10795589 0.25917986 0.13348341 -0.121782824
-0.18720256 -0.0006386816 0.2323496 0.13921157 -0.08197871 -0.10050184 -0.18308249 -0.03389498
0.106132485 -0.18741553 -0.05131425 0.06449393 -0.117922425 0.04363946 -0.094312616 0.1854043
0.20216928 0.094511054 -0.015008721 0.0048715617 -0.10378922 -0.18246798 0.16324486 0.061766427
0.017313484 -0.036366325 -0.16355143 0.20973237 -0.22302209 -0.18659377 -0.16627382 -0.02387593
-0.062350392 -0.29805794 -0.35827026 -0.26131237 0.058377665 -0.06544883 0.04914249 -0.118129715
-0.04310615 0.15423578 -0.030500991 -0.122917555 0.24606198 0.19754145 -0.010052547 0.1824651
-0.14864944 0.07183612 -0.1452354 0.103402846 0.04908577 -0.21304224 -0.06640716 0.13650228
-0.055362962 0.14014058 -0.15972312 0.19001439 -0.19058491 0.21015503 -0.15680051 0.13565686
-0.15727596 0.13381195 0.15361929 0.08382731 -0.24809559 0.23607925 0.23614596 -0.07022141
0.12311209 -0.05476386 0.013473815 -0.040361594 0.10439918 0.19508845 0.011826808 -0.20675808
0.12698711 -0.04449027 -0.18265884 -0.23523408 -0.15500005 -0.01692718 -0.18768312 -0.31201336
-0.097903445 -0.22807984 0.06654727 -0.02119135 0.0368771 -0.13153374 0.21607289 -0.26830143
00000000: 5b3e 5a3e f39d 803e e7a3 2c3e 446a 173e
00000010: d69e edbd 634c 9cbc 7d8f 4d3e d0c0 2b3e
00000020: 4156 613c ad4f 513e 04a3 32bd 38be 2b3e
00000030: f9c0 b03b 8751 10bd ad0a 51be 90db a5bd
00000040: 2443 39be 8614 433e 94ea f4bd 2944 30be
00000050: a003 a5bd ec85 c53c c687 3d3e 0c54 733e
00000060: 8889 f5bd c1f3 22be a220 9bbd 8507 67bd
00000070: e59b 94bc 8100 78be 599d 893c 8f09 64be
00000080: be3a 3a3d 46a1 6cbe f170 893d 6a3e 1e3e
00000090: e9b5 80be 5c45 323e 6dff fbbc 270f 503e
000000a0: f635 693e 4dde 853d 2ae6 09be c5ba 53bd
000000b0: 3299 273e dbe0 6abe cf6b 47be 4ab8 3bbe
000000c0: 32ca 563e a12f 9dbc 9e05 bd3e fd5d 2e3e
000000d0: b0a4 9a3c 59b6 8d3d 3686 9bbd 4d73 5fbd
000000e0: 16d4 e3bd 4477 5cbd 23b9 393e 71a2 41be
000000f0: fd9a 3f3e 461f 2c3e d669 443e a8b3 ac3d
00000100: 9e36 cfbc e907 6b3e e2b4 393e 89b2 09bd
00000110: 430f b93d c686 2f3e 2030 823e 8cbc 49bb
00000120: 290f 983b 6aaa c4bd 0bec 5a3e ff88 2ebe
00000130: d446 b8bd 5e77 6ebd 1b08 32be 0f45 72bd
00000140: 150e 803c 21e8 4fbe ba26 cdbd 4c9c 013d
00000150: 4112 cfbd 838e 103c adf6 323e 2031 06bc
00000160: 1ffa 893d c5d6 3cbe 77ab be3d ec2f e03d
00000170: 74eb 263e 13a7 31be b407 19be 234c 4cbe
00000180: 1d16 5cbd ee02 4abe 863a 3c3e aee9 9a3d
00000190: 71e1 ff3d 2ebd a23d 4845 a1bd b643 f13c
000001a0: c606 6bbc 81c8 69be e2ee c43d 7d22 3dbe
000001b0: 4685 e0bd 5e58 2dbe 9d1d 2d3e 6804 c93d
000001c0: 8e12 d6bd e1ad 8d3d 8917 12be b49c 663d
000001d0: d53d 643e 837a 443e 16fc 6ebd 8a25 c73b
000001e0: 0c57 3b3d 2b24 573e d381 e13d 9089 51be
000001f0: 297a 2ebe f0d2 2e3d a70e 463d c994 573e
00000200: 49d5 e0bc d483 81bd 03bb 3b3d 1add 9ebc
00000210: f196 06be 572d 233e aae6 be3c c5bf cbbd
00000220: dc7f f2bd 8fae 243c 17a7 a73d 514f 0cbe
00000230: 95b0 4fbe 6aa8 30bd 3bd5 9fbd a294 2b3e
00000240: 2e33 1c3d 38f6 523d 71c6 133e 9c56 98ba
00000250: 1636 92bd 47c6 9cbb d3c5 19be eeda 76be
00000260: aa6c ce3d 5c0d 393d 0dec a43d 860b 023e
00000270: fa17 dd3d 39b3 843e e0af 083e 4669 f9bd
00000280: 07b2 3fbe 326d 27ba 0eed 6d3e 7a8d 0e3e
00000290: 74e4 a7bd e9d3 cdbd fa79 3bbe 76d5 0abd
000002a0: fd5b d93d dbe9 3fbe e42e 52bd 6515 843d
000002b0: 5081 f1bd 4abf 323d f926 c1bd a0da 3d3e
000002c0: 7705 4f3e 038f c13d 23e7 75bc 9fa1 9f3b
000002d0: 718f d4bd e3d8 3abe a929 273e cbfe 7c3d
000002e0: 02d5 8d3c dbf4 14bd 077a 27be 15c4 563e
000002f0: e75f 64be 7012 3fbe af43 2abe 7497 c3bc
00000300: 2063 7fbd 0d9b 98be 336f b7be bcca 85be
00000310: 6b1d 6f3d 090a 86bd a349 493d feed f1bd
00000320: 1390 30bd fcef 1d3e 37dd f9bc 33bc fbbd
00000330: acf7 7b3e 4e48 4a3e 70b3 24bc 22d8 3a3e
00000340: 8f37 18be d11e 933d 97b8 14be dfc4 d33d
00000350: 290e 493d bf27 5abe 7a00 88bd 41c7 0b3e
00000360: 46c4 62bd 0381 0f3e 758e 23be 2293 423e
00000370: b128 43be e132 573e 5090 20be a2e9 0a3e
00000380: f30c 21be 0006 093e 604e 1d3e a7ad ab3d
00000390: c50c 7ebe c2be 713e 3fd0 713e 3ed0 8fbd
000003a0: 3122 fc3d 1250 60bd 47c1 5c3c 3352 25bd
000003b0: 3dcf d53d 44c5 473e 3ac5 413c 64b8 53be
000003c0: e908 023e 6e3b 36bd eb0a 3bbe 34e1 70be
000003d0: 55b8 1ebe dfaa 8abc 0130 40be 37c0 9fbe
000003e0: 9a81 c8bd c38d 69be ef49 883d 7b99 adbc
000003f0: 710c 173d c8b0 06be 3642 5d3e ce5e 89be

classifier.3.bias f4 [2]
-0.019194473 0.019194473
00000000: ba3d 9dbc ba3d 9d3c
