Pretrained_cnn/main/saved_ckpt/best_model_epoch_8.pt (torch, 835282 bytes, 10 tensors)

features.0.weight f4 [32, 3, 3, 3]
000000 21 47 3a 3d 84 e7 3e bd a4 a4 8a 3d 0e ff eb 3d
       0.04547799 -0.04660751 0.06769684 0.11523257
000010 5e a2 b0 bd 0a 43 5a be e3 d5 18 3d 64 85 22 bd
       -0.08624719 -0.21314636 0.037313353 -0.039677992
000020 d2 91 11 be cf 4e b7 3d ea 71 f5 3d 27 80 96 3d
       -0.14215782 0.089505784 0.11984618 0.07348662
000030 0b 88 b6 3d 80 80 3a bd 18 ec 35 be 99 4a 8d bd
       0.08912667 -0.045532703 -0.17765844 -0.06898994
000040 64 b5 11 be a7 e7 f4 bd 86 fe 40 3e 2c 23 3c 3e
       -0.14229351 -0.11958247 0.18847093 0.18372792
000050 9f c9 87 bd 3b 1a d4 3d d7 1c 08 3e d7 a0 1a be
       -0.06630253 0.103565656 0.13292252 -0.15100418
000060 43 02 e2 3c ea 38 04 bd 5b d6 fd bd 61 f4 db 3d
       0.02758897 -0.03228084 -0.12394401 0.10739971
000070 17 00 eb bd cb f8 05 be 41 98 ba bd da b7 b7 3c
       -0.114746265 -0.13083188 -0.091110714 0.022426534
000080 cb 3f eb 3d e2 b6 ab 3d 22 c4 1b 3d fe 65 f5 bd
       0.11486777 0.083844915 0.038028844 -0.11982344
000090 b8 0f 0a be 1d fe 05 bb 8d 5b a1 bd 76 e3 79 bd
       -0.13482559 -0.0020445653 -0.0787879 -0.06100794
0000a0 36 9e dc bd ef f4 2d be 48 e5 3e 3d c4 cb 04 be
       -0.10772364 -0.16987966 0.04660538 -0.12968355
0000b0 f2 25 16 3c 36 b5 47 be 41 09 5e be 25 c6 70 be
       0.00916432 -0.1950272 -0.21683218 -0.23513086
0000c0 4c ca 52 be 03 6b 14 be 01 10 27 bd 4a e6 35 3d
       -0.20584983 -0.14493947 -0.040786747 0.044409074
0000d0 9a 74 d0 bd 24 ab 0c be 0b c6 f5 3d 0f 3c a7 3d
       -0.1017849 -0.1373716 0.12000664 0.08165752
0000e0 52 f1 49 bd f8 c8 61 bd 1a 30 8e 3c c2 54 2f 3d
       -0.049302407 -0.0551233 0.017356921 0.04280544
0000f0 4d 55 c2 3c 2c bf c2 bd 1f 03 d4 bc ad f0 b2 3d
       0.023722315 -0.095091194 -0.025880395 0.087373115
000100 e2 18 57 bd ba ff 9e bd 1b da 2b 3d 4f e2 04 be
       -0.052513964 -0.0776362 0.04195605 -0.12976955
000110 2c 04 7b 3d 30 87 a4 bd 34 04 d2 3d b2 97 6c bc
       0.061283275 -0.080335975 0.10254708 -0.014440464
000120 c9 43 30 be 41 f6 2a be af 18 dc bd 6c bb 36 3d
       -0.17213358 -0.16695501 -0.107468955 0.044612333
000130 45 68 9c bd 85 6f 88 bc 63 dc 3b bc bf 13 c1 bd
       -0.07637075 -0.01665474 -0.0114661185 -0.094275944
000140 3e 6f 76 3c c0 17 e5 bd 69 07 01 be 77 25 0f be
       0.015041171 -0.111861706 -0.12600483 -0.13979135
000150 08 8d 02 be a6 fc 75 bd 8a 61 2e be 23 c5 24 be
       -0.12749112 -0.060055397 -0.17029396 -0.16090827
000160 86 16 10 3d 6a af e4 3b 04 87 21 3d a8 e5 df 3d
       0.03517773 0.006978919 0.0394354 0.10932475
000170 39 3e 64 3e a1 af 33 3e ab 2c 0e 3e 2c 2f 5b 3e
       0.22289361 0.17547466 0.13884227 0.21404713
000180 49 e0 2a 3e 43 e7 1d 3e 96 bd 22 3d d0 1b f2 bc
       0.1668712 0.1542025 0.039731584 -0.029554278
000190 89 b7 06 be 03 b8 2f bd df 4d e0 bd c4 90 47 bc
       -0.1315595 -0.042900097 -0.10952353 -0.012180511
0001a0 80 b0 fa bd cc 51 12 be 88 e7 aa bb b4 9a bb 3a
       -0.12240696 -0.14289016 -0.005215589 0.0014313073
0001b0 7b d4 ba 3d 6a 3d 04 3e 42 26 14 3e e5 55 97 3d
       0.09122559 0.12914053 0.14467719 0.0738943
0001c0 2d d8 5e 3e 5e 30 3a 3d 26 5b f4 3d 0c 61 0b 3c
       0.21762152 0.045456283 0.11931448 0.0085070245
0001d0 60 f7 a8 bb 82 13 1b 3e 75 12 f4 bc c7 6c 42 3e
       -0.0051564425 0.1514416 -0.029793957 0.18986808
0001e0 d8 79 98 bd 6c ea 89 bd 56 03 35 3a e5 ad 10 bd
       -0.07445115 -0.067341655 0.0006905099 -0.03532209
0001f0 f9 b2 d7 bd 64 bb 9c bd 4d fc 28 be ab 7b 1a be
       -0.10532183 -0.076529294 -0.16502495 -0.15086238
000200 a0 be 9c bd 9c 06 4c bd 2e b3 80 bd 4a a9 2b 3c
       -0.07653546 -0.04981099 -0.06284176 0.010477373
000210 eb 7d bf 3b b1 48 1a be 1c 49 15 be 19 62 71 be
       0.005843868 -0.15066792 -0.1457867 -0.23572578
000220 06 ac a0 bd 9a 82 0e 3e 7e 59 55 bd 55 c7 98 3b
       -0.07845311 0.13917008 -0.0520873 0.004662434
000230 60 ad ca 3d f1 1c a8 bd 50 d0 5f 3d de 13 50 3e
       0.0989635 -0.08208645 0.05464202 0.20320079
000240 45 34 2b be 6b ae 54 3c 71 65 8a bd 21 73 4c bd
       -0.16719158 0.012981038 -0.0675763 -0.049914483
000250 0d 43 e2 bd 43 6f 1e 3e dc 6d 34 bd 51 1e c1 3d
       -0.11047945 0.1547213 -0.044050083 0.094296105
000260 f1 32 36 3e 80 a0 27 be e8 f4 12 bd 10 c1 22 bd
       0.1779287 -0.1636982 -0.035878092 -0.0397349
000270 93 61 76 be fd 6b 0f bc a2 ef a4 3d 58 6f 08 3d
       -0.24060659 -0.008753774 0.08053519 0.03330931
000280 09 30 b1 3d 64 aa 27 3e 8d c5 1f 3d 22 3d 0c be
       0.0865174 0.16373593 0.03900676 -0.13695195
000290 80 8c 2e bd e0 13 d5 bc 12 80 2d be 1b c8 e9 3d
       -0.04261446 -0.026010454 -0.16943386 0.1141512
0002a0 e8 81 a8 3c 83 81 3a bd 51 92 e6 bd bc b7 0a bd
       0.020569757 -0.04553367 -0.112583764 -0.03386663
0002b0 2f 3e 90 3a f4 25 d6 3d 86 3e c7 bc 80 fa f1 3c
       0.001100486 0.10456458 -0.024321806 0.029538393
0002c0 1f ec 1e 3e 18 ff 19 3d ee b7 e8 bd 21 e8 ed 3d
       0.1551976 0.037596792 -0.11363207 0.11616541
0002d0 6f 98 ae 3d 1a 65 2e 3d 4f 79 02 be 97 d2 07 3e
       0.08525168 0.042576887 -0.12741588 0.13263927
0002e0 9c e8 dc bc 56 e6 d0 3d 16 ba 59 bd 8f 8c 71 bc
       -0.026966386 0.10200183 -0.05315598 -0.014742984
0002f0 bf c5 af bc 7c cd 05 be a8 c5 9e 3d 12 be 47 3d
       -0.021456597 -0.13066667 0.07752544 0.04876525
000300 a9 c7 1b be 14 25 ac bd 39 aa 3d be 95 d6 a4 3d
       -0.15212883 -0.084055096 -0.18521966 0.08048741
000310 3b ce 9c bd 88 c7 af 3d 58 20 11 3e 2a 5a 25 3e
       -0.07656523 0.085829794 0.14172494 0.16147676
000320 a4 64 c7 bc e7 3f ab bc 0d 87 79 bd a1 0c 0c be
       -0.024339981 -0.020904494 -0.06091981 -0.13676693
000330 b5 5f 9d bd b3 1c a3 3d d2 bb 1b 3e 1d c5 cf 3d
       -0.0768427 0.07964458 0.15208367 0.10145018
000340 bf e0 ff 3d a7 a0 2f 3c 93 db d7 3d 5a f1 67 bd
       0.12494039 0.010719455 0.10539927 -0.056626655
000350 24 b0 51 be 0e 86 fd 3d a5 d8 51 3c 9b cf b2 bd
       -0.20477349 0.123790845 0.012808 -0.08731004
000360 12 fa 10 3e 96 22 a5 3d 57 86 4c 3d 10 17 0d 3e
       0.14157894 0.08063237 0.049932804 0.13778329
000370 8b 2d 8f 3d f6 0e 92 3d 2d 75 d9 3c b0 b6 23 3d
       0.069911085 0.0713176 0.026545132 0.039969146
000380 53 ea 0f bd fd a6 0a 3d 2c 6b bb 3d fa b7 c5 bd
       -0.03513558 0.03385066 0.09151301 -0.09654231
000390 0a ff b7 bd c3 09 3b be 6e ce f3 bd e5 93 cf bd
       -0.08984192 -0.18265443 -0.11904608 -0.101356305
0003a0 8a 1c 86 3b 2e fa 83 3d 0e 13 8a 3c 43 4e c4 bd
       0.0040927576 0.06444202 0.01685479 -0.0958524
0003b0 c5 b5 cb bd 93 d2 4c bd 16 44 12 be d9 f0 91 3c
       -0.09946779 -0.050005507 -0.14283785 0.01781504
0003c0 19 26 0d 3e 52 1e 3d 3d 52 7c 07 be 47 6d c4 be
       0.13784064 0.046171494 -0.13231018 -0.38364622
0003d0 cc a9 c9 3d 46 77 46 3d 39 30 fa be b4 b2 88 be
       0.09846839 0.04845359 -0.48864916 -0.2669884
0003e0 33 99 b4 3d f5 f7 0d bf 89 7e 28 bf b3 ce 91 3d
       0.08818283 -0.5545648 -0.6581808 0.07119503
0003f0 c6 b6 be be 9b 33 a0 3d 0a 91 31 3d 3a 16 cf be
       -0.3724882 0.07822343 0.04335121 -0.40446645

features.0.bias f4 [32]
000000 ff 48 17 3c 1a 27 74 bd b8 88 c6 ba a0 aa ce bc
       0.009233712 -0.059607603 -0.0015146947 -0.025227845
000010 e0 14 31 bc 7d 27 36 bd ee ab 9f bc 18 f1 09 b9
       -0.0108082 -0.044471253 -0.019491162 -0.00013155153
000020 5c 27 97 3d 8f 00 e0 3d 26 bb 3e 3d bc 8f e6 bd
       0.07380554 0.109376065 0.046565197 -0.11257884
000030 0c 42 01 be ff 22 c6 bd 31 ea 30 bc 16 d5 c3 bc
       -0.12622851 -0.09674644 -0.010798023 -0.023905318
000040 68 6c 47 3e a4 a1 5a bb 48 90 3b bd 76 f9 da bd
       0.19474947 -0.0033360505 -0.045791894 -0.10692112
000050 63 87 f7 bb 8c da 38 be 02 1c cd bd 04 04 7c bc
       -0.007553981 -0.18052119 -0.10015108 -0.015381817
000060 22 f9 7b 3d e5 ec f0 3b e4 88 a2 bd 76 55 f7 3c
       0.06151689 0.007352459 -0.07936266 0.030192118
000070 cf 3e e8 bd 7e ae 86 bd 2e 01 0b 3c 99 16 9f bd
       -0.11340105 -0.065762505 0.008484168 -0.07767982

features.3.weight f4 [16, 32, 3, 3]
000000 58 f9 0e 3d a1 85 54 bc 70 f3 97 3d 01 d5 ec bd
       0.03490576 -0.012971313 0.07419479 -0.11564065
000010 8a 63 1a bd 29 9e 0c be 71 4d 0e bd 4f a0 a6 bc
       -0.037692584 -0.13732208 -0.034741823 -0.020340113
000020 ec 89 8f be 3e a9 d3 3c 67 6c ea 3d f9 a0 b9 bd
       -0.28034914 0.025837537 0.11446457 -0.09063906
000030 e3 8f 02 be 27 60 90 bd 14 50 5a bc 2e df 12 bd
       -0.12750201 -0.070495896 -0.013324756 -0.035857372
000040 13 04 63 bd 49 49 b3 ba 06 e0 9d bd 20 f4 8b 3d
       -0.055423807 -0.0013678457 -0.07708745 0.068336725
000050 e2 ed a8 bc 37 b3 5e bd 97 0c b7 bd 60 fa 25 bd
       -0.020621244 -0.05437013 -0.08937948 -0.04052198
000060 c9 24 86 bd 94 89 9d bd e4 21 95 3c 8a b4 92 3e
       -0.06549985 -0.076922566 0.018204637 0.28653365
000070 6e a5 0d 3e fd bc ce bd 95 8b 4e 3e b6 8c ff 3c
       0.13832638 -0.100946404 0.20170434 0.031195026
000080 0d 0f 1c be c5 53 e2 3d e8 7a e4 bb 55 0a 95 be
       -0.15240116 0.11051134 -0.0069726594 -0.29109445
000090 f8 de b9 be b4 e3 82 be 9d 7f f3 3c fa 9a 54 be
       -0.36302924 -0.2556435 0.029723937 -0.20762244
0000a0 6b 2a 3a bd 11 2e 69 3e e5 65 ab 3d f1 4a 7f 3e
       -0.04545061 0.22771479 0.08369044 0.24930932
0000b0 18 8d b7 3e e0 2a 32 bd d6 8c 28 bd 84 cc b2 bc
       0.35849833 -0.04349792 -0.041149937 -0.021826036
0000c0 7d f6 45 be 37 d3 8b be 6a 72 2b be cf 61 0a be
       -0.19332309 -0.27309582 -0.16742864 -0.13513874
0000d0 c6 fa 1d bd 0f 63 70 be f6 f2 24 3e 43 93 d9 3d
       -0.038569234 -0.23475288 0.16108307 0.10623791
0000e0 ab 7b 12 be 9e f0 cd 3d ab 8e e1 bd 6a 6d 6b bd
       -0.14304988 0.1005566 -0.1101354 -0.057477392
0000f0 b8 1a eb 3d d3 47 fb 3c 40 b5 20 be 3d 7a 27 3e
       0.114797056 0.030673897 -0.15694141 0.16355224
000100 f3 aa d0 3d f3 d0 7c 3d 98 5d 04 3e 8a c5 72 bd
       0.10188856 0.061722707 0.12926328 -0.05927042
000110 df 29 0b be 0a e8 ac 3d e9 b4 60 bd 44 62 1a be
       -0.13590191 0.084426954 -0.05486003 -0.15076548
000120 e2 a6 25 bd 04 27 f7 bd 18 7e be 3d cf df 57 be
       -0.040442355 -0.120679885 0.09301394 -0.2108147
000130 53 e0 c9 bd a3 61 fa bc a0 e7 05 be f2 f4 e6 3d
       -0.098572396 -0.030564135 -0.13076639 0.11277188
000140 58 c0 52 3e 5f a7 00 3d c9 ba c9 be 95 fa 82 3d
       0.20581186 0.031409618 -0.39400318 0.06395451
000150 f3 89 34 be 37 da 2e be e9 44 49 bd 16 26 37 bc
       -0.17630748 -0.1707543 -0.049137983 -0.011178514
000160 dd 82 4b bd ed 4f 76 3c 7a db 34 3e 38 20 4a 3d
       -0.049685348 0.015033704 0.17661849 0.049347132
000170 b1 36 48 3d c6 03 13 3e 0f bd 9b bd c8 f5 e1 bc
       0.048880283 0.14356908 -0.076044194 -0.027583018
000180 ce d0 18 3e c3 c3 09 be 16 18 43 be bb 97 1f be
       0.14923403 -0.13453583 -0.19052157 -0.15585224
000190 b9 5a 0b bc 58 fc 2b 3e f9 b1 b8 3d 8c d3 d2 3d
       -0.008505517 0.1679548 0.090183206 0.102942556
0001a0 a8 ac 91 bd 5f da 5e 3e dc 9f 8e 3c 5d c4 0c 3e
       -0.0711301 0.2176299 0.017410211 0.13746782
0001b0 b1 77 25 be ff 04 85 3c ad 68 29 bd 65 42 8e 3d
       -0.1615894 0.016237734 -0.041359592 0.069462575
0001c0 6d be 18 3d 53 d8 d6 3d f1 86 62 3d d1 9e 54 bd
       0.03729098 0.10490479 0.05530447 -0.05190927
0001d0 d4 de f9 3c 0a 96 b9 3d 8a 5f cb bb bf 51 9d bd
       0.03050176 0.09061821 -0.0062064575 -0.076816075
0001e0 f9 9f 99 bc 39 4d 9a bc ce a1 82 3d 29 6c 50 3d
       -0.018753039 -0.01883565 0.06378518 0.0508844
0001f0 eb 2f 79 3b b2 9c 46 3d f2 fb 2d 3e 38 65 86 3d
       0.0038022946 0.04848928 0.16990641 0.06562275
000200 b2 1e 46 bd a6 b7 5a 3e 28 f8 0e 3c ab 32 e3 bd
       -0.048369117 0.21359119 0.008726157 -0.110936485
000210 3c 5a 07 3d 2a ba 94 3d 0a 40 82 be 3b f7 f3 bc
       0.03304504 0.072620705 -0.25439483 -0.029780975
000220 a2 60 0e be 4e e9 4f bd 83 32 3f bd 1c 67 aa bd
       -0.1390405 -0.050759606 -0.04667903 -0.08320448
000230 1f 50 83 be b7 0e 71 3d a6 20 16 be da 2f 86 be
       -0.25647065 0.058851924 -0.14660892 -0.26208383
000240 6a ef 8b be e1 e3 20 be b8 21 fb 3b 5c 72 82 bd
       -0.27331096 -0.15711929 0.0076639317 -0.063694686
000250 1f ad d0 3c d9 2f 7a 3d 3f 91 6b 3d 56 20 a0 bd
       0.025473176 0.061080787 0.057511564 -0.078186676
000260 40 18 11 bd 71 75 9d be 04 97 59 bd 5d 1d a3 bc
       -0.035423517 -0.30753663 -0.053122535 -0.019911462
000270 bd 86 b8 bd 78 f7 0b bc 41 9d 56 3e 6c 2d 45 3d
       -0.09010074 -0.008542888 0.20958425 0.04813902
000280 11 dd 3e 3e 0c 0b 63 3e a3 2d 81 3d fb 97 05 3c
       0.18639018 0.22172183 0.06307533 0.008153911
000290 62 fa 38 bd 0b f5 51 3d 82 29 94 bd 3b 61 a3 bd
       -0.04516066 0.05125908 -0.072344795 -0.079775296
0002a0 99 bb a3 bd 01 76 81 bd 43 cb 2b be bd 26 26 3c
       -0.07994766 -0.063213356 -0.16776757 0.010141072
0002b0 c2 6f 8c bd dc fc 9c bd 74 bc 9e bd 51 50 b1 3c
       -0.068572536 -0.076654166 -0.07750788 0.021644743
0002c0 d8 8c 4a 3c 10 55 eb 3c 36 e2 89 3d 47 0f 98 3d
       0.012362681 0.028727084 0.067325994 0.07424789
0002d0 94 be cf be 7d 66 b4 be c5 ab 8d be f0 18 55 be
       -0.40575087 -0.35234442 -0.27670112 -0.20810294
0002e0 be 52 21 bd e3 26 14 be 07 3f 76 3d 00 5c 9c 3d
       -0.03938555 -0.14467959 0.0601187 0.07634735
0002f0 a6 9c dd 3d 23 4e f4 bc 2d f2 8a bc c7 83 e6 3d
       0.10820894 -0.029822415 -0.016961182 0.11255603
000300 d3 af f7 3d 16 05 6b bd 5d c6 7f 3d f7 5f ee 3d
       0.12094083 -0.057377897 0.062445033 0.116393976
000310 6a f0 df bc 3c 16 4d 3d b2 ab 0c be 0f 64 e4 3d
       -0.027336318 0.050070032 -0.13737372 0.11151897
000320 92 a1 88 3c 72 cb a0 3c a9 68 85 3d ff fb 5d be
       0.016678605 0.01962826 0.06514103 -0.2167816
000330 37 50 a4 bd ed d9 1c be 71 40 06 be 90 b7 81 3e
       -0.08023112 -0.15317507 -0.1311052 0.2533536
000340 b4 fb 03 3e 90 73 2e bd ce d6 38 3e 5e 6a c2 3c
       0.12888986 -0.042590678 0.18050691 0.02373236
000350 c9 f8 3a bd 96 7e fe 3a 09 0d 86 bd f0 ec 98 bd
       -0.045647416 0.0019416388 -0.06545455 -0.07467067
000360 99 1e 52 3d 74 cf aa 3c 09 de 83 bd c8 64 1b bd
       0.05129871 0.020850874 -0.06438834 -0.03793791
000370 86 07 21 3d 32 08 e3 bc 6a f0 29 3d 0c 8c a4 bc
       0.039313816 -0.027713869 0.041489042 -0.02008631
000380 e0 0d 8b 3d 7c 11 64 be 6d bf 90 3c 52 5c 89 3e
       0.06789756 -0.22272295 0.017669404 0.26828247
000390 0f 1b 0d bd 86 c1 21 3e 90 ee c9 3e 83 63 54 3c
       -0.034449633 0.1579648 0.3943982 0.012963179
0003a0 03 0e e7 3e 6c 40 da 3e 33 c0 dc bd 10 dc 14 3e
       0.45127878 0.42627275 -0.107788466 0.14537072
0003b0 95 36 29 be 4a cc eb bc 73 d3 a2 3d 7d 19 cb bd
       -0.16524728 -0.028783936 0.07950487 -0.09916971
0003c0 60 a9 07 be 01 91 c5 bd e1 58 21 bd 2f d7 81 bc
       -0.13248205 -0.09646798 -0.039391402 -0.015849678
0003d0 ba b6 f9 bd cf 86 a3 bd e0 37 8f bd 81 66 7a 3d
       -0.121930555 -0.07984697 -0.06993079 0.06113291
0003e0 5a 40 00 be 5f ec 0d 3d 5b fd 9d 3d 62 92 b3 bc
       -0.12524548 0.03464925 0.07714339 -0.021920387
0003f0 5b 10 3c be c9 2d aa 3d 32 08 c9 3d 86 9f 00 be
       -0.18365614 0.08309514 0.09816016 -0.12560853

features.3.bias f4 [16]
000000 93 2f 92 bd a0 d9 99 3d 17 74 e7 bb 9a 20 22 3e
       -0.0713798 0.07512212 -0.0070633995 0.15832749
000010 cd 89 a7 3d cd 5b 95 bd 6a 7b a4 3d f8 2f b9 3c
       0.0818058 -0.072929 0.08031352 0.022605881
000020 fe 05 73 bc 9b 7d b9 bd 0e 2a 7a bc 1a b0 70 bd
       -0.014832972 -0.090571605 -0.015268816 -0.058761694
000030 03 3e 3e 3d 94 4d ae bd f0 02 1d 3d 36 39 4d 3d
       0.046445858 -0.085108906 0.03833288 0.05010339

features.6.weight f4 [8, 16, 3, 3]
000000 a0 42 10 bb 65 8a 02 3e 5b 24 e0 bc 79 1b 00 3e
       -0.0022012368 0.12748106 -0.027361086 0.1251048
000010 69 32 27 3d af ca 4c bc e8 e3 46 bb d1 d8 f9 bd
       0.04081956 -0.012499495 -0.0030348245 -0.121995576
000020 c9 50 66 3d 3b 7c f7 3d e4 ae 1b bd b2 fd 7c 3c
       0.056229386 0.12084242 -0.038008586 0.015441345
000030 29 a1 e8 3b b9 f9 32 3e 33 82 c9 3d d0 52 0d 3b
       0.00709929 0.17478074 0.09839287 0.0021564253
000040 cb 91 2a 3e 3c d8 b9 3d 39 4f 16 bd aa c3 aa 3a
       0.16657178 0.090744466 -0.036696646 0.0013028283
000050 7e 96 41 bd e7 1b 89 3d 64 06 2b be 12 bd 09 3e
       -0.04726266 0.06694775 -0.16701657 0.13451031
000060 1a 10 f0 3d db 02 fa 3b c5 23 24 bd ef d9 9d bd
       0.11721821 0.007629735 -0.040073175 -0.07707583
000070 aa 03 40 be 7f db 40 3d 58 b6 da bd b3 39 5a 3d
       -0.18751398 0.047084328 -0.106793106 0.053277683
000080 6a 1c 02 3e 48 f8 ed 3c 62 25 ad 3d 80 3a fc 3d
       0.12706152 0.029049054 0.08454396 0.123158455
000090 c1 bc 9f bd 70 d1 c4 3c 49 66 27 3e dc be 06 be
       -0.07799674 0.024025649 0.16347612 -0.13158745
0000a0 fc ad 97 3d de 6f ec 3d f3 1a 22 be 61 21 dd bd
       0.07406232 0.115447745 -0.15830593 -0.10797382
0000b0 3e 77 d0 3d 08 59 25 bd 75 5b c2 3d d0 ea ef 3a
       0.10178994 -0.04036811 0.094901 0.0018304233
0000c0 cf 0d 77 bd 77 70 c9 bd d9 02 b8 bd 7f 6d 88 3d
       -0.060315903 -0.09835904 -0.08984918 0.0666151
0000d0 bb b2 51 3b ee 1a 81 be 55 dc 08 3e 70 90 b5 bd
       0.00319974 -0.25215858 0.133653 -0.0886544
0000e0 16 08 70 3e e2 29 2f be 9b af d6 bd f9 60 9c 3d
       0.23440585 -0.17105821 -0.10482713 0.076356836
0000f0 4f 47 bd bd 52 eb bb bd 82 7c bb 3d 88 a0 ff bd
       -0.09242117 -0.09175743 0.09154607 -0.12481791
000100 39 fb f6 3c 23 33 eb bd 2e 8b fb 3d 6e b7 86 3d
       0.03014909 -0.11484363 0.12282406 0.06577955
000110 9d d8 41 bc c7 25 26 be b4 9c 1d 3d 53 8c 9c bd
       -0.01183143 -0.16225348 0.038479522 -0.07643952
000120 1d 37 f4 bd c4 6d 16 bd 85 c2 0d be a4 99 8f bc
       -0.119245745 -0.036725774 -0.13843735 -0.017529316
000130 80 a2 bf bd 58 5c 05 3e c2 c8 39 bd fd 0c b3 3d
       -0.09357166 0.13023508 -0.045357473 0.08742712
000140 90 87 86 3d 8d fc 25 bd 3c ef 0e 3d c9 e3 75 be
       0.06568825 -0.040524054 0.03489612 -0.24012674
000150 a8 2e 9c bd 5a ea 3c be 41 b4 3b be b2 af 3f be
       -0.076260865 -0.18448773 -0.1833048 -0.18719366
000160 6a 94 0c be 6a fa 40 bc dc e7 93 3d 84 e7 9e bd
       -0.1372849 -0.011778453 0.07221958 -0.07759002
000170 5b 7f 5f bd eb 5e bb 3d cb 52 0b 3d 42 1e b7 bd
       -0.054564815 0.091489635 0.034014504 -0.08941318
000180 97 cd 5f 3d 7c 2d 5f be eb 54 cb 3c 91 da d7 bd
       0.054639425 -0.21794695 0.024820765 -0.10539735
000190 36 c5 04 be de f3 f4 bc d3 9c fa bd bb aa 4a be
       -0.12965855 -0.029901441 -0.12236943 -0.19791691
0001a0 ac 47 1e be 3d ff a8 be 7e cb 7b be f8 e6 28 3e
       -0.15457028 -0.3300723 -0.24589345 0.16494358
0001b0 33 64 9f 3d 3d 3a 1e 3e d9 8b 1c 3e 55 60 e1 bd
       0.07782783 0.15451904 0.15287723 -0.11004702
0001c0 f1 97 11 bc 8f 26 24 3d 61 4c 3a be cc f2 00 3e
       -0.008886323 0.040075835 -0.18193199 0.1259262
0001d0 d1 40 b2 bd f8 61 3b 3d 55 dc d2 bd 36 d2 2b 3d
       -0.08703769 0.045747727 -0.10295931 0.04194852
0001e0 96 84 1a be 7d d1 9d 3d 94 f1 b5 3c 73 13 4a 3c
       -0.1508964 0.07705972 0.02220992 0.012333739
0001f0 bf 38 34 be 7c a0 bb 3d ee 21 67 bb 26 f4 2c 3e
       -0.17599772 0.09161469 -0.0035268026 0.1689001
000200 ed a7 c3 bd 7b 3e 89 3c 96 d6 bf bd 06 c8 11 3e
       -0.09553514 0.016753426 -0.09367101 0.14236459
000210 44 de 93 bd ae 8e 3c 3d 3d 1d f7 3d 2f be 82 bc
       -0.07220128 0.046034507 0.12066124 -0.015959827
000220 61 d4 8d 3e a0 ed 03 3e cb 5e 5a 3e 19 66 8c 3e
       0.27701095 0.12883615 0.21325223 0.27421644
000230 ac 07 23 bd 61 7e 10 3e 12 c3 0c bd 0b 92 1d bd
       -0.03980224 0.1411071 -0.03436572 -0.038469356
000240 30 41 a1 bd f4 71 31 3d d0 c4 3c 3e d1 4a cf bd
       -0.07873762 0.043321565 0.18434453 -0.10121692
000250 9d 4e 6b bd b3 c3 c6 3c e9 ca 24 be a0 0a 16 3e
       -0.05744802 0.024263239 -0.16093029 0.1465249
000260 bb ca 59 3c 38 fb 3b 3e 85 e4 49 3d af 9e f6 bd
       0.013292964 0.18357551 0.0492902 -0.12041985
000270 0a cd 8d bd 43 c1 e1 bd 8a 21 62 3d 2d 68 3b 3d
       -0.06923874 -0.1102319 0.055207767 0.045753647
000280 4c 46 21 be b0 c5 bf 3d b4 7a d6 3c 4b b5 e1 3c
       -0.15749472 0.09363878 0.026181556 0.027552268
000290 15 3f 0c 3d 9b b1 2c be ee 23 1a be 64 71 f2 ba
       0.034239847 -0.16864626 -0.15052769 -0.0018496928
0002a0 76 d2 52 3d 0d 1b f1 3d 46 7c 2b 3e 14 06 b1 bd
       0.051470242 0.11772738 0.16746625 -0.086437374
0002b0 fb 38 2f bd 3f d3 0c 3c 84 d4 55 be da d2 21 bd
       -0.04277895 0.008595287 -0.2088185 -0.039507724
0002c0 c3 da 37 3e 9c 34 45 3d ba 94 ed bd 41 58 ef 3d
       0.17954545 0.048145875 -0.11600633 0.11686755
0002d0 f9 58 71 bd 04 11 8b bd 89 9d 0b 3e ba 4e ee bd
       -0.05892274 -0.06790355 0.13634314 -0.1163611
0002e0 78 e0 3a bd 0f a4 ed 3d 3e 63 94 3d 7b b5 af 3d
       -0.045624226 0.11603557 0.072454914 0.085795365
0002f0 a6 ff 47 bd aa 09 8d bc b1 bc ff bd bd be 43 bd
       -0.04882779 -0.017216522 -0.12487162 -0.047789324
000300 fc d2 ea ba a4 de 89 3d 0d b0 df 3d e7 86 09 be
       -0.0017915661 0.067319185 0.10922251 -0.13430367
000310 5a 14 09 3d 0f 45 6d 3e 5a 94 68 3c 24 60 dc bc
       0.033466674 0.23170875 0.014195526 -0.026901312
000320 cb f4 80 3c b4 f9 30 3d 28 0b 75 bd 53 27 a5 3d
       0.015741726 0.043206885 -0.059825093 0.08064141
000330 f5 80 7e bd e6 f2 12 3e 7f 95 b1 bd 63 0d 45 be
       -0.0621347 0.14350471 -0.08671092 -0.19243388
000340 05 6a 13 bd 5e 49 22 3e 1b 1c f2 bd 56 3f ce bd
       -0.03598978 0.158483 -0.11821767 -0.10070674
000350 ee 22 68 3d de 6f d2 bd c2 79 88 3d d5 72 5b 3e
       0.056673937 -0.10275243 0.066638485 0.21430524
000360 b2 b3 44 3c 5a 0a e3 3d 70 44 54 bd b5 b7 80 3d
       0.012005733 0.11085959 -0.05182308 0.06285039
000370 c6 91 3e 3d f2 28 2e 3d c3 56 ee 3d 8c f3 c7 bd
       0.04652574 0.042519517 0.11637642 -0.0976325
000380 78 51 06 be 95 26 d7 bb 98 0b fa 3c 9b af a3 3e
       -0.13117015 -0.0065658786 0.030523106 0.31969914
000390 3c 50 1c be bb b2 0a 3e 6a ee 58 3e 32 20 c7 3d
       -0.15264982 0.13544743 0.21184698 0.09722938
0003a0 77 c0 61 bd 5c 2c 8c 3e 1e 97 07 be 2e 01 63 3c
       -0.05511519 0.27377594 -0.1324124 0.013855262
0003b0 da 6a 08 3e 42 87 bd 3d 1b 7c 90 3d 75 f5 5c 3b
       0.1332201 0.09254314 0.07054921 0.003371564
0003c0 f9 b8 cc bd 20 4e 9e 3d 46 a7 52 bd 03 4b d4 bc
       -0.09996218 0.07729745 -0.051429056 -0.025914675
0003d0 39 6b 0b 3e 6e 77 3c 3e 14 6a 00 3e ca 71 40 3e
       0.13615121 0.18404934 0.12540466 0.18793407
0003e0 4f ee 8e bd 5b 13 1a 3e 0b 97 6b bd 4d 7a 32 3e
       -0.069790475 0.15046446 -0.057517093 0.17429467
0003f0 8a fa 7b be 6c b1 39 3e 7e c0 23 3e e9 78 97 bc
       -0.24607292 0.18134087 0.15991399 -0.018490272

features.6.bias f4 [8]
000000 dc b1 80 bd e5 39 83 bd 25 51 56 3c 83 ee d3 3c
       -0.06283924 -0.06407527 0.01308087 0.025870567
000010 99 8a 5c 3d d6 f7 e9 bd ec dc 59 3c 7b b9 6d bd
       0.053843115 -0.11424224 0.013297301 -0.058038216

classifier.0.weight f4 [128, 1568]
000000 4c 70 f8 bc 6c ad 61 3d 88 f3 15 3e fa 95 c6 3d
       -0.030326985 0.05509703 0.14643681 0.096965745
000010 1a 24 2d 3e ab cf 96 3d 13 1c 50 3d db 99 2b 3d
       0.16908303 0.07363828 0.050808024 0.041894775
000020 12 b9 0f be 8e 2d 7a bd 27 6b d9 3c 74 6f 9c bd
       -0.14035442 -0.0610786 0.026540352 -0.076384455
000030 12 15 7a bd 92 59 5f bd 56 8d a3 3d 7b ba 60 3e
       -0.06105525 -0.05452878 0.07985942 0.21946137
000040 88 38 af 3d 6b ca f9 3d 5e e4 7b 3d 18 70 d0 3d
       0.08555704 0.12196811 0.061497085 0.1017763
000050 e5 b3 f4 3d de 38 04 3d 00 8d 83 bc b3 a1 57 bd
       0.11948375 0.032280795 -0.016058445 -0.052644443
000060 ba 0e c9 bd 49 32 aa bd 73 08 0a bd 41 02 39 bd
       -0.09817262 -0.083103724 -0.033699464 -0.045168165
000070 3c 36 e6 3d 25 6a 17 3e 0d cb 8b 3d ef 86 f3 3d
       0.11240813 0.14786585 0.06825838 0.11890971
000080 74 1f a7 bd 37 d8 d4 3c 7d b7 93 3d 30 87 18 3b
       -0.08160296 0.025982006 0.07212732 0.0023273937
000090 db d5 19 bb 94 d9 20 bd d2 d4 16 bc 4f ba b2 bc
       -0.0023473415 -0.03927 -0.009206014 -0.021817354
0000a0 51 6f be bd 08 85 a8 bd ff 06 18 3c 79 d4 a6 bc
       -0.09298576 -0.08228499 0.009279012 -0.020364987
0000b0 b9 34 cc 3d 77 9b 6a 3d 21 53 0c 3d 96 ed 91 3d
       0.099709935 0.05727717 0.034258965 0.07125394
0000c0 22 98 8c 3d d5 8f ea 3d 10 f5 b7 3d 0c 5f d2 bc
       0.068649545 0.11453215 0.08982289 -0.025680088
0000d0 71 50 02 bd 65 5e bf bb 49 22 5f bc ba 42 b4 bc
       -0.031814996 -0.00584011 -0.013619014 -0.022004474
0000e0 be 78 87 bd 7d 8d 5f 3b 2a 42 fb 3c 07 12 d5 3d
       -0.066148266 0.0034111433 0.030671198 0.10403829
0000f0 8f a0 8f 3d 99 84 06 3e 85 e4 3c 3e b6 11 8c 3e
       0.07013046 0.1313652 0.18446548 0.27357262
000100 f2 ab 12 3e b7 4b 8b 3d a6 f4 2b 3d 43 cb 4f 3d
       0.14323404 0.06801551 0.04198136 0.050730955
000110 09 ae 19 bb 26 99 82 bd cc 96 68 bd 1c d5 cd 3c
       -0.002344968 -0.06376867 -0.056784436 0.025126033
000120 ff 9c 73 3c a8 89 f1 3d 22 24 98 3d 5a d5 cc 3d
       0.014868974 0.11793834 0.07428767 0.10001631
000130 dc 67 15 3e 21 bc 2d 3e af db 47 3c 55 81 2a 3c
       0.145904 0.16966297 0.012198373 0.010406812
000140 1c 0e 01 3e 95 d3 8d 3d 7d 63 25 3c 36 b4 45 3d
       0.12603039 0.06925122 0.010094521 0.048267566
000150 ee 74 09 be 11 47 1b bd 89 40 23 3e 33 bf f7 3d
       -0.13423511 -0.03790957 0.15942587 0.12097015
000160 b3 9f 10 3d eb d3 47 bc ec 42 d1 3d 29 00 13 3e
       0.03530855 -0.012196521 0.102178425 0.1435553
000170 9f f0 9f 3d 97 f8 fc 3d 58 b7 29 3e eb da bb 3d
       0.07809567 0.12352102 0.16573846 0.09172615
000180 d2 7d 9d 3d 6e a8 a0 bc 4f 61 09 be 85 ce 29 3d
       0.07690014 -0.019611564 -0.13416027 0.041456718
000190 f2 32 1b 3e e7 2e 5d 3e a5 7e 96 3d 98 a9 44 bd
       0.15156153 0.21599923 0.07348374 -0.0480133
0001a0 4a 15 14 bd 02 5b 3d 3c e1 9f de 3d 51 49 9e 3d
       -0.036153115 0.0115573425 0.10870338 0.07728828
0001b0 c8 7f 02 3e e5 25 a1 3d c5 48 7c 3d 17 fb 01 3e
       0.12744057 0.07868556 0.061592836 0.1269344
0001c0 4e 47 a5 bd ea 56 b9 3b 7d cf e2 3d d5 4f 6d 3e
       -0.08070241 0.005656113 0.110747315 0.23174985
0001d0 60 a2 e8 3d bb 9a 2e bc d8 bf 31 bd 14 be 31 3d
       0.113590956 -0.010657008 -0.043395847 0.043394163
0001e0 ce 7f c5 3d 9e be f7 3d c8 2f dd 3d 36 22 8d 3d
       0.096435174 0.12096904 0.10800129 0.06891291
0001f0 70 47 5a 3d f2 c8 2f 3d d1 1e dc bd 74 77 c2 bd
       0.053290784 0.042916246 -0.10748065 -0.0949544
000200 a6 94 c4 bc f7 44 9e 3d 20 a8 d8 3d b2 8e a7 3d
       -0.023996662 0.07727998 0.10578942 0.08181514
000210 fd 54 c4 3d 5c 94 f1 3d bc e5 d7 3d 14 b8 c4 3d
       0.09586523 0.117958754 0.10541865 0.096054226
000220 34 65 03 3c ff ae b6 3c a2 78 b7 3d b1 1f ed 3c
       0.008019734 0.022300242 0.08958556 0.028945776
000230 81 24 33 be 90 43 df bd 1a f0 37 bd 3f ea d1 3d
       -0.17494394 -0.109015584 -0.044906713 0.10249757
000240 8e 13 c1 3d 18 a4 96 3d d4 37 59 3e 14 cd 51 3e
       0.09427558 0.07355517 0.21212703 0.20488387
000250 c9 70 06 3d 63 b6 51 3d da 7e 0b 3e 23 ab a2 3d
       0.032822404 0.05119933 0.13622609 0.07942798
000260 f2 f6 7a 3d c3 36 3f bd 51 f3 fc bd ee 33 11 be
       0.06127066 -0.046683084 -0.123510964 -0.14179966
000270 11 de 5d bd 48 7d b9 3c 99 ed 54 3d 98 e2 ac 3c
       -0.054166857 0.022642747 0.051984403 0.021104142
000280 ed d4 05 3d 44 a5 58 3b c2 9e e7 3c 50 0a 7f 3d
       0.032673765 0.003305749 0.028273944 0.062265694
000290 92 c4 a4 3d aa 77 d4 bc 6d 35 59 3d 73 1e 02 3d
       0.08045305 -0.025935967 0.053029466 0.03176732
0002a0 2b 35 85 3c 4e 50 7c be 28 fe 0e be 30 ea 5c bd
       0.016260704 -0.24640009 -0.1396414 -0.053934276
0002b0 54 9b cb bc 26 b0 91 bd 9e 04 cb bc 5e ce d6 bb
       -0.02485434 -0.07113676 -0.024782475 -0.0065553626
0002c0 f2 8d 07 3d 65 f5 8f bc e0 94 1f bd 3d 10 93 3c
       0.033094354 -0.017573068 -0.038960338 0.017952079
0002d0 a7 dd bf bc 72 e7 60 3d 90 6b b2 3c 89 89 d7 3c
       -0.023421122 0.054908223 0.021779805 0.026310699
0002e0 5f 17 61 be d9 a9 ca bd 8d 02 87 bd 3f 42 3a bc
       -0.21981572 -0.09895677 -0.065922834 -0.011368333
0002f0 67 58 ca bd 50 82 20 bd 6d 8b 31 bd 63 eb 1c bd
       -0.09880143 -0.039186776 -0.043345857 -0.03831042
000300 67 fa 16 be c5 8b 55 bb 10 69 64 3d 49 1c c3 bc
       -0.14743958 -0.003258453 0.055764258 -0.023817198
000310 c1 36 82 3d 49 5e d3 3c d2 e1 bd bd c1 b5 82 bd
       0.063581 0.025801795 -0.092715874 -0.06382323
000320 4f 2c dd bd 5e b5 10 bd 3d ae 4b 3b 5d 6e b9 3b
       -0.10799467 -0.035329215 0.0031079196 0.0056589083
000330 14 1d 37 bc 24 8a 71 bd e3 6d b3 3d a2 7c 1d bd
       -0.011176366 -0.05896963 0.087611936 -0.038448937
000340 b3 ab da 3c 3b 15 ae bd cf 2f af 3c 59 3b 1d bd
       0.0266932 -0.08500143 0.021385102 -0.038386676
000350 70 db 15 be e9 2c 07 be 15 be c4 bd 6d 9b a3 3c
       -0.1463449 -0.13200726 -0.09606568 0.019971574
000360 39 1a 44 bd a2 aa a1 3c 17 a8 51 bd 6e b3 1c 3c
       -0.04787657 0.019734684 -0.051185694 0.009564264
000370 07 a8 0b bd 12 45 ea bd be cc 03 3c 81 3b be bc
       -0.03409579 -0.11438955 0.00804442 -0.023221733
000380 4b 94 69 bd 3b 57 35 be dc e1 77 be dc e6 89 be
       -0.05702619 -0.17709057 -0.24207252 -0.26933944
000390 96 1d 83 be b3 f3 91 bd 17 49 cc bd 7c 22 5f 3b
       -0.2560851 -0.0712656 -0.09974878 0.0034047654
0003a0 48 d8 2c 3d 9f be f9 3c ac a6 1b 3e ef 63 2c bd
       0.04219845 0.030486403 0.15200299 -0.04208749
0003b0 14 15 30 be dc a6 30 bd 2c d4 c3 bd d8 3e a6 be
       -0.1719554 -0.04312788 -0.09561953 -0.3246982
0003c0 d7 65 88 be 64 e8 af be 8e c8 89 be a8 a6 90 bb
       -0.26640198 -0.34356987 -0.26910824 -0.004414398
0003d0 b6 4c 86 bd c9 1c 33 3c 5e 66 d5 3d c3 37 e1 3c
       -0.065576 0.010932156 0.104199156 0.02749241
0003e0 c1 0d b9 3d 6e e5 24 3d 00 e5 49 be cb b8 07 bd
       0.090358265 0.040257864 -0.19716263 -0.033135217
0003f0 3a 61 91 be 61 e1 49 be 7c 8e 9c be 00 9f ce be
       -0.2839449 -0.19714881 -0.30577457 -0.40355682

classifier.0.bias f4 [128]
000000 f7 5a e6 bc 8d 5e f4 bc be f0 75 bc 0c f3 86 3c
       -0.028119547 -0.029830242 -0.015011011 0.016473316
000010 9e 16 17 bd 6f 7c 81 3e 96 10 08 bc 2f 7d bc bc
       -0.036886804 0.25290248 -0.008304736 -0.023008911
000020 d5 e4 2c bc 4f 6f 35 bc 79 92 47 3d f3 5e 33 bc
       -0.010552605 -0.011073901 0.04872367 -0.010947931
000030 de d0 94 bc 05 b8 11 bd d5 cf 5b 3d 3a 0b fb bb
       -0.018166002 -0.035575885 0.053665 -0.0076612504
000040 ce 80 aa bc 21 dc 11 bd b1 e8 ab bc 67 4d 9d 3e
       -0.020813372 -0.035610322 -0.02098498 0.30723116
000050 92 bf ed bc ea 8c d8 bd 46 2f 1d bd 49 bc 48 3d
       -0.029022012 -0.10573752 -0.03837516 0.049007688
000060 ca 66 51 3d e3 a9 05 3e ae a9 c3 3d 58 7c 03 3d
       0.051123418 0.13053088 0.09553848 0.032101005
000070 d1 14 9a 3d 63 bf 84 3e ad da 3b 3e 51 e4 5a 3d
       0.07523502 0.25927266 0.18345137 0.053440396
000080 68 ce 15 bd a0 8e 80 3e b7 e2 38 3e d7 5d ae bc
       -0.036573797 0.25108814 0.18055235 -0.02128498
000090 ba 85 46 3e 2c b6 80 bd 7b 03 a7 3d 34 c5 d6 bc
       0.1938695 -0.062847465 0.08154961 -0.02621708
0000a0 c6 90 90 bd 25 7c 8b bd 44 2a b6 bd e3 80 6e 3d
       -0.07058863 -0.06810788 -0.0889478 0.058228385
0000b0 cc 5b 0d bc 9a 8d 25 3e c9 a6 2b 3e 44 5b 25 3e
       -0.008627843 0.16167298 0.16762842 0.16148096
0000c0 6d c4 ed bb 35 bc 79 3d f4 2b 1a 3e 60 ef 50 bd
       -0.007256082 0.060970504 0.1505583 -0.051009536
0000d0 66 16 47 bc 02 8d f5 bc 46 86 9b 3d 32 7a 49 3d
       -0.012151336 -0.029974464 0.0759397 0.0491888
0000e0 66 95 31 3d a0 a4 bc bc 17 33 9b 3c 03 da ca 3c
       0.043355368 -0.023027718 0.01894526 0.02476216
0000f0 95 9e 0c bd 47 36 1c bd 3c ff 94 bc 07 25 51 bc
       -0.034330923 -0.0381377 -0.018188111 -0.012765176
000100 7e 2f 06 bc fc 75 e0 3d 55 37 eb 3d 80 30 14 3d
       -0.008190034 0.10960004 0.11485163 0.036179066
000110 af a5 07 bd ca b7 0d bd 67 ab 99 3d b5 3b 06 3d
       -0.033116993 -0.034599103 0.075033955 0.032771785
000120 75 94 cf bb f7 33 c3 bd ea 41 30 3c 97 1a ff bc
       -0.006334836 -0.09531396 0.010757903 -0.031140609
000130 9e 3c 1a 3e 34 4e 54 3e 54 97 94 3c a1 8d 56 3e
       0.15062186 0.20732957 0.018138565 0.20952465
000140 41 eb 46 bc e9 c4 1f 3d d8 45 65 bc 5e 6d e4 3c
       -0.01214105 0.039006148 -0.013993703 0.027884182
000150 59 6b 4f 3d 7b 04 6e 3d b8 d5 09 bc 05 5e e9 bb
       0.050639484 0.05810974 -0.008412771 -0.0071218037
000160 1f 1c 2c bc 12 1b 3b ba 6b 07 90 bc 5c 42 8f 3d
       -0.0105047515 -0.00071375177 -0.017581662 0.06995079
000170 57 f1 b3 3c 16 54 da 3d b7 dc eb bc 22 b4 7c 3d
       0.021965666 0.10660569 -0.028791768 0.061695226
000180 b7 78 16 bc 51 ac cb 3d 5e ac f2 bd 36 f6 4d bc
       -0.009184054 0.09944976 -0.11849283 -0.012570908
000190 d7 16 b0 3d 47 a9 b2 3e 69 af 0c 3e 9a 9e 27 bd
       0.08598106 0.34894773 0.13738789 -0.04092274
0001a0 82 a0 48 3e d3 87 9b 3d 3b 26 92 bd e9 4d 8f bc
       0.19592479 0.07594266 -0.07136198 -0.017493205
0001b0 23 aa 16 3d cb 17 7e 3e 9b 9c b2 bc 4a 70 55 bc
       0.03678335 0.24813764 -0.021803191 -0.01302726
0001c0 9b aa 15 3b c9 fc 1c bc f2 96 db bc a1 d3 fd 3c
       0.0022837284 -0.009581753 -0.026805375 0.030984702
0001d0 e4 50 8b bb 12 e4 00 bd 72 80 01 3d fc b6 18 3e
       -0.0042515863 -0.031467505 0.031616636 0.14913553
0001e0 5f da 60 bc ee 99 64 bc 3b 5e ab bc a4 ce 3d 3d
       -0.013723939 -0.013952715 -0.020918956 0.046339646
0001f0 89 ce 88 3d ae 6e 1d bd fb e1 55 3d 07 85 08 bc
       0.066800185 -0.03843563 0.052217465 -0.008332497

classifier.3.weight f4 [2, 128]
000000 82 d6 d9 3e c3 f6 ad 3e 08 d9 29 3e 86 53 77 3e
       0.4254647 0.33977327 0.16586697 0.24152955
000010 41 b7 10 be cd 6b 6f be e7 55 4a 3e 5c ba 6c 3e
       -0.14132406 -0.23380966 0.19759332 0.23117965
000020 23 3b 5a 3c fd 70 3f 3e dc 64 a6 ba 1d a7 77 3e
       0.013319763 0.18695445 -0.0012694853 0.24184842
000030 ac d0 75 38 c0 8b 17 bd 31 42 2e be 90 db a5 bd
       5.8606893e-05 -0.03699851 -0.17017438 -0.08098519
000040 6c 49 0b be db 05 c8 3e 57 55 9b be 60 4d 97 be
       -0.13602227 0.39066967 -0.30338547 -0.2955122
000050 07 04 a5 bd 7a e3 03 3e 7e 93 21 3e 08 af 78 3e
       -0.08057409 0.12879744 0.1577892 0.24285519
000060 c5 0e 34 bd 50 fd 1c be 3e f3 86 be d8 90 04 3b
       -0.043959398 -0.15331006 -0.26357454 0.0020227935
000070 14 41 58 3b 1b 4c 8c be bf 76 57 bd cc be 4b be
       0.0032997774 -0.27401814 -0.05260348 -0.19897002
000080 e4 1f 48 3e 13 02 80 be db fb 93 3d 6a 3e 1e 3e
       0.19543415 -0.25001583 0.07225772 0.15453497
000090 44 ad 89 be e6 82 91 3e 97 39 e1 3d 68 66 4b 3e
       -0.26890004 0.2842018 0.109973125 0.19863284
0000a0 bf c9 82 3e 33 74 da 3d 75 8d 82 bd 5b 0f fa 39
       0.25544545 0.106666945 -0.06374637 0.00047695157
0000b0 32 99 27 3e 6b 11 53 be ff 90 7d be ac 8a 0f be
       0.16367033 -0.20612113 -0.24762343 -0.14017743
0000c0 c6 c6 56 3e b1 a0 8c 3c b2 e4 ee 3e 4b 84 30 3e
       0.20974264 0.017166467 0.46658856 0.17237966
0000d0 cc d5 32 3c c9 34 0f 3d 55 0b 19 bc 20 79 79 bd
       0.010915231 0.03496245 -0.009341081 -0.06090653
0000e0 b1 85 a6 bd ee e7 f7 bc 00 e7 98 3e 63 37 a3 be
       -0.08130968 -0.03026196 0.2986374 -0.31878194
0000f0 3d 01 87 3e 83 de 6b 3e b7 98 6e 3e 95 e6 a7 3d
       0.26368132 0.230341 0.23300444 0.08198277
000100 78 80 d0 bc 9d af d6 3e 9e 51 9e 3e a5 20 bc 3d
       -0.025451884 0.41930857 0.30921644 0.09185914
000110 11 41 b5 3d 45 5d 61 3e ce 14 af 3e 94 e7 24 bc
       0.08850301 0.22008236 0.3419556 -0.010064978
000120 3c b4 8d 3b 31 e4 20 be 99 59 ad 3e ff 88 2e be
       0.004324464 -0.15712048 0.3385742 -0.17044447
000130 0a 4f e5 bd d0 c5 e0 bd 08 69 f2 bd cf 9b d1 bd
       -0.11196716 -0.1097523 -0.11836439 -0.10234796
000140 bd 9a ba 3d b7 a8 eb bd 31 40 d2 bd 6e d3 18 be
       0.09111545 -0.11506789 -0.1026615 -0.14924404
000150 97 b0 86 bd 71 c4 fb 3d 7c 8a 2d 3e 20 31 06 bc
       -0.065766506 0.122933276 0.16947359 -0.008190423
000160 1f fa 89 3d 13 56 3a be 9b 96 a8 3d 43 c8 f1 3d
       0.0673716 -0.18196897 0.08231851 0.11805775
000170 97 24 78 3e 0f e4 39 be a7 7a 1f be ff c8 58 be
       0.24232708 -0.18153404 -0.15574132 -0.21170424
000180 1d 16 5c bd 6a 2a 6d be 4a cc b2 3e ae e9 9a 3d
       -0.053732026 -0.23160711 0.34921485 0.07564102
000190 ca 52 90 3e a2 08 12 be c8 3e fe bc ed 79 c1 3d
       0.28188163 -0.14261106 -0.031035796 0.094470836
0001a0 de 73 2e be 46 82 93 be b6 e2 2a 3e 98 65 47 be
       -0.17036387 -0.28810328 0.16688046 -0.19472349
0001b0 58 75 5d bd 20 6b e6 be ac 6c 2a 3e a2 31 c5 3d
       -0.054066986 -0.45003605 0.16643018 0.09628607
0001c0 db 80 a6 bd e1 ad 8d 3d 76 89 15 be 6c e3 33 3e
       -0.08130046 0.069179304 -0.14603218 0.17567223
0001d0 b2 f2 87 3e f6 32 2d 3e ec 0c 6a 3d 42 6b 09 3e
       0.2655235 0.16913971 0.05714123 0.13419822
0001e0 06 57 3b 3d 8d e2 a6 3e 82 d8 d1 3d 7a d3 26 be
       0.04573729 0.3259472 0.10246374 -0.1629161
0001f0 6c e8 d8 bd e0 2f 92 3c 31 1a ce 3d c4 4c 92 3e
       -0.10591206 0.017845094 0.10063589 0.28574193
000200 8a 89 75 be 64 73 1b be 88 e6 46 3d fd 89 e7 bd
       -0.23978248 -0.15180737 0.048559695 -0.11305616
000210 37 5e d9 bd b8 87 bf 3e 44 b3 d8 3c 49 d9 26 be
       -0.10613673 0.37408233 0.026452668 -0.16293825
000220 7b 9c f1 bd e9 4c e1 3c 2e de 21 3d 31 38 58 be
       -0.117974244 0.027502494 0.039518528 -0.21115185
000230 f6 39 4a be 2f 6e 29 bd 65 66 e5 bd a2 94 2b 3e
       -0.19748673 -0.041364845 -0.11201171 0.16755918
000240 58 9a dd bb ac 39 18 be e7 fd a7 3e 78 4b fa 3d
       -0.006762784 -0.1486575 0.328109 0.12221426
000250 af 35 92 bd 06 32 e0 bd 10 a3 fb bd e9 35 7c be
       -0.071391456 -0.10947041 -0.12286961 -0.2462994
000260 05 aa cb 3c 0b 33 21 3d 11 66 89 3e c4 6e 8c 3d
       0.024861345 0.03935532 0.26835683 0.06857064
000270 f5 2e b1 3d 11 ff 94 3e 33 c1 4f 3e 67 ff 14 be
       0.086515345 0.2910085 0.20288543 -0.14550553
000280 bb a1 ac be 48 dd 95 3c 8a a7 68 3e 7a 8d 0e 3e
       -0.3371714 0.018293992 0.22720161 0.13921157
000290 94 07 84 bd 8d aa 57 be 62 cb a5 be 98 64 f0 bc
       -0.06446758 -0.21061154 -0.3238173 -0.029344842
0002a0 d7 a0 a0 3d b9 34 6a be 4c 56 fa bd 1a f0 49 3c
       0.07843178 -0.22871675 -0.12223491 0.012325311
0002b0 50 81 f1 bd 39 02 a7 3c ca b8 29 bd 04 ad 11 3e
       -0.117922425 0.020386802 -0.041435994 0.14226156
0002c0 e3 08 4f 3e b2 35 6e 3d 25 39 e6 bd 99 b1 35 3b
       0.20218234 0.058156677 -0.11241368 0.0027724265
0002d0 ff 40 c4 bd ec ca 17 be a0 ee c5 3d 4c 82 8b 3d
       -0.095827095 -0.14823502 0.09664655 0.068119615
0002e0 5f c9 4e bc 29 78 75 bd 66 c7 8f be 38 c8 ad 3e
       -0.012621253 -0.059929047 -0.28081816 0.33941817
0002f0 ad 63 99 be 79 d1 7e be 90 72 54 be 24 63 b0 bc
       -0.2995886 -0.24884595 -0.20746827 -0.021531649
000300 40 be 7e bd b5 c6 f9 be 66 e6 f8 be 2a 09 c6 be
       -0.062193155 -0.48784414 -0.4861328 -0.38678867
000310 d5 b9 76 3d 13 b7 e9 bd 90 dc 1d bd ee 9e e3 bd
       0.060235817 -0.11411872 -0.038540423 -0.11114298
000320 b9 44 2f bd f3 7e 5c 3e 97 02 1f be 33 bc fb bd
       -0.04279015 0.21532802 -0.15528332 -0.122917555
000330 09 3e 89 3e 99 0d 7f 3e d2 3d 86 bd 99 14 67 3e
       0.26805142 0.24907531 -0.0655476 0.22566451
000340 1c 83 65 be 0b 22 84 bc e1 2b 12 be 76 8e 91 3e
       -0.22413296 -0.016129514 -0.14274551 0.28429002
000350 2c 2c 61 3c 7d 80 a7 be 24 50 7a bd 41 c7 0b 3e
       0.013743442 -0.32715216 -0.061111584 0.13650228
000360 46 c4 62 bd 51 00 0d 3e 0b 84 18 be f1 c6 39 3e
       -0.055362962 0.13769652 -0.1489412 0.18142296
000370 cc 30 8a be db 6f 5f 3e 5e 1d 1a be 72 66 17 3e
       -0.26990354 0.21820013 -0.15050265 0.14785174
000380 f3 0c 21 be 8d 2d 2c 3e 61 fd 40 bc a7 ad ab 3d
       -0.15727596 0.16814251 -0.01177916 0.08382731
000390 a4 60 cf be 1b 93 ea 3e 8a f5 40 3e 97 7c 0a be
       -0.40503418 0.45815358 0.18843666 -0.1352409
0003a0 43 ea 8e 3e 0f fe a4 3b df 7c 6a bd 3a 8a f8 bc
       0.27913103 0.005035169 -0.057247993 -0.030339349
0003b0 3e 09 48 3d 9d a1 f3 3e 72 d4 6c 3c 07 cf 51 be
       0.04883694 0.4758424 0.014454948 -0.20489131
0003c0 fc 7f d4 3d 6e 3b 36 bd fe 98 37 be b2 8e b5 be
       0.103759736 -0.04449027 -0.17929456 -0.3546043
0003d0 0b 60 4a be 3c 48 be 3b 20 39 9b be 34 59 e1 be
       -0.197632 0.005806951 -0.3031702 -0.4401337
0003e0 9a 81 c8 bd 5a 17 b0 be 40 f3 97 3d 78 d2 80 bd
       -0.097903445 -0.34392816 0.07419443 -0.06290144
0003f0 d0 16 e2 bc 05 84 da bd b2 b8 27 3e 18 e1 af be
       -0.027598768 -0.10669712 0.1637905 -0.3435142

classifier.3.bias f4 [2]
000000 d5 f9 05 be d4 f9 05 3e
       -0.13083585 0.13083583
