Pretrained_cnn/main/saved_ckpt/best_model_epoch_86.pt (torch, 835296 bytes, 10 tensors)

features.0.weight f4 [32, 3, 3, 3]
0	0x3e4e890c	0.20169467
1	0x3d2d9124	0.042374745
2	0x3e2dc055	0.169679
3	0x3e3345da	0.17507115
4	0xbe361e15	-0.17784913
5	0xbee0b5ea	-0.4388879
6	0x3e0a6a1b	0.13517039
7	0xbea7477d	-0.3267173
8	0xbf364dcd	-0.71212465
9	0x3e929d4c	0.28635633
10	0x3e892951	0.26789334
11	0x3e83225f	0.2561216
12	0x3e4cdade	0.20005366
13	0xbd4a6f37	-0.04942247
14	0xbe87fd6b	-0.2656053
15	0x3daeb609	0.08530814
16	0xbe993311	-0.29921773
17	0xbf054175	-0.52053005
18	0x3ec97a93	0.3935133
19	0x3eab3e52	0.33445984
20	0x3e060ae8	0.13090098
21	0x3e5ac819	0.21365394
22	0x3df02e42	0.11727573
23	0xbe7a7446	-0.24458417
24	0x3e44caea	0.1921803
25	0xbe5579b9	-0.20847215
26	0xbf07b4b1	-0.5301009
27	0xbd850c7c	-0.06496522
28	0xbd4fccfe	-0.050732605
29	0xbe5346f5	-0.20632537
30	0xbda41da3	-0.08013465
31	0xbddc5d49	-0.1075998
32	0x3ec5a64c	0.38603437
33	0x3eb229e5	0.34797588
34	0x3dd4f7e3	0.10398843
35	0xbe0d9e0f	-0.13829826
36	0xbee30e27	-0.44346735
37	0xbe4bf6ae	-0.1991832
38	0xbe2acbdc	-0.16679329
39	0xbe28c231	-0.16480328
40	0xbebd15c6	-0.36930674
41	0xbe228d2a	-0.15874162
42	0x3e942100	0.28931427
43	0xbe7df75d	-0.24801393
44	0xbe352d4e	-0.17693064
45	0xbecdd5dd	-0.40202227
46	0xbf1f07c7	-0.6212124
47	0xbf0eb617	-0.557466
48	0xbef4b7ad	-0.47796384
49	0xbf058183	-0.52150744
50	0xbed295aa	-0.4112981
51	0x3e9c7330	0.3055663
52	0xbec58683	-0.38579187
53	0xbeb287dd	-0.3486928
54	0x3ed90b24	0.42391312
55	0x3e65f1b5	0.22455485
56	0x3d67ce99	0.05659351
57	0x3dfa44e1	0.12220169
58	0x3e10d2cb	0.14142911
59	0x3df55579	0.11979193
60	0x3e348c5f	0.17631672
61	0xbd05aa4c	-0.03263311
62	0x3d4892d3	0.048968147
63	0x3ea31930	0.31855154
64	0xbe88266b	-0.2659181
65	0xbec79c94	-0.38986647
66	0xbd2c4c09	-0.0420647
67	0xbeb1d059	-0.3472927
68	0xbe3de897	-0.18545757
69	0xbe485e61	-0.19567253
70	0xbe03787b	-0.12838928
71	0xbe601781	-0.21883966
72	0xbe73bdd4	-0.23802882
73	0xbf543bf8	-0.82904005
74	0xbf41bdcb	-0.75680226
75	0xbe3fc599	-0.18727721
76	0xbf137ead	-0.57615167
77	0xbf2c5527	-0.6731743
78	0xbe81da2f	-0.25361773
79	0xbf74e010	-0.9565439
80	0xbf38f5e8	-0.72250223
81	0xbe907a53	-0.28218326
82	0xbe6a8670	-0.22902846
83	0xbe56fbcb	-0.20994489
84	0xbea51d8f	-0.32249114
85	0xbe8534ae	-0.26016754
86	0xbe4178bf	-0.18893717
87	0xbe98d5b1	-0.29850534
88	0xbe29c524	-0.1657911
89	0xbd7385bb	-0.059453707
90	0x3e9c5706	0.30535144
91	0x3ecdd749	0.40203312
92	0x3eded4ca	0.4352172
93	0x3ee8ac85	0.45444122
94	0x3ebcc64c	0.36870039
95	0x3ef488b8	0.47760558
96	0x3ee8d0a4	0.4547168
97	0x3eaa599d	0.33271495
98	0x3e5eea00	0.21768951
99	0xbdd0fb13	-0.102041386
100	0xbe7975c6	-0.24361333
101	0xbe4487f1	-0.19192483
102	0xbe25d223	-0.16193442
103	0xbe3fb958	-0.18723047
104	0xbe22cb12	-0.15897778
105	0xbda14353	-0.07874169
106	0xbdf94fdd	-0.12173436
107	0xbd37e90f	-0.044899996
108	0x3e5abff0	0.21362281
109	0x3e8de68d	0.2771496
110	0x3ea4e9d4	0.32209647
111	0x3e856211	0.2605138
112	0x3ed1ed86	0.41001529
113	0x3e76e426	0.24110469
114	0x3e7b8432	0.24562147
115	0x3e295d6a	0.16539541
116	0x3a646c86	0.0008713681
117	0x3e87e579	0.2654226
118	0x3d857974	0.06517306
119	0x3eba6900	0.36408234
120	0xbbd18560	-0.0063940734
121	0xbd28c311	-0.041201655
122	0x3da81a97	0.082081966
123	0xbd84dcc2	-0.06487419
124	0xbe296dfd	-0.16545863
125	0xbe641787	-0.222746
126	0xbeaa043b	-0.33206353
127	0xbe8a54b3	-0.27017745
128	0xbe0386a9	-0.12844338
129	0xbe3970ba	-0.18109408
130	0xbe2ddbc5	-0.16978367
131	0xbd766e92	-0.06016404
132	0xbe5eeaba	-0.21769229
133	0xbea7982b	-0.32733282
134	0xbeeada67	-0.45869753
135	0xbf187203	-0.5954897
136	0xbe7a7711	-0.24459483
137	0x3e6d8358	0.23194635
138	0xbe61de2a	-0.22057405
139	0xbde12c06	-0.10994725
140	0x3e6c7eb3	0.23095207
141	0x3d50510e	0.05085855
142	0x3e3d549b	0.18489306
143	0x3e92d156	0.28675336
144	0xbef0df25	-0.47045246
145	0xbdd03bf7	-0.101676874
146	0x3db90a35	0.0903515
147	0xbe31f447	-0.1737834
148	0xbe273bf8	-0.1633147
149	0x3eb38dd7	0.35069153
150	0x3de250cf	0.11050569
151	0x3e8b9b9d	0.2726716
152	0x3eb5524b	0.35414347
153	0xbf21f04f	-0.63257307
154	0xbe7dcb7b	-0.24784653
155	0x3d97fcb4	0.07421246
156	0xbeedf598	-0.46476436
157	0xbe07577e	-0.1321697
158	0x3e8bdf92	0.27319008
159	0x3e2f9afb	0.17148964
160	0x3e8b31c3	0.27186403
161	0x3eb00e49	0.343859
162	0xbe3c0d4c	-0.18364447
163	0xbe8198e2	-0.25311953
164	0xbdea6df5	-0.11446754
165	0xbe859ea9	-0.2609761
166	0xbec1be52	-0.37840515
167	0x3d54b26d	0.051927973
168	0xbe692619	-0.2276844
169	0xbe94844c	-0.29007185
170	0xbe59e26a	-0.21277776
171	0xbe4638f1	-0.19357659
172	0xbd943c0a	-0.07238014
173	0x3d4c8481	0.049931053
174	0xbe426c5c	-0.18986648
175	0xbdcdfde4	-0.100581914
176	0x3dc2d2c9	0.0951286
177	0xbe04a9f3	-0.12955455
178	0xbe8a21a3	-0.26978788
179	0xbbcd3fc3	-0.0062637045
180	0xbddd051f	-0.107919924
181	0xbd441855	-0.047874767
182	0xbe6fa05b	-0.23401015
183	0xbcec73d8	-0.028863832
184	0xbe2dbc35	-0.16966327
185	0x3c9e0b8b	0.019292613
186	0xbe4c0712	-0.19924572
187	0xbe4341ab	-0.19068019
188	0xbe00e95e	-0.12589023
189	0xbe139710	-0.14413095
190	0x3e161766	0.14657363
191	0xbe17d1be	-0.14826104
192	0xbe266527	-0.16249524
193	0xbe6899e2	-0.22714952
194	0xbf227000	-0.6345215
195	0x3da44719	0.08021373
196	0xbdb12bcb	-0.08650931
197	0x3e427a61	0.18991996
198	0x3e443eb0	0.19164538
199	0x3e8d2b56	0.27572125
200	0xbe1f3949	-0.15549196
201	0x3da6f86d	0.08152852
202	0xbd90a6ae	-0.070630416
203	0xbed5864a	-0.41704017
204	0x3d8e220c	0.06940088
205	0x3e67d96d	0.22641535
206	0x3ec7c041	0.39013866
207	0x3e468622	0.19387105
208	0x3e8ea8ef	0.2786326
209	0xbe119742	-0.14217857
210	0x3e5da7ea	0.21646085
211	0xbde0d2f5	-0.10977737
212	0xbf1ca3e8	-0.611876
213	0x3e843a99	0.25825956
214	0x3dec3e9b	0.115353785
215	0x3dd96708	0.10615355
216	0x3e3d13d2	0.18464592
217	0x3e29369d	0.1652474
218	0x3df61fdf	0.12017798
219	0x3e6b6788	0.22988713
220	0x3dff3422	0.124611154
221	0x3e1772e4	0.14789921
222	0x3e05858d	0.13039227
223	0x3df1d839	0.11808819
224	0x3d8b80aa	0.0681165
225	0xbe704d58	-0.23467004
226	0xbe1b0e9e	-0.15142295
227	0xbeb9a56e	-0.36259025
228	0xbe929dd0	-0.28636026
229	0xbeecafb4	-0.462278
230	0xbeb60a94	-0.35554945
231	0xbe819ec7	-0.2531645
232	0xbe3ed1cb	-0.18634717
233	0xbdb0c73f	-0.08631753
234	0xbd0cfc6f	-0.034420427
235	0xbdbd78a0	-0.09251523
236	0xbddc6bff	-0.10762786
237	0xbd9760e2	-0.07391526
238	0xbe81cab5	-0.25349966
239	0xbc5781bb	-0.013153489
240	0x3cef965e	0.029246505
241	0xbd9bd621	-0.07609201
242	0xbe5fdaa6	-0.21860752
243	0xbfa3c212	-1.27936
244	0x3db7b098	0.089692295
245	0xbe2ac92b	-0.16678302
246	0xbf907393	-1.128527
247	0xbfaa4ff9	-1.3305656
248	0xbd9a9e85	-0.075497665
249	0xbfe3f347	-1.7808617
250	0xbfc89fe4	-1.5673795
251	0x3e25bbd4	0.16184932
252	0xbfccdf53	-1.6005653
253	0xbdec32e5	-0.11533145
254	0xbe85e40b	-0.26150545
255	0xbf8f5125	-1.1196638

features.0.bias f4 [32]
0	0xbd86be1d	-0.0657923
1	0xbdb4d9b8	-0.08830589
2	0xbd5a2b69	-0.053264055
3	0xbe8f8249	-0.28029087
4	0xbdc9f8eb	-0.098619305
5	0xbe2440ea	-0.16040388
6	0xbe26ba35	-0.1628197
7	0xbcf017b1	-0.029308172
8	0xbc9719d7	-0.018444939
9	0x3e567e2f	0.20946573
10	0xbca47579	-0.020075547
11	0xbebf2628	-0.37333798
12	0xbec3502e	-0.3814711
13	0xbea27fac	-0.3173803
14	0x3af8ed08	0.0018991539
15	0xbe84897b	-0.2588614
16	0x3ec39c77	0.3820531
17	0xbe40a782	-0.18813899
18	0xbdadab8c	-0.084799856
19	0xbeb7d956	-0.35908002
20	0xbd58b959	-0.052911136
21	0xbf4659ea	-0.7748095
22	0xbec1bdcf	-0.37840125
23	0xbe796e11	-0.24358393
24	0x3d949771	0.07255448
25	0xbdede478	-0.116158426
26	0xbc2bb255	-0.010479529
27	0xbcdb6107	-0.026779665
28	0xbd0bd02e	-0.034134082
29	0xbd9d35d2	-0.07676281
30	0xbcb62680	-0.022235155
31	0xbea6d4b4	-0.32584155

features.3.weight f4 [16, 32, 3, 3]
0	0xbdb758ac	-0.0895246
1	0xbe81a4b7	-0.2532098
2	0xbd1ead6e	-0.038739614
3	0xbebf78e9	-0.37396935
4	0xbe66017a	-0.22461501
5	0xbde0a883	-0.10969641
6	0xbe102bef	-0.1407926
7	0x3d04ec73	0.032452058
8	0xbe3c5781	-0.18392755
9	0x3e0664b2	0.1312435
10	0x3cc62c64	0.024191089
11	0xbe99458c	-0.29935873
12	0xbcf345ee	-0.029696431
13	0x3ece70a1	0.40320304
14	0x3e9d72e4	0.30751717
15	0xbcd4c63c	-0.025973432
16	0x3d81d172	0.06338777
17	0x3e3b699a	0.18302003
18	0xbe1d9377	-0.15388285
19	0x3dedadef	0.11605441
20	0xbec8e8b8	-0.3924005
21	0xbd16bba1	-0.03680003
22	0xbd93a1c0	-0.07208586
23	0xbeb9c9f6	-0.36286896
24	0xbe849fe3	-0.25903234
25	0xbeb8625e	-0.36012548
26	0xbe47a01e	-0.19494674
27	0x3f239d42	0.6391183
28	0x3ed6ef3c	0.41979396
29	0x3d9993dc	0.07498905
30	0x3f164b80	0.58708954
31	0x3d028e51	0.031874005
32	0xbee44207	-0.44581625
33	0x3f021bc4	0.50823617
34	0xbe1bc5b4	-0.15212137
35	0xbf5be24e	-0.8589219
36	0xbf50a1f0	-0.81497097
37	0xbf0a2268	-0.5395875
38	0xbac425c5	-0.001496487
39	0xbf023d75	-0.50875026
40	0x3e0f047b	0.13966553
41	0x3ef7f0ca	0.48425895
42	0xbea9d16f	-0.33167598
43	0x3f0b9fcc	0.54540706
44	0x3f72f2ce	0.9490174
45	0x3d0ce413	0.034397196
46	0xbdb7d09b	-0.08975335
47	0xbe3b2c01	-0.18278505
48	0xbe3e53f8	-0.18586719
49	0xbd19e1fc	-0.03756903
50	0xbdd1ab67	-0.102377705
51	0xbf26e823	-0.6519796
52	0xbefadfe2	-0.48998934
53	0xbe71a034	-0.23596269
54	0x3e0910cf	0.13385318
55	0xbbea4dcd	-0.007150388
56	0xbd317a20	-0.043329358
57	0x3e90052b	0.28128943
58	0xbdefdddc	-0.11712238
59	0xbe035727	-0.12826215
60	0x3dbe899b	0.0930359
61	0xbd2cebcb	-0.042217057
62	0xbe1198d7	-0.1421846
63	0x3efcdb75	0.49386182
64	0xbcf32ae9	-0.029683547
65	0xbc78822e	-0.015167756
66	0x3ca5fb7c	0.020261519
67	0xbe6dd2c7	-0.23224936
68	0xbe4f6a04	-0.20255286
69	0xbd0fee11	-0.035139147
70	0xbe650d4a	-0.2236835
71	0xbe8b02bc	-0.27150524
72	0xbed4cc8d	-0.4156231
73	0xbeccc3c3	-0.39993104
74	0xbe4541cb	-0.1926338
75	0xbed4d220	-0.41566563
76	0xbe8700df	-0.26367852
77	0xbe316f8f	-0.17327712
78	0xbed2104d	-0.41028062
79	0x3d442261	0.04788435
80	0x3e611f4a	0.21984592
81	0xbf741fee	-0.9536122
82	0xbf94a992	-1.1614249
83	0xbeb94311	-0.3618398
84	0xbf5cc328	-0.86235285
85	0xbeceb9a4	-0.40376008
86	0xbb43f11b	-0.0029898349
87	0xbe56aca0	-0.20964289
88	0xbebf52b7	-0.37367794
89	0xbd8a8abd	-0.067647435
90	0x3dc39757	0.0955035
91	0xbe2d6474	-0.16932851
92	0x3df40897	0.11915701
93	0xbd675a0e	-0.056482367
94	0xbd9add2b	-0.07561716
95	0xbe5a9e9f	-0.21349572
96	0x3df71fc4	0.12066606
97	0xbbd0ff53	-0.0063780933
98	0xbe19b7ff	-0.15011595
99	0xbdeae7d8	-0.11470002
100	0xbd4d692f	-0.05014914
101	0xbc97fe87	-0.018553985
102	0x3daa5260	0.08316493
103	0x3d3e4700	0.04645443
104	0xbda2f8b1	-0.0795759
105	0x3e84b81b	0.2592171
106	0x3cc12f7c	0.023582213
107	0x3ea64993	0.32478008
108	0xbef9ddff	-0.48802182
109	0xbeee1fec	-0.4650873
110	0xbeed0976	-0.4629628
111	0x3e1ac4cd	0.15114136
112	0x3e0f05a1	0.13966991
113	0x3e3c3934	0.18381196
114	0xbc46c16d	-0.012131077
115	0x3c28f2d7	0.010311804
116	0x3e7327e7	0.2374569
117	0xbdc78168	-0.09741479
118	0xbd8863fe	-0.06659697
119	0xbcb4aa22	-0.022053782
120	0x3e227fe2	0.15869096
121	0x3e71bcaa	0.23607126
122	0x3ece3885	0.40277496
123	0xbe02423f	-0.12720583
124	0xbe989bb4	-0.29806292
125	0xbd3b3c2c	-0.04571168
126	0x3e462239	0.19348992
127	0x3c85f77e	0.016353365
128	0xbc5f61c1	-0.013634146
129	0x3ec00423	0.37503156
130	0xbd68e326	-0.05685725
131	0xbe93a15f	-0.28834054
132	0x3ea2c07a	0.31787473
133	0x3c29af00	0.010356665
134	0xbed19d33	-0.40940246
135	0x3e5836fe	0.21114728
136	0x3ce150b1	0.027504297
137	0xbec70402	-0.38870245
138	0x3daaf4ba	0.08347459
139	0x3d9a10d0	0.07522738
140	0xbcea9af6	-0.028638344
141	0x3e3d3a47	0.18479262
142	0x3e0dfc4f	0.1386578
143	0xbd8acc28	-0.06777221
144	0xbe755fbc	-0.23962301
145	0xbd7c2d02	-0.06156636
146	0x3d67450f	0.056462344
147	0x3f0b7ea1	0.54490095
148	0x3eb40d1a	0.35166246
149	0x3e64d0a2	0.22345212
150	0x3eaa1ffc	0.33227527
151	0x3d0f9d98	0.035062402
152	0xbd2afef0	-0.041747034
153	0xbead7ecc	-0.338858
154	0xbe73ea96	-0.23819956
155	0xbe445504	-0.19173056
156	0xbead6671	-0.3386722
157	0xbc7d4081	-0.015457273
158	0x3db76a01	0.089557655
159	0xbecea45c	-0.4035977
160	0xbde820ab	-0.11334356
161	0x3e8e61d9	0.27809027
162	0x3d55b24d	0.052171994
163	0x3e159648	0.14608109
164	0x3dc28fe4	0.09500101
165	0x3e04743c	0.12934965
166	0xbdd6f5ed	-0.10496125
167	0x3dfd111f	0.12356781
168	0xbddb227a	-0.10699935
169	0xbe9ffe5f	-0.31248757
170	0x3b93ce17	0.004510652
171	0x3ec5b494	0.38614333
172	0x3dacd9e9	0.084400006
173	0xbe935821	-0.28778175
174	0x3e77d4cf	0.24202274
175	0x3e868fa2	0.26281458
176	0x3da2c6f6	0.07948105
177	0xbe485ee0	-0.19567442
178	0x3c4a9c7c	0.01236641
179	0x3c4b70e5	0.012417053
180	0xbe76e10d	-0.24109288
181	0xbee8732c	-0.4540037
182	0xbe8c9c4a	-0.2746299
183	0xbd1329fa	-0.035928704
184	0xbbe6f947	-0.007048759
185	0x3e2116f1	0.15731408
186	0x3e1fd690	0.15609193
187	0x3ddebef6	0.10876267
188	0x3eed7bca	0.46383506
189	0x3e8593aa	0.2608922
190	0xbd7b2344	-0.06131293
191	0xbe0a46a0	-0.13503504
192	0x3f05d401	0.5227662
193	0x3ce488d0	0.027897269
194	0xbea3fc0e	-0.3202824
195	0x3e4918c5	0.19638355
196	0xbdb79cfa	-0.08965488
197	0xbe612329	-0.21986069
198	0xbea3e607	-0.32011434
199	0xbe754984	-0.23953825
200	0xbed415d5	-0.41422907
201	0xbe645093	-0.22296362
202	0xbe3c3dda	-0.1838297
203	0xbe8f855c	-0.28031433
204	0xbe7e60cd	-0.24841614
205	0xbedce53c	-0.43143642
206	0x3e934c3c	0.287691
207	0x3e726ff8	0.23675525
208	0x3e27ab06	0.16373834
209	0xbe7206db	-0.23635428
210	0x3e724001	0.23657228
211	0xbe5754e1	-0.21028472
212	0xbda9548d	-0.0826808
213	0xbe1d33b0	-0.15351748
214	0xbea82515	-0.3284079
215	0xbe836ae3	-0.25667486
216	0xbe9c93ac	-0.30581415
217	0xbe593613	-0.21212034
218	0x3cf6d472	0.030130599
219	0xbe3c0dc4	-0.18364626
220	0xbe860645	-0.26176658
221	0xbe1af6e5	-0.15133245
222	0xbd2e76d3	-0.04259379
223	0xbebb67d5	-0.36602655
224	0xbdb42739	-0.08796544
225	0xbf5958b7	-0.84900993
226	0xbe81365e	-0.2523679
227	0x3e16679b	0.1468796
228	0xbf3236b2	-0.6961471
229	0x3e91ee00	0.28501892
230	0x3f5ffb08	0.8749242
231	0xbf2de073	-0.6792061
232	0x3f1124e1	0.566969
233	0x3f5a8d8a	0.8537222
234	0xbf6c2b29	-0.9225336
235	0xbe671e5a	-0.22570172
236	0xbf4a6007	-0.79052776
237	0xbeadefd8	-0.3397205
238	0x3e53ffac	0.20703
239	0x3d403e09	0.04693416
240	0xbf6f694d	-0.9352005
241	0xbefc28a0	-0.49249744
242	0xbe4cac3f	-0.19987582
243	0xbcbc888f	-0.023014335
244	0xbed4d1fd	-0.41566458
245	0x3e87e614	0.26542723
246	0xbe824c62	-0.254489
247	0xbb9120eb	-0.004428973
248	0x3e9a006d	0.3007845
249	0xb9a88e21	-0.0003214935
250	0xbec86324	-0.39138138
251	0xbd851a18	-0.064991176
252	0xbd270347	-0.04077461
253	0xbec0b166	-0.37635344
254	0xbe3e92b6	-0.18610653
255	0xbea9ab60	-0.3313856

features.3.bias f4 [16]
0	0x3aab18fb	0.0013053709
1	0x3e13f677	0.14449488
2	0xbdce5a1b	-0.1007578
3	0x3c95e2b7	0.018296583
4	0xbd503635	-0.050832946
5	0xba81f7ac	-0.0009915731
6	0xbd401c0b	-0.046901744
7	0x3cb53341	0.022119166
8	0xbd58ebaf	-0.05295914
9	0xbdc91ba5	-0.09819726
10	0xbd366d10	-0.044537604
11	0xbe886c0c	-0.26644933
12	0x3d05e373	0.032687616
13	0xbec1c085	-0.37842193
14	0x3d6a340f	0.057178553
15	0xbda24257	-0.079228096

features.6.weight f4 [8, 16, 3, 3]
0	0xbe5076f5	-0.20357879
1	0x3d645edf	0.05575454
2	0x3a3358ed	0.0006841559
3	0xbcdcf912	-0.026974235
4	0x3d9bba81	0.07603932
5	0x3c8621a4	0.016373463
6	0xbd9113a8	-0.07083827
7	0xba984843	-0.0011618215
8	0x3d461690	0.04836136
9	0x3d142c01	0.036174778
10	0xbb8f8e8f	-0.004381008
11	0x3dd3a4db	0.10334178
12	0x3d2d18f1	0.042260114
13	0x3ed0cd52	0.40781647
14	0x3e90e163	0.28296956
15	0xbd01d2ca	-0.031695165
16	0x3e956673	0.29179725
17	0x3ec814a8	0.3907826
18	0xbd168981	-0.036752228
19	0xbc9c09fa	-0.019047726
20	0x3c441e38	0.011970095
21	0x3db2133e	0.086950764
22	0xbe44e4f9	-0.19227971
23	0x3dcb2f81	0.0992117
24	0x3df5f384	0.120093375
25	0x3ce2c38d	0.027681137
26	0xbcdd1754	-0.026988663
27	0xbc51ee73	-0.012813198
28	0xbe4b6203	-0.19861607
29	0xbdcdf559	-0.10056562
30	0xbe08bb4a	-0.13352695
31	0x3cf4e109	0.029892461
32	0x3d207fc9	0.039184365
33	0xbc8f35cf	-0.017481713
34	0x3db2cdf8	0.08730692
35	0x3e550cb8	0.20805633
36	0xbe615cfa	-0.22008124
37	0xbdb27138	-0.08713001
38	0x3d3e1d36	0.046414576
39	0xbe575958	-0.21030176
40	0x3d089e9f	0.033354398
41	0x3dfe0261	0.124027975
42	0xbd195886	-0.03743794
43	0x3dd00e1b	0.101589404
44	0x3e744701	0.23855211
45	0x3d341fc9	0.043975625
46	0xbd831590	-0.06400597
47	0xbd3ee826	-0.046608113
48	0xbeb6109c	-0.35559547
49	0xbf3d04f6	-0.73835695
50	0xbf56cfc2	-0.83910763
51	0xbb87d902	-0.0041457424
52	0xbeb05887	-0.3444254
53	0xbf240f82	-0.64086163
54	0x3defd735	0.11710969
55	0xbe4850e2	-0.19562104
56	0x3e6915e9	0.22762264
57	0xbebd7a99	-0.37007597
58	0xbeb6a445	-0.35672203
59	0x3bd91439	0.006624725
60	0x3c863b4f	0.016385702
61	0xbdb82ee3	-0.08993318
62	0x3e52c772	0.20583895
63	0x3e24d881	0.16098215
64	0xbd68ef63	-0.056868922
65	0x3b21bdd6	0.0024679801
66	0xbdae99b9	-0.08525414
67	0xbeadb70b	-0.33928713
68	0x3c80e801	0.015735628
69	0xbd85cd42	-0.065332904
70	0xbe98a7ce	-0.29815525
71	0xbe8eb2d1	-0.278708
72	0xbdf413ea	-0.11917861
73	0xbd158976	-0.036508046
74	0xbe0c1afc	-0.13682169
75	0xbc8fe7ef	-0.01756665
76	0xbdbf1eb3	-0.09332027
77	0x3e02c990	0.12772202
78	0xbd38c3ab	-0.04510848
79	0x3db32e52	0.08749069
80	0x3d86b74b	0.06577929
81	0x3e6c96ad	0.23104353
82	0x3e4cdc2d	0.20005865
83	0x3cf34e09	0.029700296
84	0xbe80a66c	-0.2512697
85	0xbe7bc8ad	-0.2458827
86	0xbde8cee1	-0.11367584
87	0x393f85a7	0.00018264969
88	0xbec0482d	-0.37555066
89	0x3c8e5321	0.017373623
90	0xbd29b77b	-0.041434746
91	0xbe08896e	-0.13333675
92	0xbe222e77	-0.15838037
93	0xbc811870	-0.015758723
94	0x3c5f252c	0.013619702
95	0xbe24bd78	-0.16087902
96	0x3c82f32e	0.015985098
97	0xbe0e036d	-0.13868494
98	0x3b576405	0.0032866013
99	0xbee30386	-0.44338626
100	0xbe470341	-0.19434835
101	0x3f0ac1ff	0.54202265
102	0xbe9278d4	-0.2860781
103	0x3cf380c5	0.029724488
104	0xbdd55722	-0.1041701
105	0xbdb7adbc	-0.08968684
106	0xbdba51af	-0.09097611
107	0xbbe04160	-0.006843731
108	0xbe2338ed	-0.15939684
109	0x3ea121bb	0.31471047
110	0x3e725c50	0.23668027
111	0xbe4d75eb	-0.20064513
112	0x3dc13747	0.094343714
113	0x3e739a86	0.23789415
114	0xbd2644e9	-0.04059306
115	0x3d53400a	0.051574744
116	0xbe286873	-0.16446094
117	0xbd8268a9	-0.063676186
118	0xbe466124	-0.19372994
119	0xbc3ea78b	-0.011636625
120	0xbdd40afc	-0.103536576
121	0x3d3e4417	0.046451654
122	0xbd7b3c50	-0.061336815
123	0x3e3f82c2	0.18702224
124	0xbdbc77b3	-0.09202518
125	0x3e0afc10	0.13572717
126	0xbde8c037	-0.11364787
127	0x3d98e449	0.07465417
128	0xbdbd8330	-0.09253538
129	0xbcf55a47	-0.029950274
130	0xbc3bf1d9	-0.011471235
131	0x3e60c34c	0.219495
132	0xbd8a4d83	-0.067530654
133	0x3d9978e6	0.07493763
134	0x3e5f5bac	0.21812314
135	0xbe086d3e	-0.13322923
136	0x3e1d6801	0.15371706
137	0x3d891a31	0.06694449
138	0x3e13d4ab	0.14436595
139	0x3ea59fdf	0.32348534
140	0xbdae9c0c	-0.08525857
141	0xbc8050ff	-0.015663622
142	0xbe01124b	-0.12604634
143	0xbd1c011d	-0.038087
144	0xbe87950b	-0.26480898
145	0xbdfef48b	-0.124489866
146	0x3e95bcc2	0.29245573
147	0xbe5634b0	-0.20918536
148	0x3db11f24	0.08648518
149	0x3e8358ee	0.25653785
150	0xbe4b6af3	-0.19865017
151	0x3e5392a2	0.20661405
152	0x3d87b910	0.06627095
153	0x3e8ebf98	0.2788055
154	0x3e4b97c0	0.19882107
155	0xbe5e3fe7	-0.21704064
156	0x3d1c3da4	0.038144723
157	0xbbd96d9e	-0.006635382
158	0xbdbe3705	-0.09287838
159	0xbd8fb48d	-0.07016859
160	0xbdc81f88	-0.09771639
161	0x3db7aad9	0.089681335
162	0x3cd67ab4	0.026181556
163	0x3cb954d9	0.022623466
164	0x3d0c3f15	0.034239847
165	0xbe2cb19b	-0.16864626
166	0xbe1a23ee	-0.15052769
167	0xbaf27164	-0.0018496928
168	0x3d52d276	0.051470242
169	0x3e1087ff	0.14114378
170	0x3e2b7c46	0.16746625
171	0x3ca08563	0.019594854
172	0x3c0e1efb	0.0086743785
173	0x3c8b5071	0.01700613
174	0xbe27c318	-0.16383016
175	0xbca87538	-0.020563707
176	0x3e05832d	0.13038321
177	0x3dabe1a2	0.083926454
178	0xbd2d45ae	-0.04230278
179	0x3e0e203c	0.13879484
180	0xbe716646	-0.2357417
181	0xbe07a495	-0.13246377
182	0x3e24931f	0.16071747
183	0xbe6f677f	-0.23379324
184	0x3cce8b75	0.025212983
185	0x3d36b89b	0.044609647
186	0x3d084d05	0.033276577
187	0xbc192a77	-0.009348503
188	0xbd022608	-0.03177455
189	0xbdb27754	-0.08714166
190	0xbe25d687	-0.16195117
191	0xbd11b428	-0.0355722
192	0xbe57deb0	-0.21081042
193	0x3e510fcc	0.20416182
194	0x3e425558	0.18977869
195	0xbe572bbf	-0.21012782
196	0x3d81439a	0.06311722
197	0x3df25515	0.11832634
198	0xbe9946cb	-0.29936823
199	0xbe86fcff	-0.26364896
200	0x3e7eef2f	0.24895929
201	0xbe1646d1	-0.14675452
202	0xbe4e9109	-0.20172514
203	0x3ea05b3d	0.3131961
204	0xbdc56b79	-0.096396394
205	0x3e8eb556	0.27872723
206	0x3e411e22	0.18859151
207	0x3d3bb403	0.04582597
208	0x3de5b154	0.11215463
209	0xbe9ca30e	-0.3059315
210	0xbbb91429	-0.005648155
211	0xbe5732d6	-0.21015486
212	0x3d3d2e87	0.04618695
213	0xbde3bd08	-0.11120039
214	0x3da11e51	0.078671105
215	0x3e15b624	0.14620262
216	0x3c44d8c4	0.012014572
217	0x3de31e64	0.11089781
218	0xbd547bac	-0.051875755
219	0x3d813ece	0.06310807
220	0x3d3e71a6	0.046495102
221	0x3d2f6705	0.042822856
222	0x3dee56c3	0.11637642
223	0xbdc7d231	-0.09756888
224	0xbe063066	-0.131044
225	0xbd9fcda6	-0.07802896
226	0xbc631927	-0.013860977
227	0x3e8dccb1	0.2769523
228	0x3d57e956	0.05271276
229	0x3e4a2e77	0.19744287
230	0x3e247469	0.16060032
231	0x3eabaf20	0.33532047
232	0xbdafa1c1	-0.08575774
233	0x3eeb6994	0.45978987
234	0xbe4aebcf	-0.19816516
235	0xbc155fc1	-0.009117068
236	0x3e92e49c	0.2869004
237	0xbd697c80	-0.057003498
238	0x3dd89f0a	0.10577209
239	0x3dc93cb4	0.09826031
240	0xbe07631f	-0.13221405
241	0x3c0f7ed0	0.008758262
242	0x3d5b812d	0.05358999
243	0xbde51759	-0.11186094
244	0x3a2b098e	0.0006524556
245	0xbd13b8ef	-0.03606504
246	0x3d158a04	0.036508575
247	0x3e35012f	0.17676233
248	0xbda31a1e	-0.07963966
249	0x3d1c3340	0.038134813
250	0xbd069cd7	-0.032864418
251	0x3d6cbe77	0.05779883
252	0xbda1e54b	-0.07905062
253	0x3e116557	0.14198814
254	0x3d2c56bb	0.0420749
255	0x3d0cfd1d	0.034421075

features.6.bias f4 [8]
0	0x3e626672	0.22109392
1	0xbeb79ccb	-0.3586181
2	0x3d49c8df	0.04926383
3	0x3e269467	0.16267549
4	0x3da31463	0.07962873
5	0xbea1e61b	-0.3162087
6	0xbe801ce8	-0.25022054
7	0xbe8b3edc	-0.27196395

classifier.0.weight f4 [128, 1568]
0	0x3c37d834	0.01122098
1	0xbe2b7b5c	-0.16746277
2	0xbed385b7	-0.41312954
3	0xbe8b9b67	-0.27267
4	0x3d6ec42c	0.058292553
5	0x3dbfd2dd	0.09366391
6	0x3d015a5a	0.031580307
7	0x3c24e05d	0.010063258
8	0x3df27b0d	0.11839876
9	0x3cb0e3ee	0.02159306
10	0x3e1d01e5	0.15332754
11	0xbe24b223	-0.16083579
12	0xbda395ee	-0.07987581
13	0x3d870016	0.06591813
14	0x3d0488bf	0.032356974
15	0xbf0a4698	-0.5401397
16	0xbdc828db	-0.097734176
17	0xbde7d0a4	-0.11319092
18	0xbe8d1b67	-0.2755997
19	0xbd080875	-0.03321119
20	0x3d2b1962	0.041772254
21	0xbd811a95	-0.06303898
22	0x3d2507ed	0.04029076
23	0x3d5b665a	0.053564407
24	0x3dbe8df0	0.09304416
25	0x3dc7fafc	0.09764668
26	0xbe9bb04e	-0.30407947
27	0xbd298b95	-0.04139288
28	0xbef9c446	-0.48782557
29	0xbe65a49b	-0.22426073
30	0xbdf34326	-0.11878042
31	0xbddb040b	-0.106941305
32	0xbdb78a6d	-0.089619495
33	0x3e7a886e	0.24466106
34	0x3e196dc4	0.14983279
35	0x3ce3f9ac	0.027829014
36	0xbd62cb89	-0.055369888
37	0xbc9b6de3	-0.018973297
38	0xbdabe269	-0.08392794
39	0x3c921f91	0.017837318
40	0xbe60c586	-0.21950349
41	0xbe7a8bf1	-0.24467446
42	0xbe8486ba	-0.25884038
43	0xbebe3695	-0.37151018
44	0xbe113135	-0.14178927
45	0xbc93b80a	-0.018032093
46	0x3d6549e8	0.055978686
47	0x3e2ee5aa	0.17079797
48	0xbd91212f	-0.070864074
49	0x3d285bb8	0.041103095
50	0x3db084bc	0.08619067
51	0x3c905110	0.017616779
52	0x3cc283cf	0.023744492
53	0x3d1692c2	0.036761053
54	0x3c7a797d	0.015287754
55	0xbed9b222	-0.42518717
56	0xbea058dc	-0.31317794
57	0xbe142ad1	-0.14469458
58	0x3dcc01bf	0.099612705
59	0x3e252205	0.16126259
60	0x3cbe6482	0.023241285
61	0x3e3c145a	0.18367139
62	0x3ce40199	0.027832793
63	0x3e5a5e61	0.21325065
64	0x3e737341	0.23774435
65	0x3e7bc01f	0.24585007
66	0x3e3d1563	0.1846519
67	0x3d8888ec	0.06666741
68	0xbd3b7ecd	-0.045775224
69	0xbf350798	-0.7071471
70	0xbe6fedf3	-0.23430614
71	0x3d943f94	0.07238689
72	0x3ea78a09	0.327225
73	0x3de352c3	0.1109977
74	0x3dfb4c5d	0.122704245
75	0x3ec36ee8	0.38170552
76	0x3da49721	0.08036638
77	0x3dccd52c	0.10001597
78	0x3eb5d567	0.35514376
79	0x3cb65709	0.022258298
80	0xbcdd0fe4	-0.026985116
81	0x3e05aed6	0.13054976
82	0x3d9aaec8	0.07552868
83	0xbeaca79b	-0.33721623
84	0xbe07c050	-0.13256955
85	0xba258977	-0.00063147343
86	0x3ec0ecf7	0.3768079
87	0x3de02175	0.109438814
88	0x3eb58242	0.3545094
89	0x3ec60dcc	0.386824
90	0x3d2a2509	0.041539226
91	0xbe70abb2	-0.23502997
92	0x3e10481a	0.14090005
93	0x3e74d284	0.2390843
94	0xbe4fc498	-0.20289838
95	0x3e3ca3ae	0.18421814
96	0x3e93f585	0.28898254
97	0xbed8ea75	-0.42366377
98	0xbc31f396	-0.010861298
99	0x3dc62225	0.09674481
100	0x3e96bc7e	0.29440683
101	0x3e80bfe5	0.25146404
102	0x3e84b7a5	0.2592136
103	0x3ca796cd	0.02045765
104	0xbea9c172	-0.331554
105	0xbe0f2396	-0.13978419
106	0x3e98cfb1	0.29845956
107	0x3e6a0edb	0.2285723
108	0xbd650994	-0.055917338
109	0x3e38962f	0.1802604
110	0x3e52b03d	0.20575042
111	0xbe1b428d	-0.15162106
112	0xbcfcd685	-0.03086401
113	0x3e4eb120	0.20184755
114	0x3e80def4	0.251701
115	0x3ebff490	0.37491274
116	0x3e6e8250	0.23291898
117	0x3df578d6	0.11985938
118	0xbeca3c59	-0.39499167
119	0x3de56aae	0.11201988
120	0x3eb27460	0.34854412
121	0x3de4e3e2	0.11176278
122	0xbd4dfc25	-0.050289292
123	0x3da0514c	0.07828006
124	0xbadf8ad6	-0.0017054926
125	0xbee99782	-0.45623404
126	0xbe9f9f5c	-0.3117627
127	0x3e52a41a	0.20570412
128	0x3e1d39e5	0.15354116
129	0x3d132ebd	0.035933245
130	0x3d1b2a34	0.037882045
131	0x3c92d95f	0.017925916
132	0x3d93faaa	0.07225545
133	0x3ead9cdd	0.3390874
134	0x3ece4322	0.40285593
135	0x3e79d771	0.2439859
136	0x3da83e1b	0.08214971
137	0x3d1c3690	0.038137972
138	0xbdef1777	-0.116743974
139	0xbee5c92c	-0.44880044
140	0xbed32ff3	-0.4124752
141	0x3d4d646b	0.050144594
142	0x3c856ff3	0.016288733
143	0x3e8a0d89	0.26963452
144	0x3de38b74	0.11110583
145	0xbd0bd31f	-0.034136888
146	0x3e21bbd8	0.15794313
147	0x3eba2f8b	0.36364397
148	0x3e0a234d	0.13490029
149	0x3ddfb83b	0.10923811
150	0x3dc13e55	0.09435717
151	0xbdd5648e	-0.1041957
152	0xbef43c35	-0.47702184
153	0xbf0cc9fb	-0.549957
154	0xbf27adda	-0.6549965
155	0xbe828ce3	-0.25498113
156	0x3d1c4d18	0.03815946
157	0x3eae89a4	0.34089386
158	0x3e99fe39	0.3007677
159	0x3eb423cf	0.3518357
160	0x3e12fe10	0.1435473
161	0x3ea23e43	0.31688127
162	0x3e933a1e	0.28755277
163	0x3e8d8b8b	0.27645525
164	0xbdf30d84	-0.11867812
165	0xbec76b54	-0.38949072
166	0xbf2e4093	-0.6806728
167	0xbe328fd3	-0.17437677
168	0x3d67e7d2	0.056617565
169	0xbf310fcd	-0.69164735
170	0xbecc53dc	-0.3990773
171	0xbd673052	-0.056442566
172	0x3e615752	0.22005966
173	0xbdca2a5f	-0.09871363
174	0x3dd17d46	0.10228972
175	0x3e2cd186	0.16876802
176	0x3dfe60bb	0.124207936
177	0xbdb06e2d	-0.08614764
178	0xbe91e491	-0.28494695
179	0xbead31ee	-0.33827156
180	0xbd9c932b	-0.076452576
181	0xbda59603	-0.08085253
182	0x3da60aae	0.08107506
183	0x3e116cc8	0.14201653
184	0xbf1db373	-0.6160194
185	0xbebefb4e	-0.37301105
186	0xbe8af825	-0.27142444
187	0xbe8f3230	-0.27967978
188	0xbe811d11	-0.25217488
189	0xbe3af704	-0.18258291
190	0xbee658d6	-0.4498965
191	0xbeeb8369	-0.45998695
192	0xbebcb1a0	-0.36854267
193	0x3bcdb985	0.006278219
194	0x3e1494a6	0.1450983
195	0x3d045bee	0.032314233
196	0xbd306d49	-0.043072972
197	0xbec4e8d2	-0.38458878
198	0xbeefafed	-0.46813908
199	0xbf35332c	-0.7078121
200	0xbf3f36a0	-0.74692726
201	0xbea88530	-0.32914114
202	0xbeb3d4e0	-0.35123348
203	0xbe6bf386	-0.23042116
204	0xbe3d174f	-0.18465923
205	0xbe40b188	-0.18817723
206	0x3cfa76cc	0.030574225
207	0x3d87a016	0.06622331
208	0x3e1a2e5d	0.15056749
209	0xbe02b23f	-0.12763308
210	0xbebb0639	-0.36528185
211	0xbe872dc9	-0.2640212
212	0xbebe7a6c	-0.37202775
213	0xbf2d796d	-0.67763406
214	0xbf63cfc6	-0.8898891
215	0xbefe12da	-0.49623758
216	0xbf345db8	-0.70455503
217	0xbf2e66f9	-0.68125874
218	0xbdc407e8	-0.095718205
219	0xbd922b15	-0.071371235
220	0xbeb0a34b	-0.34499583
221	0xbe0cbb31	-0.13743283
222	0x3e54a251	0.20765044
223	0x3e43edde	0.19133708
224	0xbed9672e	-0.42461532
225	0xbebba73e	-0.36651033
226	0xbf146966	-0.57973325
227	0xbfaba26e	-1.3408945
228	0xbf9bf68b	-1.2184614
229	0xbf0a3f9d	-0.54003316
230	0xbf11b25e	-0.5691279
231	0xbe7045d7	-0.23464142
232	0xbdef98f8	-0.11699098
233	0x3e00faf0	0.12595725
234	0x3dd8ad49	0.105799265
235	0xbd937f22	-0.07201983
236	0xbe954c18	-0.29159617
237	0x3e007d3a	0.1254777
238	0xbeacd59a	-0.33756715
239	0xbef65ca3	-0.4811755
240	0xbf61d1b5	-0.8821061
241	0xbfa6f8ac	-1.3044639
242	0xbfa0660a	-1.253114
243	0xbe34fc65	-0.17674406
244	0xbf2b8b26	-0.670092
245	0xbdea006d	-0.114258625
246	0x3d241655	0.04006036
247	0x3d7e4fe0	0.062087893
248	0xbd1f24bc	-0.038853392
249	0x3ed74ffc	0.4205321
250	0xbdb15444	-0.086586505
251	0xbe8580cd	-0.2607483
252	0xbeb0bc0e	-0.34518474
253	0xbf37ac11	-0.7174693
254	0xbf767793	-0.96276206
255	0xbf9c9ca9	-1.2235309

classifier.0.bias f4 [128]
0	0x3e3faddb	0.18718664
1	0xbd1e62c4	-0.03866841
2	0xbd3e9544	-0.04652907
3	0x3e56cded	0.20976992
4	0xbd0a99e9	-0.033838186
5	0x3e245fb6	0.16052136
6	0xbcebbf3e	-0.028777715
7	0xbd8d9184	-0.069125205
8	0xbd2d1c6b	-0.04226343
9	0xbc356f4f	-0.011073901
10	0x3bd8d78f	0.0066174935
11	0x3e3d144e	0.18464777
12	0xbc94d0de	-0.018166002
13	0xbe33c415	-0.17555268
14	0xbe4962d6	-0.19666609
15	0xbd225a1d	-0.03963672
16	0xbe9a158e	-0.3009457
17	0xbda1aa55	-0.078938164
18	0xbf00732f	-0.50175756
19	0x3fa6bfdf	1.3027304
20	0xbe0fb267	-0.14032899
21	0xbf7d055b	-0.98836297
22	0x3e84bea9	0.25926712
23	0x3ebf5637	0.37370464
24	0xbf9207a0	-1.1408577
25	0x3f0a59d7	0.54043335
26	0x3f09de87	0.53855175
27	0xbf90144c	-1.1256194
28	0xbf7e6d6f	-0.9938573
29	0x3f8939f5	1.0720812
30	0x3cafba31	0.021451088
31	0xbf340e31	-0.70334154
32	0xbe85cc18	-0.26132274
33	0x3f794daf	0.9738416
34	0x3e498d67	0.19682847
35	0xbce5a9ac	-0.028035007
36	0xbdb840ec	-0.08996758
37	0x3d0a88a2	0.03382171
38	0x3f2e30b6	0.68043077
39	0xbcd6c534	-0.02621708
40	0x3da42234	0.08014336
41	0xbf05e571	-0.52303225
42	0xbe9142f6	-0.283714
43	0xbdf25590	-0.11832726
44	0xbcdf99a9	-0.02729495
45	0x3e540201	0.2070389
46	0x3f621b00	0.8832245
47	0x3ec558b1	0.3854423
48	0x3d852748	0.06501633
49	0x3c3064d1	0.010766224
50	0x3f41da86	0.75724065
51	0xbd6530e8	-0.055954844
52	0xbd0b95d5	-0.034078438
53	0xbcf58d02	-0.029974464
54	0xbf3299e9	-0.697661
55	0xbf2b947f	-0.6702346
56	0xbf9c41fd	-1.2207638
57	0xbe6e2ca9	-0.23259224
58	0x3e5a5ca1	0.21324398
59	0xbf098bac	-0.5372875
60	0x3e676c9c	0.22600025
61	0x3d21a9c6	0.03946855
62	0x3df0f732	0.11765899
63	0xbd365637	-0.044515815
64	0xbd21f787	-0.0395427
65	0x3f094757	0.5362448
66	0x3f1b03f9	0.60552937
67	0xbd4ce308	-0.0500212
68	0xbd07a5af	-0.033116993
69	0xbe4d34f7	-0.20039736
70	0x3f04571b	0.5169541
71	0x3e0b5ae3	0.1360889
72	0xbcb6086e	-0.022220816
73	0xbf7cebc4	-0.9879725
74	0x3e7c66b0	0.24648547
75	0xbcff1a97	-0.031140609
76	0x3f65501d	0.8957537
77	0x3f493297	0.7859282
78	0xbf6e74a5	-0.93146735
79	0x3f881f13	1.0634483
80	0x3cc47d77	0.023985608
81	0xbe385c46	-0.1800395
82	0xbc6545d8	-0.013993703
83	0xbf808d5e	-1.0043142
84	0xbf628f0f	-0.8849954
85	0x3e0dc16c	0.13843316
86	0xbcf15f3b	-0.029464355
87	0xbe44a7d9	-0.19204654
88	0xbd4ac953	-0.049508404
89	0xbbb4c0eb	-0.0055161617
90	0xbdc1fd2c	-0.09472117
91	0xbf3b6e77	-0.7321543
92	0xbde76e31	-0.11300314
93	0x3e59b36b	0.21259849
94	0x3a570796	0.00082027295
95	0x3e7127bd	0.23550315
96	0xbd091069	-0.033462916
97	0x3f44c6d0	0.76865864
98	0xbe8f3b34	-0.27974856
99	0xbcb1cb61	-0.021703424
100	0x3f0995e5	0.53744346
101	0x3fa585a8	1.2931414
102	0x3f226338	0.63432646
103	0xbe449a9f	-0.19199608
104	0x3f132c89	0.5748983
105	0xbf733a3e	-0.95010746
106	0x3e12b87b	0.14328186
107	0x3d88c0a2	0.06677367
108	0xbf3b4c74	-0.73163533
109	0x3f168dd1	0.58810145
110	0xbd597f11	-0.053099696
111	0xbd31ce49	-0.04340962
112	0x3e1c2335	0.15247805
113	0xbe1ecea0	-0.15508509
114	0xbd1be0b4	-0.03805609
115	0xbe1e04aa	-0.15431467
116	0x3c63ea5d	0.013910857
117	0xbd00e412	-0.031467505
118	0x3e69d009	0.22833265
119	0x3f6f52aa	0.9348551
120	0xbd3f514a	-0.046708383
121	0xbe2ddf4c	-0.16979712
122	0xbcf35e54	-0.029708065
123	0xbf8375bd	-1.0270306
124	0x3d56bc59	0.052425716
125	0xbd449dc8	-0.048002034
126	0xbf8c9c9c	-1.0985293
127	0xbdf12123	-0.117738985

classifier.3.weight f4 [2, 128]
0	0x3e864e9c	0.2623185
1	0x3e36eea8	0.17864478
2	0x3e0b2383	0.13587765
3	0x3e33c31a	0.17554894
4	0xbe1b0277	-0.15137659
5	0xbdb90024	-0.0903323
6	0x3e482495	0.19545205
7	0x3e12abe7	0.14323388
8	0xbc93ee7c	-0.018058054
9	0x3e3f70fd	0.18695445
10	0x3e19d945	0.15024288
11	0x3e009776	0.12557778
12	0x3875d0ac	5.8606893e-05
13	0x3cd75d17	0.026289506
14	0x3ba9c623	0.0051810904
15	0xbd725f0d	-0.05917268
16	0xbdb38ced	-0.08767114
17	0x3e5ba6a5	0.21450289
18	0xbdfe6aac	-0.1242269
19	0xbe3a3340	-0.18183613
20	0xbe9d9481	-0.30777362
21	0x3ec22952	0.3792215
22	0x3de50fda	0.11184664
23	0x3d9cff7c	0.07665917
24	0xbd324a59	-0.043527935
25	0xbe138518	-0.1440624
26	0xbe46939e	-0.19392249
27	0x3bb6fd58	0.0055844
28	0x3d6d52f6	0.057940446
29	0xbde091ca	-0.10965307
30	0x3c80d784	0.015727766
31	0xbe01a6e8	-0.12661326
32	0x3cc7f528	0.024408892
33	0xbe3e98e6	-0.18613014
34	0x3dd60b5e	0.10451387
35	0x3dcf37b1	0.10118044
36	0xbe63004b	-0.2216808
37	0x3e1747dc	0.14773506
38	0x3ce58089	0.028015392
39	0x3e4b6668	0.19863284
40	0x3e611177	0.21979319
41	0x3d8d6bda	0.06905337
42	0x3e2cca5b	0.16874067
43	0xbe1a503d	-0.15069671
44	0x3e13a7ff	0.14419554
45	0xbe1706a9	-0.14748634
46	0xbe67e030	-0.22644114
47	0xbdeb905c	-0.11502144
48	0x3d482c29	0.04887024
49	0xbd542a5c	-0.05179821
50	0x3e92f5a3	0.2870303
51	0x3e2ee242	0.17078498
52	0xbbb8f7e7	-0.0056447866
53	0x3d0f34c9	0.03496245
54	0x3bd76b32	0.006574058
55	0xbdd5c4e0	-0.104379416
56	0xbdb4d7a0	-0.0883019
57	0x3da02bd1	0.07820857
58	0x3de3b8ea	0.11119254
59	0xbe09611d	-0.13415952
60	0x3de2f38a	0.11081608
61	0x3d9eb24b	0.077488504
62	0x3dcf0af9	0.10109515
63	0x3d4dca83	0.05024196
64	0xbd693e5a	-0.05694423
65	0x3dbb8a7e	0.09157275
66	0x3d2331ca	0.039842404
67	0xbd2a97e7	-0.04164877
68	0x3db54111	0.08850301
69	0x3e1a633e	0.1507692
70	0x3e7dc272	0.24781206
71	0x3d2abecc	0.041685864
72	0xbc39099a	-0.011293793
73	0xbcd8ae47	-0.02645029
74	0x3e4481c1	0.19190122
75	0xbe2e88ff	-0.17044447
76	0xbd4c51c9	-0.049882684
77	0xbd80de9a	-0.06292458
78	0xbe1bb4cc	-0.15205687
79	0xbd53f1b0	-0.051744163
80	0x3c116a0b	0.00887538
81	0x3e48a9da	0.19596043
82	0xbdd24031	-0.1026615
83	0x3c0dda29	0.0086579705
84	0x3d68ef87	0.056869056
85	0xbd2b8b2c	-0.04188077
86	0x3e299cae	0.16563675
87	0x3c9555d2	0.018229399
88	0x3c68e670	0.014215097
89	0xbe37c5bd	-0.17946525
90	0x3d6e1dc6	0.058133863
91	0x3e0003d8	0.12501466
92	0x3e26becd	0.16283722
93	0xbe0a9f20	-0.13537264
94	0xbe311234	-0.172921
95	0xbe57f398	-0.21089017
96	0xbd9cf807	-0.07664495
97	0xbe34329d	-0.17597432
98	0x3e85446c	0.26028764
99	0x3d93b7d2	0.07212795
100	0x3d4643d8	0.048404545
101	0x3d2e0573	0.042485666
102	0x3d0a02b8	0.033694
103	0x3d2ee7e3	0.042701613
104	0xbde30705	-0.11085323
105	0xbe6f2f8f	-0.23357986
106	0x3e344a7e	0.17606542
107	0x3dbcc7cd	0.092177965
108	0xbd2de3ba	-0.042453505
109	0xbe35dfd9	-0.17761172
110	0x3e0a43f3	0.13502483
111	0x3d8f85a5	0.070079125
112	0xbdcfbbb2	-0.10143222
113	0x3daa177f	0.08305263
114	0xbd1399e3	-0.03603543
115	0x3d0039b3	0.031305026
116	0x3e14009b	0.14453356
117	0x3e2d32f6	0.16913971
118	0xbd6c35c2	-0.057668455
119	0xbd789615	-0.060690004
120	0x3c634cf7	0.01387333
121	0x3defc7e9	0.11708052
122	0x3db95a3b	0.09050413
123	0xbe0e99c9	-0.13925852
124	0x3e2efd01	0.17088701
125	0x3c70f6b1	0.014707253
126	0x3deb94ce	0.115029916
127	0x3d9a403b	0.07531782
128	0xbd9cf422	-0.07663752
129	0x3c18ac44	0.009318415
130	0x3da0de61	0.078549154
131	0xbd40d507	-0.04707816
132	0xbdc4c72f	-0.09608304
133	0x3e6c22e9	0.23060192
134	0x3cea3f1c	0.028594546
135	0xbd9995b3	-0.07499256
136	0xbdb15975	-0.08659641
137	0x3ce14ce9	0.027502494
138	0xbde55dbc	-0.11199519
139	0xbdc251e5	-0.094882764
140	0xbe4a39f6	-0.19748673
141	0xbdd654b8	-0.104653776
142	0xbe93221d	-0.28736964
143	0x3e153eaf	0.14574693
144	0xbd61ab45	-0.055094976
145	0x3ce153cf	0.027505783
146	0x3e18853f	0.1489458
147	0x3c0bd642	0.00853497
148	0x3e1f8ec0	0.15581799
149	0xbeb84426	-0.35989493
150	0xbd9d8fec	-0.076934665
151	0xbda40e7e	-0.08010577
152	0x3cc81b87	0.024427189
153	0x3cf6a1f2	0.030106518
154	0x3e4b7809	0.19870009
155	0x3d852201	0.06500626
156	0x3d028c42	0.03187204
157	0x3e01aea3	0.12664275
158	0x3e09c78c	0.13455027
159	0xbe5f1845	-0.21786602
160	0xbe2a241e	-0.1661534
161	0xbd3abb87	-0.045588996
162	0x3e479efd	0.19494243
163	0x3e452f83	0.19256406
164	0xbde4bc67	-0.111687474
165	0xbd97d929	-0.07414467
166	0xbe77aacb	-0.24186246
167	0xbcf06498	-0.029344842
168	0x3de9a46a	0.114083126
169	0xbe43b05e	-0.19110247
170	0xbeb59fd9	-0.35473517
171	0x3e276c28	0.16349852
172	0xbdc99f0e	-0.098447904
173	0xbd1caa71	-0.038248483
174	0xbd803d41	-0.06261683
175	0x3defd4e6	0.11710529
176	0x3eb9e1b1	0.36305
177	0x3e022bdd	0.12712045
178	0x3d898248	0.06714302
179	0x3b8f2ef4	0.004369611
180	0xbda256ce	-0.07926713
181	0xbe17caec	-0.14823502
182	0x3da555ea	0.080730274
183	0x3de48833	0.111587904
184	0xbbb88ed0	-0.005632259
185	0xbe2c70fe	-0.16839978
186	0xbdbf3b37	-0.09337466
187	0x3e1e820b	0.15479295
188	0xbe163ebd	-0.1467237
189	0xbdc498de	-0.095994696
190	0xbd9abd65	-0.075556554
191	0x3c274504	0.010209326
192	0xbcfb7fba	-0.030700553
193	0xbe23f35c	-0.16010803
194	0xbe5df5a6	-0.21675739
195	0xbe81ae20	-0.2532816
196	0x3d76b9d5	0.060235817
197	0xbd37873d	-0.044806708
198	0x3d63bed6	0.055601917
199	0xbe26ce16	-0.16289553
200	0xbcde9b47	-0.027173651
201	0x3dad5fce	0.08465539
202	0xbc0d0bed	-0.0086088
203	0xbdfbbc33	-0.122917555
204	0x3e52e97c	0.2059688
205	0x3e4f1a62	0.20224908
206	0xbd027e48	-0.031858712
207	0x3e334254	0.17505771
208	0xbe114c58	-0.14189279
209	0xbea781ea	-0.32716304
210	0xbe122be1	-0.14274551
211	0x3e016c39	0.1263894
212	0xbddf046a	-0.10889514
213	0xbe263c93	-0.16234045
214	0xbd6a98e6	-0.05727472
215	0x3de16317	0.11005228
216	0xbb10a5a3	-0.0022071383
217	0x3e0a6fd7	0.13519226
218	0xbdff7854	-0.12474123
219	0x3e32a6bc	0.17446417
220	0xbe42fe60	-0.19042349
221	0x3e302b1e	0.17203948
222	0xbe0885b3	-0.13332252
223	0x3e169143	0.1470385
224	0xbe09966a	-0.13436285
225	0x3de66ae9	0.1125086
226	0x3d9dfd21	0.07714296
227	0x3db2e55d	0.08735154
228	0xbe2fac20	-0.17155504
229	0x3e8bcdbb	0.27305397
230	0x3dfd586a	0.12370379
231	0xbdaaf410	-0.083473325
232	0x3e60e43b	0.21962063
233	0xbd4ab408	-0.049488097
234	0xbd880f83	-0.066435836
235	0xbea26ccf	-0.3172364
236	0x3d187419	0.037220094
237	0x3e504c12	0.20341519
238	0x3d3bd722	0.045859464
239	0xbe36f8c6	-0.17868337
240	0x3dfdb99f	0.1238892
241	0xbd6f0f5b	-0.058364253
242	0xbe941e68	-0.28929448
243	0xbe5747c4	-0.2102347
244	0xbd9cf6a5	-0.07664231
245	0x3bbe483c	0.005806951
246	0xbe40e28a	-0.18836418
247	0xbe7b209a	-0.24524155
248	0xbd873fd1	-0.06603969
249	0xbe0a4dea	-0.13506284
250	0x3db07073	0.08615198
251	0xbdb146a6	-0.08656053
252	0xbe9bda36	-0.3043992
253	0xbdd416d9	-0.1035592
254	0x3e18fb53	0.14939623
255	0xbe08497a	-0.13309279

classifier.3.bias f4 [2]
0	0xbeb21bdf	-0.3478689
1	0x3eb21bdd	0.34786883
