Pretrained_cnn/main/saved_ckpt/best_model_epoch_66.pt (torch, 835296 bytes, 10 tensors)

features.0.weight f4 [32, 3, 3, 3]
0.16147363 0.052672192 0.20537594 0.1790833 -0.16623625 -0.4231634 0.1439471 -0.3161498
-0.575696 0.22882609 0.25763428 0.26803812 0.17635292 -0.06739049 -0.28345418 0.05591543
-0.3336927 -0.43833476 0.3464178 0.33067006 0.13893299 0.2026812 0.09704458 -0.28338966
0.17219658 -0.2540097 -0.46995348 0.08138067 -0.096622854 -0.35361722 -0.20245174 -0.07719188
0.23992272 0.24137619 -0.09407971 -0.11897984 -0.20633072 -0.077536695 -0.18552314 -0.19175012
-0.2113233 -0.13608854 0.18241681 -0.3424541 -0.08949704 -0.18170105 -0.527313 -0.49236196
-0.5767575 -0.48123655 -0.38757497 0.21026635 -0.53343254 -0.30885455 0.3685697 0.19166386
0.02812997 0.099577904 0.115528375 0.0905623 0.15725528 -0.058262773 0.026133988 0.28368267
-0.25669125 -0.37320283 -0.022466572 -0.32806748 -0.18067169 -0.1806994 -0.12099137 -0.21275434
-0.2214852 -0.7045084 -0.56488484 -0.1450388 -0.37313616 -0.48431137 -0.20431723 -0.73125577
-0.45744693 -0.24345502 -0.19425376 -0.1802947 -0.28023726 -0.20695408 -0.18527035 -0.24972838
-0.11409256 -0.034942146 0.2529732 0.35210043 0.40595594 0.40242887 0.3353154 0.4308856
0.41974705 0.31081042 0.20276286 -0.06781293 -0.1956643 -0.14352311 -0.14285353 -0.13703635
-0.1629968 -0.071176745 -0.095421165 -0.040672243 0.21122615 0.2468943 0.3013313 0.2251406
0.37527025 0.2392237 0.23170805 0.1554296 0.018910553 0.25486854 0.038714286 0.34014472
-0.0308403 -0.05652902 0.08975238 -0.06485541 -0.1523046 -0.19480558 -0.30853185 -0.28008443
-0.12894039 -0.1897922 -0.17975071 -0.034817357 -0.19903949 -0.3080986 -0.40539566 -0.5354712
-0.22575025 0.21307209 -0.22874926 -0.10969227 0.20488317 0.03424888 0.15317738 0.25653556
-0.39505443 -0.0687577 0.079339564 -0.16429791 -0.15334055 0.32812282 0.10066994 0.24478939
0.31965736 -0.52286524 -0.18606557 0.089262776 -0.4432475 -0.102140404 0.26862022 0.17378683
0.25246313 0.32175276 -0.18364447 -0.25311953 -0.11446754 -0.2609761 -0.37840515 0.051927973
-0.2276844 -0.29007185 -0.21277776 -0.19357659 -0.07238014 0.049931053 -0.18986648 -0.100581914
0.0951286 -0.12955455 -0.26978788 -0.0062637045 -0.107919924 -0.047874767 -0.23401015 -0.028863832
-0.16966327 0.019292613 -0.19924572 -0.19068019 -0.12589023 -0.16119461 0.13571773 -0.11849702
-0.19004785 -0.22728904 -0.5644088 0.0756897 -0.093977906 0.15185247 0.1766454 0.26808757
-0.12465802 0.050068438 -0.0765982 -0.35833326 0.052655056 0.20682839 0.34536776 0.16343698
0.25929534 -0.11649934 0.17472674 -0.118639134 -0.5444156 0.23929474 0.096560605 0.058969986
0.20580912 0.17307128 0.12652674 0.22743648 0.122993 0.15461114 0.11995337 0.10645959
0.061807796 -0.11247168 -0.05065873 -0.27026436 -0.21908376 -0.38905913 -0.27406552 -0.20543477
-0.14547029 -0.043360446 -0.009609097 -0.14752088 -0.22077054 -0.11657619 -0.33866617 -0.08555925
0.009784011 -0.14053887 -0.28868392 -1.2797956 0.12529339 -0.13698512 -1.0796458 -1.3404673
-0.026301287 -1.6240244 -1.4745147 0.09352106 -1.4050375 -0.029542884 -0.20870803 -0.96553755
00000000: 5859 253e ccbe 573d 124e 523e 9d61 373e
00000010: d639 2abe e0a8 d8be de66 133e 63de a1be
00000020: d060 13bf 6351 6a3e a4e8 833e 4b3c 893e
00000030: dc95 343e 0604 8abd e820 91be 9407 653d
00000040: c5d9 aabe 6a6d e0be ad5d b13e 964d a93e
00000050: 7344 0e3e a98b 4f3e 4fbf c63d 7318 91be
00000060: 4d54 303e 8f0d 82be be9d f0be e9aa a63d
00000070: 34e2 c5bd 510d b5be 824f 4fbe c716 9ebd
00000080: 4dae 753e 522b 773e ddac c0bd b4ab f3bd
00000090: 5c48 53be 8fcb 9ebd c7f9 3dbe 255a 44be
000000a0: 2365 58be cb5a 0bbe 79cb 3a3e 2556 afbe
000000b0: 394a b7bd d70f 3abe fcfd 06bf de16 fcbe
000000c0: 61a6 13bf a364 f6be 3a70 c6be 1050 573e
000000d0: 098f 08bf 2f22 9ebe 2bb5 bc3e 8843 443e
000000e0: d370 e63c 80ef cb3d 249a ec3d ba78 b93d
000000f0: 8707 213e f2a4 6ebd f216 d63c db3e 913e
00000100: 096d 83be 7114 bfbe d10b b8bc 76f8 a7be
00000110: 0002 39be 4309 39be 53ca f7bd 46dc 59be
00000120: 04cd 62be aa5a 34bf 4b9c 10bf 0d85 14be
00000130: b40b bfbe a9f7 f7be 8938 51be 9433 3bbf
00000140: 7c36 eabe 464c 79be 75ea 46be 2d9f 38be
00000150: 427b 8fbe c5eb 53be 83b7 3dbe ccb8 7fbe
00000160: 5ca9 e9bd 7f1f 0fbd b485 813e 8246 b43e
00000170: 75d9 cf3e 280b ce3e 76ae ab3e 0a9d dc3e
00000180: 16e9 d63e 8b22 9f3e 11a1 4f3e 81e1 8abd
00000190: 395c 48be b9f7 12be 3248 12be 4253 0cbe
000001a0: a2e8 26be 1dc5 91bd 2c6c c3bd f097 26bd
000001b0: ab4b 583e dcd1 7c3e 1948 9a3e 428b 663e
000001c0: 6c23 c03e 0ff7 743e e044 6d3e f028 1f3e
000001d0: 4eea 9a3c 217e 823e df92 1e3d 7327 ae3e
000001e0: cca4 fcbc f98a 67bd 19d0 b73d ead2 84bd
000001f0: bdf5 1bbe 1d7b 47be e3f7 9dbe 3a67 8fbe
00000200: f308 04be e358 42be 9210 38be a59c 0ebd
00000210: 02d1 4bbe 1abf 9dbe 0590 cfbe a414 09bf
00000220: 132b 67be 922f 5a3e 3f3d 6abe 57a6 e0bd
00000230: e5cc 513e 8e48 0c3d 88da 1c3e a158 833e
00000240: 9344 cabe d6d0 8cbd c87c a23d b63d 28be
00000250: 4e05 1dbe b7ff a73e 0b2c ce3d 12aa 7a3e
00000260: 21aa a33e 7fda 05bf f987 3ebe 67cf b63d
00000270: 56f1 e2be fd2e d1bd 9788 893e 2df5 313e
00000280: d942 813e c7bc a43e 4c0d 3cbe e298 81be
00000290: f56d eabd a99e 85be 52be c1be 6db2 543d
000002a0: 1926 69be 4c84 94be 6ae2 59be f138 46be
000002b0: 0a3c 94bd 8184 4c3d 5c6c 42be e4fd cdbd
000002c0: c9d2 c23d f3a9 04be a321 8abe c33f cdbb
000002d0: 1f05 ddbd 5518 44bd 5ba0 6fbe d873 ecbc
000002e0: 35bc 2dbe 8b0b 9e3c 1207 4cbe ab41 43be
000002f0: 5ee9 00be 3310 25be 97f9 0a3e 91ae f2bd
00000300: e79b 42be 75be 68be 187d 10bf 3403 9b3d
00000310: 7d77 c0bd 377f 1b3e 88e2 343e c642 893e
00000320: b44c ffbd 9014 4d3d 84df 9cbd 7577 b7be
00000330: d4ac 573d d2ca 533e 0bd4 b03e 065c 273e
00000340: 5cc2 843e 3597 eebd 91eb 323e 13f9 f2bd
00000350: d25e 0bbf ae09 753e 91c1 c53d 838a 713d
00000360: a0bf 523e 9939 313e 3a90 013e 1ce5 683e
00000370: c1e3 fb3d 6252 1e3e 1daa f53d 7c07 da3d
00000380: 2c2a 7d3d 8d57 e6bd 877f 4fbd 1760 8abe
00000390: 7e57 60be c232 c7be 5152 8cbe 7e5d 52be
000003a0: 2af6 14be b99a 31bd 796f 1dbc b70f 17be
000003b0: ac11 62be 7fbf eebd a765 adbe b039 afbd
000003c0: 1e4d 203c 6ce9 0fbe 61ce 93be 58d0 a3bf
000003d0: e94c 003e d445 0cbe d531 8abf 6f94 abbf
000003e0: cc75 d7bc 08e0 cfbf e6bc bcbf f887 bf3d
000003f0: 45d8 b3bf eb03 f2bc 8fb7 55be 782d 77bf

features.0.bias f4 [32]
-0.061453104 -0.13596705 -0.010825067 -0.22881752 -0.08851281 -0.15959501 -0.1628197 -0.031985153
-0.01264084 0.18817905 -0.0054018344 -0.31914094 -0.34414366 -0.292796 0.005652748 -0.2010763
0.33925268 -0.09159004 -0.08069009 -0.3076587 -0.052460488 -0.67325866 -0.34112254 -0.22924826
0.086339846 -0.08799411 -0.014884105 -0.017575098 -0.038585465 -0.064483464 -0.0129556125 -0.30815056
00000000: 40b6 7bbd f23a 0bbe 9f5b 31bc 244f 6abe
00000010: 3446 b5bd e06c 23be 35ba 26be dd02 03bd
00000020: 871b 4fbc 02b2 403e df01 b1bb 7166 a3be
00000030: 9933 b0be 5be9 95be b03a b93b f2e6 4dbe
00000040: 87b2 ad3e 8f93 bbbd d940 a5bd 7185 9dbe
00000050: cfe0 56bd ae5a 2cbf 9da7 aebe 0ec0 6abe
00000060: f2d2 b03d 4236 b4bd 76dc 73bc a7f9 8fbc
00000070: cb0b 1ebd e80f 84bd c743 54bc e9c5 9dbe

features.3.weight f4 [16, 32, 3, 3]
-0.11369031 -0.33092335 0.038185064 -0.31221256 -0.2516742 -0.17900132 -0.026138267 0.076673105
-0.14769457 0.1595277 0.036906615 -0.34289813 -0.0013501012 0.25666887 0.25151268 0.05000733
0.04697415 0.06488639 -0.20735863 -0.010247738 -0.3329527 -0.104924686 -0.1050414 -0.2655129
-0.20568205 -0.3667275 -0.061868034 0.62991744 0.39790016 0.03231287 0.5493368 0.044241197
-0.41530252 0.42388952 -0.1495177 -0.8023222 -0.7676365 -0.46760535 0.11171061 -0.5137377
0.109497145 0.47527024 -0.30214912 0.5043824 0.89658 0.024503851 -0.01963163 -0.15381695
-0.1454598 -0.05906396 -0.18871184 -0.56510335 -0.47236905 -0.2965291 0.13385318 -0.007150388
-0.043329358 0.28128943 -0.11712238 -0.12826215 0.0930359 -0.042217057 -0.1421846 0.55341774
0.048865553 0.013218265 0.06648436 -0.26561636 -0.28119904 0.042980555 -0.21611091 -0.2741762
-0.45500687 -0.49253055 -0.19987197 -0.5164059 -0.37690645 -0.22041525 -0.47091678 -0.07377092
0.14133374 -0.5486504 -0.9333439 -0.4696839 -0.49318838 -0.27547017 -0.19903399 -0.07639769
-0.35675806 -0.11412285 0.14713733 -0.09854498 0.123386584 0.017201075 -0.083223924 -0.1757518
0.16745423 -0.010936971 -0.120063156 -0.16160658 -0.05014914 -0.018559285 0.113362044 0.07281977
-0.053496502 0.2861869 0.04385972 0.33170357 -0.4579392 -0.44029868 -0.4455588 0.110923156
0.11836092 0.16532993 0.013113411 0.031055097 0.2022073 -0.10319819 -0.07572961 -0.07219638
0.13637288 0.19378689 0.31572556 -0.060883902 -0.22830845 -0.05197315 0.22009934 0.0044987197
-0.004817595 0.3667846 -0.029790634 -0.29992443 0.28061843 0.015668679 -0.4044391 0.17248103
0.040344868 -0.3144433 0.03369754 0.0522196 -0.011950061 0.31301165 0.05463161 -0.05623742
-0.20956469 -0.121533826 0.0784812 0.5366304 0.20957932 0.118197635 0.3728618 0.043116823
-0.026911069 -0.3657494 -0.27017772 -0.12792976 -0.27468282 -0.09291289 0.16640331 -0.46884814
0.008946608 0.38666677 0.034010284 0.15779285 0.12698786 0.11457549 -0.17952876 0.007192764
-0.057754576 -0.31535316 -0.089808986 0.35451165 -0.015973482 -0.12519024 0.23630296 0.27916202
-0.009004098 -0.21051915 0.048910305 0.05004197 -0.30385086 -0.50046676 -0.2614212 -0.016537944
0.029997244 0.14486735 0.11658604 0.054553412 0.43497604 0.20460284 -0.06466264 -0.19640547
0.4071651 -0.024537425 -0.30783546 0.09885491 -0.11919566 -0.1765434 -0.35226324 -0.20935372
-0.35540453 -0.14343943 -0.24934725 -0.18362829 -0.4075553 -0.35452756 0.13604796 0.26038128
0.16580327 -0.22650665 0.23657228 -0.21028419 -0.072451375 -0.15351748 -0.3284079 -0.25667438
-0.2280302 -0.18924011 -0.023845322 -0.20485026 -0.1947162 -0.12451294 -0.039329335 -0.23950656
0.025690703 -0.7938161 -0.17658748 0.21127516 -0.6631666 0.27381423 0.8244115 -0.63651174
0.54438287 0.7935053 -0.71359193 -0.37246734 -0.5731209 -0.38777202 0.058248963 -0.0440202
-0.6292279 -0.36383206 -0.27678236 0.096632384 -0.29438418 0.048794854 -0.15450974 0.009616261
0.11176432 -0.0075627174 -0.27962765 -0.05701601 -0.065185525 -0.32123113 -0.049046896 -0.02822721
00000000: 77d6 e8bd c96e a9be f167 1c3d 53da 9fbe
00000010: 71db 80be 1f4c 37be eb1f d6bc ca06 9d3d
00000020: 3f3d 17be 3b5b 233e 642b 173d 5890 afbe
00000030: e1f5 b0ba 1a6a 833e 45c6 803e 7cd4 4c3d
00000040: f767 403d 28e3 843d d255 54be 21e6 27bc
00000050: c778 aabe c1e2 d6bd f21f d7bd 4ff1 87be
00000060: 519e 52be b5c3 bbbe 5669 7dbd 4542 213f
00000070: 92b9 cb3e 805a 043d 56a1 0c3f 4236 353d
00000080: 88a2 d4be 0c08 d93e 2b1b 19be fd64 4dbf
00000090: d383 44bf f869 efbe 88c8 e43d 5084 03bf
000000a0: 0a40 e03d 9f56 f33e 4ab3 9abe 341f 013f
000000b0: 4486 653f 4dbc c83c 83d2 a0bc 3182 1dbe
000000c0: 6af3 14be 0ded 71bd ad3d 41be 9daa 10bf
000000d0: 5bda f1be aad2 97be cf10 093e cd4d eabb
000000e0: 207a 31bd 2b05 903e dcdd efbd 2757 03be
000000f0: 9b89 be3d cbeb 2cbd d798 11be c9ac 0d3f
00000100: 3f27 483d 6c91 583c f428 883d defe 87be
00000110: 52f9 8fbe 610c 303d 2e4c 5dbe d360 8cbe
00000120: a9f6 e8be f72c fcbe 3dab 4cbe 2d33 04bf
00000130: e2f9 c0be 89b4 61be 011c f1be 3515 97bd
00000140: cbb9 103e 5a74 0cbf a0ef 6ebf 687a f0be
00000150: 3083 fcbe 6d0a 8dbe 91cf 4bbe 6476 9cbd
00000160: fea8 b6be 3eb9 e9bd 2bab 163e f3d1 c9bd
00000170: 1bb2 fc3d 45e9 8c3c 4e71 aabd 48f8 33be
00000180: 1f79 2b3e fb30 33bc ace3 f5bd 327c 25be
00000190: 2f69 4dbd a409 98bc 5c2a e83d 8822 953d
000001a0: 261f 5bbd 1787 923e 40a6 333d 0dd5 a93e
000001b0: 0277 eabe d46e e1be 4820 e4be ae2b e33d
000001c0: 3667 f23d 404c 293e a2d9 563c 4267 fe3c
000001d0: 6e0f 4f3e 9359 d3bd 2018 9bbd b2db 93bd
000001e0: 55a5 0b3e 1270 463e c8a6 a13e 6661 79bd
000001f0: b1c9 69be cce1 54bd b961 613e ff69 933b
00000200: eadc 9dbb 31cb bb3e 7d0b f4bc b28f 99be
00000210: 38ad 8f3e 9a5b 803c a412 cfbe de9e 303e
00000220: a940 253d b6fe a0be 6f06 0a3d 38e4 553d
00000230: 30ca 43bc 1043 a03e 65c5 5f3d 3559 66bd
00000240: 2098 56be bae6 f8bd c0ba a03d 9c60 093f
00000250: f69b 563e 9a11 f23d bee7 be3e 449b 303d
00000260: 9a74 dcbc 8143 bbbe bc54 8abe 0500 03be
00000270: 3aa3 8cbe 1d49 bebd a165 2a3e dd0c f0be
00000280: cb94 123c 30f9 c53e 5e4e 0b3d 7394 213e
00000290: 1b09 023e 8ea6 ea3d 63d6 37be 47b1 eb3b
000002a0: 1090 6cbd f875 a1be c6ed b7bd 8d82 b53e
000002b0: d2da 82bc df31 00be 67f9 713e 53ee 8e3e
000002c0: ed85 13bc 5592 57be 2c56 483d cff8 4c3d
000002d0: 5792 9bbe 971e 00bf 00d9 85be 957a 87bc
000002e0: c8bc f53c 1b58 143e a9c4 ee3d 6673 5f3d
000002f0: 2eb5 de3e 6883 513e d96d 84bd 841e 49be
00000300: f277 d03e b602 c9bc 9c9c 9dbe 7174 ca3d
00000310: db1c f4bd cbc7 34be d95b b4be d260 56be
00000320: 95f7 b5be c9e1 12be e354 7fbe 0e09 3cbe
00000330: 17ab d0be a384 b5be 2850 0b3e b250 853e
00000340: 55c8 293e 5cf1 67be 0140 723e bd54 57be
00000350: 6361 94bd b033 1dbe 1525 a8be d36a 83be
00000360: c080 69be 29c8 41be 4457 c3bc 44c4 51be
00000370: af63 47be a400 ffbd cc17 21bd 3541 75be
00000380: 4f75 d23c 8837 4bbf 59d3 34be 8458 583e
00000390: 49c5 29bf 6131 8c3e a20c 533f 6ff2 22bf
000003a0: ad5c 0b3f 2a23 4b3f f6ad 36bf 0ab4 bebe
000003b0: 0db8 12bf 0e8a c6be 7796 6e3d 864e 34bd
000003c0: 1415 21bf 3248 babe 6bb6 8dbe 33e7 c53d
000003d0: 86b9 96be 1ddd 473d cd37 1ebe 868d 1d3c
000003e0: b1e4 e43d acd0 f7bb 5b2b 8fbe 9f89 69bd
000003f0: fd7f 85bd 6878 a4be 66e5 48bd c03c e7bc

features.3.bias f4 [16]
0.016062954 0.1601798 -0.10075203 0.040404275 -0.04626259 -0.0034088423 -0.007049963 0.027202923
-0.05295914 -0.07278357 -0.023982646 -0.239368 0.016346501 -0.32249385 0.06077049 -0.06334902
00000000: 7596 833c 2c06 243e 1557 cebd f47e 253d
00000010: d77d 3dbd e266 5fbb 6003 e7bb aad8 de3c
00000020: afeb 58bd 8d0f 95bd 4177 c4bc e31c 75be
00000030: 19e9 853c ea1d a5be 7aea 783d 22bd 81bd

features.6.weight f4 [8, 16, 3, 3]
-0.18267265 0.090943806 0.00041543448 -0.011319361 0.07907532 0.02833885 -0.057049155 -0.030682612
0.03549185 0.042230308 -0.023976149 0.07812672 0.057105213 0.37485853 0.22600266 0.038010646
0.28404182 0.35013434 -0.036752228 -0.019042134 0.011964649 0.08694862 -0.19227454 0.099217266
0.12009199 0.027681055 -0.02698983 -0.049452353 -0.22235115 -0.086748585 -0.1373601 0.039729916
0.08589654 0.01958699 0.12954229 0.19958206 -0.18842568 -0.055706378 0.06670094 -0.17527442
0.021856777 0.14136794 -0.0022184423 0.068267 0.25430685 0.043172374 -0.01318563 -0.08624731
-0.34255016 -0.66827047 -0.6250475 -0.03383452 -0.24757475 -0.5151699 0.117269166 -0.17934884
0.2368982 -0.301567 -0.27377683 -0.022630418 -0.07829503 -0.1094427 0.06528185 0.10958532
-0.05588008 -0.061247546 -0.056722034 -0.2495819 0.0120739145 -0.17331263 -0.2847015 -0.29788896
-0.11917861 -0.036508046 -0.13682169 -0.01756665 -0.09332027 0.12772202 -0.04510848 0.08749069
0.06577929 0.26075825 0.20608899 -0.023103891 0.017893746 -0.16386224 -0.08897967 -0.028648756
-0.35770917 -0.007303957 -0.059631623 -0.12637776 -0.13194263 -0.039033763 0.02710989 -0.12516022
0.052811574 -0.15634486 0.009795355 -0.4812813 -0.17980301 0.4457725 -0.29904836 0.046574507
-0.27234924 -0.24994256 -0.23397136 0.013322302 -0.13679995 0.2902954 0.2373133 -0.14476061
0.0918918 0.24083744 0.008091244 0.03852209 -0.16571458 0.07317934 -0.18862392 0.05739362
-0.20344163 0.07992453 -0.039382894 0.11125512 -0.12049445 0.20398164 -0.093536705 0.07691143
-0.08755089 -0.026596976 -0.03368402 0.22611293 -0.0787514 0.08105302 0.20962179 -0.110365435
0.17318651 0.06838115 0.152531 0.28979167 -0.08364495 0.006816629 -0.1021244 -0.06141384
-0.2485099 -0.09260917 0.2601431 -0.23645553 0.06276182 0.22569726 -0.24295047 0.15174977
0.030895589 0.22498704 0.15166253 -0.20124537 -0.0020710786 -0.10090178 -0.089264005 -0.055219706
-0.09433304 0.039320014 0.026181556 0.022623517 0.034239847 -0.16864626 -0.15052769 -0.0018496928
0.051470242 0.14113955 0.16746625 -0.034481183 -0.009021153 0.027838886 -0.14992778 -0.019638482
0.18178241 0.033033494 -0.04989022 0.12119929 -0.20915413 -0.15454581 0.17369984 -0.1806257
0.039039295 0.04001434 -0.045633897 0.010309392 -0.06368742 -0.103592515 -0.15817456 -0.028770225
-0.17640397 0.17918853 0.19455841 -0.22290215 0.015413283 0.16274099 -0.23926106 -0.2795938
0.24289459 -0.08443035 -0.17017251 0.32685065 -0.03986997 0.2738753 0.15566693 -0.020034712
0.0614296 -0.14026393 -0.01581915 -0.18410175 0.01416318 -0.12683664 0.08777673 0.22740597
0.012014572 0.11089781 -0.051875755 0.06310807 0.046495102 0.042822856 0.11637642 -0.09756888
-0.131044 -0.10134807 -0.057934444 0.2652397 -0.01307704 0.23398086 0.21202679 0.23185319
-0.08831361 0.45455933 -0.1498203 -0.0067311516 0.2365962 -0.0013037629 0.11741203 0.040873773
-0.10940006 0.008780608 -0.013378001 -0.07651067 0.07096827 0.05256703 0.09185597 0.18516959
-0.04480966 0.07403435 0.098692596 0.1966108 -0.21551347 0.13181978 0.02285609 -0.015154725
00000000: 8a0e 3bbe bf40 ba3d acce d939 d774 39bc
00000010: 3ef2 a13d e026 e83c 60ac 69bd 1a5a fbbc
00000020: e75f 113d b0f9 2c3d a169 c4bc e700 a03d
00000030: 28e7 693d 75ed bf3e 3e6d 673e 0db1 1b3d
00000040: ee6d 913e cf44 b33e 8189 16bd 40fe 9bbc
00000050: 6007 443c 1e12 b23d 9ee3 44be 6c32 cb3d
00000060: caf2 f53d 61c3 e23c c719 ddbc 8d8e 4abd
00000070: 05b0 63be 3ea9 b1bd 20a8 0cbe d6bb 223d
00000080: 86ea af3d e574 a03c bca6 043e 3d5f 4c3e
00000090: a9f2 40be 5f2c 64bd 819a 883d 237b 33be
000000a0: fc0c b33c c2c2 103e 4963 11bb 92cf 8b3d
000000b0: 8234 823e 84d5 303d 8a08 58bc 6ea2 b0bd
000000c0: bc62 afbe c613 2bbf 1d03 20bf 1196 0abd
000000d0: 3c84 7dbe 2de2 03bf d12a f03d 39a7 37be
000000e0: 7195 723e fd66 9abe 7a2c 8cbe 6d63 b9bc
000000f0: 2559 a0bd 7f23 e0bd 7eb2 853d 456e e03d
00000100: 83e2 64bd b5de 7abd 5d55 68bd 6692 7fbe
00000110: abd1 453c de78 31be 65c4 91be e784 98be
00000120: ea13 f4bd 7689 15bd fc1a 0cbe efe7 8fbc
00000130: b31e bfbd 90c9 023e abc3 38bd 522e b33d
00000140: 4bb7 863d 1b82 853e fe08 533e 5f44 bdbc
00000150: e895 923c 81cb 27be f93a b6bd ccb0 eabc
00000160: a825 b7be 0856 efbb 4a40 74bd 2c69 01be
00000170: f81b 07be dee1 1fbd 8f15 de3c 002a 00be
00000180: f350 583d de18 20be b27c 203c 816a f6be
00000190: 481e 38be 4b3c e43e de1c 99be e9c4 3e3d
000001a0: 5c71 8bbe f1f0 7fbe 3096 6fbe c945 5a3c
000001b0: 4915 0cbe 99a1 943e 4202 733e 203c 14be
000001c0: c531 bc3d 179e 763e 2391 043c 57c9 1d3d
000001d0: 15b1 29be 0ddf 953d a126 41be 9315 6b3d
000001e0: 0153 50be 79af a33d f54f 21bd b9d9 e33d
000001f0: cbc5 f6bd 90e0 503e 2c90 bfbd bd83 9d3d
00000200: e24d b3bd e7e1 d9bc 41f8 09bd 268a 673e
00000210: 6a48 a1bd 20ff a53d 18a7 563e 4607 e2bd
00000220: ce57 313e 6b0b 8c3d 1631 1c3e 935f 943e
00000230: 0b4e abbd 075e df3b 9926 d1bd 148d 7bbd
00000240: 6179 7ebe e0a9 bdbd 7a31 853e 6621 72be
00000250: 4589 803d 2f1d 673e 02c8 78be 4b64 1b3e
00000260: bf18 fd3c 0163 663e 6c4d 1b3e 4413 4ebe
00000270: efba 07bb 98a5 cebd 0cd0 b6bd 0f2e 62bd
00000280: ae31 c1bd 060e 213d b47a d63c f454 b93c
00000290: 153f 0c3d 9bb1 2cbe ee23 1abe 6471 f2ba
000002a0: 76d2 523d e386 103e 467c 2b3e 243c 0dbd
000002b0: 75cd 13bc 600e e43c ab86 19be e2e0 a0bc
000002c0: 2b25 3a3e 214e 073d b059 4cbd 5537 f83d
000002d0: 802c 56be 4241 1ebe 5fde 313e f2f5 38be
000002e0: abe7 1f3d 14e6 233d 9cea 3abd b9e8 283c
000002f0: 8d6e 82bd 5028 d4bd 83f8 21be 89af ebbc
00000300: 3ea3 34be 337d 373e 523a 473e 7640 64be
00000310: ff87 7c3c 93a5 263e da00 75be eb26 8fbe
00000320: 5cb9 783e d2e9 acbd b441 2ebe f858 a73e
00000330: b24e 23bd 6239 8c3e 2767 1f3e d61f a4bc
00000340: 9b9d 7b3d 59a1 0fbe 2997 81bc 2b85 3cbe
00000350: af0c 683c 77e1 01be 49c4 b33d 1cdd 683e
00000360: c4d8 443c 641e e33d ac7b 54bd ce3e 813d
00000370: a671 3e3d 0567 2f3d c356 ee3d 31d2 c7bd
00000380: 6630 06be 948f cfbd ab4c 6dbd 7fcd 873e
00000390: 1541 56bc ae98 6f3e 8d1d 593e ec6a 6d3e
000003a0: c4dd b4bd 00bc e83e 7e6a 19be fe90 dcbb
000003b0: 4646 723e 06e3 aaba b875 f03d 426b 273d
000003c0: 230d e0bd 8adc 0f3c 672f 5bbc a0b1 9cbd
000003d0: d057 913d 8750 573d fc1e bc3d 199d 3d3e
000003e0: 568a 37bd 529f 973d 581f ca3d 5754 493e
000003f0: 90af 5cbe c4fb 063e b23c bb3c 864b 78bc

features.6.bias f4 [8]
0.1371696 -0.30899376 0.046184044 0.119992316 0.070451565 -0.30130622 -0.21200837 -0.21052301
00000000: 3076 0c3e 6e34 9ebe 7b2b 3d3d 88be f53d
00000010: e948 903d cf44 9abe b918 59be 5893 57be

classifier.0.weight f4 [128, 1568]
-0.05319659 -0.12587489 -0.29294845 -0.10129187 0.10984473 0.12603694 0.13573897 0.16333504
0.19815363 0.12151474 0.17882976 -0.21021898 -0.10890713 0.08784371 -0.04441046 -0.26776206
0.04915958 0.006133987 -0.15377794 0.05010387 0.038712554 -0.05846208 0.10203227 0.091327265
0.1891859 -0.009013032 -0.24029659 -0.0046668593 -0.30373907 -0.041807786 0.03837374 -0.02853111
-0.107253864 0.25068316 0.07543937 -0.054051775 -0.004599983 0.052116733 0.030083545 -0.038700327
-0.25449508 -0.21224153 -0.16877179 -0.18511382 -0.05798358 -0.11765493 -0.0069374717 0.17464504
-0.057983737 0.036203675 0.018979378 0.040184386 -0.017325774 -0.016662579 -0.08049134 -0.34370315
-0.20384595 0.0017834282 0.0496805 0.0693576 0.06617198 0.2997659 0.07388983 0.16315946
0.16510889 0.14346467 0.09695047 0.015453645 -0.11165942 -0.58851457 -0.13002251 0.06761367
0.16793531 0.0036748247 0.10239136 0.3702475 0.08447477 0.05633538 0.21255958 0.014561259
0.0114891045 0.13949715 0.021331254 -0.3523438 -0.08487905 -0.05648729 0.23133315 0.07473478
0.31985173 0.30067527 0.05052247 -0.20701833 0.049856015 0.34609687 -0.14951327 0.084581606
0.19526464 -0.4344002 -0.022154883 0.026585625 0.20061918 0.23362786 0.31752366 0.0018880431
-0.24461776 -0.15353066 0.25511834 0.33410633 -0.0006639437 0.16515806 0.16408116 -0.23059998
-0.011415499 0.121054634 0.23378703 0.31412303 0.31136394 0.040736143 -0.3747416 0.079803616
0.3210714 0.15499696 0.036061503 0.15937479 -0.059745036 -0.35542542 -0.25362524 0.22305873
0.13881023 -0.035233177 0.062881194 0.076137684 0.12737675 0.3264592 0.34155416 0.27346042
0.044751998 0.09412274 -0.13200763 -0.40780124 -0.36422542 0.034598798 0.06294857 0.09600771
0.062169183 -0.008857929 0.23103449 0.31350717 0.14014477 0.10736517 0.056878 -0.15186654
-0.5451598 -0.42876804 -0.4744081 -0.25867704 0.052944798 0.2807082 0.13242552 0.20901245
0.17947869 0.13332053 0.23723044 0.17910486 -0.06037804 -0.29947665 -0.48933303 -0.22342886
0.0155020105 -0.52640617 -0.28068566 0.04451679 0.01981632 -0.21485901 -0.052630372 0.01300038
-0.008462391 -0.06703096 -0.24385296 -0.24717759 -0.1732538 -0.044508424 0.05439717 0.13875224
-0.5706952 -0.23257178 -0.24075757 -0.27702123 -0.14038214 -0.212232 -0.3966031 -0.2839072
-0.28998405 -0.053433396 0.13662262 0.011110332 -0.0864266 -0.42453384 -0.45762646 -0.6366648
-0.63079983 -0.2669849 -0.32532248 -0.11418775 -0.19622837 -0.13448939 0.18099713 0.0862315
0.06572876 -0.051496316 -0.4162646 -0.22486812 -0.5480694 -0.62240463 -0.7038653 -0.5508354
-0.55067044 -0.411647 -0.05676544 -0.1135594 -0.1498705 0.04465003 0.15749976 0.24947476
-0.41577497 -0.47955993 -0.68572855 -1.255813 -1.1773958 -0.5885214 -0.43454954 -0.19117965
-0.086292624 0.027045088 0.22960818 0.053035304 -0.3592248 0.09306474 -0.26695698 -0.65724736
-1.0627633 -1.2041011 -0.9910463 -0.19507296 -0.5795746 -0.018101037 0.0033086347 0.09039234
0.07786594 0.30414152 -0.18427442 -0.25338936 -0.2976141 -0.7840335 -1.033674 -1.0970838
00000000: abe4 59bd 59e5 00be 57fd 95be 1d72 cfbd
00000010: 46f6 e03d d40f 013e 28ff 0a3e 4d41 273e
00000020: c9e8 4a3e b8dc f83d 261f 373e a543 57be
00000030: b40a dfbd 67e7 b33d bee7 35bd 1c18 89be
00000040: 8e5b 493d 9dff c83b f777 1dbe b739 4d3d
00000050: 0e91 1e3d ef75 6fbd 4bf6 d03d ca09 bb3d
00000060: f3b9 413e 65ab 13bc 4f10 76be 74ec 98bb
00000070: b083 9bbe a43e 2bbd c82d 1d3d 13ba e9bc
00000080: eaa7 dbbd 8b59 803e f57f 9a3d 6565 5dbd
00000090: 74bb 96bb 5b78 553d c471 f63c 3c84 1ebd
000000a0: 2e4d 82be d855 59be 83d2 2cbe 7a8e 3dbe
000000b0: 3180 6dbd 11f5 f0bd bb53 e3bb 26d6 323e
000000c0: 5b80 6dbd 4e4a 143d a47a 9b3c 6298 243d
000000d0: c8ee 8dbc f67f 88bc a5d8 a4bd dcf9 afbe
000000e0: febc 50be ecc1 e93a c87d 4b3d 5b0b 8e3d
000000f0: 2d85 873d eb7a 993e 8d53 973d 4613 273e
00000100: 4e12 293e 67e8 123e f88d c63d 4931 7d3c
00000110: b2ad e4bd e4a8 16bf 9f24 05be 0979 8a3d
00000120: 3cf7 2b3e 54d5 703b 90b2 d13d 1591 bd3e
00000130: 1c01 ad3d edbf 663d 38a9 593e 5992 6e3c
00000140: cc3c 3c3c 57d8 0e3e e2be ae3c 6866 b4be
00000150: 11d5 adbd 375f 67bd 99e2 6c3e 8c0e 993d
00000160: 9bc3 a33e 1cf2 993e a6f0 4e3d 9dfc 53be
00000170: d235 4c3d 9c33 b13e 021a 19be 1f39 ad3d
00000180: 74f3 473e b469 debe 287e b5bc 19ca d93c
00000190: 1d6f 4d3e 243c 6f3e 7692 a23e 3778 f73a
000001a0: 147d 7abe 2437 1dbe df9e 823e fc0f ab3e
000001b0: 820c 2eba 321f 293e e404 283e 6722 6cbe
000001c0: 1308 3bbc 7eeb f73d de65 6f3e bcd4 a03e
000001d0: 186b 9f3e f1da 263d 22de bfbe 1470 a33d
000001e0: 7863 a43e 86b7 1e3e 3ab5 133d 2533 233e
000001f0: 36b7 74bd 52fa b5be 2bdb 81be 8269 643e
00000200: 4524 0e3e aa50 10bd dbc7 803d 13ee 9b3d
00000210: 0d6f 023e a925 a73e 30e0 ae3e 0103 8c3e
00000220: df4d 373d 6cc3 c03d 022d 07be 53cb d0be
00000230: c17b babe 78b7 0d3d 2eeb 803d b19f c43d
00000240: 1da5 7e3d d920 11bc 4e94 6c3e 0384 a03e
00000250: 1c82 0f3e 45e2 db3d e8f8 683d e782 1bbe
00000260: 988f 0bbf 7c87 dbbe 9ee5 f2be 5171 84be
00000270: a5dc 583d fcb8 8f3e 8e9a 073e 5c07 563e
00000280: 43c9 373e 2d85 083e 89ec 723e 4467 373e
00000290: f74e 77bd 0155 99be dc89 fabe 89ca 64be
000002a0: 25fc 7d3c 8ec2 06bf 08b6 8fbe 3d57 363d
000002b0: d655 a23c 0004 5cbe f292 57bd 8cff 543c
000002c0: d7a5 0abc 8747 89bd 97b4 79be 1f1c 7dbe
000002d0: 7269 31be 774e 36bd 91cf 5e3d 1115 0e3e
000002e0: 1519 12bf 4c27 6ebe 2789 76be bad5 8dbe
000002f0: 56c0 0fbe 5853 59be 900f cbbe 495c 91be
00000300: ca78 94be fadc 5abd cde6 0b3e 1c08 363c
00000310: 6e00 b1bd 805c d9be 044e eabe 77fc 22bf
00000320: 197c 21bf 3fb2 88be ab90 a6be 44db e9bd
00000330: 17f0 48be 96b7 09be 5057 393e 249a b03d
00000340: cd9c 863d cded 52bd a220 d5be d443 66be
00000350: 474e 0cbf e955 1fbf 8430 34bf 8c03 0dbf
00000360: bdf8 0cbf 65c3 d2be e182 68bd d591 e8bd
00000370: a777 19be f3e2 363d 9e47 213e 5076 7f3e
00000380: 75e0 d4be e188 f5be e88b 2fbf 7bbe a0bf
00000390: e8b4 96bf 57a9 16bf 477d debe 99c4 43be
000003a0: 30ba b0bd a98d dd3c 681e 6b3e 8c3b 593d
000003b0: 50ec b7be ba98 be3d 96ae 88be 5d41 28bf
000003c0: a108 88bf fc1f 9abf 36b5 7dbf 35c1 47be
000003d0: 005f 14bf a048 94bc aed5 583b 9f1f b93d
000003e0: 2e78 9f3d 70b8 9b3e 6fb2 3cbe 40bc 81be
000003f0: e060 98be 6bb6 48bf 6e4f 84bf 3e6d 8cbf

classifier.0.bias f4 [128]
0.09891671 -0.014056978 -0.04652907 0.18076597 -0.033288784 0.1922658 -0.028777715 -0.08511839
-0.04226343 -0.011073901 -0.015708707 0.13943563 -0.018166002 -0.13378298 -0.20578739 -0.03963672
-0.29803792 -0.027822057 -0.4168696 1.1081771 -0.047519837 -0.8548106 0.14208964 0.25375414
-0.8364855 0.49688545 0.5125154 -0.8365374 -0.6657815 0.9584407 0.13130547 -0.7552281
-0.1629372 0.86891764 0.2755064 0.07004962 0.0402582 -0.019308707 0.56433064 -0.02621708
0.09849389 -0.4500771 -0.2461959 -0.027214117 -0.02729495 0.26274404 0.79630643 0.36635852
-0.031872064 0.044254977 0.6845215 -0.05310891 -0.034078438 -0.029974464 -0.4719172 -0.48019245
-0.8528815 -0.18800034 0.11835294 -0.38813043 0.12707676 0.010616107 0.06587813 -0.044515815
-0.0395427 0.47245085 0.5367816 0.009334707 -0.033116993 -0.151678 0.47175437 0.116528966
-0.022220816 -0.7951714 0.26248285 -0.031140609 0.7445307 0.7188275 -0.70157695 0.9624573
0.09867093 -0.14926124 -0.013993703 -0.7555769 -0.7084273 0.16714649 -0.029464355 -0.1945068
-0.049508404 -0.0055161617 -0.01015698 -0.56356853 -0.0924883 0.2606654 -0.013907413 0.1616243
-0.033462916 0.587432 -0.28849912 -0.021703424 0.47846544 1.1554103 0.60015744 -0.16222596
0.573915 -0.70290804 0.14282878 -0.01717326 -0.5452357 0.5510193 -0.053099696 -0.04340962
0.15305243 -0.16144875 -0.04318322 -0.09693226 0.0028396638 -0.031467505 0.20015389 0.8020961
-0.046708383 -0.09266236 -0.029708065 -0.7289651 0.036801603 -0.048002034 -0.8021503 -0.016799541
00000000: d894 ca3d 3d4f 66bc 4495 3ebd b71a 393e
00000010: d259 08bd 53e1 443e 3ebf ebbc 8d52 aebd
00000020: 6b1c 2dbd 4f6f 35bc 8caf 80bc 37c8 0e3e
00000030: ded0 94bc 68fe 08be eeb9 52be 1d5a 22bd
00000040: 6d98 98be 15eb e3bc ef6f d5be bfd8 8d3f
00000050: 29a4 42bd ded4 5abf f27f 113e 10ec 813e
00000060: ea23 56bf c567 fe3e 3634 033f 5127 56bf
00000070: a870 2abf 5f5c 753f f174 063e a156 41bf
00000080: 02d9 26be 6371 5e3f 2d0f 8d3e 2d76 8f3d
00000090: c8e5 243d 4b2d 9ebc f977 103f 34c5 d6bc
000000a0: 2ab7 c93d 8170 e6be c71a 7cbe 24f0 debc
000000b0: a999 dfbc 6386 863e bdda 4b3f 5893 bb3e
000000c0: 488c 02bd b544 353d cd3c 2f3f ba88 59bd
000000d0: d595 0bbd 028d f5bc 229f f1be c9db f5be
000000e0: 7156 5abf 2983 40be 0763 f23d 08b9 c6be
000000f0: 6920 023e 2eef 2d3c 1deb 863d 3756 36bd
00000100: 87f7 21bd 14e5 f13e 856a 093f 99f0 183c
00000110: afa5 07bd 7a51 1bbe ca89 f13e bda6 ee3d
00000120: 6e08 b6bc 5a90 4bbf 2764 863e 971a ffbc
00000130: 9099 3e3f 1405 383f 8c9a 33bf 9a63 763f
00000140: fc13 ca3d f0d7 18be d845 65bc 7d6d 41bf
00000150: 7e5b 35bf 7328 2b3e 3b5f f1bc ca2c 47be
00000160: 53c9 4abd ebc0 b4bb 7669 26bc 0746 10bf
00000170: 816a bdbd ef75 853e ebdb 63bc d780 253e
00000180: 6910 09bd f261 163f 28b6 93be 61cb b1bc
00000190: 6cf9 f43e 7ce4 933f eba3 193f 901e 26be
000001a0: 18ec 123f c8f1 33bf b541 123e f0ae 8cbc
000001b0: 9194 0bbf 9a0f 0d3f 117f 59bd 49ce 31bd
000001c0: c7b9 1c3e d252 25be e3e0 30bd 6c84 c6bd
000001d0: a719 3a3b 12e4 00bd 24f5 4c3e 2c56 4d3f
000001e0: 4a51 3fbd c3c5 bdbd 545e f3bc 759d 3abf
000001f0: 47bd 163d c89d 44bd b959 4dbf 319f 89bc

classifier.3.weight f4 [2, 128]
0.3356355 0.20509493 0.13587765 0.1919952 -0.14646724 -0.16443415 0.19545205 0.16742209
-0.018058054 0.18695445 0.13204429 0.08799621 5.8606893e-05 0.020725612 0.06688505 -0.05917268
-0.05443772 0.22628973 -0.091208145 -0.26163113 -0.21704146 0.4677109 0.10664026 0.12528901
-0.07058448 -0.20491226 -0.21634057 0.009988579 0.028358681 -0.20011555 -0.020142369 -0.16310592
0.08998522 -0.2232289 0.0839624 0.050435167 -0.2598237 0.16296226 0.06751496 0.19863284
0.23635754 0.09160235 0.13317077 -0.13133617 0.14419554 -0.18441488 -0.24660088 -0.042851035
0.17865267 -0.032050997 0.30868447 0.17173915 -0.0056447866 0.03496245 -0.0040693637 -0.11908881
-0.065255076 0.071835205 0.15457031 -0.21563503 0.15433943 0.10148838 0.15101665 0.05024196
-0.05694423 0.13353427 0.11858721 -0.043548666 0.08850301 0.21382901 0.2398395 0.09559762
-0.011293793 -0.06851329 0.2048765 -0.17044447 -0.08461226 -0.10265835 -0.14300999 -0.098365575
0.07928928 0.16360874 -0.1026615 0.0005200916 -0.048137784 -0.012991998 0.16563675 0.042111237
0.014215097 -0.17946525 0.0065940605 0.11632733 0.25663477 -0.17040697 -0.19839522 -0.23647732
-0.07664495 -0.21221629 0.2794275 0.07212795 0.10771821 0.041071992 0.017282635 0.06695767
-0.16548377 -0.26653126 0.1790089 0.058176804 -0.045429584 -0.25317448 0.13502483 0.070079125
-0.12467699 0.10612543 -0.022646029 0.037509408 0.16812219 0.16913971 -0.05770119 -0.011685492
0.01387333 0.14178553 0.09050413 -0.1344882 0.19775411 0.014707253 0.11943973 0.08744367
-0.14995372 -0.017131124 0.078549154 -0.06352245 -0.100991875 0.304704 0.028594546 -0.099180505
-0.08659641 0.027502494 -0.09379672 -0.057300556 -0.19748673 -0.09908932 -0.34907615 0.14574693
-0.08834853 0.015718551 0.115928754 0.08833036 0.065085724 -0.44838428 -0.07172855 -0.12873483
0.051484797 0.09095753 0.22111894 0.060602732 0.061454687 0.21710539 0.1704214 -0.18137161
-0.23172821 -0.00849013 0.21549508 0.24330927 -0.07354437 -0.08937177 -0.2813635 -0.029344842
0.097517684 -0.21365097 -0.31916395 0.14413819 -0.098447904 -0.0013197317 -0.042456213 0.044935033
0.23326488 0.10737396 0.045489565 0.0034127557 -0.07926713 -0.14823502 0.09137398 0.12629862
-0.02867853 -0.16202706 -0.13675234 0.23626941 -0.19024642 -0.11999393 -0.12547809 0.010209326
-0.030700553 -0.2020694 -0.2955034 -0.2513812 0.060235817 -0.10786532 0.06357465 -0.21680708
-0.027173651 0.12671894 -0.021584999 -0.122917555 0.240698 0.24198267 -0.04090433 0.22167985
-0.21230693 -0.2948091 -0.14274551 0.13452742 -0.0038873095 -0.19122866 -0.05727472 0.08618151
-0.0022071383 0.13519226 -0.073201574 0.1831523 -0.2842186 0.2070737 -0.10784901 0.17262594
-0.13436285 0.14875114 0.058003087 0.08735154 -0.23086794 0.2744673 0.14011528 -0.10772915
0.27425045 -0.016536012 -0.06937869 -0.28323403 0.040197022 0.27897814 0.045859464 -0.17868337
0.1471341 -0.0814366 -0.3026829 -0.2164396 -0.100230664 0.005806951 -0.18833075 -0.29424658
-0.06603969 -0.15976723 0.08615198 -0.091330305 -0.33126703 -0.1035592 0.14498647 -0.1452172
00000000: 6bd8 ab3e 6804 523e 8323 0b3e 649a 443e
00000010: 82fb 15be 6d61 28be 9524 483e b270 2b3e
00000020: 7cee 93bc fd70 3f3e 9e36 073e 5b37 b43d
00000030: acd0 7538 c2c8 a93c 07fb 883d 0d5f 72bd
00000040: 16fa 5ebd 7fb8 673e 56cb babd 84f4 85be
00000050: 1e40 5ebe ce77 ef3e 3566 da3d c34b 003e
00000060: 998e 90bd 85d4 51be 6288 5dbe 23a7 233c
00000070: 7750 e83c 17eb 4cbe 9c01 a5bc 3d05 27be
00000080: 2c4a b83d 1e96 64be 7bf4 ab3d 1b95 4e3d
00000090: 9d07 85be 94df 263e 4945 8a3d 6866 4b3e
000000a0: b607 723e 039a bb3d eb5d 083e fd7c 06be
000000b0: ffa7 133e 41d7 3cbe f184 7cbe 9184 2fbd
000000c0: baf0 363e e847 03bd e40b 9e3e 63dc 2f3e
000000d0: e7f7 b8bb c934 0f3d 4c58 85bb d6e4 f3bd
000000e0: 74a4 85bd 561e 933d ae47 1e3e 6ecf 5cbe
000000f0: 280b 1e3e 24d9 cf3d 1ca4 1a3e 83ca 4d3d
00000100: 5a3e 69bd 35bd 083e dadd f23d 1660 32bd
00000110: 1141 b53d fef5 5a3e 7c98 753e afc8 c33d
00000120: 9a09 39bc b250 8cbd 25cb 513e ff88 2ebe
00000130: 3149 adbd 8a3e d2bd 3671 12be e473 c9bd
00000140: 6b62 a23d 0d89 273e 3140 d2bd c256 083a
00000150: 202c 45bd 64dc 54bc ae9c 293e d57c 2c3d
00000160: 70e6 683c bdc5 37be fd12 d83b 063d ee3d
00000170: a265 833e 2a7f 2ebe 1e28 4bbe 1c27 72be
00000180: 07f8 9cbd 3a4f 59be 1f11 8f3e d2b7 933d
00000190: 5d9b dc3d 1b3b 283d 5094 8d3c 1a21 893d
000001a0: 9474 29be c976 88be 1c4e 373e cd4a 6e3d
000001b0: 5f14 3abd 16a0 81be f343 0a3e a585 8f3d
000001c0: a656 ffbd 4a58 d93d 2a84 b9bc 77a3 193d
000001d0: 3928 2c3e f632 2d3e 1558 6cbd 8174 3fbc
000001e0: f74c 633c 3a30 113e 3b5a b93d 46b7 09be
000001f0: 0e80 4a3e b1f6 703c d19c f43d ab15 b33d
00000200: 788d 19be 9256 8cbc 61de a03d 0f18 82bd
00000210: d4d4 cebd 2a02 9c3e 1c3f ea3c 261f cbbd
00000220: 7559 b1bd e94c e13c 7f18 c0bd fdb3 6abd
00000230: f639 4abe 57ef cabd 1cba b2be af3e 153e
00000240: 13f0 b4bd 31c4 803c 0e6c ed3d 8ce6 b43d
00000250: aa4b 853d a092 e5be 6be6 92bd 10d3 03be
00000260: b9e1 523d f147 ba3d 016d 623e 923a 783d
00000270: e9b7 7b3d e050 5e3e f382 2e3e 7bb9 39be
00000280: 294a 6dbe 301a 0bbc beaa 5c3e 1126 793e
00000290: 6e9e 96bd 8c08 b7bd e00e 90be 9864 f0bc
000002a0: 5ab7 c73d 52c7 5abe 7569 a3be f698 133e
000002b0: 0e9f c9bd d9fa acba 91e6 2dbd cc0d 383d
000002c0: fddc 6e3e e1e6 db3d 4453 3a3d 8aa8 5f3b
000002d0: ce56 a2bd ecca 17be 4822 bb3d 6d54 013e
000002e0: 3def eabc 6cea 25be ce08 0cbe 9cf0 713e
000002f0: f5cf 42be 61bf f5bd 547d 00be 0445 273c
00000300: ba7f fbbc 48eb 4ebe 394c 97be 09b5 80be
00000310: d5b9 763d 7ee8 dcbd 6d33 823d ad02 5ebe
00000320: 479b debc 9cc2 013e 06d3 b0bc 33bc fbbd
00000330: 8979 763e 4eca 773e 4c8b 27bd 0b00 633e
00000340: fd66 59be 38f1 96be e12b 12be 8ec1 093e
00000350: 3bc2 7ebb 72d1 43be e698 6abd ee7f b03d
00000360: a3a5 10bb d76f 0a3e b5ea 95bd 478c 3b3e
00000370: 1a85 91be 210b 543e f1df dcbd dbc4 303e
00000380: 6a96 09be 3852 183e a594 6d3d 5de5 b23d
00000390: a568 6cbe fa86 8c3e 617a 0f3e 1aa1 dcbd
000003a0: 8e6a 8c3e 8876 87bc 6a16 8ebd 0d04 91be
000003b0: a2a5 243d 39d6 8e3e 22d7 3b3d c6f8 36be
000003c0: 52aa 163e 3bc8 a6bd 41f9 9abe 58a2 5dbe
000003d0: bc45 cdbd 3c48 be3b c7d9 40be 7da7 96be
000003e0: d13f 87bd 059a 23be 7370 b03d 620b bbbd
000003f0: d59b a9be d916 d4bd 5577 143e d1b3 14be

classifier.3.bias f4 [2]
-0.32832393 0.32832384
00000000: 131a a8be 101a a83e
