Pretrained_cnn/main/saved_ckpt/best_model_epoch_16.pt (torch, 835296 bytes, 10 tensors)

features.0.weight f4 [32, 3, 3, 3]
0	0x3da47fc6	0.08032183
1	0xb954c22a	-0.00020290227
2	0x3df2c7ad	0.118544914
3	0x3e1258cb	0.14291684
4	0xbdc47177	-0.09591954
5	0xbe97d1f0	-0.29652357
6	0x3d213f1b	0.039366823
7	0xbddbc148	-0.10730225
8	0xbe8b9627	-0.27262995
9	0x3df5befc	0.11999318
10	0x3e2c74c0	0.16841412
11	0x3e092e3a	0.1339654
12	0x3dd7643f	0.10517167
13	0xbd5f860f	-0.054571208
14	0xbe716186	-0.23572358
15	0xbda7daa0	-0.08195996
16	0xbe52dbc9	-0.20591654
17	0xbe67dcc8	-0.22642815
18	0x3e6d90e6	0.23199806
19	0x3e73e30e	0.23817083
20	0xbbeb9af8	-0.0071901046
21	0x3e0c05ee	0.13674137
22	0x3e00a21a	0.12561837
23	0xbe6c3a19	-0.23069037
24	0x3cf89fec	0.030349694
25	0xbdcde767	-0.10053902
26	0xbe82cfa6	-0.25549048
27	0x3d649fed	0.05581658
28	0xbe548ff5	-0.2075804
29	0xbe58d32e	-0.21174309
30	0xbe06a767	-0.13149796
31	0x3c134575	0.008988728
32	0x3cddfd35	0.027098278
33	0x3e13b0b4	0.14422876
34	0x3d38a128	0.045075566
35	0xbda5735a	-0.08078642
36	0xbe24815f	-0.16064976
37	0xbd69b5a0	-0.057057977
38	0xbdfdc7cb	-0.12391623
39	0xbda3342b	-0.079689346
40	0xbdc4ea21	-0.09614969
41	0xbe76b8ff	-0.24094008
42	0x3dc6e5e5	0.09711818
43	0xbdfe6678	-0.12421888
44	0x3d86502e	0.06558262
45	0xbe64bef9	-0.22338475
46	0xbeba79c4	-0.36421025
47	0xbeb50779	-0.35357264
48	0xbe8a4ec0	-0.27013206
49	0xbde4ddab	-0.11175092
50	0xbe574134	-0.21020967
51	0x3deaa86d	0.11457906
52	0xbdf9538c	-0.121741384
53	0xbd74ed49	-0.059796605
54	0x3e1d7b49	0.15379061
55	0x3da61888	0.08110148
56	0xbd61e195	-0.055146772
57	0xbd6e37aa	-0.058158554
58	0x3c8f847c	0.017519228
59	0x3d1558cc	0.036461636
60	0x3cdc4346	0.026887547
61	0xbdc4c26a	-0.09607394
62	0xbce5c57a	-0.028048266
63	0x3ddfaf99	0.109221645
64	0xbd976a42	-0.07393314
65	0xbdd756e9	-0.10514624
66	0x3cb3c089	0.021942394
67	0xbe1a4367	-0.15064774
68	0x3d09e7e1	0.033668403
69	0xbdc267d1	-0.09492458
70	0x3da6b0b1	0.0813917
71	0xbd1cdb0f	-0.038294848
72	0xbe1b1619	-0.15145148
73	0xbe362706	-0.17788324
74	0xbdf109b7	-0.11769431
75	0x3cb9acae	0.022665348
76	0xbdac95a4	-0.08426979
77	0xbcf06749	-0.029346125
78	0xbcb83e27	-0.022490574
79	0xbdd9944a	-0.10623987
80	0x3b2bef39	0.0026235117
81	0xbe083f25	-0.13305338
82	0xbe1411bd	-0.14459892
83	0xbe24a5fe	-0.16078946
84	0xbe285ccb	-0.16441648
85	0xbdd2b1b7	-0.10287803
86	0xbe2d77a9	-0.16940178
87	0xbe36d7d8	-0.17855775
88	0xbc37b1ed	-0.011211854
89	0x3b0f68ac	0.0021882458
90	0x3db0fb0a	0.08641632
91	0x3e22b5be	0.15889642
92	0x3e83a1c8	0.25709367
93	0x3e5f38c5	0.21799
94	0x3e309e77	0.1724795
95	0x3e8b0368	0.27151036
96	0x3e625351	0.22102095
97	0x3e37e666	0.17958984
98	0x3db29565	0.08719901
99	0xbcb22786	-0.021747362
100	0xbe04628d	-0.12928219
101	0xbd652a17	-0.055948343
102	0xbdf3eb4d	-0.119101144
103	0xbd17452b	-0.036931198
104	0xbdd9548a	-0.10611828
105	0xbe08a193	-0.13342886
106	0xbd1478e2	-0.036248095
107	0x3c1a6b01	0.009424926
108	0x3dfb5314	0.12271705
109	0x3e1c15b5	0.15242656
110	0x3e337e59	0.17528667
111	0x3dca4663	0.098767065
112	0x3e84318f	0.2581906
113	0x3dc020c4	0.093812495
114	0x3e19d5a8	0.1502291
115	0x3cd014cc	0.025400542
116	0xbc1a33db	-0.009411777
117	0x3e440570	0.19142699
118	0xbbd25da9	-0.0064198566
119	0x3e6ba922	0.23013738
120	0xbd876b7f	-0.066123
121	0xbd5ff38b	-0.05467562
122	0x3d01ad7f	0.0316596
123	0xbcf7f74a	-0.030269284
124	0xbe029a55	-0.12754185
125	0xbddaf8e3	-0.106920026
126	0xbe3e9b46	-0.1861392
127	0xbe3bdc8b	-0.18345849
128	0xbdbc8a20	-0.09206033
129	0xbdade89e	-0.08491634
130	0xbdaadd0d	-0.08342943
131	0x3bc207a1	0.0059213196
132	0xbcc8b22f	-0.024499027
133	0xbe51efb8	-0.20501602
134	0xbe613be1	-0.21995498
135	0xbe9ce3a4	-0.30642426
136	0xbe02a267	-0.12757264
137	0x3e0a3c67	0.13499604
138	0xbdde6fc5	-0.10861162
139	0xbc7d9c05	-0.0154790925
140	0x3df46d1b	0.11934873
141	0xbd0bb4b8	-0.034107894
142	0x3dc7516c	0.09732327
143	0x3e636a6a	0.22208562
144	0xbe61f899	-0.22067489
145	0xbc7b69ab	-0.015345017
146	0xbd440531	-0.047856513
147	0xbdc821d6	-0.09772079
148	0xbdf7dfa4	-0.12103203
149	0x3e3ff294	0.1874488
150	0xbc3c052a	-0.011475841
151	0x3e070704	0.1318627
152	0x3e52f320	0.20600557
153	0xbe800225	-0.25001636
154	0xbdb64070	-0.08899009
155	0xbd0bdb6c	-0.034144804
156	0xbe9f71a9	-0.31141403
157	0xbcf0cab8	-0.029393539
158	0x3de8b6fc	0.113630265
159	0x3da4daf9	0.08049578
160	0x3e0ce3f6	0.13758835
161	0x3e49fe77	0.19725977
162	0x3cf57b9a	0.029966164
163	0xbe286e02	-0.16448215
164	0xbd66b5fe	-0.056325905
165	0xbd2f0b48	-0.042735368
166	0xbe534c62	-0.20634606
167	0x3df2057c	0.11817452
168	0xbc8e6991	-0.017384322
169	0xbdaddb05	-0.0848904
170	0xbde31a11	-0.11088956
171	0xbcbe7181	-0.023247482
172	0x39b81dbe	0.00035117375
173	0x3de7e8b3	0.11323681
174	0xbc7bbd7d	-0.015365002
175	0x3ceaeb69	0.028676705
176	0x3e3e99ef	0.18613409
177	0x3cea745f	0.028619943
178	0xbdec52a2	-0.115391985
179	0x3e1777b7	0.14791761
180	0x3dc8d5b9	0.09806389
181	0x3cf7ea1c	0.030263
182	0xbe07752b	-0.1322829
183	0x3e0ba298	0.13636243
184	0xbd465e0b	-0.04842953
185	0x3df02f2a	0.11727746
186	0xbd9ab443	-0.075539134
187	0xbd2c8357	-0.042117443
188	0xbc34c875	-0.011034121
189	0xbe0d2d87	-0.13786899
190	0x3db7f960	0.089831114
191	0x3c492126	0.01227597
192	0xbe258b51	-0.16166426
193	0xbdf0a4b5	-0.117501654
194	0xbe8829bc	-0.2659434
195	0x3db092af	0.08621728
196	0xbdac5d2b	-0.08416208
197	0x3d9fb0a2	0.07797362
198	0x3e1f78b9	0.15573396
199	0x3e41af5d	0.18914552
200	0xbd292c50	-0.041302025
201	0x3b33338a	0.0027343952
202	0xbd6a8d1c	-0.05726348
203	0xbe334eeb	-0.17510574
204	0xbd0caa10	-0.03434187
205	0x3de3829f	0.11108898
206	0x3e36c425	0.1784826
207	0x3df537d1	0.11973537
208	0x3e22279a	0.1583542
209	0xbc99f413	-0.018793141
210	0x3e00a7f6	0.12564072
211	0xbd8ce2da	-0.06879206
212	0xbe8ee4fa	-0.2790907
213	0x3e25de3d	0.16198058
214	0x3cf7e5fb	0.03026103
215	0xbda38ec2	-0.07986213
216	0x3e05798e	0.1303465
217	0x3db4e4b3	0.088326834
218	0x3d5e3720	0.05425179
219	0x3e148562	0.14504007
220	0x3d4419f4	0.047876313
221	0x3d951c5b	0.07280799
222	0x3d2be965	0.04197063
223	0x3d2ffe82	0.042967327
224	0xbcb4916a	-0.022041995
225	0xbbe996dc	-0.0071285795
226	0x3d7bbed0	0.06146127
227	0xbdf9f184	-0.122042686
228	0xbdec3b10	-0.11534703
229	0xbe76e873	-0.2411211
230	0xbe1549d8	-0.1457895
231	0xbddb969c	-0.10722086
232	0xbc8a15b0	-0.016856045
233	0x3d7d606c	0.061859533
234	0xbc9efadf	-0.019406734
235	0xbdde165b	-0.10844108
236	0xbddb63ae	-0.10712372
237	0xbd8253c6	-0.06363635
238	0xbe402a9f	-0.18766259
239	0x3bf5213e	0.0074807694
240	0x3e0cd547	0.13753234
241	0x3d0944e8	0.03351298
242	0xbe040442	-0.12892249
243	0xbf1978f3	-0.5995018
244	0x3d9f33d8	0.0777356
245	0xbc8ddc3a	-0.017316926
246	0xbf2bb05e	-0.6706599
247	0xbf0dcac2	-0.5538751
248	0x3dde4223	0.10852458
249	0xbf464187	-0.77443737
250	0xbf6375fb	-0.888519
251	0x3d70806a	0.058716215
252	0xbf08992e	-0.53358734
253	0x3d0b63e5	0.034030814
254	0xbd402c9e	-0.04691755
255	0xbf09bf05	-0.538071

features.0.bias f4 [32]
0	0xbcad9b6e	-0.021192279
1	0xbd826267	-0.06366425
2	0xbbb6a76b	-0.005574157
3	0xbd995bbd	-0.07488201
4	0xbcbb8db5	-0.02289472
5	0xbdab15cf	-0.08353769
6	0xbbbc5286	-0.0057471422
7	0xba6e3741	-0.0009087213
8	0x3d3fb8c4	0.046807066
9	0x3e0c995c	0.13730377
10	0x3c51b3bb	0.012799199
11	0xbe36a528	-0.1783644
12	0xbe376ac0	-0.17911816
13	0xbe0e48e4	-0.13894993
14	0x3b3a8dca	0.002846586
15	0xbdc43e06	-0.095821425
16	0x3e75d36f	0.24006437
17	0xbd304bcb	-0.04304103
18	0xbd5d6674	-0.054052785
19	0xbe308dd4	-0.17241603
20	0xbc3478d3	-0.011015135
21	0xbe9473f1	-0.28994706
22	0xbdf7050f	-0.12061512
23	0xbca9aa13	-0.02071098
24	0x3d80f73d	0.06297157
25	0xbc97a923	-0.018513268
26	0xbd51275a	-0.05106292
27	0xbc2117f0	-0.009832367
28	0xbe049b38	-0.12949836
29	0xbd75ee07	-0.060041454
30	0xbbfc5160	-0.0077001303
31	0xbe0644f4	-0.13112241

features.3.weight f4 [16, 32, 3, 3]
0	0xbd8b181f	-0.0679171
1	0xbd971f71	-0.07379044
2	0x3dd2f8bc	0.103013486
3	0xbe61472a	-0.21999803
4	0xbdc09e13	-0.0940515
5	0xbdf6ea3e	-0.12056397
6	0xbcd11514	-0.025522746
7	0x3d9c3b25	0.076284684
8	0xbea3c9bf	-0.31989858
9	0x3c9e4daf	0.019324152
10	0xbb4b0efb	-0.003098427
11	0xbe6da980	-0.2320919
12	0xbdd46f29	-0.103727646
13	0xbe1bc71a	-0.1521267
14	0x3dd648b2	0.10463084
15	0x3d581cf4	0.052761987
16	0xbddacedb	-0.10683986
17	0xbd2c20af	-0.042023357
18	0xbd8e278a	-0.06941135
19	0x3d8cdaff	0.06877708
20	0xbd078b27	-0.03309169
21	0xbd365cdd	-0.044522155
22	0xbd9cdc0c	-0.07659158
23	0xbd1c8a70	-0.03821796
24	0xbd6df6a8	-0.058096558
25	0xbd8b4d9b	-0.068019114
26	0x3d334215	0.043764193
27	0x3ef08306	0.46974963
28	0x3e7cc5b5	0.24684794
29	0xbdb14c26	-0.08657102
30	0x3eba3682	0.3636971
31	0x3d80c94e	0.06288396
32	0xbe7dc07d	-0.2478046
33	0x3e75f186	0.24017915
34	0xbd4862e9	-0.048922453
35	0xbef35430	-0.47525167
36	0xbf0d64ba	-0.5523182
37	0xbeb3fbd3	-0.35153064
38	0x3dd06414	0.101753384
39	0xbebe576c	-0.37176073
40	0xbcb5d16e	-0.02219459
41	0x3e9e0824	0.30865586
42	0xbde2e165	-0.11078147
43	0x3ea5ab8e	0.32357448
44	0x3f05d208	0.5227361
45	0xbc512456	-0.012765011
46	0xbd9d7433	-0.07688179
47	0x3bb2bc22	0.005454556
48	0xbe989ff9	-0.2980955
49	0xbebe581f	-0.37176606
50	0xbdcab92a	-0.098985985
51	0xbe9d9f66	-0.30785674
52	0xbe77fa98	-0.24216688
53	0xbe3d626b	-0.18494575
54	0x3e631cff	0.2217903
55	0x3d95c387	0.073126845
56	0xbe462407	-0.19349681
57	0x3e157f1d	0.14599271
58	0xbdda58ce	-0.106614694
59	0xbe032ae8	-0.12809336
60	0x3e1e2d08	0.15446866
61	0xbc7c316a	-0.015392641
62	0xbe548700	-0.20754623
63	0x3e6f01b4	0.23340493
64	0x3dc96e19	0.098354526
65	0x3c8f8c83	0.017523056
66	0x3e17fd14	0.14842635
67	0xbdc92613	-0.09821715
68	0xbe2accce	-0.1667969
69	0x3d2d12da	0.042254306
70	0xbd467b1f	-0.04845726
71	0xbe4d9f03	-0.2008019
72	0xbddf37b0	-0.108992934
73	0xbe1dc537	-0.15407263
74	0x3d75bbaa	0.059993424
75	0xbe8621b9	-0.26197603
76	0xbdc21cd6	-0.09478156
77	0x3d0ac7ee	0.033882074
78	0xbe418b8e	-0.18900892
79	0x3e255c37	0.16148458
80	0x3e9b2e9c	0.30308998
81	0x3d59c65a	0.05316768
82	0xbf16a999	-0.58852535
83	0xbde3c9b1	-0.11122454
84	0xbdcbae1f	-0.0994532
85	0xbdd4e2cb	-0.1039482
86	0xbd94b2dd	-0.07260678
87	0x3d2a04fa	0.041508652
88	0xbdad1ff2	-0.08453359
89	0x3ce7d36c	0.028299056
90	0x3e70dc27	0.23521481
91	0x3d208411	0.03918845
92	0x3d9f1851	0.0776831
93	0x3e21462b	0.15749423
94	0xbd9b0397	-0.07569044
95	0xbd93ebe0	-0.07222724
96	0x3e2368ad	0.159579
97	0xbdab50a2	-0.08364989
98	0xbe47c79e	-0.19509742
99	0xbe6aa533	-0.22914581
100	0xbd969b4f	-0.073538415
101	0x3e1513d5	0.14558347
102	0x3e0bafb2	0.13641241
103	0x3d8a8c1e	0.067650065
104	0xbd916620	-0.07099557
105	0x3e732b67	0.23747025
106	0x3d125350	0.035723984
107	0x3e1c72e9	0.1527821
108	0xbe82c62d	-0.2554182
109	0xbd89b1e3	-0.06723382
110	0xbdb606e6	-0.088880345
111	0x3d0a6f82	0.03379775
112	0x3d063755	0.032767612
113	0x3e11bd81	0.14232446
114	0x3d1a95b2	0.037740417
115	0xbccb787d	-0.024837727
116	0x3dbdf6f1	0.09275616
117	0x3defcda5	0.117091455
118	0x3b49fea7	0.003082195
119	0xbd94b976	-0.07261936
120	0x3ce3a915	0.027790586
121	0x3d0a3d41	0.033749823
122	0x3de92873	0.11384668
123	0x3dbc9d07	0.09209638
124	0x3cf76754	0.030200638
125	0x3d79b1be	0.060960524
126	0x3e952957	0.29133102
127	0x3db80561	0.08985401
128	0xbd82793c	-0.0637078
129	0x3ea464b8	0.32108092
130	0x3d38c126	0.045106076
131	0xbe52ee3c	-0.20598692
132	0x3e0427af	0.12905763
133	0x3da57df0	0.08080661
134	0xbea4d955	-0.3219706
135	0x3e1230f0	0.1427648
136	0xbd955b5b	-0.07292815
137	0xbdce7f53	-0.10082879
138	0xbd478a08	-0.04871562
139	0x3b9b00c9	0.004730318
140	0xbe31171e	-0.17293975
141	0x3e17615f	0.14783238
142	0x3d95591b	0.07292386
143	0xbe57334c	-0.21015662
144	0xbe9da955	-0.30793253
145	0xbe49ad28	-0.1969496
146	0xbc148686	-0.009065276
147	0x3cfe7646	0.031062257
148	0x3d490b34	0.04908295
149	0x3dd7ff7d	0.105467774
150	0x3e171fd5	0.14758237
151	0x3c041fda	0.008064235
152	0x3ca0ecca	0.01964416
153	0xbf01a61f	-0.50644106
154	0xbe19990f	-0.14999793
155	0xbce419bc	-0.027844302
156	0xbe6d4fc3	-0.23174958
157	0xbc923d51	-0.017851504
158	0x3e8a73fc	0.27041614
159	0xbd8ffbaa	-0.07030423
160	0x3e66fddd	0.22557779
161	0x3ec40c19	0.3829048
162	0x3d3065ba	0.043065764
163	0x3c276b85	0.010218506
164	0xbd9e7668	-0.07737428
165	0x3dc6b5d1	0.097026475
166	0xbd47610a	-0.048676528
167	0xbdcb8923	-0.09938266
168	0xbde46562	-0.1115215
169	0xbe26fc3d	-0.16307159
170	0xbe982771	-0.2971759
171	0xbe016d87	-0.12639438
172	0xbe1c5f0a	-0.1527063
173	0xbe0df699	-0.13863601
174	0x3a9a0def	0.001175342
175	0x3dbc7c4f	0.092033975
176	0x3c0938ae	0.00837533
177	0xbc9ebce7	-0.019377185
178	0x3d9b4b49	0.07582719
179	0x3d862cab	0.065514885
180	0xbed94040	-0.4243183
181	0xbf05e3be	-0.5230063
182	0xbed237fb	-0.41058335
183	0xbe46410f	-0.19360755
184	0xbd8a65f9	-0.06757731
185	0xbda5c8bb	-0.08094927
186	0x3b4221d5	0.0029622216
187	0x3dd36f44	0.103239566
188	0x3ed3a800	0.4133911
189	0xbddab62a	-0.10679276
190	0xbda1ba73	-0.078968905
191	0x3d5f5565	0.054524798
192	0x3e29b0fc	0.1657142
193	0xbd3a994b	-0.045556348
194	0x3d434fed	0.047683645
195	0x3e3827ed	0.1798398
196	0x3ab5e30c	0.0013876869
197	0x3d1d6c23	0.038433205
198	0xbe3231ce	-0.17401811
199	0xbd97dd5c	-0.07415268
200	0xbe13c099	-0.14428939
201	0x3d39fb50	0.045405686
202	0xbda07a45	-0.07835821
203	0xbeadbd4c	-0.33933485
204	0xbe08371e	-0.13302276
205	0xbe794341	-0.24342062
206	0xbe72db4c	-0.23716468
207	0x3ea9d7b7	0.3317239
208	0x3df395af	0.11893784
209	0xbd7e009c	-0.0620123
210	0x3e6dbb04	0.23215872
211	0xbc9771cb	-0.018486878
212	0xbde6026d	-0.112309314
213	0xbc428e0d	-0.011874688
214	0xbe1bf3f7	-0.15229784
215	0xbe5eec71	-0.21769883
216	0xbb94d035	-0.004541422
217	0xbd31f371	-0.043445054
218	0xbe051000	-0.12994385
219	0xbd8057ae	-0.062667236
220	0xbc838c32	-0.016058061
221	0xbdb59bd4	-0.088676125
222	0xbca6b489	-0.020349758
223	0xbe04d1f9	-0.12970723
224	0xbc6a11ac	-0.01428644
225	0xbedb05d7	-0.42777893
226	0xbaf9c83a	-0.0019056865
227	0x3ea100a5	0.31445804
228	0xbe8617c7	-0.26190016
229	0x3e4bb00e	0.19891378
230	0x3f0bf21b	0.546663
231	0xbe348f66	-0.17632827
232	0x3f0dc6ff	0.5538177
233	0x3f1557e8	0.5833726
234	0xbe82cab5	-0.25545278
235	0x3dc1c629	0.09461624
236	0xbe92cadb	-0.2867039
237	0xbd812a76	-0.06306927
238	0x3e1fe010	0.15612817
239	0xbd42bf4c	-0.047545716
240	0xbd7f1052	-0.062271424
241	0xbd16f0ae	-0.036850624
242	0xbdba2faf	-0.09091126
243	0x3d2a13bf	0.041522738
244	0xbe151579	-0.14558972
245	0xbe3eccd1	-0.18632819
246	0xbb4263a1	-0.0029661434
247	0xbae820d4	-0.0017709979
248	0xbe27e833	-0.1639717
249	0x3d5c6ff1	0.053817693
250	0x3d45c040	0.048279047
251	0xbb8b35bd	-0.0042483495
252	0xbe4c20da	-0.19934407
253	0xbdb73988	-0.0894652
254	0x3da316e8	0.079633534
255	0xbdc6db2a	-0.09709771

features.3.bias f4 [16]
0	0xbde84396	-0.11341016
1	0x3de9438b	0.11389836
2	0xbd749de9	-0.059720907
3	0x3e12411b	0.14282648
4	0x3db1ebd4	0.08687559
5	0xbd907822	-0.070541635
6	0x3d6b95a6	0.057515763
7	0x3c19484e	0.009355618
8	0xbcb1535d	-0.021646196
9	0xbe06f0fe	-0.13177869
10	0xba7ad7d1	-0.00095689023
11	0xbdce48ad	-0.100724556
12	0x3d9468b5	0.07246534
13	0xbe022803	-0.12710576
14	0x3d636476	0.05551573
15	0xbcc9c05f	-0.024627862

features.6.weight f4 [8, 16, 3, 3]
0	0xbd1e2bff	-0.038616177
1	0x3e0e8125	0.13916452
2	0xbc7aa428	-0.015297927
3	0x3daac401	0.08338166
4	0x3d3afc64	0.045650855
5	0xbc7bcb2b	-0.015368263
6	0xbd49a1ac	-0.049226448
7	0xbe0ed71d	-0.13949247
8	0x3caaa0b4	0.020828582
9	0x3dec5b2c	0.11540827
10	0x3ca1c212	0.01974586
11	0x3c95e634	0.018298246
12	0x3dae94cb	0.08524474
13	0x3e824c35	0.25448766
14	0x3e0c84ba	0.13722506
15	0x3d9d8cf4	0.076929
16	0x3e81b78f	0.25335357
17	0x3e70a310	0.23499703
18	0xbd164f39	-0.036696646
19	0x39bfdb91	0.0003659395
20	0xbc90b596	-0.017664712
21	0x3d8415e5	0.064494886
22	0xbe2b0664	-0.16701657
23	0x3e04c6e9	0.12966503
24	0x3dd38854	0.10328737
25	0x3d080a17	0.033212747
26	0xbd2423c5	-0.040073175
27	0xbd971d35	-0.07378618
28	0xbe3f2c45	-0.18669231
29	0x3d402bbe	0.046916716
30	0xbdf0012b	-0.11718973
31	0x3d7b4228	0.06134239
32	0x3e0f19cf	0.13974689
33	0x3cd16a31	0.025563331
34	0x3dcda9d3	0.10042157
35	0x3e0d0de2	0.13774827
36	0xbe03963a	-0.12850276
37	0x3c4e0994	0.012575526
38	0x3e254f4c	0.1614353
39	0xbe04df35	-0.12975772
40	0x3db6ff17	0.08935373
41	0x3e16102d	0.14654608
42	0xbe07a41d	-0.13246198
43	0xbd53560f	-0.051595744
44	0x3e2d017b	0.16895096
45	0xbdf36ec2	-0.1188636
46	0xbb4f7295	-0.003165399
47	0xbde3d328	-0.11124259
48	0xbe2b9b27	-0.16758405
49	0xbe8b8b43	-0.27254686
50	0xbe68b59a	-0.22725525
51	0x3cc2e19b	0.023789218
52	0xbd697800	-0.056999207
53	0xbea26021	-0.31713966
54	0x3dfbcffc	0.12295529
55	0xbda6b657	-0.08140247
56	0x3e7cc5ad	0.24684782
57	0xbe443145	-0.1915942
58	0xbdbdeede	-0.09274076
59	0x3dc00f7a	0.09377952
60	0xbdf0f3bf	-0.11765241
61	0xbdc42800	-0.09577942
62	0x3dc6cee8	0.09707433
63	0xbe10577c	-0.14095873
64	0xbd0a52cf	-0.03377038
65	0xbe079d2c	-0.1324355
66	0x3d5dacfa	0.05412004
67	0xbcee2215	-0.029068986
68	0xbd9aacb2	-0.0755247
69	0xbe584892	-0.21121433
70	0xbd829cc0	-0.06377554
71	0xbdfdf903	-0.12401011
72	0xbdf413ea	-0.11917861
73	0xbd158976	-0.036508046
74	0xbe0c1afc	-0.13682169
75	0xbc8fe7ef	-0.01756665
76	0xbdbf1df7	-0.09331887
77	0x3e02c990	0.12772202
78	0xbd38c3ab	-0.04510848
79	0x3db32e52	0.08749069
80	0x3d86b7c0	0.06578016
81	0x3c93fa8c	0.018063806
82	0x3dd1dc21	0.102470644
83	0xbe59f2e0	-0.21284056
84	0xbd914abd	-0.07094333
85	0xbdf6173b	-0.120161496
86	0xbe3eb226	-0.18622646
87	0xbe0f9e42	-0.14025214
88	0xbe35cd2a	-0.17754045
89	0x3d18f50a	0.037343062
90	0x3b82aaa2	0.003987626
91	0xbdd77b81	-0.105216034
92	0xbdb570b9	-0.08859391
93	0x3d14c412	0.0363198
94	0x3cadeec0	0.021232009
95	0xbdabb58f	-0.08384239
96	0x3c983250	0.018578678
97	0xbe63db80	-0.22251701
98	0x3d61b81c	0.05510722
99	0xbe54359b	-0.20723574
100	0xbdbdff8d	-0.09277258
101	0x3d836caf	0.06417214
102	0xbe40f50b	-0.18843476
103	0xbdd26e62	-0.1027496
104	0xbe2f6150	-0.17126966
105	0xbe3ab6be	-0.18233773
106	0xbe6ef1da	-0.23334447
107	0x3e44d147	0.19220458
108	0xbc5952f3	-0.013264406
109	0x3e22c15a	0.1589407
110	0x3e3edbad	0.18638487
111	0xbe087b26	-0.13328227
112	0x3d839c07	0.06426244
113	0x3dc4c64c	0.096081346
114	0xbd978d3d	-0.07399986
115	0x3e2c6bf2	0.16838053
116	0xbd6c23cb	-0.057651322
117	0x3dd085e5	0.10181788
118	0xbde7514e	-0.112948045
119	0x3dce70fb	0.10080143
120	0xbe34aad6	-0.17643294
121	0x3e01f161	0.12689735
122	0xbbe3979e	-0.0069455644
123	0xbd8c550b	-0.06852158
124	0xbe62d4ba	-0.22151461
125	0x3dbd6331	0.09247435
126	0xbcc4e8bf	-0.024036763
127	0x3e1a79ac	0.15085477
128	0xbda61579	-0.08109564
129	0x3c7f4008	0.015579231
130	0xbd8f6447	-0.07001548
131	0x3e1b6312	0.15174511
132	0xbd89d315	-0.06729714
133	0x3d4c4cda	0.04987798
134	0x3dfab793	0.12242045
135	0xbd4b74fb	-0.04967211
136	0x3e806b49	0.25081852
137	0x3dc3d1a1	0.09561468
138	0x3e4db200	0.20087433
139	0x3e97df72	0.29662663
140	0xbd22f46d	-0.039783884
141	0x3dcff9fc	0.101551026
142	0xbd5f9f01	-0.054594997
143	0xbd36b6a3	-0.04460777
144	0xbdff7822	-0.124740854
145	0x3d6d35ab	0.05791251
146	0x3e88f96f	0.26752803
147	0xbe3e9013	-0.18609647
148	0xbd111a50	-0.035425484
149	0x3de35289	0.11099727
150	0xbe60d117	-0.21954761
151	0x3e0fed4f	0.1405537
152	0x3b2f369e	0.0026735435
153	0x3e6ccec1	0.23125745
154	0x3d8138d4	0.06309667
155	0xbe456433	-0.19276504
156	0xbc10a7ca	-0.0088290665
157	0xbdf6bebf	-0.12048101
158	0x3c737cfc	0.014861342
159	0x3d49ac7d	0.049236763
160	0xbe259ef6	-0.1617392
161	0x3ddf1528	0.10892707
162	0x3cd67ab4	0.026181556
163	0x3ce1b54b	0.027552268
164	0x3d0c3f15	0.034239847
165	0xbe2cb19b	-0.16864626
166	0xbe1a23ee	-0.15052769
167	0xbaf27164	-0.0018496928
168	0x3d52d276	0.051470242
169	0x3df11b0d	0.11772738
170	0x3e2b7c46	0.16746625
171	0xbdb692ca	-0.089147165
172	0xbcebb992	-0.02877501
173	0x3d407a89	0.04699186
174	0xbe53d40b	-0.20686357
175	0xbd51f026	-0.051254414
176	0x3e4f89ce	0.20267412
177	0x3d279c8f	0.04092079
178	0xbdffe852	-0.124954835
179	0x3e104e47	0.1409236
180	0xbdaa3c66	-0.08312301
181	0xbd9c0649	-0.07618386
182	0x3e04ef24	0.1298185
183	0xbdf172b0	-0.11789453
184	0xbd28ff14	-0.041258886
185	0x3df7194d	0.120653726
186	0x3d5e5f3a	0.054290034
187	0x3d94313e	0.07235955
188	0xbd0b5dcf	-0.03402501
189	0xbd621c2d	-0.05520265
190	0xbe1f9d13	-0.15587263
191	0xbd781354	-0.060565308
192	0xbd43423d	-0.04767059
193	0x3db64407	0.08899694
194	0x3e174714	0.14773208
195	0xbe2993db	-0.16560309
196	0x3cb8600d	0.022506738
197	0x3e79a671	0.24379899
198	0xbd22731f	-0.03966057
199	0xbd83b2d8	-0.06430596
200	0x3d3eaa2e	0.046549015
201	0xbb96d520	-0.004603043
202	0xbda135df	-0.07871603
203	0x3e0e34ab	0.13887279
204	0xbdb6bd05	-0.08922771
205	0x3e1e2e3f	0.15447329
206	0xbd58f494	-0.052967623
207	0xbe409988	-0.18808568
208	0xbd43eb60	-0.047831893
209	0x3df7a52f	0.12092053
210	0xbdf4079c	-0.11915514
211	0xbdeb2818	-0.11482257
212	0x3d371548	0.04469803
213	0xbdc7d86d	-0.09758077
214	0x3d6759df	0.056482192
215	0x3e556cb0	0.20842242
216	0x3c44d876	0.012014499
217	0x3de31e64	0.11089781
218	0xbd547bac	-0.051875755
219	0x3d813ece	0.06310807
220	0x3d3e71a6	0.046495102
221	0x3d2f66db	0.0428227
222	0x3dee56c3	0.11637642
223	0xbdc7f29a	-0.097630695
224	0xbe0630a1	-0.13104488
225	0xbd008edb	-0.031386238
226	0xbdbdc290	-0.092656255
227	0x3eacfc1c	0.33786094
228	0xbdaa22cc	-0.08307418
229	0x3e57e46c	0.2108323
230	0x3e6c1aa8	0.23057044
231	0x3dcd943b	0.10038038
232	0x3d72a895	0.059242804
233	0x3e87cd59	0.26523855
234	0xbde4ab20	-0.11165452
235	0x3bcede12	0.006313094
236	0x3e0ff810	0.14059472
237	0x3ddbb954	0.10728708
238	0x3ddf3546	0.10898833
239	0x3cc34351	0.02383581
240	0xbdf0a59a	-0.11750336
241	0x3d5b95a2	0.053609498
242	0xbd8ef969	-0.06981165
243	0xbd43984f	-0.047752675
244	0x3e0aeab7	0.13566099
245	0x3e10f265	0.14154966
246	0x3e1d5c00	0.15367126
247	0x3e23e925	0.16006906
248	0xbd9540d0	-0.07287753
249	0x3e1ac713	0.15115003
250	0xbd6198d5	-0.055077393
251	0x3e09025e	0.1337981
252	0xbea26493	-0.31717357
253	0x3e172132	0.14758757
254	0x3e10f0b6	0.14154324
255	0xbb52270e	-0.0032066735

features.6.bias f4 [8]
0	0xbce9747c	-0.028497927
1	0xbdbf5360	-0.093420744
2	0x3c6d25c8	0.01447434
3	0x3d7651bc	0.06013654
4	0x3d5156c1	0.051108126
5	0xbe3a6b1a	-0.18204919
6	0xbca94bc7	-0.020666016
7	0xbd76779f	-0.060172673

classifier.0.weight f4 [128, 1568]
0	0x3bcb4c94	0.006204197
1	0x3d8e2ee3	0.06942537
2	0x3df970e0	0.12179732
3	0x3dd04e54	0.1017119
4	0x3e59fc44	0.21287638
5	0x3dcf1b84	0.1011267
6	0x3d97f5d9	0.074199386
7	0x3dd5cf82	0.104399696
8	0xbbf4741e	-0.0074601313
9	0x3cfb0316	0.03064112
10	0x3da2b258	0.079441726
11	0xbd159e62	-0.036528
12	0xbd5e6d40	-0.054303408
13	0xbcc9c241	-0.02462876
14	0x3da41321	0.08011461
15	0x3e0885de	0.13332316
16	0x3dd03284	0.10165885
17	0x3df9a752	0.12190117
18	0x3d5e72a4	0.05430855
19	0x3ddef588	0.10886675
20	0x3d9d64d0	0.07685244
21	0x3c15bb50	0.009138897
22	0x3d93a0a1	0.07208372
23	0x3d9b0f62	0.075712934
24	0xbb1b9a5c	-0.0023743128
25	0xbda30719	-0.07960338
26	0xbcd64e38	-0.026160344
27	0xbba80fba	-0.005128828
28	0x3dcd444a	0.10022791
29	0x3de0caaf	0.10976159
30	0x3db623f9	0.0889358
31	0x3e09d58a	0.13460365
32	0xbdddf556	-0.1083781
33	0xbc4b0201	-0.0123906145
34	0xbcb7846a	-0.022402007
35	0xbdbe345e	-0.09287332
36	0x3d1a3620	0.037649274
37	0x3d4f27dc	0.050575122
38	0x3de9b55a	0.11411543
39	0x3d0c558f	0.034261283
40	0xbd82945d	-0.06375954
41	0xbce5280b	-0.027973196
42	0x3c86854b	0.01642098
43	0xbd39ea0b	-0.045389216
44	0x3dae4eb7	0.085111074
45	0x3c68f48c	0.014218461
46	0x3ce076a0	0.027400315
47	0x3d025fcd	0.031829644
48	0xbc829d03	-0.01594401
49	0x3d0860ae	0.033295326
50	0x3c3586a2	0.011079462
51	0xbd6a56c3	-0.05721165
52	0xbd258729	-0.040412102
53	0x3c667807	0.014066703
54	0xbcdca618	-0.026934668
55	0xbc92c827	-0.017917706
56	0xbd466c9d	-0.048443425
57	0x3cf8f85b	0.030391863
58	0x3db10c1a	0.08644886
59	0x3e383e23	0.17992453
60	0x3db19b8e	0.08672248
61	0x3e1f3500	0.15547562
62	0x3e101cbb	0.1407346
63	0x3e6e4aee	0.23270771
64	0x3d87d9cf	0.066333406
65	0xbcef6be8	-0.029226258
66	0xbc27de75	-0.010245909
67	0x3d7107a0	0.058845162
68	0xbceca2f0	-0.028886288
69	0xbe2bd921	-0.16782047
70	0xbd2a5465	-0.04158439
71	0x3dba2c86	0.090905234
72	0x3db8d3ca	0.090247706
73	0x3e49e808	0.19717419
74	0x3dd28374	0.10278979
75	0x3ddb236e	0.10700117
76	0x3dd86471	0.10566033
77	0x3dddc744	0.108290225
78	0x3c080a20	0.008303195
79	0xbc96b25e	-0.018395599
80	0x3db1f4fb	0.086893044
81	0x3d507cdb	0.05090032
82	0x3cf557bb	0.02994906
83	0xbd7741d8	-0.060365528
84	0xbdd7c96d	-0.10536466
85	0xbccd186c	-0.02503606
86	0x3e202f1a	0.15642968
87	0x3e1cebdc	0.15324348
88	0x3da54335	0.08069459
89	0x3aa34d57	0.0012458962
90	0x3dc7d0a5	0.09756593
91	0x3dd17904	0.1022816
92	0x3d9557f3	0.072921656
93	0x3e603170	0.21893859
94	0x3e174cdf	0.14775418
95	0x3d91259d	0.07087252
96	0x3d82e278	0.06390852
97	0xbddee85b	-0.10884162
98	0xbdba5cb4	-0.09099713
99	0x3c2d403f	0.0105743995
100	0x3de167e7	0.11006146
101	0x3e66e05c	0.22546524
102	0x3e20bfd3	0.15698175
103	0x3ce00984	0.027348287
104	0xbca59580	-0.020212889
105	0x3c80ec1c	0.015737586
106	0x3e199e7b	0.15001862
107	0x3e386759	0.18008174
108	0x3e22b7ff	0.15890501
109	0x3d904775	0.07044879
110	0x3d114aea	0.035471834
111	0x3cc1b717	0.023646874
112	0xbc8afa00	-0.016964912
113	0x3c91989a	0.017772961
114	0x3de59172	0.11209382
115	0x3e8fb6e9	0.28069237
116	0x3e6480f7	0.22314821
117	0x3d5f4ef9	0.054518674
118	0xbd480820	-0.048835874
119	0xbc36312e	-0.011120124
120	0x3dea988f	0.114548795
121	0x3e289762	0.16463998
122	0x3ddb170f	0.106977575
123	0x3d16e22e	0.036836796
124	0xbc35ea7c	-0.011103269
125	0xbcaac29b	-0.020844748
126	0xbd60c9c1	-0.054879908
127	0xbcd801d1	-0.026368054
128	0xbc991c63	-0.018690294
129	0x3d937073	0.07199182
130	0x3e2fa123	0.17151313
131	0x3e1593d1	0.14607169
132	0x3e0a7726	0.13522014
133	0x3e328aef	0.17435811
134	0x3e18c774	0.14919835
135	0x3e41e366	0.18934402
136	0xbcb669d8	-0.022267267
137	0xbd4da7d2	-0.050208874
138	0x3ba2cac0	0.0049680173
139	0xbc95f436	-0.018304925
140	0xbe151e39	-0.1456231
141	0xbbc2f1f1	-0.005949252
142	0x3cfd88ce	0.030949023
143	0x3e2d55ea	0.16927305
144	0x3e525378	0.20539653
145	0x3df4d833	0.11955299
146	0x3e828dcb	0.25498804
147	0x3e683427	0.22676145
148	0x3db2f3d3	0.08737912
149	0x3d150afa	0.03638742
150	0x3d94c230	0.07263601
151	0x3db6ada3	0.08919837
152	0x38e993c8	0.00011137832
153	0xbdb2e4f2	-0.08735074
154	0xbd935b93	-0.07195201
155	0xbd13fa03	-0.0361271
156	0x3d544d1f	0.05183136
157	0x3e4b54d9	0.19856586
158	0x3e6f307d	0.2335834
159	0x3de1256a	0.10993464
160	0x3d1c4f53	0.038161587
161	0xbb99b00c	-0.004690176
162	0x3d64541c	0.055744275
163	0x3c194cfb	0.0093567325
164	0x3d161fa2	0.03665126
165	0xbca53250	-0.020165592
166	0x3d18fbfd	0.03734969
167	0x3ce983cd	0.02850523
168	0x3bffb4ad	0.0078035207
169	0xbe8fc589	-0.28080395
170	0xbdb7540f	-0.0895158
171	0x3d9364b9	0.07196946
172	0x3dcd7ed3	0.100339554
173	0xbd2b519b	-0.041825872
174	0xbd903efe	-0.07043265
175	0xbc3787bf	-0.011201798
176	0x3d0129e1	0.03153408
177	0xb92f4212	-0.00016713914
178	0xbd59c5bc	-0.05316709
179	0x3d788ab1	0.06067914
180	0x3c88424c	0.016633175
181	0x3e0bf72a	0.13668504
182	0x3d41fb70	0.04735893
183	0x3d449f44	0.04800345
184	0xbe804d18	-0.25058818
185	0xbd6be022	-0.057586797
186	0xbd09d77f	-0.03365278
187	0xbcfcb216	-0.030846637
188	0xbdafe3f2	-0.08588399
189	0x3c815f6b	0.01579257
190	0xbb97083d	-0.0046091364
191	0x3bfb8705	0.0076760077
192	0xbe1eab6b	-0.15495078
193	0xbb8c7af5	-0.0042871186
194	0x3df6c10e	0.12048541
195	0xbc6b2e92	-0.014354365
196	0x3c991f95	0.018691817
197	0x3bbef437	0.0058274525
198	0xbe447894	-0.19186622
199	0xbe353c8b	-0.17698877
200	0xbe41164e	-0.18856165
201	0xbd778821	-0.060432557
202	0xbd780523	-0.060551774
203	0xbde2804b	-0.11059626
204	0xbc7c420a	-0.015396604
205	0xbda0a9a4	-0.078448564
206	0x3d79c7bc	0.060981497
207	0x3d1414ed	0.03615277
208	0x3de6329f	0.11240124
209	0x3d2e224f	0.042513188
210	0xbcd13b6b	-0.025541028
211	0xbd5d78e5	-0.054070372
212	0xbe918015	-0.2841803
213	0xbe864096	-0.2622115
214	0xbe5d74b1	-0.21626545
215	0xbdbdb244	-0.09262517
216	0xbddf8a77	-0.10915082
217	0xbd2f4f35	-0.042800147
218	0x3d16ae4f	0.036787327
219	0x3d842257	0.06451862
220	0x3d49792e	0.04918783
221	0xbdf45814	-0.11930862
222	0x3d44fd6c	0.048093244
223	0x3da97f92	0.08276285
224	0xbd8e1a9a	-0.069386676
225	0xbee6b175	-0.45057264
226	0xbecc7868	-0.39935613
227	0xbeca85eb	-0.39555296
228	0xbeea67b7	-0.45782253
229	0xbe1ec9b9	-0.15506639
230	0xbe22c60d	-0.15895863
231	0x3c0ce5fc	0.008599754
232	0x3d35094d	0.044198323
233	0x3e22fc17	0.15916477
234	0x3e8edbe0	0.27902126
235	0x3c3c797f	0.011503576
236	0xbe491574	-0.1963709
237	0xbcf5190d	-0.029919172
238	0xbe03e91a	-0.1288189
239	0xbeffe584	-0.49979794
240	0xbed6f469	-0.41983345
241	0xbee2b52e	-0.44278854
242	0xbed834f8	-0.42227912
243	0x3a1307d4	0.00056087715
244	0xbcebd05c	-0.028785877
245	0xbdacf8a6	-0.084458634
246	0x3d495a14	0.04915817
247	0x3dbbdce6	0.091729924
248	0x3dfaa2e4	0.122381
249	0x3e1faab5	0.15592463
250	0xbe5c7f4c	-0.21532935
251	0xbdb057d9	-0.086105056
252	0xbee60762	-0.44927508
253	0xbed93b88	-0.4242823
254	0xbecd58a4	-0.4010669
255	0xbeeed563	-0.46647176

classifier.0.bias f4 [128]
0	0xbd28f234	-0.041246608
1	0xbcfbc189	-0.030731933
2	0xbc75f0be	-0.015011011
3	0x3d32b12d	0.043626
4	0xbd17169e	-0.036886804
5	0x3e751559	0.23933925
6	0xbc081096	-0.008304736
7	0xbcceecd0	-0.025259405
8	0xbc2ce4d5	-0.010552605
9	0xbc356f4f	-0.011073901
10	0x3cf12a3d	0.029439086
11	0xbaf16a42	-0.0018418508
12	0xbc94d0de	-0.018166002
13	0xbd6ff5de	-0.058584087
14	0x3c6a642a	0.014306108
15	0xbd225a1d	-0.03963672
16	0xbd0c013a	-0.034180857
17	0xbda3b782	-0.07993986
18	0xbd4374e1	-0.047718886
19	0x3f0a6cb0	0.54072094
20	0xbcedbf5f	-0.029021917
21	0xbe7a8f3d	-0.24468704
22	0xbd1d2e15	-0.038374025
23	0x3d5f15d5	0.05446418
24	0x3c16ecb6	0.00921171
25	0x3e88c2d9	0.26711157
26	0x3e43b7f1	0.19113137
27	0x3bb4986b	0.0055113337
28	0x3c9c6926	0.019093107
29	0x3ede3570	0.43400145
30	0x3e90583d	0.2819232
31	0x3cf68be7	0.030096008
32	0xbda63b99	-0.08116836
33	0x3ee4c48b	0.446812
34	0x3ea2736e	0.3172869
35	0xbcc2e691	-0.023791583
36	0x3e9337fe	0.28753656
37	0xbde6a3f1	-0.11261738
38	0x3e0d4e34	0.13799363
39	0xbcd6c534	-0.02621708
40	0xbd8c77d1	-0.06858791
41	0xbe1baa14	-0.15201598
42	0xbde6c0ed	-0.112672664
43	0x3dc6155a	0.09672041
44	0xbc1708c1	-0.009218396
45	0x3e86a7be	0.26299852
46	0x3eb8bbbe	0.36080736
47	0x3e90f8c1	0.28314784
48	0xbd11df21	-0.035613183
49	0x3dc4d01d	0.09610007
50	0x3e91fcad	0.2851309
51	0xbd50ef60	-0.051009536
52	0xbd0b95d5	-0.034078438
53	0xbcf58d02	-0.029974464
54	0x3d836db0	0.064174056
55	0xbd7899a7	-0.06069341
56	0xbc4da734	-0.012552071
57	0xbcbe8602	-0.02325726
58	0x3cb0c259	0.021577047
59	0xbd4b6e2c	-0.049665615
60	0xbd3e9379	-0.04652736
61	0xbd11b2fb	-0.03557108
62	0xbcc28905	-0.023746977
63	0xbd365637	-0.044515815
64	0xbc083d79	-0.0083154375
65	0x3e509469	0.20369114
66	0x3e6e93c3	0.23298554
67	0x3d29bae3	0.041437995
68	0xbd07a5af	-0.033116993
69	0xbd1c97ec	-0.03823082
70	0x3dfcd975	0.12346164
71	0x3d40ffa8	0.047118813
72	0xbc0be21d	-0.008537796
73	0xbe24745d	-0.16060014
74	0x3d8df5d6	0.06931655
75	0xbcff1a97	-0.031140609
76	0x3e87acfb	0.2649916
77	0x3ebef6da	0.37297708
78	0xbdb69d28	-0.08916694
79	0x3ee7ce94	0.45274794
80	0x3ccf2ec0	0.025290847
81	0x3c617cda	0.013762677
82	0xbc6545d8	-0.013993703
83	0xbd284ebd	-0.041090716
84	0x3c1026fc	0.008798357
85	0x3d880053	0.06640687
86	0xbcf15f3b	-0.029464355
87	0xbcd34e7b	-0.025794258
88	0xbc4144d8	-0.011796199
89	0xba3b1b12	-0.00071375177
90	0xbc90076b	-0.017581662
91	0x3d1a4c6c	0.037670538
92	0x3c461335	0.01208954
93	0x3e54d026	0.20782527
94	0xbcebdcb7	-0.028791768
95	0x3d863ea5	0.06554917
96	0xbc83b81d	-0.016079003
97	0x3e3744a9	0.17897286
98	0xbe3367ce	-0.17520067
99	0xbc4ddd8e	-0.01256503
100	0x3e446c10	0.19181848
101	0x3f10f113	0.5661785
102	0x3e9b43bd	0.30325118
103	0xbd6636c9	-0.05620459
104	0x3ec4af89	0.38415173
105	0x3d5df3a4	0.054187432
106	0xbd7454ab	-0.05965106
107	0xbd1ed4e8	-0.038777262
108	0x3c0c0612	0.008546369
109	0x3ed72f0d	0.42028084
110	0xbcb29f6a	-0.02180453
111	0xbc557078	-0.013027303
112	0xbd2ce95e	-0.042214744
113	0xbccf0535	-0.025271038
114	0xbcf1e611	-0.02952865
115	0x3b9990fa	0.004686472
116	0xbd7534cb	-0.0598648
117	0xbd00e412	-0.031467505
118	0x3d9139d0	0.07091105
119	0x3e8c5710	0.27410173
120	0xbc60df3c	-0.013725098
121	0xbd7f528d	-0.062334586
122	0xbcab5e3b	-0.020918956
123	0xbcb99ffd	-0.022659296
124	0x3cdd459b	0.02701073
125	0xbd1d6eae	-0.03843563
126	0x3d193cf1	0.037411634
127	0xbd014825	-0.031562943

classifier.3.weight f4 [2, 128]
0	0x3f02c524	0.5108206
1	0x3eb1e4ff	0.34745023
2	0x3e29d908	0.16586697
3	0x3e692579	0.22768201
4	0xbe10b741	-0.14132406
5	0xbe97c255	-0.2964045
6	0x3e4a55e7	0.19759332
7	0x3e9b69fd	0.303543
8	0x3c5a3b23	0.013319763
9	0x3e3f70fd	0.18695445
10	0xbc4c66c6	-0.012475675
11	0x3e5d7935	0.21628268
12	0x3875d0ac	5.8606893e-05
13	0xbc3ea50c	-0.01163603
14	0xbe218256	-0.15772375
15	0xbd725f0d	-0.05917268
16	0xbdc7b3cb	-0.0975109
17	0x3ed68c25	0.41903797
18	0xbe83b3e7	-0.25723192
19	0xbebf0318	-0.37307048
20	0xbda50428	-0.08057433
21	0x3e745437	0.2386025
22	0x3e2194f8	0.15779483
23	0x3e58332c	0.2111327
24	0xbcf07180	-0.029350996
25	0xbe63d455	-0.22248967
26	0xbeb15c64	-0.346408
27	0x3bf578b6	0.0074911965
28	0x3c9760c6	0.018478762
29	0xbe863a5a	-0.26216394
30	0xbdc2f500	-0.09519386
31	0xbe54347d	-0.20723148
32	0x3e5b5c17	0.21421848
33	0xbe98f872	-0.2987705
34	0x3d231267	0.03981247
35	0x3e0a82a3	0.13526396
36	0xbe9c57e6	-0.3053581
37	0x3ea454c4	0.3209592
38	0x3e4d7431	0.20063855
39	0x3e4b6668	0.19863284
40	0x3e903b45	0.2817022
41	0x3e480c42	0.19535926
42	0xbc05af21	-0.00815943
43	0xbd588b85	-0.05286743
44	0x3e26e028	0.16296446
45	0xbe6c282f	-0.23062204
46	0xbe8feac5	-0.28108802
47	0xbe1f1adf	-0.15537594
48	0x3e492c3d	0.19645782
49	0xbb7c2b7e	-0.0038478072
50	0x3ed98719	0.42485884
51	0x3e30844b	0.17237966
52	0xbbb8f7e7	-0.0056447866
53	0x3d0f34c9	0.03496245
54	0xbc8689b5	-0.016423086
55	0xbd86f8ca	-0.065904215
56	0xbd94a3a8	-0.072577775
57	0xbcfd7145	-0.0309378
58	0x3eaa52a5	0.33266178
59	0xbece9bff	-0.4035339
60	0x3e9f9b99	0.311734
61	0x3e677269	0.22602238
62	0x3e87f045	0.265505
63	0x3d4dca83	0.05024196
64	0xbcd1033d	-0.02551424
65	0x3f003a22	0.50088704
66	0x3eab0d21	0.33408454
67	0x3db061d3	0.086124085
68	0x3db54111	0.08850301
69	0x3e7eeb1a	0.24894372
70	0x3eb63c4e	0.35592884
71	0xbca1a7ee	-0.019733395
72	0x3b7d6d79	0.0038669987
73	0xbe07a00f	-0.13244651
74	0x3eaeacbe	0.34116167
75	0xbe2e88ff	-0.17044447
76	0xbe09a41f	-0.13441513
77	0xbe1c3c43	-0.15257363
78	0xbe02bc3f	-0.12767123
79	0xbdd7d699	-0.10538978
80	0x3dce3681	0.100689895
81	0xbdcdaf7d	-0.10043237
82	0xbdd24031	-0.1026615
83	0xbe030eba	-0.12798586
84	0xbd32aa64	-0.04361953
85	0x3dccd92d	0.100023605
86	0x3e299cae	0.16563675
87	0x3971d670	0.00023063435
88	0x3d863398	0.065528095
89	0xbe3a5613	-0.18196897
90	0x3da8969b	0.08231851
91	0x3de833d1	0.11338008
92	0x3e8f2903	0.27960977
93	0xbe13c2d9	-0.14429797
94	0xbe1f7aa7	-0.15574132
95	0xbe62d2c6	-0.22150716
96	0xbd92fc66	-0.071770474
97	0xbe79b9fe	-0.24387357
98	0x3eaeb5e7	0.34123155
99	0x3d9ae004	0.07562259
100	0x3ebcbae0	0.36861324
101	0xbe1c1d6b	-0.15245597
102	0xbd93604d	-0.07196102
103	0x3dcd26ae	0.10017143
104	0xbec1c7ce	-0.3784775
105	0xbea008b8	-0.31256652
106	0x3e9ad6e1	0.30242065
107	0xbe5abb2b	-0.21360461
108	0xbcd97c7b	-0.026548615
109	0xbf075f21	-0.5287953
110	0x3e2a6cac	0.16643018
111	0x3dc531a2	0.09628607
112	0xbd9bc88e	-0.07606612
113	0x3d7555c2	0.05989624
114	0xbe18a542	-0.14906791
115	0x3e1c649e	0.15272757
116	0x3e9b4ad7	0.30330536
117	0x3e2d32f6	0.16913971
118	0x3cffbc14	0.031217612
119	0x3dec4ffa	0.11538692
120	0x3d3b5573	0.045735788
121	0x3e929570	0.28629637
122	0x3dd1d882	0.10246374
123	0xbe1e81cc	-0.15479201
124	0xbdc3260e	-0.09528743
125	0x3c922fe0	0.017845094
126	0x3dc21305	0.09476284
127	0x3e918609	0.28422573
128	0xbea67897	-0.32513878
129	0xbe234fd1	-0.15948416
130	0x3d46e688	0.048559695
131	0xbdcb2ddf	-0.099208586
132	0xbdd95e37	-0.10613673
133	0x3edf9423	0.43667707
134	0x3cd8b344	0.026452668
135	0xbe70f2cc	-0.2353012
136	0xbdf19c7b	-0.117974244
137	0x3ce14ce9	0.027502494
138	0x3d4fc49b	0.050724607
139	0xbe3e0a4a	-0.18558612
140	0xbe4a39f6	-0.19748673
141	0xbd88a85f	-0.06672739
142	0xbdfee62f	-0.12446248
143	0x3e153eaf	0.14574693
144	0xbd397141	-0.045274023
145	0xbe354686	-0.17702684
146	0x3e905c6c	0.28195512
147	0x3e4c9122	0.19977239
148	0xbd92358e	-0.07139121
149	0xbe6089b5	-0.21927531
150	0xbdfba5d6	-0.1228749
151	0xbe5bba05	-0.2145768
152	0x3c27fb7e	0.0102528315
153	0x3dde4784	0.10853484
154	0x3eb3cf1e	0.35118955
155	0x3d813bab	0.06310209
156	0x3d9218bd	0.07133625
157	0x3e8eed55	0.27915445
158	0x3e7b5dca	0.24547496
159	0xbe0c89c2	-0.13724425
160	0xbeb63ff3	-0.35595664
161	0x3d8950b4	0.06704846
162	0x3e84f084	0.2596475
163	0x3e224932	0.15848234
164	0xbce57416	-0.028009456
165	0xbe7d4e8a	-0.24736992
166	0xbed43755	-0.41448465
167	0xbcf06498	-0.029344842
168	0x3d55b50d	0.052174617
169	0xbea2834b	-0.31740794
170	0xbe361759	-0.17782344
171	0x3d867de9	0.06566984
172	0xbdf00f47	-0.11721664
173	0x3d37dc8b	0.04488806
174	0xbc029a50	-0.007971361
175	0x3e213d33	0.15746002
176	0x3e5ca36c	0.21546715
177	0x3da22469	0.07917101
178	0xbd90c2b7	-0.07068389
179	0x3b35b199	0.0027724265
180	0xbda256ce	-0.07926713
181	0xbe17caec	-0.14823502
182	0x3dd46f8c	0.103728384
183	0x3d95be4e	0.07311688
184	0xbcaeece4	-0.021353193
185	0xbd72b3b0	-0.059253395
186	0xbea1330a	-0.31484252
187	0x3ed92cc9	0.4241698
188	0xbeb1fe0a	-0.3476413
189	0xbe7a6594	-0.24452811
190	0xbe75ba1c	-0.23996776
191	0x3c274504	0.010209326
192	0xbd7e7c99	-0.062130544
193	0xbf11c5b2	-0.56942284
194	0xbf02d0e3	-0.51099986
195	0xbec31997	-0.3810546
196	0x3d76b9d5	0.060235817
197	0xbe126952	-0.14297989
198	0xbd5717b1	-0.05251283
199	0xbdcfd1e0	-0.10147452
200	0xbd2d650f	-0.042332705
201	0x3e433ab7	0.19065367
202	0xbe21a8ef	-0.157871
203	0xbdfbbc33	-0.122917555
204	0x3e94bc56	0.2904994
205	0x3e957389	0.2918971
206	0xbd665ca9	-0.05624071
207	0x3e6a31ff	0.22870634
208	0xbe6f50f5	-0.23370726
209	0xbcfc06f9	-0.030765044
210	0xbe122be1	-0.14274551
211	0x3e86ac29	0.26303223
212	0xbc09afd7	-0.00840374
213	0xbe9bc5e1	-0.30424407
214	0xbd6a98e6	-0.05727472
215	0x3e0327b7	0.12808119
216	0xbd5b372c	-0.053519413
217	0x3e0d0051	0.13769652
218	0xbe18840b	-0.1489412
219	0x3e3e911e	0.18610045
220	0xbe9d47a5	-0.30718723
221	0x3e394e9e	0.18096396
222	0xbe1a1d5e	-0.15050265
223	0x3e21707f	0.1576557
224	0xbe0e9437	-0.13923727
225	0x3e38bd19	0.18040885
226	0xbb78d1a5	-0.0037966755
227	0x3dabb8d7	0.08384865
228	0xbefbc8ae	-0.49176544
229	0x3eef9d7b	0.46799836
230	0x3e6addbe	0.2293615
231	0xbe105336	-0.14094242
232	0x3ef97829	0.48724487
233	0x3cf1a587	0.029497875
234	0xbe456a47	-0.19278823
235	0xbc3bb48f	-0.011456623
236	0x3caea3db	0.021318367
237	0x3f0dfa46	0.5546001
238	0x3c6cd47f	0.01445496
239	0xbe51cf07	-0.20489131
240	0x3dc9c704	0.09852412
241	0xbd103568	-0.035207182
242	0xbe347d33	-0.17625885
243	0xbea9cf59	-0.33166006
244	0xbe71101a	-0.23541299
245	0x3bbe483c	0.005806951
246	0xbe8df34a	-0.27724677
247	0xbed7b758	-0.42132068
248	0xbdc880e5	-0.0979021
249	0xbe9bca3d	-0.30427733
250	0x3d97f340	0.07419443
251	0xbd91759a	-0.07102509
252	0xbd1c8ff9	-0.03822324
253	0xbdda8405	-0.10669712
254	0x3e2dbc60	0.1696639
255	0xbeaf1a63	-0.3419982

classifier.3.bias f4 [2]
0	0xbe7dfcc2	-0.2480345
1	0x3e7dfcc1	0.24803449
