Pretrained_cnn/main/saved_ckpt/best_model_epoch_80.pt (torch, 835296 bytes, 10 tensors)

features.0.weight f4 [32, 3, 3, 3]
00000000: 2680 3b3e ca89 153d c901 3b3e 7ffe 373e
00000010: 72ae 46be 08c6 e1be 2502 043e 31e6 abbe
00000020: 28b1 2ebf ffcc 8b3e d8e3 883e 79fe 8b3e
00000030: ddd8 533e f1bc 74bd 9a53 86be 0595 a13d
00000040: 8d86 9cbe 063d fbbe 93b4 c03e e02e a93e
00000050: 18aa 123e 9039 5d3e 31ea c23d 5da3 83be
00000060: 25c4 353e a1dd 71be c30f 06bf 8320 12bd
00000070: 0312 13be ebcc 74be 0141 20be 775f e7bd
00000080: a325 763e 524d 9a3e 1aaa 0f3e 0d8a 4fbe
00000090: 411b dabe e080 91be 80b6 4abe e4de 79be
000000a0: f98c c8be 8099 94be 3a20 763e 18b5 72be
000000b0: 857a 7ebe cfb1 cabe 7078 32bf cec8 0ebf
000000c0: e4e1 0fbf 2e64 0ebf 8f5c 03bf cacf 883e
000000d0: c027 afbe 054e dbbe bd64 cf3e 3f14 6a3e
000000e0: 3eac 793d 8c0a 013e daf2 143e 41cf fa3d
000000f0: 20dc 383e f1b7 e7bc ad7f 663d 84ec 9e3e
00000100: 54c4 79be abb4 bbbe bea4 aebc 669d a7be
00000110: 1136 2cbe 5d39 3bbe f761 e6bd 08e4 4abe
00000120: e228 80be 2245 50bf 1af3 32bf e372 21be
00000130: 34dd 07bf 49aa 23bf aac9 80be 70d7 69bf
00000140: 07a2 21bf f3ed 86be 2124 60be 0ae4 49be
00000150: 3e8a 9cbe efd4 7abe 43c4 4abe d884 90be
00000160: 0833 29be a03a 88bd 5d1c 9a3e a400 c93e
00000170: 7604 df3e 9e87 e53e 61fc ba3e 9ad7 ec3e
00000180: 12bb e73e 507a a43e b0b4 563e 2c9a 8bbd
00000190: 9e00 5abe 5ae5 1fbe 28a7 0bbe 0c7f 21be
000001a0: 5939 21be 6256 82bd a412 f5bd ee60 3dbd
000001b0: 39a1 5c3e 59af 8b3e 369e a33e 5529 813e
000001c0: 5d0e ce3e 1ba8 6b3e 3fbe 7b3e 7ecf 2b3e
000001d0: 5e53 5c3b 362f 863e 67dc 703d e7b9 b63e
000001e0: fb70 62bc b10b 36bd 9ca0 933d e4f8 81bd
000001f0: 8ac7 22be 9986 60be 03fa a7be 282b 8dbe
00000200: 8d3f 09be d4b0 40be 55af 36be ce0a 98bd
00000210: ad6e 5dbe def1 a6be 0ee6 e9be 6b95 11bf
00000220: 0603 76be 4d4c 613e 3eae 69be 4ece e9bd
00000230: 79a3 6f3e 94f3 293d 8084 323e 7d03 8f3e
00000240: 2701 e2be 75af bfbd dab3 a43d 482f 34be
00000250: e11a 28be 8c12 b43e b96c d43d b2d1 863e
00000260: 83fe af3e 56f2 14bf c4a0 64be d662 a03d
00000270: 5044 e9be 288e f4bd 7cf8 943e 30a3 343e
00000280: d4d6 8b3e 382a b23e 4c0d 3cbe e298 81be
00000290: f56d eabd a99e 85be 52be c1be 6db2 543d
000002a0: 1926 69be 4c84 94be 6ae2 59be f138 46be
000002b0: 0a3c 94bd 8184 4c3d 5c6c 42be e4fd cdbd
000002c0: c9d2 c23d f3a9 04be a321 8abe c33f cdbb
000002d0: 1f05 ddbd 5518 44bd 5ba0 6fbe d873 ecbc
000002e0: 35bc 2dbe 8b0b 9e3c 1207 4cbe ab41 43be
000002f0: 5ee9 00be 4ebc 1cbe 3d60 193e 5aff 0ebe
00000300: b4a3 34be bea0 68be 94b9 1cbf b172 903d
00000310: 6813 c0bd c039 383e d143 433e f8ed 923e
00000320: be2d 0ebe 3463 973d 035a 85bd e2db c7be
00000330: dbc1 803d 1d2e 633e 047b c43e 3179 353e
00000340: 8526 8d3e 8c88 0ebe bd55 483e fbc5 ecbd
00000350: ffe0 17bf b952 783e 9de2 d03d 2cfe ba3d
00000360: 8783 4b3e 9f58 383e d15b 093e fd0e 733e
00000370: 1359 0a3e d8b0 273e a3ea 0b3e c666 fb3d
00000380: d001 973d ffbf 27be 443a a1bd 882f 97be
00000390: 9f18 76be 13d2 d1be 1713 98be 65a6 5cbe
000003a0: aad8 21be 9cc5 7bbd 0b7b 87bd 5c1f 0dbe
000003b0: 8d33 29be da4e d9bd 1db0 98be c57e 3ebd
000003c0: 363a 113d e5c7 d2bd 61bc 89be 8aed a8bf
000003d0: b0a4 023e 1134 eabd e1fe 93bf 945e afbf
000003e0: b119 f8bc 23d2 e0bf abba c7bf 6f7d 1d3e
000003f0: 1677 c8bf 79ed 80bd f774 4dbe ae3b 8fbf
0.18310603 0.03650836 0.182624 0.17968176 -0.19402483 -0.44096398 0.12891443 -0.3357406
-0.6823907 0.27304837 0.2673633 0.27342585 0.20688196 -0.0597505 -0.26235658 0.07889751
-0.30571404 -0.49069995 0.37637767 0.33043575 0.14322698 0.2160399 0.09517325 -0.25710574
0.17750604 -0.23619701 -0.523678 -0.035675537 -0.1436234 -0.23906295 -0.15649797 -0.11297505
0.24037795 0.30137116 0.14029732 -0.20267506 -0.42598918 -0.28418636 -0.1979618 -0.24401432
-0.39170054 -0.2902336 0.24035731 -0.23701894 -0.24851425 -0.39588782 -0.69715023 -0.55775154
-0.56204057 -0.5562161 -0.5131311 0.2672103 -0.34210014 -0.42832962 0.40506545 0.22859286
0.06095528 0.1260168 0.14545766 0.12246562 0.18052721 -0.028285952 0.056274105 0.31039822
-0.243913 -0.36661276 -0.02131879 -0.32737273 -0.168175 -0.18283601 -0.11249154 -0.1981355
-0.2503119 -0.8135549 -0.69902194 -0.15766482 -0.53071904 -0.6393171 -0.25153857 -0.91344357
-0.6313786 -0.26353416 -0.21888782 -0.19715896 -0.3057422 -0.2449529 -0.1980143 -0.28226352
-0.16523373 -0.06651807 0.30099764 0.392583 0.4355809 0.4483003 0.36520675 0.4625824
0.4525991 0.32124567 0.20967364 -0.06816515 -0.21289298 -0.15614834 -0.13637984 -0.15771121
-0.15744533 -0.063641325 -0.11966446 -0.046235017 0.21545877 0.27282217 0.31956643 0.25226846
0.40245333 0.23013346 0.24584292 0.1677837 0.0033619027 0.26207894 0.058803942 0.35688707
-0.013820882 -0.044444744 0.07208368 -0.063463 -0.1589643 -0.21926345 -0.3280793 -0.27571988
-0.13403149 -0.18817455 -0.17840321 -0.07423936 -0.2162425 -0.32606405 -0.4568333 -0.5686862
-0.24024591 0.22001763 -0.22820374 -0.114163026 0.23402204 0.04149206 0.17433357 0.2793235
-0.44141504 -0.09359638 0.080421165 -0.17596161 -0.16416503 0.351704 0.103723 0.2633186
0.34373865 -0.58182275 -0.22326952 0.078313515 -0.4555993 -0.11941177 0.2909583 0.17640376
0.27312338 0.34797835 -0.18364447 -0.25311953 -0.11446754 -0.2609761 -0.37840515 0.051927973
-0.2276844 -0.29007185 -0.21277776 -0.19357659 -0.07238014 0.049931053 -0.18986648 -0.100581914
0.0951286 -0.12955455 -0.26978788 -0.0062637045 -0.107919924 -0.047874767 -0.23401015 -0.028863832
-0.16966327 0.019292613 -0.19924572 -0.19068019 -0.12589023 -0.15306208 0.14978118 -0.13964596
-0.17640573 -0.22717568 -0.6122067 0.07053126 -0.093787014 0.1799078 0.19068839 0.2869718
-0.13884637 0.07391968 -0.06511309 -0.39034945 0.06286975 0.2218556 0.38375103 0.17722012
0.2756845 -0.13919276 0.19563957 -0.11561199 -0.5932769 0.24250306 0.10199473 0.09130511
0.19874392 0.18002556 0.13413931 0.23736186 0.13510542 0.16376054 0.13663726 0.12275462
0.073733926 -0.16381834 -0.078724414 -0.2952845 -0.2403283 -0.40980586 -0.29702064 -0.2154785
-0.15805307 -0.06146775 -0.066152655 -0.13781494 -0.16523571 -0.10610743 -0.29821864 -0.046507616
0.035455905 -0.10292033 -0.26901534 -1.3197491 0.12758136 -0.11435712 -1.1562158 -1.3700738
-0.030285688 -1.7564129 -1.5603842 0.1537988 -1.5661342 -0.06295294 -0.2006415 -1.1190088

features.0.bias f4 [32]
00000000: 7904 80bd a8e2 e3bd b8c7 48bd 6582 85be
00000010: 9b71 bcbd ad31 3bbe 35ba 26be fde3 ebbc
00000020: 116f 15bd af88 4d3e f7ba d8bb a086 b3be
00000030: 2d55 babe 3a65 a8be e93b 793c 5b46 6cbe
00000040: c674 bb3e a617 20be 1ac7 abbd 254c adbe
00000050: 85e6 37bd 4a35 3ebf 8250 bcbe 116e 79be
00000060: 315c 8a3d 6eb8 d7bd 4873 45bc bb07 55bd
00000070: 0d03 c6bc f794 45bd 007a 5ebc 25ff a2be
-0.06250853 -0.111272156 -0.04901859 -0.26076046 -0.09201356 -0.18280669 -0.1628197 -0.028795237
-0.036482874 0.20071672 -0.006614085 -0.35063648 -0.3639311 -0.3288973 0.015212038 -0.23073713
0.3661253 -0.15634021 -0.08387585 -0.33847156 -0.044897575 -0.7430006 -0.36780173 -0.24358393
0.06755865 -0.10533224 -0.012051411 -0.052009325 -0.024171377 -0.048237767 -0.013578892 -0.31835285

features.3.weight f4 [16, 32, 3, 3]
00000000: 0402 3dbe fa9a a8be cb83 88bb 21a5 e3be
00000010: 714d 55be de7e 36be c757 07be a51f 193c
00000020: 6be3 4bbe e1f5 ce3d 25e2 873c b9f2 babe
00000030: 2734 18bd 5de9 b73e 53de a33e 88e8 aa3c
00000040: d200 363d 1011 e13d f6d1 31be 76fb 4d3d
00000050: c03e c2be 40de bcbd 17e4 0cbd 0495 a3be
00000060: 51e2 68be 89d5 bdbe 1e08 2fbe 183d 1f3f
00000070: 2686 cd3e 4148 5f3d c624 123f b439 033d
00000080: 2fa7 debe a90e f83e 4a23 14be ea46 53bf
00000090: 1ab1 55bf 9a62 0abf fdd8 073d aa54 01bf
000000a0: dc07 023e 89b7 f23e a3f0 adbe e43c 083f
000000b0: 0a40 713f 5b88 123d 2764 0ebe 192c 72be
000000c0: 8576 39be 30c3 c6bd 393f 0cbe 9265 1cbf
000000d0: accc fbbe 2c9d 97be cf10 093e cd4d eabb
000000e0: 207a 31bd 2b05 903e dcdd efbd 2757 03be
000000f0: 9b89 be3d cbeb 2cbd d798 11be 77f0 f63e
00000100: 226d 113c 7488 82bc 6f38 d23c f3ca 69be
00000110: 3706 3fbe 038d 2b3d 003e 56be 07b0 9bbe
00000120: d457 fdbe ca36 01bf 7388 7bbe 0a6c 06bf
00000130: 5ec3 bdbe 4e3f 85be 0c9d efbe 2e34 6ebd
00000140: 10f2 093e b904 52bf 3c03 8ebf 8804 b0be
00000150: 0d2f 58bf ef3c d6be e85a 3abd a750 35be
00000160: d49b e7be 40f7 08be 6693 bc3d 96d5 23be
00000170: 204f 043e dceb 39bc c042 abbd c743 68be
00000180: 27d6 c93d abad d4bc 671f 25be b55c dcbd
00000190: 2f69 4dbd 87fe 97bc 4fe0 b33d 0047 3e3d
000001a0: f0e5 a2bd 1bb8 843e ed28 a9bb 48de 953e
000001b0: 2355 eabe bbfa e5be 48ad eebe df74 1e3e
000001c0: 5d80 163e b053 243e 4e9d 1cbb c214 c53c
000001d0: cf5c 6a3e a939 afbd 816f a5bd 458f 9ebd
000001e0: 03c2 0c3e a280 4a3e dd07 bc3e 6de9 c5bd
000001f0: 3a99 8fbe 9d7d 06bd 2bc2 513e f162 273c
00000200: a760 02bd 381a c73e 2d08 3dbd 67b7 9cbe
00000210: af2a 9c3e 1519 643b 2f60 cbbe deb6 233e
00000220: 93ef 613d d7a8 a5be dacd 163d 2a89 a33d
00000230: 9cd8 ed38 65fd 513e be30 943d bc3a 7cbd
00000240: 76a4 74be 8476 a2bd d414 443d 7d4e 103f
00000250: c474 a43e 76ae 173e dcd4 d13e 4432 213d
00000260: 71ff 42bd 4038 afbe 79f7 86be 20c0 23be
00000270: 8019 bdbe d59d 3fbd 415d f83d b63c debe
00000280: 063a 14be c5e9 9d3e 0c8c 503d 3ee8 243e
00000290: 34da e73d ab39 ec3d c22c 21be fb63 0a3e
000002a0: 43ec 69bd 85bf 97be 9d26 94bc 1a01 af3e
000002b0: 8081 593c 2072 4bbe f10f 8f3e a298 913e
000002c0: 8014 09bd e121 73be 1201 7b3c 0b50 e7bc
000002d0: 2a0c 63be 60b8 e2be 021f 85be 0e87 bb3b
000002e0: 1af2 28bc 69c0 2f3e a1a4 343e 1155 cc3d
000002f0: bffa f43e aa4e 993e 53b8 0dbc 5941 d0bd
00000300: 7205 0a3f 0eca 5c3d 5ab5 9fbe 433a 513e
00000310: e33e 8ebd ad88 3fbe f4b5 9dbe 9fff 87be
00000320: 2666 f7be 9114 62be 7017 87be 36b0 8bbe
00000330: 5580 98be 315f 07bf 2376 033e f86f 723e
00000340: 06ab 273e db06 72be 0140 723e e154 57be
00000350: 8d54 a9bd b033 1dbe 1525 a8be e36a 83be
00000360: 4d6f 58be fbd0 0dbe 382e 2e3d fd15 dfbd
00000370: cfb2 34be 33e4 f8bd 8a08 723d 78f8 8dbe
00000380: 8ae2 8e3c 97e3 58bf 8619 76be 5498 1d3e
00000390: decd 31bf 32e9 8b3e fda6 5d3f 8bd0 27bf
000003a0: 2d43 0f3f bf54 563f e816 5bbf 3023 20be
000003b0: 7088 47bf d229 dfbe 3e54 1a3e 2d6f b33b
000003c0: 6518 57bf 7a15 f8be a4a9 7bbe 68ef 933d
000003d0: c4a7 98be a66a 6e3e 5d03 4bbe 4e74 0d3d
000003e0: f273 a03e 49b0 953d e567 9dbe 78f1 46bd
000003f0: ba63 1dbd 4720 c2be 3b60 2bbe d7ad 4abe
-0.184578 -0.32930738 -0.0041661016 -0.4446192 -0.20830323 -0.17821833 -0.13217078 0.009345924
-0.19910972 0.101054914 0.016587326 -0.36513308 -0.03715911 0.3592023 0.32005557 0.020862833
0.044434376 0.109895825 -0.1736525 0.05028864 -0.379385 -0.09222078 -0.03439721 -0.31949627
-0.22742583 -0.37076977 -0.1709294 0.62202597 0.4014141 0.054512266 0.5708736 0.032037452
-0.43486926 0.48448685 -0.14466587 -0.8253008 -0.8347336 -0.54056704 0.03316592 -0.5051981
0.1269831 0.4740565 -0.33972654 0.5321791 0.9423834 0.03577457 -0.13905393 -0.23649634
-0.18111618 -0.09705198 -0.13695993 -0.61092484 -0.4917959 -0.296121 0.13385318 -0.007150388
-0.043329358 0.28128943 -0.11712238 -0.12826215 0.0930359 -0.042217057 -0.1421846 0.48230335
0.008876117 -0.015934207 0.025661675 -0.22831325 -0.18654715 0.041882526 -0.20922089 -0.30407736
-0.4948107 -0.50474226 -0.2456377 -0.52508605 -0.37063116 -0.2602486 -0.46799505 -0.05815523
0.13471246 -0.82038456 -1.1094737 -0.34378457 -0.84446794 -0.41843364 -0.04549685 -0.17706548
-0.45236075 -0.13375568 0.092078015 -0.15999445 0.12920809 -0.011347737 -0.08362341 -0.22682105
0.098552994 -0.025961718 -0.1612526 -0.1075987 -0.05014914 -0.018553985 0.08783018 0.04645443
-0.07954013 0.2592171 -0.0051623494 0.2927115 -0.4576808 -0.44917855 -0.46616578 0.1547427
0.14697404 0.16047549 -0.0023897472 0.02405775 0.22886966 -0.0855592 -0.08077908 -0.0774217
0.13745885 0.19775632 0.3672475 -0.09663663 -0.2804659 -0.032834638 0.20484225 0.010216461
-0.031830456 0.3888719 -0.046150375 -0.30608675 0.30501315 0.003480499 -0.3972182 0.15987727
0.055160116 -0.32355377 0.03681741 0.07985146 0.00011341387 0.20506819 0.07235859 -0.06157945
-0.23890862 -0.07932761 0.047871426 0.56369764 0.32120335 0.14812645 0.4098271 0.039354578
-0.04760689 -0.34222603 -0.26360682 -0.15991259 -0.36933517 -0.04678138 0.12127162 -0.43405694
-0.14475259 0.30842414 0.05091481 0.16104218 0.11320916 0.11534437 -0.1573973 0.13514702
-0.057110082 -0.29638305 -0.018084818 0.34180528 0.013275504 -0.19867754 0.2794185 0.28436762
-0.033466816 -0.23743393 0.015320079 -0.02823641 -0.22172609 -0.44281292 -0.2600022 0.005722887
-0.010311628 0.17163242 0.17640926 0.09977163 0.47847554 0.29942828 -0.008649903 -0.10168714
0.5391456 0.053903632 -0.31193048 0.20432381 -0.069455884 -0.18704481 -0.30802882 -0.2656221
-0.4832012 -0.22078158 -0.2638507 -0.27282876 -0.2978541 -0.52879626 0.12838034 0.23675525
0.16373834 -0.23635428 0.23657228 -0.21028472 -0.0826808 -0.15351748 -0.3284079 -0.25667486
-0.21136208 -0.13849251 0.042524546 -0.10892866 -0.17646335 -0.121529005 0.059090175 -0.2772863
0.017442007 -0.84722275 -0.24033174 0.1539014 -0.69454753 0.2732635 0.8658293 -0.65552586
0.5596188 0.8372306 -0.8558183 -0.15638423 -0.7794256 -0.43586594 0.15071198 0.0054758997
-0.840216 -0.48453885 -0.24576432 0.072233975 -0.29815495 0.2328287 -0.19825502 0.034534745
0.3133846 0.07309014 -0.30743328 -0.048570126 -0.038425185 -0.3791525 -0.16735928 -0.19792877

features.3.bias f4 [16]
00000000: 43b5 8ebb 7128 1a3e 1b5a cebd 0397 3e3c
00000010: bf2d 4dbd 9c5c dbbb 5899 27bd d561 443c
00000020: afeb 58bd 414c 98bd 902c 25bd 0b47 83be
00000030: 0242 593c f716 b6be 247f 723d 3548 a6bd
-0.004355104 0.1505449 -0.1007578 0.011632684 -0.050092455 -0.0066943895 -0.040917724 0.011986216
-0.05295914 -0.07436419 -0.0403257 -0.2564014 0.013260366 -0.35564396 0.059203282 -0.08119241

features.6.weight f4 [8, 16, 3, 3]
00000000: f527 43be 4eee 413d 5992 a1bb ff08 a3bc
00000010: 87d1 863d 9ce3 6f3c 6d93 90bd bffd 67bc
00000020: 9fd3 833d 156a 6c3c 3a59 23bd 8a89 a53d
00000030: b537 0b3d 8828 c13e 11fb 653e f876 f8bc
00000040: 5962 913e 72a6 bb3e 8189 16bd fa09 9cbc
00000050: 381e 443c 3e13 b23d f9e4 44be 812f cb3d
00000060: 84f3 f53d 8dc3 e23c 5417 ddbc c5c0 acbc
00000070: fcb2 58be a2ce edbd 9351 03be 6eda 123d
00000080: 6ac7 613d f17b 4c3b f7ef e63d 0a9e 643e
00000090: 5fe5 46be 32c4 8bbd 95a3 883d e2dc 2fbe
000000a0: b7f0 213d 591f 1e3e 7bb7 abbc eb71 fa3d
000000b0: d25d 903e 08df 363c 2c90 3bbd 1ae7 34bd
000000c0: c7d5 b1be 899a 32bf 4514 43bf 3300 95bc
000000d0: ec09 9dbe 72d3 12bf 7efc f33d 155c 46be
000000e0: 58d5 643e d8b1 afbe c39c 9ebe 5598 71bb
000000f0: 37b8 49bd 1e74 d5bd d8c0 0c3e 8397 d93d
00000100: a72e eebd 9307 24bd 81e3 92bd 13dd adbe
00000110: a2be 003d 5682 08be d040 a7be 489e b1be
00000120: ea13 f4bd 7689 15bd fc1a 0cbe efe7 8fbc
00000130: b31e bfbd 90c9 023e abc3 38bd 522e b33d
00000140: 4bb7 863d 7e3f 653e aed1 673e 63f0 a73d
00000150: edc4 fabd 69fd 3cbe 7b95 2fbd 0e35 b9bd
00000160: e0cd e1be d365 b03d 3a02 0abd cc67 dabd
00000170: 74f4 fcbd 70a7 33bd d580 8d3c b4ca 17be
00000180: 06eb b63c 1679 11be ced3 c73b 4b0e c7be
00000190: d23c ffbd 8360 033f 3643 9bbe b978 823a
000001a0: 5ea5 4fbe 50b6 1dbe 7890 23be 7acc f6bc
000001b0: e59a 27be c86c 9e3e adde 793e 4532 40be
000001c0: 26ec 853d 9387 853e 05e8 03bd edd6 7c3d
000001d0: e5f2 35be 9532 193d 285a 3dbe 85cf 13bd
000001e0: 7c72 0dbe 9414 673d 826f b8bc 83af 303e
000001f0: 740c 00be 55bd 1a3e 9adf e3bd b081 943d
00000200: 1ef7 9bbd 8d62 c6bc 175a 9abc 7258 723e
00000210: 950c 91bd 1541 a13d a5c4 673e 1130 0cbe
00000220: c9e7 1a3e b885 8d3d 4f8b 083e b153 963e
00000230: 2911 a0bd dcd2 c4bc ceed fabd e316 2fbd
00000240: b765 85be eb5e f0bd 5fd9 943e 1e22 65be
00000250: ef2b a33d 8f70 5c3e 0b24 69be 744b 0a3e
00000260: b3a6 0fbc ac12 743e ed30 2b3e 1cf4 70be
00000270: d465 5c3d fad5 00bd 585d a2bd 8d35 cabd
00000280: 05d2 c5bd ae82 cb3d b47a d63c d954 b93c
00000290: 153f 0c3d 9bb1 2cbe ee23 1abe 6471 f2ba
000002a0: 76d2 523d ff87 103e 467c 2b3e 656a a23b
000002b0: 2ac0 a63b e998 903c eaff 1abe d066 92bc
000002c0: 555a 143e baa0 783d 149f 1bbd 5648 143e
000002d0: cacf 4dbe e64d 03be 2eb7 0e3e 821d 57be
000002e0: 3273 833c 827e b53c 8ec7 a9bc 0921 1cbd
000002f0: e8f3 86bd e1ca bcbd baef 24be 5f33 28bd
00000300: 5b4e 62be 6528 493e 227c 473e 3895 59be
00000310: 336b 1d3d 424f 063e 861a 99be b3f1 89be
00000320: 03e1 743e f348 28be c941 52be 32c0 9e3e
00000330: 3b23 e4bd 6124 983e b010 233e ab5e 1c3c
00000340: f057 8f3d 1ec5 94be fa92 8f3c 9efd 56be
00000350: 5f18 9e3d c9d0 f9bd d4c2 9c3d d2e3 253e
00000360: c4d8 443c 641e e33d ac7b 54bd ce3e 813d
00000370: a671 3e3d 0567 2f3d c356 ee3d 31d2 c7bd
00000380: 6630 06be 00d9 a9bd 6d0b f9bc 0b91 893e
00000390: 95a1 333d b53c 4c3e 38a9 473e 2e38 9e3e
000003a0: bb9f 00be 9763 e73e e413 38be ae70 8ebc
000003b0: 62d2 8c3e 60b5 03bd d92f 013e 7aae b53d
000003c0: 0998 06be aa27 69bc 56af a2bb e0cc 5cbd
000003d0: 7dd2 c23c 81d5 ad3c f9fe 053e 7802 593e
000003e0: 4fbd 8dbb a988 e93d acda 1b3d 4712 023e
000003f0: f9c8 dfbd 40e8 073e 4c7b 02bb a5b3 7f3d
-0.19058211 0.047346406 -0.004930776 -0.01990175 0.06582933 0.014641669 -0.07059369 -0.014159619
0.06436848 0.014429589 -0.039880015 0.08082874 0.033988673 0.37726235 0.22459055 -0.030330166
0.28395346 0.36650425 -0.036752228 -0.019047726 0.011970095 0.086950764 -0.19227971 0.0992117
0.120093375 0.027681137 -0.026988663 -0.021088013 -0.21162027 -0.11611678 -0.12824087 0.035852842
0.055121817 0.0031201805 0.112762384 0.22325912 -0.19423436 -0.06824531 0.06671826 -0.17174104
0.039536204 0.15441646 -0.020961514 0.122287594 0.2819658 0.011161573 -0.04579179 -0.044165708
-0.34733412 -0.6976705 -0.76202804 -0.018188572 -0.30671632 -0.5735389 0.119133934 -0.19371064
0.22347009 -0.34315372 -0.30978975 -0.0036864479 -0.049247947 -0.10422538 0.13745439 0.10624602
-0.11629992 -0.040046286 -0.07172299 -0.3395773 0.0314318 -0.13330969 -0.32666636 -0.34691072
-0.11917861 -0.036508046 -0.13682169 -0.01756665 -0.09332027 0.12772202 -0.04510848 0.08749069
0.06577929 0.22387502 0.2263858 0.08200147 -0.12244592 -0.18456043 -0.042867165 -0.090433225
-0.44102383 0.086131714 -0.03369353 -0.10664329 -0.12351313 -0.043860853 0.017273346 -0.14823419
0.022328865 -0.14206347 0.006098247 -0.38878092 -0.124627724 0.5131914 -0.30324715 0.0009954191
-0.20277926 -0.15401578 -0.15973079 -0.030126799 -0.16367681 0.30942369 0.2440135 -0.18769176
0.06539182 0.26079997 -0.032203693 0.061728407 -0.17768438 0.037401754 -0.18491423 -0.036086578
-0.13813204 0.05641611 -0.022514109 0.17254452 -0.1250475 0.15111287 -0.11126633 0.072512984
-0.07615493 -0.024216915 -0.018841786 0.23666552 -0.07082478 0.078737415 0.22633608 -0.13690211
0.15127482 0.069102705 0.13334392 0.29360726 -0.07815773 -0.024026327 -0.12252389 -0.042746436
-0.26054165 -0.11736854 0.2907209 -0.22376296 0.07967364 0.21527313 -0.22767656 0.13505346
-0.008767772 0.23835248 0.16717882 -0.2353062 0.05380805 -0.031454064 -0.0792796 -0.09873495
-0.09659199 0.099370345 0.026181556 0.022623466 0.034239847 -0.16864626 -0.15052769 -0.0018496928
0.051470242 0.14114378 0.16746625 0.004956531 0.0050888257 0.017651038 -0.15136686 -0.01787129
0.14487584 0.060700156 -0.037993506 0.14480719 -0.20098796 -0.12822685 0.13937065 -0.2100735
0.01604614 0.02215505 -0.020725038 -0.038117442 -0.0658949 -0.092183836 -0.16107073 -0.041064616
-0.22100203 0.19644316 0.19480947 -0.21248329 0.03843231 0.13116172 -0.29903048 -0.26942214
0.2391396 -0.16434078 -0.20532908 0.31006008 -0.11139532 0.29715255 0.15924335 0.009544055
0.069991946 -0.29056638 0.017526139 -0.20995185 0.07719492 -0.12198026 0.07654348 0.16200188
0.012014572 0.11089781 -0.051875755 0.06310807 0.046495102 0.042822856 0.11637642 -0.09756888
-0.131044 -0.082933426 -0.030400956 0.26868472 0.04385527 0.19945033 0.19498146 0.30902237
-0.12560932 0.4519317 -0.17976338 -0.017387714 0.2750426 -0.032155395 0.12615909 0.088711694
-0.13143934 -0.014230648 -0.0049647493 -0.05390632 0.02378201 0.02121997 0.13085546 0.21192348
-0.004325546 0.11403019 0.03805034 0.12702285 -0.10927004 0.1327219 -0.0019909916 0.06242718

features.6.bias f4 [8]
00000000: 0130 433e 0f65 babe 3747 873d 4e10 2a3e
00000010: 3cbe a93d ee48 a0be 11c2 80be 0ab7 7abe
0.19061281 -0.36405227 0.0660538 0.16607782 0.082882375 -0.3130564 -0.2514806 -0.24483886

classifier.0.weight f4 [128, 1568]
00000000: 910a 0ebd 29a7 ffbd a692 e2be e93c b8be
00000010: 8bf2 cd3a 078b 9c3d 4bfd 933d 01c8 a53c
00000020: 8d37 f23d e5b4 893d 7dc5 483e fe0d 24be
00000030: 0565 d3bd 0891 b13d 5c8c 9fbc a30c 04bf
00000040: 7801 03be 5f10 15be 28f2 8ebe c05c eaba
00000050: 292f 7e3d 843c e0bd 5a67 b83d e180 d63d
00000060: 327e 3b3e 3ff0 d23d 83fd 93be e140 4dbc
00000070: 99db dabe af96 82be c501 2fbe 88a8 24be
00000080: 092e 06be 77db 7c3e 6339 ee3d 6763 e0bc
00000090: 8a92 58bc 8675 d43d 8f64 1e3d 0726 973d
000000a0: c4fe 80be 63cf 7ebe b649 83be 1f86 b5be
000000b0: d085 49be 1554 9bbd 670e 813d 8c4c 613e
000000c0: 1b80 1cbd 7c6d 7d3d ea69 c83d b2c9 bd3d
000000d0: 9601 703d 329a b33d 9811 a9bd a42f c6be
000000e0: 4769 9fbe 69d1 babd 7401 113d 2f86 0f3e
000000f0: b1db b33d a3da a13e 0e5c a73d 8000 6c3e
00000100: 0c66 463e 8c03 573e f10b 5a3e a67a b73d
00000110: 46c4 c9bd 6e94 38bf b832 69be 340e e63c
00000120: 99c4 593e 4d62 e03d 5645 403e a2c6 dc3e
00000130: 85e9 c73d d07c 663d 2e8c 853e 3c1d 3ebb
00000140: f960 283d 6caf 1e3e a160 853d 4482 c7be
00000150: 3853 bcbd 1622 a3bc 50b3 ac3e 95ab f63d
00000160: 8c9d be3e c930 af3e 20e3 b63c 5c11 81be
00000170: 60a5 9b3d 65a5 863e db0d b3bd a746 593e
00000180: 9dfc 853e 1f6e febe 8696 273c 193c 213e
00000190: 6cb4 963e 433f 813e ffbc 993e 6f75 953c
000001a0: 0647 a2be 6a33 debd c256 773e 07f8 773e
000001b0: 28a2 253d e9c5 733e 117d 433e 1b0b 81be
000001c0: 8ffb 233d 9947 823e bed5 693e 5a77 c53e
000001d0: c906 8c3e fd9b d23d d22c bebe a69c 243e
000001e0: c47e c53e c25a 033e 13b6 db3c 3255 2c3e
000001f0: 9508 4cbd 5110 fcbe 9353 89be a4f4 2c3e
00000200: f86e bb3d 08f2 d93c 470b 6f3d ee50 783c
00000210: afc5 a83d 3539 8c3e 3cfc b03e e2ed 703e
00000220: 0029 b03d b100 3b3d bb8c 25be 1857 debe
00000230: 925b ccbe 9f5b cfbb 325b 183c d24d 563e
00000240: ba67 943d 22c2 b0bd 6b29 043e 821d 913e
00000250: ecb5 083e 8b0f 0d3e db64 963d f67e 14be
00000260: 93dc 0ebf eb5f fbbe 8ab7 14bf 0f3d 81be
00000270: b248 5a3d 6478 af3e d42d 853e 1eb3 a53e
00000280: d302 1c3e d9f9 923e dc4c 7f3e ac5f 603e
00000290: dfe2 e9bd 0ba9 b6be 5cb1 16bf 0d53 48be
000002a0: 2d91 c53d 24cf 18bf 6d82 b9be 476b d3bc
000002b0: cda0 f33d e42b 00be 7396 3b3d 341d de3d
000002c0: eae8 ef3c e28f 08be d074 a6be 44ae 9bbe
000002d0: edc5 82bd 0342 cdbd 9f64 8e3d a65b 3b3e
000002e0: b62e 22bf de1d 9dbe 1e61 8ebe f58e a6be
000002f0: f5cd 81be 3b8e 7ebe b27a fabe 6115 f3be
00000300: 608a d5be 2f4e ec3c b6c4 f93d a079 73bc
00000310: c43d e6bd 0e38 b7be 6f94 a3be 6fcf 23bf
00000320: 947f 48bf 543a abbe c307 96be 434c 46be
00000330: e02a 3bbe 058d 2abe db57 ae3d 6e2a a03d
00000340: 416b 5d3e 8d25 86bd 46a8 ccbe 5236 47be
00000350: e01a b0be 377b 2dbf b4ca 5dbf d5c1 00bf
00000360: b1db 29bf 7f93 1ebf ade7 06bd ad1e a7bd
00000370: 2441 80be f58d 5fbd b20d 613e a0c8 603e
00000380: 7175 abbe 27ce d0be 0505 24bf 221e a6bf
00000390: e8f5 a5bf 4f2b 10bf 0bcd f8be e3e3 36be
000003a0: 6840 e8bd cd38 933d 27fa 223e e477 433d
000003b0: 0e38 97be 7fd0 213e 4616 97be 783e 0dbf
000003c0: 01fd 78bf 0626 9ebf 5f3f 90bf 0a72 1ebe
000003d0: a407 10bf 924f 013c d5b7 213d 161f d03d
000003e0: 3458 85bc c047 0b3f b438 dcbd 3489 96be
000003f0: bbff b1be 6fb7 4cbf 1c1a 63bf 5f51 99bf
-0.034678046 -0.12483055 -0.4425251 -0.3598397 0.0015712542 0.07643705 0.07226046 0.02023697
0.11827002 0.06723956 0.19606586 -0.16020963 -0.10322002 0.08670241 -0.019476108 -0.5158178
-0.12793529 -0.14557026 -0.27919126 -0.0017880425 0.062056694 -0.109490424 0.09004088 0.104738005
0.18309858 0.102997296 -0.28904352 -0.012527675 -0.42745665 -0.25505587 -0.17090519 -0.16079915
-0.13103499 0.24693094 0.116320394 -0.027391149 -0.013218531 0.10373978 0.03867012 0.073803
-0.2519437 -0.24883799 -0.25642174 -0.3545389 -0.19679952 -0.07584397 0.06301575 0.22001857
-0.03820811 0.06187199 0.097858265 0.09266986 0.058595262 0.08769645 -0.08255309 -0.38708222
-0.31135008 -0.09121973 0.035401776 0.1401603 0.08782137 0.3161212 0.08171855 0.23047066
0.19374865 0.20997447 0.21293618 0.0895894 -0.09851889 -0.72101486 -0.22773254 0.028082944
0.21266402 0.109562494 0.1877645 0.43120295 0.09761337 0.056271374 0.2608351 -0.0029009124
0.041108105 0.15496606 0.06512571 -0.38966572 -0.0919556 -0.019913714 0.33730555 0.120444454
0.37229574 0.34216908 0.022325099 -0.25208557 0.07599902 0.2629806 -0.08742877 0.21218358
0.2616929 -0.4969339 0.010228759 0.15745582 0.29434526 0.25243577 0.30027005 0.018244473
-0.31694812 -0.1084965 0.24154189 0.24215709 0.040437847 0.23805965 0.19090678 -0.25203785
0.040034827 0.2544525 0.22835442 0.3856762 0.27348927 0.10283659 -0.3714357 0.16075382
0.38573277 0.1282759 0.026820218 0.16829374 -0.049812872 -0.49231198 -0.26821575 0.16890198
0.09152025 0.026604667 0.058360364 0.015156014 0.0824083 0.27387396 0.3456744 0.23528245
0.0860157 0.045654956 -0.16166966 -0.43425822 -0.39913613 -0.0063280608 0.009299086 0.20928124
0.07246347 -0.08630778 0.12906425 0.28342825 0.13350648 0.1377546 0.073434554 -0.14501557
-0.5580532 -0.49096617 -0.5809256 -0.25241897 0.053291984 0.34271538 0.26011527 0.32363218
0.15235452 0.28706244 0.24931663 0.21911496 -0.11420225 -0.35675845 -0.5886438 -0.19562931
0.09646831 -0.5969107 -0.3623232 -0.02580799 0.11895905 -0.12516743 0.045797776 0.10845414
0.029285867 -0.13336137 -0.32510996 -0.30406392 -0.063854076 -0.10022356 0.06952786 0.1829668
-0.63352525 -0.3068685 -0.2780847 -0.32530943 -0.25352445 -0.24858944 -0.48921734 -0.47477248
-0.41707134 0.028845875 0.12195723 -0.014860541 -0.112422496 -0.35784954 -0.31949183 -0.63988394
-0.7831967 -0.33442938 -0.29302797 -0.19365029 -0.18278074 -0.16655357 0.08512851 0.07820593
0.21622945 -0.06550131 -0.39972132 -0.19454315 -0.34395504 -0.67766136 -0.86637425 -0.50295764
-0.6635085 -0.6194381 -0.032935787 -0.08160148 -0.25049698 -0.05457874 0.2197788 0.21951532
-0.33488038 -0.40782282 -0.6407016 -1.2977946 -1.296567 -0.56316084 -0.48593935 -0.1786037
-0.113404095 0.07188568 0.15915738 0.04772176 -0.29534954 0.15802191 -0.2950918 -0.55173445
-0.97261053 -1.2355354 -1.1269339 -0.1547319 -0.5626166 0.007892506 0.039481957 0.10162179
-0.01627741 0.54406357 -0.10753003 -0.29401553 -0.3476542 -0.799674 -0.88711715 -1.1977957

classifier.0.bias f4 [128]
00000000: 106c 1f3e e738 373c 4495 3ebd 7639 503e
00000010: d259 08bd 18cb 623e 3ebf ebbc 3cd5 89bd
00000020: 6b1c 2dbd 4f6f 35bc 159c 8abc 18ce 3d3e
00000030: ded0 94bc ecad 4abe 7d2e 55be 1d5a 22bd
00000040: 8f15 9abe 9c68 66bd 971e fdbe 5109 993f
00000050: 047e f2bd f399 73bf bf8a 693e 5864 aa3e
00000060: 56c7 86bf 947c 0d3f 4ce0 033f 8b65 85bf
00000070: 586f 65bf 0ab6 853f 62b8 403d 4885 39bf
00000080: 90ab 6fbe 6ead 703f c2d6 5a3e b44f 82bc
00000090: 9a2d b0bc d8ad d93c 2839 293f 34c5 d6bc
000000a0: 1685 a63d e9c1 f2be a930 91be c3c7 c4bd
000000b0: a999 dfbc 42b3 553e 3069 5d3f 9617 b83e
000000c0: 106c 1a3d 1f8f ac3c 6b92 403f e830 65bd
000000d0: d595 0bbd 028d f5bc 60f1 20bf 8502 17bf
000000e0: 819f 8ebf 747c 4dbe 905a 273e ff7e f8be
000000f0: c3bc 423e cbb2 7a3d ed71 f23d 3756 36bd
00000100: 87f7 21bd 83d2 003f 8413 153f 2b1e 42bd
00000110: afa5 07bd a16b 2bbe 65c8 033f 6561 0d3e
00000120: 6e08 b6bc 8c22 6ebf 3098 8b3e 971a ffbc
00000130: af35 5c3f 9f66 433f 0baa 5ebf 9b21 833f
00000140: bb3d bc3c 4701 44be d845 65bc ed06 71bf
00000150: a6ba 5bbf 9025 303e 3b5f f1bc d9a7 44be
00000160: 53c9 4abd ebc0 b4bb b56c 9cbc 54b7 31bf
00000170: 5ac2 d8bd 49e7 7b3e 6195 5e3d a33c 643e
00000180: 6910 09bd 6da9 383f 1dd2 94be 61cb b1bc
00000190: a6b5 0b3f ca62 9f3f d9cd 133f cb67 febd
000001a0: 6d8e 153f f8a7 62bf 375f 153e 72a7 673d
000001b0: eb57 30bf 2d22 193f 117f 59bd 49ce 31bd
000001c0: cffe f13d 9585 08be cddd 5bbd b609 f8bd
000001d0: 66ce 2c3d 12e4 00bd 7ebf 5d3e 84f1 663f
000001e0: 4a51 3fbd bc26 04be 545e f3bc 6324 72bf
000001f0: df02 013d c89d 44bd 8514 81bf 2709 95bd
0.15568566 0.011183 -0.04652907 0.2033442 -0.033288784 0.22147787 -0.028777715 -0.06730124
-0.04226343 -0.011073901 -0.016920129 0.1853565 -0.018166002 -0.19792908 -0.20818515 -0.03963672
-0.30094573 -0.056252107 -0.494374 1.1955968 -0.11840442 -0.9515678 0.22806834 0.3327968
-1.0529583 0.55268216 0.51514125 -1.0421613 -0.8962302 1.0446179 0.04705084 -0.72468996
-0.2340529 0.9401463 0.21370986 -0.015907146 -0.02150612 0.026572153 0.6610284 -0.02621708
0.08130853 -0.47413567 -0.28357437 -0.09608414 -0.02729495 0.20869163 0.8648863 0.35955495
0.037700713 0.02106434 0.75223416 -0.055954844 -0.034078438 -0.029974464 -0.6286831 -0.5898822
-1.1142427 -0.20067006 0.1634314 -0.4853439 0.1901732 0.061205667 0.11838136 -0.044515815
-0.0395427 0.50321215 0.58232903 -0.04739205 -0.033116993 -0.16740276 0.5147765 0.13806684
-0.022220816 -0.93021464 0.27264547 -0.031140609 0.86019415 0.7632846 -0.86978215 1.024463
0.022978654 -0.19141112 -0.013993703 -0.9415119 -0.8583168 0.17201829 -0.029464355 -0.19204654
-0.049508404 -0.0055161617 -0.019094804 -0.6942036 -0.105839446 0.24599947 0.054341678 0.22288756
-0.033462916 0.72133523 -0.29066554 -0.021703424 0.5457405 1.2452023 0.57735974 -0.12422141
0.5842045 -0.8853755 0.14587103 0.056556173 -0.6888415 0.59817773 -0.053099696 -0.04340962
0.11816179 -0.13332208 -0.053678323 -0.12111227 0.042189024 -0.031467505 0.2165508 0.90212274
-0.046708383 -0.12905401 -0.029708065 -0.9458677 0.03149688 -0.048002034 -1.0084387 -0.07277136

classifier.3.weight f4 [2, 128]
00000000: d6b1 a73e 78c6 4d3e 8323 0b3e 5ce4 1e3e
00000010: 82fb 15be ff0a debd 9524 483e a109 1a3e
00000020: 7cee 93bc fd70 3f3e a137 4a3e b66c b23d
00000030: acd0 7538 3761 9c3c 139c e33d 0d5f 72bd
00000040: 207c b3bd 857f 733e e05f babd 7f65 6ebe
00000050: 071b b0be 2393 cd3e ddd2 0d3e 3dfa b93d
00000060: 9e98 11bd 5f0d 19be 6277 48be 621c 6d3c
00000070: 5fff cc3c 5590 f6bd df29 77bc 6cc2 fbbd
00000080: 03f4 f23c 648a 4bbe bf4d c23d 20bf 703d
00000090: 1c79 74be 1cd9 153e 7876 c33c 6866 4b3e
000000a0: 594d 843e 8b6e 593d 76d1 2c3e 0c5a 17be
000000b0: ffa7 133e 605b 21be 00eb 70be 6d40 07be
000000c0: 2c0f 5b3d 037c 87bc 2834 9b3e 42e2 2e3e
000000d0: e7f7 b8bb c934 0f3d 6eb1 e3bb 8692 cdbd
000000e0: 2bc3 adbd 95d8 913d fa22 ee3d 5d3e 09be
000000f0: 7716 173e 7b86 ab3d 7540 043e 83ca 4d3d
00000100: 5a3e 69bd 4bfd 043e 360f ca3c 61a6 7fbd
00000110: 1141 b53d 9da2 383e 59ed 893e f290 1a3d
00000120: 9a09 39bc 4b15 32bd 9b7e 663e ff88 2ebe
00000130: 460f 86bd a58c e7bd 1d35 12be 9a57 2fbd
00000140: 9ae0 893c e063 673e 3140 d2bd bc5a 813c
00000150: 8b6e ca3c d9c6 d0bb ae9c 293e d255 953c
00000160: 70e6 683c bdc5 37be 2bd1 1fbc 9bbb fe3d
00000170: 1df4 253e ed5c 20be de96 6ebe 3a4d 82be
00000180: 07f8 9cbd c6f4 17be cd20 893e d2b7 933d
00000190: 9e14 193d 60c1 573d 3cb9 863b 2478 7d3d
000001a0: 4501 1abe 4cbd 73be 231d 383e dc1d f93d
000001b0: 9285 0dbd c977 39be f343 0a3e a585 8f3d
000001c0: 8768 bcbd c6b7 973d 4533 7bbd 9835 9a3c
000001d0: f349 173e f632 2d3e 9c75 7ebd 07a7 2ebd
000001e0: f74c 633c 0668 f23d 3b5a b93d 3896 07be
000001f0: a234 2c3e b1f6 703c 6577 cf3d cd37 f03d
00000200: 9d40 11be 43d0 54bc 61de a03d 33b3 dabc
00000210: d4d4 cebd 94a8 7e3e 1c3f ea3c 4351 a8bd
00000220: 7559 b1bd e94c e13c 400d 23be 011f 67bd
00000230: f639 4abe b595 c7bd 1e62 c9be af3e 153e
00000240: 4ae1 61bd 8d30 8a3b e8ff ec3d 6ebe 733d
00000250: dd9b 443e f7ad c3be 0c26 d4bd 0c09 c1bd
00000260: f0b8 863c e871 113d d25b 4d3e b2dc 653d
00000270: f3af 843d e1ad 0c3e 3955 293e f7dd 62be
00000280: ca83 2fbe b7f5 06bd fb7d 513e 959b 703e
00000290: 79ca c1bd bafb 94bd b069 73be 9864 f0bc
000002a0: a991 9a3d 0a56 33be 62a3 b5be fb75 243e
000002b0: 0e9f c9bd d2ae e6bc 114f 5cbd b762 093e
000002c0: 3c85 b73e ac21 bc3d c311 513d f42e 8f3b
000002d0: ce56 a2bd ecca 17be d407 c13d 1756 dc3d
000002e0: d3ea 14bc 7747 25be 41a5 c9bd 5d5f 1e3e
000002f0: 53db 3bbe 016d d1bd 5333 d4bd 0445 273c
00000300: ba7f fbbc 772b 4bbe 166b 4ebe 9218 6ebe
00000310: d5b9 763d 1642 98bd c05d 0b3d 8bc2 22be
00000320: 479b debc de3e d03d 9a36 2bbd 33bc fbbd
00000330: 97dc 623e b738 813e cf7c 28bd e11b 2a3e
00000340: d571 19be b9de b6be e12b 12be 243d f43d
00000350: 1d28 9dbd 2499 4abe e698 6abd 1763 e13d
00000360: a3a5 10bb d76f 0a3e 51de 68bd de4c 333e
00000370: 8a33 42be eae8 453e fc01 96bd 2a38 433e
00000380: 6a96 09be 62ef ad3d 1f8b 8e3d 5de5 b23d
00000390: 2760 24be 3396 863e 13f7 1c3e 1a3c d2bd
000003a0: ffb0 843e 047d 38bd b3b4 8fbd 4a82 b1be
000003b0: 6f2c f03c 00e4 533e 22d7 3b3d c6f8 36be
000003c0: 8466 ea3d d54f 4abd 3c2b 87be 0880 4abe
000003d0: 4689 a3bd 3c48 be3b 6a52 3cbe 36ce 86be
000003e0: d13f 87bd d79d 0bbe 7370 b03d bb4d bfbd
000003f0: 2976 9abe d916 d4bd 1e0a 273e 2d45 33be
0.32752866 0.20095241 0.13587765 0.155168 -0.14646724 -0.10841941 0.19545205 0.15042736
-0.018058054 0.18695445 0.19747783 0.08712141 5.8606893e-05 0.019089324 0.11113753 -0.05917268
-0.08763909 0.23779114 -0.09100318 -0.23280905 -0.3439562 0.4015132 0.13849969 0.09080932
-0.035545938 -0.14946507 -0.19576791 0.014472099 0.025024114 -0.12039248 -0.015085666 -0.122929424
0.02965737 -0.1987701 0.09487485 0.05877602 -0.23874325 0.14633602 0.023860201 0.19863284
0.25840262 0.053083938 0.16876778 -0.14780444 0.14419554 -0.15757513 -0.23527145 -0.1320817
0.053481266 -0.016538626 0.3031323 0.17078498 -0.0056447866 0.03496245 -0.0069486415 -0.10037713
-0.08484491 0.07121388 0.11627765 -0.13402696 0.14754663 0.083752595 0.12915213 0.05024196
-0.05694423 0.12987249 0.024665456 -0.06241453 0.08850301 0.18030782 0.26938894 0.037735887
-0.011293793 -0.043477338 0.22509234 -0.17044447 -0.06545882 -0.11306123 -0.14278074 -0.042808153
0.016830731 0.22596693 -0.1026615 0.015790336 0.024710914 -0.0063713607 0.16563675 0.018229399
0.014215097 -0.17946525 -0.009754459 0.12438127 0.16206403 -0.15660448 -0.23299739 -0.25449544
-0.07664495 -0.14839467 0.26782838 0.07212795 0.037373178 0.05267465 0.004111437 0.061882153
-0.15039547 -0.2380268 0.17979865 0.12163898 -0.03455121 -0.181121 0.13502483 0.070079125
-0.091996245 0.07408099 -0.06132819 0.018824384 0.14774303 0.16913971 -0.06212388 -0.04263976
0.01387333 0.11836247 0.09050413 -0.13240898 0.16816953 0.014707253 0.101301946 0.11729393
-0.14184804 -0.012989107 0.078549154 -0.026696777 -0.100991875 0.24868995 0.028594546 -0.082186244
-0.08659641 0.027502494 -0.15923023 -0.056426052 -0.19748673 -0.09745351 -0.3933267 0.14574693
-0.055146493 0.0042172135 0.11572248 0.05950778 0.19200082 -0.38218662 -0.10358819 -0.09425554
0.016445607 0.03550902 0.20054558 0.056118675 0.06478872 0.13738205 0.16536416 -0.22154985
-0.17140117 -0.032949176 0.20458214 0.2349685 -0.09462447 -0.072745755 -0.23770785 -0.029344842
0.07547314 -0.1751329 -0.35476214 0.16060631 -0.098447904 -0.028159533 -0.05378634 0.13416563
0.35843837 0.0918611 0.05104233 0.004369611 -0.07926713 -0.14823502 0.09425321 0.10758608
-0.00908919 -0.16140543 -0.09845973 0.15466066 -0.18345384 -0.10225869 -0.10361352 0.010209326
-0.030700553 -0.198408 -0.20158038 -0.2325156 0.060235817 -0.0743448 0.034024954 -0.15894525
-0.027173651 0.10168241 -0.04180012 -0.122917555 0.22154461 0.25238582 -0.04113465 0.16612197
-0.1498483 -0.357168 -0.14274551 0.11925724 -0.076736666 -0.19784981 -0.05727472 0.11005228
-0.0022071383 0.13519226 -0.056852642 0.17509791 -0.18964973 0.19327131 -0.07324597 0.19064394
-0.13436285 0.08492924 0.06960129 0.08735154 -0.16052304 0.26286468 0.15328626 -0.1026537
0.25916287 -0.0450411 -0.070168875 -0.34669715 0.029318063 0.20692444 0.045859464 -0.17868337
0.114453346 -0.04939254 -0.26400173 -0.19775403 -0.07985167 0.005806951 -0.18390813 -0.263292
-0.06603969 -0.1363443 0.08615198 -0.09340998 -0.30168274 -0.1035592 0.16312453 -0.17506857

classifier.3.bias f4 [2]
00000000: eb37 abbe e937 ab3e
-0.334411 0.33441094
