Pretrained_cnn/main/saved_ckpt/best_model_epoch_110.pt (torch, 835310 bytes, 10 tensors)

features.0.weight f4 [32, 3, 3, 3]
0.2105819 0.029336445 0.17691466 0.17173097 -0.16311443 -0.49885726 0.12067999 -0.32596016
-0.8517126 0.2974279 0.2589354 0.26477727 0.19937034 -0.032859296 -0.31795716 0.079876326
-0.29419255 -0.6452842 0.4079794 0.33816537 0.17289324 0.22425546 0.1633322 -0.24807759
0.1994522 -0.14913628 -0.5840342 0.036262013 -0.11469005 -0.27532414 -0.036911704 -0.1796577
0.25435644 0.35261756 0.08595759 -0.23494916 -0.36739242 -0.30247006 -0.26003507 -0.09417377
-0.35171857 -0.15327875 0.31248835 -0.22110033 -0.13878106 -0.33899593 -0.72060436 -0.67379135
-0.46039274 -0.7111064 -0.61519516 0.2944676 -0.45973507 -0.5394126 0.5118585 0.28064036
0.09215564 0.17232901 0.16615997 0.14804128 0.19532187 -0.006241191 0.072684735 0.38828978
-0.22815496 -0.3889808 -0.01987547 -0.36360106 -0.19756821 -0.21973673 -0.14454968 -0.23701726
-0.2755883 -0.94324213 -0.8705485 -0.3130785 -0.8172868 -0.77856 -0.399414 -1.1027333
-0.83810014 -0.33111843 -0.26877818 -0.24151774 -0.39474034 -0.30336842 -0.20965101 -0.35032034
-0.21548653 -0.09502555 0.36329445 0.45648843 0.47366208 0.49253148 0.41841596 0.5183805
0.49426207 0.36133945 0.22902398 -0.08924407 -0.23923714 -0.1871226 -0.16054218 -0.17328334
-0.12287102 -0.02766328 -0.08885436 -0.005044365 0.23624964 0.32104272 0.37893856 0.29831222
0.44600067 0.28443554 0.26209754 0.19119765 0.027214259 0.2746137 0.0819962 0.39520183
-0.003029333 -0.05122513 0.08077145 -0.086374775 -0.19609007 -0.247308 -0.3724563 -0.2818975
-0.12673134 -0.20213464 -0.18943581 -0.07697725 -0.26979837 -0.36827853 -0.50113875 -0.65113753
-0.25109178 0.25969604 -0.22618212 -0.11495523 0.2592696 0.04312349 0.18580458 0.30062023
-0.52383435 -0.11333616 0.114429176 -0.17255902 -0.16101372 0.3841422 0.12488402 0.29257834
0.38625377 -0.69698304 -0.25490922 0.10850384 -0.4640914 -0.12916698 0.3165335 0.17408007
0.2909782 0.38617328 -0.18364447 -0.25311953 -0.11446754 -0.2609761 -0.37840515 0.051927973
-0.2276844 -0.29007185 -0.21277776 -0.19357659 -0.07238014 0.049931053 -0.18986648 -0.100581914
0.0951286 -0.12955455 -0.26978788 -0.0062637045 -0.107919924 -0.047874767 -0.23401015 -0.028863832
-0.16966327 0.019292613 -0.19924572 -0.19068019 -0.12589023 -0.13692476 0.14515986 -0.17886831
-0.1458081 -0.23945336 -0.7044478 0.097335115 -0.07180913 0.22458316 0.19875623 0.27373776
-0.18554403 0.10510154 -0.07399907 -0.47396517 0.09911158 0.25392085 0.4343537 0.2234416
0.29271474 -0.16360629 0.2602094 -0.10436583 -0.6721197 0.30398452 0.1539369 0.16295055
0.22219694 0.18887293 0.17160216 0.26898232 0.16696078 0.2076591 0.18503454 0.18291938
0.14851953 -0.2536064 -0.21966371 -0.38261762 -0.32370615 -0.50380266 -0.36367255 -0.2517088
-0.18781114 -0.057728786 0.005247057 -0.16612734 -0.19635311 -0.14314659 -0.3696571 -0.109431334
0.038312856 -0.13155045 -0.20401531 -1.3387458 0.100576684 -0.15731488 -1.1442653 -1.2873156
-0.08545027 -1.95853 -1.6959345 0.14983593 -1.7983859 -0.1794577 -0.30386153 -1.262738
00000000: c8a2 573e fc52 f03c 1e29 353e 3eda 2f3e
00000010: 7807 27be 386a ffbe 1227 f73d 40e4 a6be
00000020: d609 5abf 7848 983e 2e93 843e e390 873e
00000030: bd27 4c3e 7897 06bd 48cb a2be 3396 a33d
00000040: 68a0 96be 5831 25bf ade2 d03e 0324 ad3e
00000050: ed0a 313e 39a3 653e 8e40 273e 0d08 7ebe
00000060: 333d 4c3e 2eb7 18be 4483 15bf 7a87 143d
00000070: 9ee2 eabd 49f7 8cbe ba30 17bd 30f8 37be
00000080: 023b 823e 4a8a b43e 880a b03d 8396 70be
00000090: dc1a bcbe 5bdd 9abe 5123 85be 2dde c0bd
000000a0: 7514 b4be 1bf5 1cbe 79fe 9f3e 2068 62be
000000b0: 9f1c 0ebe e090 adbe 8779 38bf 977d 2cbf
000000c0: 99b8 ebbe 120b 36bf 6e7d 1dbf 75c4 963e
000000d0: 6562 ebbe f216 0abf 2909 033f 18b0 8f3e
000000e0: 19bc bc3d 0477 303e d725 2a3e 2298 173e
000000f0: 7502 483e e882 ccbb bcdb 943d ebcd c63e
00000100: 74a1 69be 7e28 c7be e2d1 a2bc eb29 babe
00000110: 524f 4abe aa02 61be d504 14be a7b4 72be
00000120: e919 8dbe 5178 71bf 44dc 5ebf d34b a0be
00000130: b539 51bf b54f 47bf fe7f ccbe 5d26 8dbf
00000140: bb8d 56bf 5b88 a9be 4b9d 89be 6d50 77be
00000150: 681b cabe 1b53 9bbe c1ae 56be 305d b3be
00000160: 80a8 5cbe c19c c2bd bb01 ba3e dab8 e93e
00000170: d683 f23e 162d fc3e 9e3a d63e 96b4 043f
00000180: eb0f fd3e 7c01 b93e 4385 6a3e 98c5 b6bd
00000190: 95fa 74be 119d 3fbe 2b65 24be 3071 31be
000001a0: cda3 fbbd 1a9e e2bc 46f9 b5bd 334b a5bb
000001b0: 6deb 713e b65f a43e 3c04 c23e 61bc 983e
000001c0: 335a e43e 89a1 913e a631 863e 51c9 433e
000001d0: 70f0 de3c 2b9a 8c3e a0ed a73d e557 ca3e
000001e0: c687 46bb 71d1 51bd 816b a53d 42e5 b0bd
000001f0: d6cb 48be 4f3e 7dbe 98b2 bebe de54 90be
00000200: dcc5 01be 62fc 4ebe 76fb 41be 40a6 9dbd
00000210: 0323 8abe 018f bcbe a14a 00bf f3b0 26bf
00000220: 1a8f 80be e1f6 843e 499c 67be a66d ebbd
00000230: fcbe 843e 42a2 303d 8e43 3e3e e5ea 993e
00000240: 021a 06bf ca1c e8bd d859 ea3d 50b3 30be
00000250: c8e0 24be 49ae c43e 31c3 ff3d d4cc 953e
00000260: 0ec3 c53e 7b6d 32bf 7683 82be 4337 de3d
00000270: 639d edbe 5944 04be ae10 a23e 0c42 323e
00000280: 18fb 943e 81b8 c53e 4c0d 3cbe e298 81be
00000290: f56d eabd a99e 85be 52be c1be 6db2 543d
000002a0: 1926 69be 4c84 94be 6ae2 59be f138 46be
000002b0: 0a3c 94bd 8184 4c3d 5c6c 42be e4fd cdbd
000002c0: c9d2 c23d f3a9 04be a321 8abe c33f cdbb
000002d0: 1f05 ddbd 5518 44bd 5ba0 6fbe d873 ecbc
000002e0: 35bc 2dbe 8b0b 9e3c 1207 4cbe ab41 43be
000002f0: 5ee9 00be 0136 0cbe c9a4 143e 4129 37be
00000300: b84e 15be 4333 75be b156 34bf a257 c73d
00000310: aa10 93bd 21f9 653e c186 4b3e 5b27 8c3e
00000320: 41ff 3dbe 7a3f d73d d38c 97bd 90ab f2be
00000330: 03fb ca3d ea01 823e 9c63 de3e e0cd 643e
00000340: b5de 953e 6888 27be 2b3a 853e c1bd d5bd
00000350: 0910 2cbf dca3 9b3e a2a1 1d3e 82dc 263e
00000360: 9887 633e e867 413e 7ab8 2f3e 0db8 893e
00000370: c4f7 2a3e 96a4 543e b279 3d3e 384f 3b3e
00000380: 8115 183e b3d8 81be 86ef 60be 75e6 c3be
00000390: d0bc a5be 36f9 00bf 4a33 babe fadf 80be
000003a0: 9051 40be 0575 6cbd 81ef ab3b 491d 2abe
000003b0: ca10 49be 0595 12be b243 bdbe 891d e0bd
000003c0: f1ed 1c3d 29b5 06be 64e9 50be 065c abbf
000003d0: 26fb cd3d 2717 21be 4977 92bf c2c6 a4bf
000003e0: 8d00 afbd 1cb1 fabf 6214 d9bf 976e 193e
000003f0: 8231 e6bf c2c3 37be bd93 9bbe 66a1 a1bf

features.0.bias f4 [32]
-0.089374736 -0.17436057 -0.037741624 -0.3191542 -0.1116868 -0.18993162 -0.1628197 -0.018973717
-0.04586663 0.26898003 -0.0047488916 -0.43863615 -0.42405418 -0.3472812 0.02125898 -0.25031972
0.42819124 -0.18813899 -0.08458173 -0.37846705 -0.07331698 -0.86776847 -0.45271134 -0.24358393
0.06321189 -0.11829339 -0.010185685 -0.05883188 -0.0010094062 -0.10111645 -0.02112936 -0.36027536
00000000: 1a0a b7bd 948b 32be f696 1abd 2e68 a3be
00000010: 0dbc e4bd 6f7d 42be 35ba 26be c56e 9bbc
00000020: a6de 3bbd c0b7 893e 979c 9bbb eb94 e0be
00000030: a11d d9be d7ce b1be 5027 ae3c e829 80be
00000040: e23b db3e 82a7 40be 3039 adbd 6fc6 c1be
00000050: 3627 96bd 1326 5ebf c8c9 e7be 116e 79be
00000060: 3c75 813d ce43 f2bd dce1 26bc b3f9 70bd
00000070: 0d4e 84ba 2416 cfbd 7b17 adbc 0376 b8be

features.3.weight f4 [16, 32, 3, 3]
-0.19999935 -0.37141466 -0.025403699 -0.34070244 -0.30453262 -0.16704868 -0.115074776 -0.058084514
-0.16361617 0.25428146 -0.09189598 -0.2877005 -0.09185908 0.3291365 0.20146593 -0.04991642
0.08742989 0.2037296 -0.23335487 0.14307472 -0.42365897 -0.1320995 -0.12557825 -0.4527806
-0.36989036 -0.493904 -0.18022904 0.63119143 0.4680314 0.16477586 0.59015167 0.022818327
-0.44085565 0.5421887 -0.15148656 -0.8944525 -0.91467404 -0.57995313 0.023812277 -0.50813955
0.19952798 0.515809 -0.40014178 0.5742519 1.0059245 0.006035379 -0.092715114 -0.23016115
-0.21087708 -0.104432695 -0.10507526 -0.68746483 -0.42487457 -0.2499804 0.13385318 -0.007150388
-0.043329358 0.28128943 -0.11712238 -0.12826215 0.0930359 -0.042217057 -0.1421846 0.47469327
0.009105447 0.09232639 0.015373221 -0.2177444 -0.07742611 -0.033695303 -0.26107836 -0.24850024
-0.49469268 -0.5059018 -0.14868605 -0.50812817 -0.2405731 -0.10634265 -0.5446995 -0.031897176
0.24858955 -1.2602394 -1.2852079 -0.39247695 -1.2011468 -0.43564132 -0.20771904 -0.4134687
-0.5045783 -0.24707195 -0.0066211727 -0.16914208 0.16606174 0.03703136 -0.049950052 -0.23665738
0.15726885 0.012290078 -0.13156511 -0.11470002 -0.018629368 -0.018553985 0.08316493 0.0525982
-0.03367775 0.2592171 0.05630922 0.6474085 -0.50910115 -0.5217725 -0.55732906 0.1958278
0.16181111 0.18202299 -0.0040168706 0.022425028 0.24944834 -0.09658421 0.0005150854 0.027641086
0.0998519 0.179744 0.40860766 -0.2474236 -0.35638452 -0.11588424 0.17542401 -0.0068660723
-0.033917975 0.3915782 -0.05891629 -0.32221434 0.30186376 0.020323362 -0.43825698 0.09893311
0.21343796 -0.3246436 0.09992525 0.12830378 -0.087061964 0.2803669 0.16739832 -0.012951813
-0.31880584 -0.12266983 -0.07257784 0.56320626 0.3644075 0.2435008 0.33205852 -0.09365446
-0.006262971 -0.338858 -0.23819956 -0.19173056 -0.3386722 -0.015457273 0.089557655 -0.4035977
-0.11334356 0.27809027 -0.034617644 0.14934422 0.14464597 0.11227268 -0.15549737 0.106690295
-0.072119914 -0.30263224 -0.0067676553 0.3833814 0.021991247 -0.0947704 0.23716998 0.26287532
0.1727594 -0.214782 0.017168958 -0.011820209 -0.18092066 -0.37694225 -0.31378508 -0.027351465
-0.006226752 0.17623614 0.094555385 0.11928509 0.38109902 0.3383392 -0.087726735 -0.15325582
0.5593272 0.052848596 -0.34847406 0.16520146 -0.12551491 -0.31064436 -0.29869753 -0.3579039
-0.47911596 -0.40945825 -0.3648131 -0.41382816 -0.41480708 -0.5514009 0.18577218 0.23675525
0.16373834 -0.23635428 0.23657228 -0.21028472 -0.0826808 -0.15351748 -0.3284079 -0.25667486
-0.07504987 -0.1049317 0.08703247 -0.10548139 -0.25106254 -0.27161586 -0.026777552 -0.45647326
-0.18923095 -0.93524724 -0.2790898 0.15076925 -0.7696204 0.29177484 0.9587047 -0.73328996
0.571941 0.94125974 -0.9360771 -0.21632037 -0.9526303 -0.502322 0.046398923 -0.04865712
-0.93478143 -0.6661491 -0.16614491 0.025480732 -0.084627226 0.49190202 -0.13114952 0.16939111
0.55279034 0.03570746 -0.23447654 -0.10920099 -0.37108845 -0.46189848 -0.34540766 -0.43417045
00000000: a1cc 4cbe 102a bebe 6b1b d0bc 8d70 aebe
00000010: b3eb 9bbe cf0e 2bbe 53ac ebbd 07ea 6dbd
00000020: ff8a 27be 2e31 823e f633 bcbd 7b4d 93be
00000030: 9d20 bcbd 9484 a83e 164d 4e3e 2975 4cbd
00000040: 710e b33d 7e9e 503e 94f4 6ebe 2e82 123e
00000050: d4e9 d8be 1745 07be 9697 00be dcd2 e7be
00000060: 4562 bdbe fce0 fcbe f68d 38be c395 213f
00000070: d0a1 ef3e 01bb 283e 2e14 173f 80ed ba3c
00000080: d5b7 e1be e1cc 0a3f 4b1f 1bbe d7fa 64bf
00000090: 1428 6abf cf77 14bf f711 c33c 6f15 02bf
000000a0: 1051 4c3e 0f0c 043f 62df ccbe 2c02 133f
000000b0: 22c2 803f 6ec4 c53b 6ce1 bdbd 5daf 6bbe
000000c0: 29f0 57be cfe0 d5bd b331 d7bd b2fd 2fbf
000000d0: 2989 d9be ddfa 7fbe cf10 093e cd4d eabb
000000e0: 207a 31bd 2b05 903e dcdd efbd 2757 03be
000000f0: 9b89 be3d cbeb 2cbd d798 11be ff0a f33e
00000100: 032f 153c 9e15 bd3d f6df 7b3c 63f8 5ebe
00000110: 9591 9ebd 1604 0abd 10ac 85be d976 7ebe
00000120: 5c48 fdbe c882 01bf 2841 18be b014 02bf
00000130: cb58 76be 2dca d9bd 6d71 0bbf 9da6 02bd
00000140: 428e 7e3e 864f a1bf b181 a4bf bdf2 c8be
00000150: 2ebf 99bf 610c dfbe 4db4 54be 2bb2 d3be
00000160: 0b2c 01bf 6e00 7dbe 6cf6 d8bb 9533 2dbe
00000170: 170c 2a3e 32ae 173d 6d98 4cbd 5056 72be
00000180: 160b 213e 535c 493c 01b9 06be d8e7 eabd
00000190: 9e9c 98bc 87fe 97bc 6052 aa3d 3671 573d
000001a0: aef1 09bd 1bb8 843e 7fa4 663d 90bc 253f
000001b0: 7454 02bf e292 05bf 1ead 0ebf 1587 483e
000001c0: d0b1 253e 3c64 3a3e f49f 83bb b1b4 b73c
000001d0: 636f 7f3e f1cd c5bd cc06 073a 8f6f e23c
000001e0: 277f cc3d d00e 383e 0635 d13e 9d5c 7dbe
000001f0: 0878 b6be b754 edbd 5aa2 333e cafc e0bb
00000200: 93ed 0abd f07c c83e 3552 71bd 47f9 a4be
00000210: e38d 9a3e 2e7d a63c 3863 e0be 719d ca3d
00000220: 7b8f 5a3e b037 a6be 9ca5 cc3d 1162 033e
00000230: 8b4d b2bd 408c 8f3e 776a 2b3e d733 54bc
00000240: 853a a3be 523a fbbd b1a3 94bd 492e 103f
00000250: 9f93 ba3e 4658 793e 9303 aa3e e9cd bfbd
00000260: 9c39 cdbb cc7e adbe 96ea 73be 0455 44be
00000270: 7166 adbe 8140 7dbc 016a b73d 5ca4 cebe
00000280: ab20 e8bd d961 8e3e 3bcb 0dbd b1ed 183e
00000290: 131e 143e 38ef e53d b43a 1fbe 7180 da3d
000002a0: 9bb3 93bd 9df2 9abe 35c3 ddbb 914a c43e
000002b0: fd26 b43c fc16 c2bd b0dc 723e 9897 863e
000002c0: d7e7 303e d0ef 5bbe eaa5 8c3c 8da9 41bc
000002d0: 4443 39be 93fe c0be 70a8 a0be 2e10 e0bc
000002e0: c809 ccbb 3f77 343e 41a6 c13d be4b f43d
000002f0: 691f c33e cc3a ad3e 13aa b3bd 18ef 1cbe
00000300: 1130 0f3f c577 583d 316b b2be 922a 293e
00000310: fb86 00be c70c 9fbe e2ee 98be 2e3f b7be
00000320: b04e f5be 83a4 d1be c8c8 babe 49e1 d3be
00000330: 9861 d4be 9c28 0dbf 103b 3e3e f86f 723e
00000340: 06ab 273e db06 72be 0140 723e e154 57be
00000350: 8d54 a9bd b033 1dbe 1525 a8be e36a 83be
00000360: bfb3 99bd 6ee6 d6bd 143e b23d a106 d8bd
00000370: 458b 80be 3c11 8bbe 995c dbbc ddb6 e9be
00000380: c2c5 41be 5d6c 6fbf dce4 8ebe 4163 1a3e
00000390: d805 45bf 8363 953e ac6d 753f e4b8 3bbf
000003a0: ba6a 123f 66f6 703f c0a2 6fbf 1683 5dbe
000003b0: 94df 73bf 2d98 00bf cc0c 3e3d b04c 47bd
000003c0: d64d 6fbf bf88 2abf e421 2abe f8bc d03c
000003d0: 0a51 adbd 95da fb3e 0f4c 06be dd74 2d3e
000003e0: ab83 0d3f fc41 123d 9e1a 70be c5a4 dfbd
000003f0: 4eff bdbe f57d ecbe 46d9 b0be 974b debe

features.3.bias f4 [16]
0.00805161 0.13727048 -0.1007578 0.014782535 -0.046941645 -0.015694233 -0.07323898 0.009800018
-0.05295914 -0.06243034 -0.05489121 -0.31215626 0.030885695 -0.44525173 0.07202683 -0.10106689
00000000: e6ea 033c a290 0c3e 1b5a cebd 7232 723c
00000010: e245 40bd 3191 80bc 51fe 95bd 4190 203c
00000020: afeb 58bd f5b6 7fbd 9bd5 60bd f2d2 9fbe
00000030: ff03 fd3c 09f8 e3be cd82 933d 28fc cebd

features.6.weight f4 [8, 16, 3, 3]
-0.24954906 -0.008629502 -0.019494245 -0.09380082 0.07187011 0.04043037 -0.10289498 0.023993919
0.06759646 0.005399574 -0.022929598 0.054043483 0.017361052 0.42807865 0.26926157 -0.063203104
0.31364918 0.36330163 -0.036752228 -0.019047726 0.011970095 0.086950764 -0.19227971 0.0992117
0.120093375 0.027681137 -0.026988663 0.020899283 -0.20139623 -0.14286393 -0.08169099 0.06369568
0.011164749 0.014669781 0.14033715 0.24517295 -0.22567844 -0.094970375 -0.071480386 -0.08822854
0.053646926 0.19168453 -0.012067338 0.19506748 0.3230631 0.07324439 -0.072143145 -0.004085116
-0.36356854 -0.78102 -1.0426043 0.03265593 -0.33592105 -0.759236 0.24015068 -0.16448063
0.28063774 -0.43472937 -0.37763232 -0.17528512 0.032913838 -0.17686021 0.11877993 0.24585822
-0.09652589 0.01799349 -0.03687911 -0.35229015 -0.11881444 -0.019032665 -0.30827063 -0.39725158
-0.11917861 -0.036508046 -0.13682169 -0.01756665 -0.09332027 0.12772202 -0.04510848 0.08749069
0.06577929 0.32178703 0.24509722 0.061342835 -0.29025522 -0.1412767 -0.035197884 -0.012669051
-0.39424044 -0.022035953 -0.07573117 -0.1559195 -0.17934032 -0.009071683 0.049942937 -0.1539889
-0.0020766633 -0.095049866 0.023335919 -0.44534814 -0.26075926 0.47880703 -0.42746317 0.21770172
-0.0731828 -0.2334532 0.07316434 0.012190285 -0.23505631 0.3592477 0.24903367 -0.20511404
0.15065521 0.2771165 -0.01845357 0.054200776 -0.23335803 -0.09922632 -0.118576944 -0.032986872
-0.16800855 -0.019592673 0.006520072 0.075021386 -0.071945414 0.11943597 -0.116667286 0.06497808
-0.11603712 -0.028161041 0.0016095865 0.21088795 -0.056253664 0.10023519 0.25417614 -0.1443293
0.15476258 0.07311382 0.13681717 0.35781306 -0.12085483 -0.03651154 -0.1033124 -0.023221599
-0.25459 -0.13889967 0.29125687 -0.22373119 0.12046792 0.2645041 -0.16628276 0.23675595
0.039863065 0.26730952 0.13783191 -0.27006117 0.09165336 -0.07344576 -0.13749352 -0.05967655
-0.1027097 0.11470321 0.026181556 0.022623466 0.034239847 -0.16864626 -0.15052769 -0.0018496928
0.051470242 0.14114378 0.16746625 0.00068429596 0.0203116 0.023080992 -0.1738293 0.031527963
0.1559634 0.09811873 -0.007937406 0.14476196 -0.19460706 -0.09230407 0.19146413 -0.19826251
0.04437573 0.00038706118 -0.029906815 -0.05989685 -0.031442598 -0.07806179 -0.1998484 -0.023857813
-0.24801819 0.21877292 0.20998076 -0.21958633 0.0773086 0.112628914 -0.33357733 -0.21268308
0.29364002 -0.22250924 -0.17179777 0.33252183 -0.15969072 0.31924763 0.26572278 -0.018486446
0.13130663 -0.2750425 0.04069843 -0.22408764 0.04437523 -0.15993702 0.16292748 0.18789184
0.012014572 0.11089781 -0.051875755 0.06310807 0.046495102 0.042822856 0.11637642 -0.09756888
-0.131044 0.04047678 0.117601104 0.2539933 0.06478132 0.2390544 0.13655625 0.25241837
-0.06767799 0.36848646 -0.2197989 0.023503805 0.31185338 -0.07263063 0.13490073 0.1273466
-0.10991585 -0.005879921 0.02418355 -0.1173091 -0.040211804 -0.022616139 0.10845179 0.2227704
0.0641685 0.047388166 0.0359237 0.12929735 -0.075495355 0.09110499 0.079498395 0.0064729713
00000000: ca89 7fbe c162 0dbc 65b2 9fbc a51a c0bd
00000010: a330 933d 519a 253d 9aba d2bd e58e c43c
00000020: 0370 8a3d e9ee b03b dad6 bbbc b35c 5d3d
00000030: c438 8e3c 202d db3e a7dc 893e a170 81bd
00000040: a096 a03e ac02 ba3e 8189 16bd fa09 9cbc
00000050: 381e 443c 3e13 b23d f9e4 44be 812f cb3d
00000060: 84f3 f53d 8dc3 e23c 5417 ddbc f934 ab3c
00000070: d03a 4ebe ec4a 12be 9b4d a7bd e172 823d
00000080: 5aec 363c 8559 703c 8bb4 0f3e 9e0e 7b3e
00000090: 4018 67be d47f c2bd 4f64 92bd 2ab1 b4bd
000000a0: e1bc 5b3d f348 443e 16b6 45bc c5bf 473e
000000b0: 8768 a53e 2801 963d c9bf 93bd 70dc 85bb
000000c0: a825 babe edf0 47bf 0f74 85bf 39c2 053d
000000d0: d8fd abbe 4a5d 42bf 0fea 753e 9c6d 28be
000000e0: c0af 8f3e d994 debe 0659 c1be f17d 33be
000000f0: a9d0 063d d81a 35be e442 f33d 42c2 7b3e
00000100: 5eaf c5bd 1567 933c 8d0e 17bd 605f b4be
00000110: fc54 f3bd 64ea 9bbc a6d5 9dbe 8f64 cbbe
00000120: ea13 f4bd 7689 15bd fc1a 0cbe efe7 8fbc
00000130: b31e bfbd 90c9 023e abc3 38bd 522e b33d
00000140: 4bb7 863d 45c1 a43e c4fa 7a3e a042 7b3d
00000150: 559c 94be d7aa 10be a82b 10bd da91 4fbc
00000160: e2d9 c9be be84 b4bc f218 9bbd 5da9 1fbe
00000170: fda4 37be 65a1 14bc f790 4c3d 44af 1dbe
00000180: a118 08bb 81a9 c2bd f82a bf3c ac04 e4be
00000190: 3d82 85be 3226 f53e 74dc dabe 33ed 5e3e
000001a0: dde0 95bd 5b0e 6fbe 2fd7 953d c3b9 473c
000001b0: 9ab2 70be 51ef b73e af02 7f3e 6a09 52be
000001c0: 5c45 1a3e 37e2 8d3e f12b 97bc a201 5e3d
000001d0: 68f5 6ebe 2b37 cbbd 78d8 f2bd 3e1d 07bd
000001e0: 6f0a 2cbe d080 a0bc 54a6 d53b d0a4 993d
000001f0: 1e58 93bd d99a f43d 42ef eebd 3a13 853d
00000200: dfa4 edbd fcb1 e6bc c3f8 d23a 03f3 573e
00000210: 3e6a 66bd 1b48 cd3d 6023 823e 0fcb 13be
00000220: 157a 1e3e b3bc 953d cd19 0c3e 4633 b73e
00000230: bd82 f7bd 208d 15bd 7495 d3bd 393b bebc
00000240: 9f59 82be b73b 0ebe 9f1f 953e ca19 65be
00000250: e3b7 f63d 156d 873e 0746 2abe 2770 723e
00000260: 7447 233d cbdc 883e cf23 0d3e 7545 8abe
00000270: c2b4 bb3d bb6a 96bd 1acb 0cbe 666f 74bd
00000280: 7759 d2bd 84e9 ea3d b47a d63c d954 b93c
00000290: 153f 0c3d 9bb1 2cbe ee23 1abe 6471 f2ba
000002a0: 76d2 523d ff87 103e 467c 2b3e 5362 333a
000002b0: 8364 a63c 5914 bd3c 4f00 32be 7723 013d
000002c0: dfb4 1f3e 79f2 c83d e50b 02bc 7b3c 143e
000002d0: 1347 47be eb09 bdbd 2c0f 443e 5405 4bbe
000002e0: 53c3 353d 79ee ca39 23ff f4bc 6656 75bd
000002f0: f4c9 00bd dcde 9fbd 0fa5 4cbe 7671 c3bc
00000300: 7bf8 7dbe 0206 603e 3205 573e 3ddb 60be
00000310: f953 9e3d fda9 e63d a6ca aabe 98c9 59be
00000320: fc57 963e 76d9 63be c1eb 2fbe 4d40 aa3e
00000330: f785 23be 6d74 a33e d10c 883e e370 97bc
00000340: 3f75 063e 5fd2 8cbe 66b3 263d 3b77 65be
00000350: cdc2 353d 88c6 23be 76d6 263e b866 403e
00000360: c4d8 443c 641e e33d ac7b 54bd ce3e 813d
00000370: a671 3e3d 0567 2f3d c356 ee3d 31d2 c7bd
00000380: 6630 06be fbca 253d d9d8 f03d 690b 823e
00000390: 12ac 843d adca 743e 67d5 0b3e fb3c 813e
000003a0: c29a 8abd 42aa bc3e f612 61be 0d8b c03c
000003b0: 3fab 9f3e 5ebf 94bd 6b23 0a3e 2667 023e
000003c0: 901b e1bd 5aac c0bb 951c c63c c13f f0bd
000003d0: 22b5 24bd 7b45 b9bc f91b de3d ec1d 643e
000003e0: c66a 833d 181a 423d bb24 133d 8666 043e
000003f0: 4f9d 9abd 4195 ba3d 0ed0 a23d 381b d43b

features.6.bias f4 [8]
0.3115209 -0.46424043 0.072967835 0.18862538 0.10880914 -0.3533475 -0.28488836 -0.3648772
00000000: ab7f 9f3e ecb0 edbe 2970 953d 0327 413e
00000010: 54d7 de3d f7e9 b4be e3dc 91be 2fd1 babe

classifier.0.weight f4 [128, 1568]
0.048084065 -0.17709045 -0.43607157 -0.33468798 0.0072383266 0.06835925 0.015160348 -0.09607806
0.063723266 -0.019941164 0.091957815 -0.24774338 -0.09624882 0.08148577 0.066886425 -0.5682784
-0.002010961 -0.27740556 -0.27329323 -0.067930624 0.087728396 -0.13214223 0.022276165 -0.02985722
0.072031036 -0.008420593 -0.4973079 -0.035668053 -0.5204974 -0.36370715 -0.1374726 -0.16320609
-0.102452606 0.23850988 0.17308465 0.09814253 -0.055333834 -0.08814907 -0.026021088 0.0018033156
-0.20428114 -0.32050774 -0.36738658 -0.4326534 -0.08566483 -0.0020097394 0.16984215 0.16986856
-0.022172429 0.095351346 0.08793021 -0.035613827 -0.017570265 -0.014618051 0.008299518 -0.5307005
-0.5213321 -0.24238688 0.039225258 0.13248897 0.0050712107 0.17057437 -0.049187776 0.21053724
0.16137472 0.19280119 0.21713267 0.12180026 -0.028511224 -0.8022271 -0.35328603 0.06086036
0.25441167 0.10042193 0.12950388 0.45842683 0.110021755 0.11145644 0.4392189 0.019248446
-0.025855308 0.15517312 0.06261593 -0.32442468 -0.24447793 -0.041093174 0.25297272 0.09357881
0.25692004 0.35267535 -0.024885103 -0.25618175 0.17794509 0.22802019 -0.24870008 0.19981773
0.4008068 -0.46435708 0.008906704 0.13526322 0.21290335 0.18643717 0.13412243 -0.06341092
-0.40382338 -0.121863015 0.46003932 0.30620694 -0.054899324 0.30766627 0.3166664 -0.2616955
-0.040385544 0.17185037 0.19787578 0.35117957 0.29039702 0.06994099 -0.4197095 0.08359758
0.43482655 0.13505825 -0.09155738 0.20562932 0.10719082 -0.6407298 -0.40007555 0.41321605
0.09277836 0.02261173 0.1016879 -0.021619897 0.071617976 0.4093261 0.41846174 0.22706357
0.08159874 0.20607273 -0.08899277 -0.67387974 -0.45637324 0.10155739 -0.03239648 0.32147834
0.082155086 -0.10197426 0.051633604 0.35410678 0.21327949 0.10616051 0.11044598 -0.0044653523
-0.57584953 -0.69226295 -0.8296849 -0.3865416 0.022936262 0.40903947 0.2490929 0.31221867
0.13029362 0.4224142 0.25247973 0.26454577 -0.05715053 -0.41990355 -0.8668477 -0.12823012
-0.03838686 -0.8127342 -0.3573441 -0.1796595 0.23482852 -0.1278863 0.11858281 0.20847093
0.13438997 -0.14325313 -0.25515243 -0.49660113 -0.06597012 -0.072254814 0.112849884 0.15647966
-0.7091472 -0.4857419 -0.40834984 -0.39696902 -0.3037065 -0.24776703 -0.6318973 -0.56985915
-0.45814186 -0.04386328 0.17308192 0.046378184 -0.1774058 -0.5949444 -0.6261535 -0.9453985
-0.6855463 -0.4664109 -0.45226443 -0.22797032 -0.39292124 -0.16031663 0.17061454 -0.12023766
0.10755896 -0.10723272 -0.47663462 -0.4460789 -0.5148859 -0.7447034 -0.95167 -0.7277442
-0.83235365 -0.73639375 -0.13565467 -0.31028846 -0.3159364 -0.15297256 0.24736124 0.39943698
-0.5720879 -0.553542 -0.72355914 -1.2804471 -1.2073224 -0.6217729 -0.71586496 -0.11301835
-0.1855056 -0.008986998 0.07265763 0.06810337 -0.25525254 0.09115668 -0.40322736 -0.71883863
-1.0388782 -1.4692765 -1.2852823 0.019319966 -0.5991142 -0.22750229 0.008303245 -0.04312804
-0.119327545 0.49649477 -0.12311703 -0.41996035 -0.48880723 -0.9084458 -0.9231011 -1.4707645
00000000: ccf3 443d 3357 35be c644 dfbe 395c abbe
00000010: 7c2f ed3b efff 8b3d 1c63 783c 93c4 c4bd
00000020: 5881 823d a75b a3bc 6154 bc3d 71b0 7dbe
00000030: 1a1e c5bd 03e2 a63d c0fb 883d b17a 11bf
00000040: 54ca 03bb 1a08 8ebe 17ed 8bbe 361f 8bbd
00000050: f2aa b33d 4b50 07be 817c b63c 2197 f4bc
00000060: 0285 933d 87f6 09bc 249f febe aa18 12bd
00000070: 513f 05bf d337 babe 9ec5 0cbe 7f1f 27be
00000080: acd2 d1bd ef3b 743e 1a3d 313e f3fe c83d
00000090: bba5 62bd 8087 b4bd 2d2a d5bc 3b5d ec3a
000000a0: 132f 51be 9719 a4be 181a bcbe bf84 ddbe
000000b0: 0b71 afbd d5b5 03bb 1aeb 2d3e 06f2 2d3e
000000c0: f4a2 b5bc 9147 c33d c114 b43d cedf 11bd
000000d0: 84ef 8fbc 8d80 6fbc b4fa 073c fddb 07bf
000000e0: 0576 05bf 4434 78be aaaa 203d 30ab 073e
000000f0: 662c a63b 0cab 2e3e 1f79 49bd 1397 573e
00000100: 6a3f 253e ad6d 453e 0758 5e3e 6a72 f93d
00000110: 5f90 e9bc c15e 4dbf e8e1 b4be b648 793d
00000120: 3f42 823e 03aa cd3d aa9c 043e ecb6 ea3e
00000130: 1653 e13d 4643 e43d 4de1 e03e ebae 9d3c
00000140: 83ce d3bc b4e5 1e3e c83c 803d fe1a a6be
00000150: 6c58 7abe 5151 28bd a485 813e 3fa6 bf3d
00000160: 068b 833e dd91 b43e d8db cbbc 412a 83be
00000170: 3d37 363e 207e 693e 3cab 7ebe 059d 4c3e
00000180: 8d36 cd3e 36c0 edbe 6ded 113c 7182 0a3e
00000190: 5603 5a3e 63e9 3e3e 6457 093e 96dd 81bd
000001a0: f0c1 cebe 5193 f9bd 468a eb3e 28c7 9c3e
000001b0: 1dde 60bd 6f86 9d3e 1922 a23e f4fc 85be
000001c0: 506b 25bd 8bf9 2f3e f39f 4a3e cfcd b33e
000001d0: ebae 943e 393d 8f3d 2ae4 d6be 3535 ab3d
000001e0: 96a1 de3e b64c 0a3e 7082 bbbd 7e90 523e
000001f0: dc86 db3d de06 24bf b4d6 ccbe 0e91 d33e
00000200: 9502 be3d 3c3c b93c bf41 d03d 361c b1bc
00000210: 72ac 923d 3193 d13e 9e40 d63e 5a83 683e
00000220: 3d1d a73d bb04 533e d741 b6bd 6283 2cbf
00000230: c1a9 e9be 52fd cf3d 2cb2 04bd cf98 a43e
00000240: ed40 a83d e1d7 d0bd c27d 533d 7c4d b53e
00000250: f065 5a3e ae6a d93d 8131 e23d 1752 92bb
00000260: e06a 13bf 2538 31bf 3b66 54bf c8e8 c5be
00000270: d4e4 bb3c 9f6d d13e 3612 7f3e 20db 9f3e
00000280: b16b 053e ad46 d83e 0645 813e 8b72 873e
00000290: ad16 6abd 99fd d6be bbe9 5dbf c24e 03be
000002a0: 8a3b 1dbd 590f 50bf cef5 b6be a9f8 37be
000002b0: e376 703e a0f4 02be 8bdb f23d 6779 553e
000002c0: 869d 093e f3b0 12be 57a3 82be 8142 febe
000002d0: 581b 87bd 55fa 93bd d71d e73d 343c 203e
000002e0: ac8a 35bf 2ab3 f8be 3b13 d1be 863f cbbe
000002f0: 6b7f 9bbe a4b6 7dbe 05c4 21bf 4ae2 11bf
00000300: 9291 eabe fca9 33bd 633c 313e 0df7 3d3d
00000310: dea9 35be 474e 18bf 994b 20bf a305 72bf
00000320: f67f 2fbf 69cd eebe 348f e7be 0d71 69be
00000330: f92c c9be 0b2a 24be 94b5 2e3e 2a3f f6bd
00000340: df47 dc3d d49c dbbd 7409 f4be 7464 e4be
00000350: 90cf 03bf e2a4 3ebf a5a0 73bf 724d 3abf
00000360: 2115 55bf 4d84 3cbf 0fe9 0abe 21de 9ebe
00000370: 6ac2 a1be d7a4 1cbe 444c 7d3e 0183 cc3e
00000380: 5a74 12bf eeb4 0dbf 2c3b 39bf b1e5 a3bf
00000390: 8a89 9abf 822c 1fbf ed42 37bf 2a76 e7bd
000003a0: 2ef5 3dbe 343e 13bc 86cd 943d c879 8b3d
000003b0: 76b0 82be 5ab0 ba3d d173 cebe cf05 38bf
000003c0: f6f9 84bf 4111 bcbf 2184 a4bf e844 9e3c
000003d0: 8c5f 19bf 5cf6 68be 550a 083c 07a7 30bd
000003e0: 0062 f4bd 9034 fe3e c824 fcbd 0b05 d7be
000003f0: f144 fabe e78f 68bf 5b50 6cbf 0342 bcbf

classifier.0.bias f4 [128]
0.2444297 0.005685605 -0.04652907 0.25952035 -0.02912637 0.09808769 -0.053925097 -0.11532155
-0.04226343 -0.011073901 0.059726164 0.26513255 -0.018166002 -0.1482035 -0.26727 -0.03963672
-0.30059955 -0.063263625 -0.5631264 1.5209975 -0.2339139 -1.1184907 0.34879446 0.4437826
-1.5212214 0.5373347 0.5881758 -1.5074215 -0.96632653 1.150985 -0.054983277 -0.4884598
-0.24143122 1.0888315 0.1099532 -0.098507576 -0.2510267 0.0707561 0.81745946 -0.02621708
0.08196029 -0.64030504 -0.24974667 -0.20485929 -0.02729495 0.09257168 0.9218612 0.40062526
0.1909666 -0.13407032 0.7887665 -0.055954844 -0.034078438 -0.029974464 -0.9420558 -0.8229719
-1.584844 -0.28445107 0.27887836 -0.65178454 0.27095485 0.12076414 0.161548 -0.044515815
-0.0395427 0.62095755 0.6591202 -0.12136644 -0.033116993 -0.23645152 0.65085435 0.21948029
-0.022220816 -1.1821197 0.22023319 -0.031140609 1.0341846 0.84784085 -1.1490998 1.1018034
0.004452191 -0.20344758 -0.013993703 -1.3224547 -0.862025 0.16742073 -0.029464355 -0.19204654
-0.049508404 -0.0055161617 -0.18538031 -1.018379 -0.16303061 0.13452487 -0.07498394 0.25612122
-0.033462916 1.0245752 -0.29734156 -0.021703424 0.58198965 1.4897565 0.67495996 -0.26184538
0.58319867 -1.2640704 0.18616925 0.25538358 -1.0099092 0.6122693 -0.053099696 -0.04340962
0.05582783 -0.22359811 -0.056105092 -0.17757821 0.07391703 -0.031467505 0.27883497 1.1093621
-0.046708383 -0.21643573 -0.029708065 -1.4083235 0.10858966 -0.048002034 -1.4679127 -0.14382532
00000000: c74b 7a3e 504e ba3b 4495 3ebd dadf 843e
00000010: 6d9a eebc 33e2 c83d 90e0 5cbd b42d ecbd
00000020: 6b1c 2dbd 4f6f 35bc 6ca3 743d 74bf 873e
00000030: ded0 94bc a9c2 17be 9dd7 88be 1d5a 22bd
00000040: 2fe8 99be 5c90 81bd 0d29 10bf 0cb0 c23f
00000050: 2087 6fbe b42a 8fbf 3095 b23e 7937 e33e
00000060: 62b7 c2bf c48e 093f b092 163f 30f3 c0bf
00000070: 2d61 77bf 7a53 933f 2536 61bd 6717 fabe
00000080: bf39 77be d55e 8b3f 252f e13d 57be c9bd
00000090: 9286 80be 93e8 903d 0645 513f 34c5 d6bc
000000a0: ccda a73d 08eb 23bf 97bd 7fbe a2c6 51be
000000b0: a999 dfbc 3996 bd3d 18ff 6b3f c11e cd3e
000000c0: c08c 433e bb49 09be 9aec 493f e830 65bd
000000d0: d595 0bbd 028d f5bc 922a 71bf 49ae 52bf
000000e0: 2bdc cabf 92a3 91be 25c9 8e3e 5adb 26bf
000000f0: 98ba 8a3e 3053 f73d d76c 253e 3756 36bd
00000100: 87f7 21bd 13f7 1e3f 1abc 283f f88e f8bd
00000110: afa5 07bd 5920 72be 649e 263f 71bf 603e
00000120: 6e08 b6bc b34f 97bf cf84 613e 971a ffbc
00000130: 2960 843f 190c 593f b415 93bf e507 8d3f
00000140: afe3 913b 9054 50be d845 65bc 3246 a9bf
00000150: acad 5cbf 5770 2b3e 3b5f f1bc d9a7 44be
00000160: 53c9 4abd ebc0 b4bb 56d4 3dbe 3e5a 82bf
00000170: 7ff1 26be e3c0 093e 2e91 99bd 5222 833e
00000180: 6910 09bd 4825 833f 273d 98be 61cb b1bc
00000190: 46fd 143f 57b0 be3f 2dca 2c3f 9910 86be
000001a0: 824c 153f 0fcd a1bf 27a3 3e3e a3c1 823e
000001b0: b444 81bf aebd 1c3f 117f 59bd 49ce 31bd
000001c0: b9ab 643d e7f6 64be 74ce 65bd 10d7 35be
000001d0: d061 973d 12e4 00bd 75c3 8e3e 94ff 8d3f
000001e0: 4a51 3fbd 54a1 5dbe 545e f3bc f243 b4bf
000001f0: 4164 de3d c89d 44bd 90e4 bbbf f246 13be

classifier.3.weight f4 [2, 128]
0.26308239 0.1622879 0.13587765 0.12126584 -0.1622563 -0.040853463 0.18029678 0.10509868
-0.018058054 0.18695445 0.11952469 0.08757103 5.8606893e-05 0.04800869 0.07391098 -0.05917268
-0.09126159 0.16888247 -0.07461053 -0.2074796 -0.22389628 0.3038975 0.09659377 0.062003866
-0.048206437 -0.14220977 -0.14516245 0.005137251 0.11786071 -0.10624203 0.02323579 -0.07166006
0.012605481 -0.21818337 0.10786036 0.11928261 -0.24373698 0.10804813 -0.02529024 0.19863284
0.22643663 -0.0020728575 0.2294138 -0.11600241 0.14419554 -0.15111256 -0.1565131 -0.14982565
0.07481071 -0.03128509 0.27107927 0.17078498 -0.0056447866 0.03496245 0.015142383 -0.072347805
-0.07127554 0.029337663 0.10256454 -0.14448117 0.11531565 0.08506084 0.097624294 0.05024196
-0.05694423 0.0548636 0.036891606 -0.06682871 0.08850301 0.1356812 0.2318838 0.00882146
-0.011293793 -0.02759229 0.14809377 -0.17044447 -0.03895904 -0.069723874 -0.12148594 -0.029989589
0.006978206 0.13830307 -0.1026615 0.023593478 -0.0014345299 -0.034850147 0.16563675 0.018227832
0.014215097 -0.17946525 -0.054426927 0.12393424 0.1069927 -0.102573745 -0.18584257 -0.2349246
-0.07664495 -0.1779893 0.23028809 0.07212795 0.030263554 0.065920666 0.036797043 0.04676037
-0.13123885 -0.22132096 0.16435482 0.1614312 -0.052902095 -0.11182613 0.13502483 0.070079125
-0.07478023 0.07664303 -0.07647263 -0.01457082 0.11003644 0.16913971 -0.08560387 -0.07441476
0.01387333 0.10106062 0.09050413 -0.13305862 0.07998037 0.014707253 0.10060642 0.057925094
-0.07740193 0.025674626 0.078549154 0.007204764 -0.08520281 0.18112153 0.043737587 -0.036857344
-0.08659641 0.027502494 -0.08127767 -0.056876514 -0.19748673 -0.12637447 -0.3560989 0.14574693
-0.05183223 0.07312654 0.09932938 0.0341776 0.07194084 -0.28457105 -0.061682004 -0.06545184
0.029104497 0.028253585 0.14993925 0.065452516 -0.028049126 0.123230785 0.1270424 -0.2728192
-0.15435188 -0.013534844 0.19159667 0.17446098 -0.089632586 -0.034456726 -0.18855734 -0.029344842
0.1074388 -0.11997627 -0.4154367 0.1288034 -0.098447904 -0.03462314 -0.13254389 0.1519096
0.33711088 0.10660649 0.08309232 0.004369611 -0.07926713 -0.14823502 0.07216128 0.07955539
-0.022660373 -0.11952971 -0.08474647 0.1651135 -0.15122402 -0.10356748 -0.072086036 0.010209326
-0.030700553 -0.123398475 -0.21380648 -0.22810324 0.060235817 -0.02971756 0.07153024 -0.13003235
-0.027173651 0.08579592 0.03519757 -0.122917555 0.19504459 0.20904785 -0.062430006 0.1533037
-0.13999562 -0.26950437 -0.14274551 0.11145334 -0.050592262 -0.16937274 -0.05727472 0.11005228
-0.0022071383 0.13519226 -0.012178649 0.17554407 -0.13458249 0.13924062 -0.12040275 0.17107154
-0.13436285 0.11452272 0.10714081 0.08735154 -0.15341389 0.24961957 0.12060089 -0.087532416
0.24000598 -0.061747834 -0.054726373 -0.38649037 0.047667626 0.13762964 0.045859464 -0.17868337
0.09723634 -0.051955216 -0.24885686 -0.16435924 -0.04214544 0.005806951 -0.160431 -0.23151779
-0.06603969 -0.11904354 0.08615198 -0.09276048 -0.21349439 -0.1035592 0.16381909 -0.115701005
00000000: bcb2 863e cd2e 263e 8323 0b3e 3a5a f83d
00000010: 8426 26be f655 27bd b89f 383e fa3d d73d
00000020: 7cee 93bc fd70 3f3e 5cc9 f43d 7158 b33d
00000030: acd0 7538 c3a4 443d a45e 973d 0d5f 72bd
00000040: 5be7 babd 87ef 2c3e 68cd 98bd 8875 54be
00000050: 1145 65be 7498 9b3e f4d2 c53d c4f7 7d3d
00000060: 1d74 45bd 709f 11be 77a5 14be 6356 a83b
00000070: f560 f13d 6c95 d9bd fc58 be3c 82c2 92bd
00000080: 3887 4e3c 766b 5fbe e4e5 dc3d 714a f43d
00000090: 3096 79be 5748 dd3d 7a2d cfbc 6866 4b3e
000000a0: 01df 673e c7d8 07bb 74eb 6a3e ac92 edbd
000000b0: ffa7 133e 40bd 1abe f844 20be e56b 19be
000000c0: 5c36 993d cb24 00bd e7ca 8a3e 42e2 2e3e
000000d0: e7f7 b8bb c934 0f3d c217 783c 162b 94bd
000000e0: e9f8 91bd 8a55 f03c 5c0d d23d dff2 13be
000000f0: 9d2a ec3d 6134 ae3d 3fef c73d 83ca 4d3d
00000100: 5a3e 69bd a7b8 603d a71b 173d 7edd 88bd
00000110: 1141 b53d 03f0 0a3e f272 6d3e e387 103c
00000120: 9a09 39bc 3a09 e2bc e5a5 173e ff88 2ebe
00000130: 8493 1fbd 64cb 8ebd 9fcd f8bd baac f5bc
00000140: 6fa9 e43b 529f 0d3e 3140 d2bd 1c47 c13c
00000150: d606 bcba 07bf 0ebd ae9c 293e 8952 953c
00000160: 70e6 683c bdc5 37be c5ee 5ebd 3cd1 fd3d
00000170: fd1e db3d 2f12 d2bd 844d 3ebe 1390 70be
00000180: 07f8 9cbd d442 36be a4d0 6b3e d2b7 933d
00000190: 46eb f73c 6a01 873d 7fb8 163d cd87 3f3d
000001a0: 7a63 06be f6a1 62be a14c 283e 384e 253e
000001b0: deaf 58bd 1905 e5bd f343 0a3e a585 8f3d
000001c0: 6126 99bd 05f7 9c3d af9d 9cbd 73ba 6ebc
000001d0: c95a e13d f632 2d3e 1551 afbd c466 98bd
000001e0: f74c 633c dff8 ce3d 3b5a b93d 8540 08be
000001f0: c0cc a33d b1f6 703c bd0a ce3d dd42 6d3d
00000200: e784 9ebd 9853 d23c 61de a03d f115 ec3b
00000210: d07e aebd ec77 393e 2f26 333d baf7 16bd
00000220: 7559 b1bd e94c e13c e874 a6bd 59f7 68bd
00000230: f639 4abe 4f68 01be 9852 b6be af3e 153e
00000240: 084e 54bd 5ec3 953d 346d cb3d d0fd 0b3d
00000250: b855 933d 4cb3 91be 45a6 7cbd 9d0b 86bd
00000260: 8e6c ee3c 1074 e73c ad89 193e f80b 863d
00000270: 48c7 e5bc 6c60 fc3d 6717 023e f5ae 8bbe
00000280: 6b0e 1ebe 40c1 5dbc eb31 443e e6a5 323e
00000290: 4a91 b7bd 7f22 0dbd 2d15 41be 9864 f0bc
000002a0: e008 dc3d 1eb6 f5bd 1fb4 d4be 0ae5 033e
000002b0: 0e9f c9bd fed0 0dbd 96b9 07be 318e 1b3e
000002c0: cc99 ac3e 8154 da3d 4e2c aa3d f42e 8f3b
000002d0: ce56 a2bd ecca 17be 4bc9 933d f0ed a23d
000002e0: 3fa2 b9bc fecb f4bd 8f8f adbd 8313 293e
000002f0: 78da 1abe 301b d4bd d8a1 93bd 0445 273c
00000300: ba7f fbbc 57b8 fcbd 16f0 5abe e593 69be
00000310: d5b9 763d 3e72 f3bc 727e 923d 3327 05be
00000320: 479b debc c5b5 af3d 542b 103d 33bc fbbd
00000330: c5b9 473e a410 563e 9bb6 7fbd a5fb 1c3e
00000340: 035b 0fbe 7afc 89be e12b 12be a641 e43d
00000350: d539 4fbd 0c70 2dbe e698 6abd 1763 e13d
00000360: a3a5 10bb d76f 0a3e f588 47bc d3c1 333e
00000370: fecf 09be 1895 0e3e b895 f6bd 612d 2f3e
00000380: 6a96 09be e38a ea3d a46c db3d 5de5 b23d
00000390: 8818 1dbe 469c 7f3e 99fd f63d 3244 b3bd
000003a0: 21c4 753e 4ceb 7cbd c328 60bd 11e2 c5be
000003b0: 213f 433d c9ee 0c3e 22d7 3b3d c6f8 36be
000003c0: d923 c73d fece 54bd 55d4 7ebe ca4d 28be
000003d0: b2a0 2cbd 3c48 be3b 0648 24be 0013 6dbe
000003e0: d13f 87bd 19cd f3bd 7370 b03d 35f9 bdbd
000003f0: 469e 5abe d916 d4bd 31c0 273e a6f4 ecbd

classifier.3.bias f4 [2]
-0.39510837 0.39510798
00000000: a54b cabe 984b ca3e
