Pretrained_cnn/main/saved_ckpt/best_model_epoch_58.pt (torch, 835296 bytes, 10 tensors)

features.0.weight f4 [32, 3, 3, 3]
0	0x3e252d68	0.16130602
1	0x3d53161c	0.051534757
2	0x3e2a4805	0.16629036
3	0x3e3100cb	0.17285459
4	0xbe1dfe48	-0.15429032
5	0xbedafb21	-0.4276972
6	0x3e0d1389	0.13776983
7	0xbe95d484	-0.292637
8	0xbf0d31bf	-0.5515403
9	0x3e6d4357	0.2317022
10	0x3e852ae7	0.26009294
11	0x3e714649	0.23561968
12	0x3e30b0a0	0.17254877
13	0xbd5f040b	-0.054447215
14	0xbe910209	-0.28321865
15	0x3d52a73f	0.05142903
16	0xbe9f49dd	-0.3111104
17	0xbed32beb	-0.41244444
18	0x3eb397de	0.35076803
19	0x3ea8dc0a	0.32980376
20	0x3dc4cc75	0.096093096
21	0x3e4c6777	0.19961344
22	0x3ddaba73	0.106800936
23	0xbe984d37	-0.2974641
24	0x3e2c0a0a	0.16800705
25	0xbe717884	-0.2358113
26	0xbeeb7416	-0.45987004
27	0xbd8e01c3	-0.0693393
28	0xbe0e8c5d	-0.13920732
29	0xbebdc808	-0.37066674
30	0xbe86062c	-0.26176584
31	0xbe03de00	-0.12877655
32	0x3e28b38b	0.1647474
33	0x3e7480cb	0.23877256
34	0xbe2ae37e	-0.16688344
35	0xbe441d75	-0.19151862
36	0xbe97cf93	-0.29650554
37	0xbe0865f4	-0.13320142
38	0xbe4ce2c8	-0.20008385
39	0xbe7bb33e	-0.24580094
40	0xbe852ba5	-0.2600986
41	0xbe5180a2	-0.20459226
42	0x3e3c1e5a	0.18370953
43	0xbec150e9	-0.37757042
44	0xbde5165c	-0.11185905
45	0xbe97bf07	-0.2963793
46	0xbf010b90	-0.5040827
47	0xbf0593da	-0.5217873
48	0xbf0ff5b4	-0.5623429
49	0xbed455d3	-0.4147173
50	0xbecd1a15	-0.40058962
51	0x3e5abdc4	0.21361452
52	0xbef575a0	-0.47941303
53	0xbe8a452e	-0.27005905
54	0x3eb85877	0.36004993
55	0x3e4ca2a8	0.19983923
56	0x3d089794	0.03334768
57	0x3dafedcc	0.08590278
58	0x3df61c4d	0.12017117
59	0x3dbe97a3	0.09306266
60	0x3e1d306e	0.15350506
61	0xbd5a502f	-0.053299125
62	0x3cfea764	0.031085677
63	0x3e8cfebd	0.275381
64	0xbe61fd72	-0.22069338
65	0xbead2385	-0.33816162
66	0xbcf09a88	-0.029370561
67	0xbe97c25f	-0.2964048
68	0xbe202085	-0.15637405
69	0xbe2ded26	-0.16984996
70	0xbdc0ee5d	-0.09420464
71	0xbe3fd860	-0.18734884
72	0xbe3eca10	-0.18631768
73	0xbf15575e	-0.58336437
74	0xbf018dbb	-0.5060689
75	0xbe1c205e	-0.15246722
76	0xbea55673	-0.32292518
77	0xbef8851d	-0.48539057
78	0xbe62fa7f	-0.22165869
79	0xbf2aed59	-0.66768414
80	0xbedd816a	-0.43262798
81	0xbe73bfb6	-0.238036
82	0xbe4264fc	-0.18983835
83	0xbe479035	-0.19488604
84	0xbe891a50	-0.26777887
85	0xbe4de656	-0.20107397
86	0xbe3ed039	-0.18634118
87	0xbe7d6804	-0.2474671
88	0xbdd6a398	-0.10480422
89	0xbd04f609	-0.0324612
90	0x3e61a175	0.22034247
91	0x3ea5b740	0.3236637
92	0x3ebeb441	0.37246898
93	0x3ec11b8c	0.3771633
94	0x3e9e5006	0.30920428
95	0x3ed2b797	0.41155693
96	0x3ec9386c	0.3930086
97	0x3e97e262	0.29664904
98	0x3e45a0fe	0.19299695
99	0xbd8e7b40	-0.06957102
100	0xbe3bf92b	-0.18356769
101	0xbe183bf3	-0.14866619
102	0xbe10202e	-0.14074776
103	0xbe04cf7b	-0.12969773
104	0xbe215342	-0.15754417
105	0xbdbaecb9	-0.091271825
106	0xbdc182b0	-0.09448755
107	0xbd251733	-0.040305328
108	0x3e4baa6a	0.19889227
109	0x3e6a8c49	0.22905077
110	0x3e9411a6	0.28919715
111	0x3e5e1cf8	0.21690738
112	0x3ec0497e	0.3755607
113	0x3e62adba	0.22136584
114	0x3e68c3cf	0.22730945
115	0x3e098a73	0.1343172
116	0x3bfd5977	0.0077316123
117	0x3e7eae82	0.24871257
118	0x3d00d3d5	0.03145202
119	0x3eab3ff0	0.33447218
120	0xbcdfe9c1	-0.027333142
121	0xbd233438	-0.03984472
122	0x3dadf876	0.08494656
123	0xbd5f223f	-0.05447602
124	0xbe1c0b96	-0.15238795
125	0xbe417a3d	-0.18894286
126	0xbe9665b3	-0.29374465
127	0xbe8a9d0e	-0.27072948
128	0xbde77708	-0.11302
129	0xbe2c3af4	-0.16819364
130	0xbe16b085	-0.14715774
131	0xbcbd8e15	-0.023139039
132	0xbe2cd6a5	-0.16878755
133	0xbe978c66	-0.29599303
134	0xbec392dd	-0.38197985
135	0xbf0006a1	-0.50010115
136	0xbe4cd77c	-0.20004076
137	0x3e58d484	0.21174818
138	0xbe5c969f	-0.21541832
139	0xbddf0512	-0.10889639
140	0x3e4bc2c7	0.1989852
141	0x3d18b033	0.03727741
142	0x3e1e0af5	0.15433867
143	0x3e81e033	0.25366363
144	0xbebff4f3	-0.3749157
145	0xbd63400d	-0.055481005
146	0x3d8dfcba	0.069329694
147	0xbe27ac53	-0.1637433
148	0xbe25c846	-0.1618968
149	0x3ea1080f	0.3145146
150	0x3dbaa451	0.09113372
151	0x3e706530	0.234761
152	0x3e9d284a	0.306948
153	0xbf01135c	-0.50420165
154	0xbe34a518	-0.17641103
155	0x3d8f18e5	0.0698717
156	0xbee6b946	-0.45063227
157	0xbdfaa708	-0.1223889
158	0x3e77919a	0.24176636
159	0x3e1f09c2	0.15531066
160	0x3e6d44f6	0.23170838
161	0x3e96e409	0.29470852
162	0xbe3c0d4c	-0.18364447
163	0xbe8198e2	-0.25311953
164	0xbdea6df5	-0.11446754
165	0xbe859ea9	-0.2609761
166	0xbec1be52	-0.37840515
167	0x3d54b26d	0.051927973
168	0xbe692619	-0.2276844
169	0xbe94844c	-0.29007185
170	0xbe571e3d	-0.21007629
171	0xbe4638f1	-0.19357659
172	0xbd943c0a	-0.07238014
173	0x3da52050	0.08062804
174	0xbe426c5c	-0.18986648
175	0xbdcdfde4	-0.100581914
176	0x3e00b6de	0.12569758
177	0xbe04a9f3	-0.12955455
178	0xbe8a21a3	-0.26978788
179	0x3ccf6131	0.0253149
180	0xbddd051f	-0.107919924
181	0xbd441855	-0.047874767
182	0xbe6fa05b	-0.23401015
183	0xbcec73d8	-0.028863832
184	0xbe2dbc35	-0.16966327
185	0x3c9e0b8b	0.019292613
186	0xbe4c0712	-0.19924572
187	0xbe4341ab	-0.19068019
188	0xbe00e95e	-0.12589023
189	0xbe1f9356	-0.15583548
190	0x3e137946	0.14401731
191	0xbdc3e019	-0.095642276
192	0xbe3fce0f	-0.18730949
193	0xbe538268	-0.20655215
194	0xbf050970	-0.51967525
195	0x3d9a3397	0.07529371
196	0xbdbea2a3	-0.09308364
197	0x3e121968	0.14267504
198	0x3e31b697	0.17354809
199	0x3e89527f	0.26820752
200	0xbde24e9e	-0.11050151
201	0x3d289102	0.041153915
202	0xbd8d6273	-0.06903543
203	0xbea89a9f	-0.32930467
204	0x3d1a71d4	0.03770621
205	0x3e45fc52	0.19334534
206	0x3ea5b134	0.32361758
207	0x3e282155	0.16418965
208	0x3e87b0ee	0.26502174
209	0xbdbf6695	-0.09345738
210	0x3e2f272e	0.1710479
211	0xbdcefdae	-0.10106979
212	0xbeff940c	-0.49917638
213	0x3e6bd6a2	0.23031095
214	0x3dbb6734	0.09150544
215	0x3d384186	0.044984363
216	0x3e403a27	0.18772183
217	0x3e247447	0.16059981
218	0x3dec34ff	0.11533546
219	0x3e5c8a53	0.21537142
220	0x3de37ef5	0.111081995
221	0x3e120437	0.1425942
222	0x3ddadb54	0.10686365
223	0x3dbfa728	0.093580544
224	0x3d496e6a	0.049177565
225	0xbdf03625	-0.11729077
226	0xbd2d812d	-0.04235952
227	0xbe84b360	-0.25918102
228	0xbe569e58	-0.20958841
229	0xbec180e8	-0.3779366
230	0xbe86edfb	-0.2635344
231	0xbe4a7416	-0.19770846
232	0xbe0b9659	-0.13631572
233	0xbd0ba500	-0.034092903
234	0xbda059ec	-0.07829651
235	0xbe3f75f9	-0.18697347
236	0xbe6e2caa	-0.23259225
237	0xbdead2f6	-0.11466019
238	0xbeb6c347	-0.3569586
239	0xbdcd4ac6	-0.100240275
240	0x3bbe1c1e	0.0058016917
241	0xbe1ca1d7	-0.15296112
242	0xbe9a87d9	-0.3018177
243	0xbf919cd3	-1.1375984
244	0x3e0bbdf1	0.13646676
245	0xbd98b4cc	-0.07456359
246	0xbf87532f	-1.0572261
247	0xbf987197	-1.1909665
248	0x3d09875e	0.03357636
249	0xbfc234e9	-1.5172397
250	0xbfb76d32	-1.4330199
251	0x3db9ee00	0.09078598
252	0xbfa63af1	-1.2986737
253	0xbc3fd8ab	-0.0117093725
254	0xbe127e9e	-0.14306113
255	0xbf75553c	-0.9583318

features.0.bias f4 [32]
0	0xbd6e4145	-0.058167715
1	0xbdd965a7	-0.10615092
2	0xbc4eb97e	-0.012617467
3	0xbe68dc16	-0.22740206
4	0xbdba631d	-0.091009356
5	0xbe0540aa	-0.13012949
6	0xbe07b0c7	-0.13251029
7	0xbce21737	-0.02759896
8	0xbb51e954	-0.0032029944
9	0x3e314330	0.17310786
10	0xbbaaefac	-0.0052165594
11	0xbe92fde4	-0.28709328
12	0xbea6786d	-0.32513753
13	0xbe8dcb64	-0.27694237
14	0x3be37ee5	0.0069426172
15	0xbe3f6d99	-0.18694152
16	0x3ea8eebb	0.32994637
17	0xbdf587f5	-0.11988822
18	0xbd980f44	-0.07424787
19	0xbe8f7667	-0.2802002
20	0xbd79b8c3	-0.060967218
21	0xbf204704	-0.6260836
22	0xbe9e679a	-0.30938417
23	0xbe549440	-0.20759678
24	0x3da4aa3e	0.080402836
25	0xbda16e4b	-0.07882365
26	0x3afe653c	0.0019408832
27	0xbceb79db	-0.028744629
28	0xbd50bf61	-0.050963763
29	0xbd715fdf	-0.05892932
30	0xbb317372	-0.0027076867
31	0xbe979eec	-0.29613435

features.3.weight f4 [16, 32, 3, 3]
0	0xbe4f7654	-0.20259982
1	0xbeb2e046	-0.34936732
2	0x3d878c16	0.06618516
3	0xbe954b23	-0.29158887
4	0xbe950240	-0.2910328
5	0xbe1e1ed6	-0.1544145
6	0xbd27043b	-0.04077552
7	0x3da8eda9	0.08248455
8	0xbe0e4d93	-0.1389678
9	0x3dc6040c	0.09668741
10	0x3d7379c8	0.05944231
11	0xbe9c53e4	-0.30532753
12	0xbdcb90b4	-0.09939709
13	0x3de7a4e9	0.11310751
14	0x3e848e6a	0.25889903
15	0xbde72688	-0.11286646
16	0x3cbf6d32	0.023367498
17	0xbb0b60f7	-0.0021267512
18	0xbe462cca	-0.19353023
19	0x3b50e0c0	0.0031872243
20	0xbe9b5a87	-0.30342504
21	0xbdafc7aa	-0.08583005
22	0xbd539e55	-0.05166467
23	0xbe48a419	-0.19593848
24	0xbe3f522d	-0.18683691
25	0xbeb20ff3	-0.34777793
26	0xbd8673f2	-0.065650836
27	0x3f25636a	0.6460482
28	0x3ecdc8f4	0.40192378
29	0x3cb90898	0.022587106
30	0x3f0d86de	0.55283916
31	0x3d7b7428	0.061390072
32	0xbecdab28	-0.40169644
33	0x3ed87000	0.4227295
34	0xbe017efd	-0.12646098
35	0xbf4838b2	-0.7821151
36	0xbf3c1488	-0.7346883
37	0xbed809de	-0.42195028
38	0x3e225b95	0.15855248
39	0xbefcbdc1	-0.4936352
40	0x3dcae35c	0.099066466
41	0x3eea3661	0.45744613
42	0xbe8f838b	-0.28030047
43	0x3f012320	0.5044422
44	0x3f57a376	0.84233797
45	0xbba591c5	-0.0050527775
46	0xbc7a2001	-0.015266419
47	0xbe5c8065	-0.21533354
48	0xbe5f7073	-0.2182024
49	0xbdd62b69	-0.104574986
50	0xbe161065	-0.14654692
51	0xbf1238c8	-0.5711789
52	0xbef931f0	-0.48670912
53	0xbe780754	-0.24221545
54	0x3e0910cf	0.13385318
55	0xbbea4dcd	-0.007150388
56	0xbd317a20	-0.043329358
57	0x3e90052b	0.28128943
58	0xbdefdddc	-0.11712238
59	0xbe035727	-0.12826215
60	0x3dbe899b	0.0930359
61	0xbd2cebcb	-0.042217057
62	0xbe1198d7	-0.1421846
63	0x3f0db1ad	0.55349237
64	0x3c43e418	0.011956237
65	0xbc7e2723	-0.015512261
66	0x3d8141e8	0.06311399
67	0xbe80cb49	-0.25155094
68	0xbe833872	-0.25629002
69	0x3ccacbf3	0.024755454
70	0xbe3e77d7	-0.18600403
71	0xbe95c786	-0.29253787
72	0xbec42dfc	-0.38316333
73	0xbeea7848	-0.45794892
74	0xbdddd741	-0.10832072
75	0xbef0f079	-0.47058466
76	0xbeaed584	-0.34147274
77	0xbe268f36	-0.16265568
78	0xbee74309	-0.4516833
79	0xbd8f9bce	-0.07012139
80	0x3e23907d	0.15973087
81	0xbec8adb5	-0.39195028
82	0xbf6d23a7	-0.92632526
83	0xbec39e75	-0.3820683
84	0xbec77d47	-0.38962767
85	0xbe89cf19	-0.26915815
86	0xbe977c91	-0.29587224
87	0xbc8d81d1	-0.017273815
88	0xbeb88b93	-0.36043987
89	0xbe66ecf8	-0.22551334
90	0x3e0e96c3	0.13924699
91	0xbd97229c	-0.07379648
92	0x3e0d39c6	0.1379157
93	0x3c9bc595	0.019015113
94	0xbdfde09d	-0.12396357
95	0xbe1f22af	-0.15540574
96	0x3e02a132	0.12756804
97	0xbd238d81	-0.03992987
98	0xbe1c1a7e	-0.15244481
99	0xbe1c829d	-0.152842
100	0xbd4d692f	-0.05014914
101	0xbc9809a4	-0.018559285
102	0x3de1be67	0.110226445
103	0x3d952288	0.07281977
104	0xbc98ee9f	-0.01866847
105	0x3e872d1c	0.26401603
106	0x3dc5b20a	0.09653099
107	0x3e8b3e86	0.2719614
108	0xbef1ede0	-0.47251797
109	0xbed6e2f5	-0.4197003
110	0xbec8a351	-0.391871
111	0x3d945811	0.0724336
112	0x3dd92808	0.106033385
113	0x3e357a8f	0.17722534
114	0x3cb22fd2	0.021751318
115	0x3d2e88a0	0.042610765
116	0x3e63dda9	0.22252525
117	0xbdbd32c1	-0.09238196
118	0xbd54254e	-0.05179339
119	0xbd9297a0	-0.071578264
120	0x3db9ed49	0.09078462
121	0x3e301af6	0.17197785
122	0x3e95c38d	0.29250756
123	0xbd222a30	-0.039591014
124	0xbe48a8c6	-0.19595632
125	0xbc0b94a5	-0.008519326
126	0x3e6af123	0.22943549
127	0x3d48b8e9	0.04900447
128	0xbc382370	-0.011238918
129	0x3ebc5be2	0.3678885
130	0xbcb11c83	-0.02162004
131	0xbea39544	-0.31949818
132	0x3e8c3a4d	0.2738823
133	0x3cc517f3	0.024059271
134	0xbedbfcec	-0.42966402
135	0x3df3119b	0.11868592
136	0x3d5388f8	0.051644295
137	0xbea6be9a	-0.32567292
138	0xbd83563f	-0.064129345
139	0x3d1af5b6	0.037831984
140	0x3c3db1c5	0.011578028
141	0x3e8a65ba	0.27030736
142	0x3d47ec51	0.048809353
143	0xbcc1371f	-0.023585854
144	0xbe64445a	-0.22291699
145	0xbdf1c0c5	-0.11804346
146	0x3d2ea641	0.04263902
147	0x3ef1dda2	0.47239405
148	0x3e57fdd1	0.21092917
149	0x3e357a10	0.17722344
150	0x3e9e1988	0.30878854
151	0xbc78dfbe	-0.015190063
152	0xbd57ea97	-0.052713957
153	0xbeb44f2e	-0.3521666
154	0xbe6a4b0a	-0.22880188
155	0xbdfa4253	-0.122196816
156	0xbe532180	-0.20618248
157	0x3c65f584	0.014035586
158	0x3e66e1ac	0.22547024
159	0xbeb38062	-0.35058886
160	0x3d711711	0.05885989
161	0x3eb00106	0.3437578
162	0x3d4fe5c6	0.05075624
163	0x3e164881	0.14676096
164	0x3dcc0bdb	0.09963199
165	0x3e00d7dd	0.12582345
166	0xbe1b0a07	-0.15140544
167	0xba859d63	-0.0010194
168	0xbd2f9fba	-0.042876936
169	0xbe8a0670	-0.26958036
170	0xbddef9c9	-0.108874865
171	0x3e8a0f05	0.26964584
172	0xbd0f16ca	-0.034933843
173	0xbd69a02e	-0.057037525
174	0x3e347316	0.17622027
175	0x3e64d016	0.22345003
176	0x3cab10cc	0.020882033
177	0xbe408328	-0.18800032
178	0x3d55aa3c	0.0521643
179	0x3d90ca1d	0.070698
180	0xbea4f140	-0.3221531
181	0xbef00bd9	-0.4688404
182	0xbe8ba2d5	-0.27272668
183	0xbca4625f	-0.020066438
184	0x3d1f48e2	0.038887866
185	0x3d682a93	0.056681227
186	0x3df33aac	0.11876425
187	0x3dcaac7e	0.098961815
188	0x3edd629f	0.43239304
189	0x3deadcb0	0.11467874
190	0xbe0d9e69	-0.1382996
191	0xbe391764	-0.18075329
192	0x3ebe7f19	0.37206343
193	0xbd1d1aa2	-0.038355477
194	0xbe86b145	-0.2630712
195	0x3e1307ca	0.1435844
196	0xbd8cdde9	-0.068782635
197	0xbde2537c	-0.1105108
198	0xbecaf482	-0.3963967
199	0xbe3a4eee	-0.18194172
200	0xbe67ae4e	-0.22625086
201	0xbd8d536e	-0.069006786
202	0xbe80e4f4	-0.25174677
203	0xbe2c322e	-0.16816017
204	0xbed6eff6	-0.4197995
205	0xbec79228	-0.38978696
206	0x3d1e482d	0.03864305
207	0x3e60b540	0.21944141
208	0x3e506a17	0.2035297
209	0xbddf9e2a	-0.10918839
210	0x3e6dd6b6	0.23226437
211	0xbe59b0ad	-0.21258803
212	0xbd8d0f5e	-0.06887697
213	0xbe20c2c2	-0.15699294
214	0xbeaad3b5	-0.33364645
215	0xbe818c24	-0.2530223
216	0xbe549264	-0.20758969
217	0xbe1a1242	-0.15046027
218	0xbd1f03c8	-0.038821965
219	0xbe03dd95	-0.12877496
220	0xbddf2837	-0.10896342
221	0xbd4a60e4	-0.04940881
222	0x3d5643fb	0.052310925
223	0xbe0cc14e	-0.13745615
224	0x3d85bb90	0.06529915
225	0xbf41dea6	-0.7573036
226	0xbe1ae476	-0.15126213
227	0x3e5e4fe5	0.21710165
228	0xbf245804	-0.641968
229	0x3e8a1cbc	0.26975048
230	0x3f4b214f	0.793477
231	0xbf162372	-0.58647835
232	0x3f0e0ae8	0.5548539
233	0x3f449af4	0.7679894
234	0xbf3da240	-0.740757
235	0xbe92fe26	-0.28709525
236	0xbef2e5b8	-0.47440886
237	0xbecddd35	-0.4020783
238	0x3b099749	0.0020994714
239	0xbce5fef9	-0.028075682
240	0xbf0c201d	-0.547365
241	0xbec02ba3	-0.37533292
242	0xbe83ad41	-0.2571812
243	0x3e08ea55	0.1337064
244	0xbe37cd4d	-0.1794941
245	0x3d539cd5	0.05166324
246	0xbe16d33e	-0.1472902
247	0x3d5dad46	0.054120325
248	0x3e02fbb4	0.1279133
249	0x3d9c9d01	0.076471336
250	0xbe44ca7a	-0.19217864
251	0x3ce763c5	0.028245816
252	0xbe14c17a	-0.1452693
253	0xbe9d43a6	-0.30715674
254	0xbd266a61	-0.040628795
255	0xbdfa992d	-0.12236247

features.3.bias f4 [16]
0	0xbc030d49	-0.007998773
1	0x3e1ed0e4	0.15509373
2	0xbda76a44	-0.081745654
3	0x3d0346d7	0.03204998
4	0xbd350cd3	-0.044201683
5	0xbb832e6d	-0.004003337
6	0xbc4b0a3f	-0.01239258
7	0x3caeac89	0.021322506
8	0xbd58ebaf	-0.05295914
9	0xbd940042	-0.07226612
10	0xbcdb570d	-0.026774907
11	0xbe6e2486	-0.2325612
12	0x3d005faa	0.031341232
13	0xbe8c3391	-0.27383092
14	0x3d6ba852	0.05753357
15	0xbd9a1871	-0.07524193

features.6.weight f4 [8, 16, 3, 3]
0	0xbe2f574d	-0.17123146
1	0x3db658d2	0.0890366
2	0x3b8b3041	0.0042476957
3	0x3b8153d1	0.0039467593
4	0x3d915988	0.07097155
5	0x3a80a3b6	0.0009814415
6	0xbd3c9dfd	-0.046049107
7	0xbd6658c1	-0.056236986
8	0xbc763540	-0.015027344
9	0x3d17c8d0	0.037056744
10	0x3c747c69	0.01492224
11	0x3d90a690	0.07063019
12	0x3d43c9e2	0.047799952
13	0x3ebc2845	0.36749473
14	0x3e68a6ca	0.22719875
15	0x3d00034d	0.031253148
16	0x3e8718b0	0.26386023
17	0x3ea966aa	0.3308614
18	0xbd164f39	-0.036696646
19	0x3c358e4d	0.01108129
20	0xbc90b596	-0.017664712
21	0x3d8415e5	0.064494886
22	0xbe2b0664	-0.16701657
23	0x3e04c6e9	0.12966503
24	0x3dd38854	0.10328737
25	0x3cdeacf7	0.027182085
26	0xbd2423c5	-0.040073175
27	0xbd854f2c	-0.065092415
28	0xbe7dab74	-0.24772435
29	0xbdd86177	-0.10565465
30	0xbe16153d	-0.1465654
31	0x3d241c71	0.040066186
32	0x3db77b43	0.08959057
33	0x3be50842	0.00698951
34	0x3df9775b	0.121809684
35	0x3e32376e	0.17403957
36	0xbe2f2eaf	-0.17107652
37	0xbd20075f	-0.03906953
38	0x3da4279d	0.08015368
39	0xbe1c5ba9	-0.1526934
40	0x3d244d1f	0.04011261
41	0x3e1a9caa	0.15098825
42	0x3c10bafa	0.008833641
43	0x3d13d12e	0.03608816
44	0x3e533f1f	0.20629548
45	0x3c75c1fd	0.014999864
46	0xbb9e5ae9	-0.0048326147
47	0xbdaf57c6	-0.08561663
48	0xbe9aee55	-0.30259958
49	0xbf1c26f0	-0.60996914
50	0xbf11870c	-0.5684669
51	0xbceb702e	-0.028740015
52	0xbe4e0965	-0.20120771
53	0xbeffd020	-0.49963474
54	0x3dbde0c1	0.09271384
55	0xbe2b1a5b	-0.16709273
56	0x3e6e039c	0.23243564
57	0xbea2112a	-0.3165372
58	0xbe53cf09	-0.20684446
59	0x3cbe1620	0.02320391
60	0xbd8aac0d	-0.06771097
61	0xbdc24904	-0.09486583
62	0x3ddda783	0.10822966
63	0x3d9bf9a2	0.07615973
64	0xbd9af351	-0.0756594
65	0xbdc93abd	-0.098256566
66	0xbd8ae844	-0.067825824
67	0xbe74d949	-0.23911013
68	0xbc5b6c61	-0.013392539
69	0xbe558af1	-0.20853783
70	0xbe8b7d2b	-0.27243933
71	0xbe8465d1	-0.2585893
72	0xbdf413ea	-0.11917861
73	0xbd158976	-0.036508046
74	0xbe0c1afc	-0.13682169
75	0xbc8fe7ef	-0.01756665
76	0xbdbf1eb3	-0.09332027
77	0x3e02c990	0.12772202
78	0xbd38c3ab	-0.04510848
79	0x3db32e52	0.08749069
80	0x3d86b74b	0.06577929
81	0x3e8dc688	0.2769053
82	0x3e456d73	0.19280033
83	0xbd648580	-0.055791378
84	0x3d179c44	0.03701426
85	0xbe3cfad4	-0.18455058
86	0xbd76b2c0	-0.060229063
87	0xbd863339	-0.06552739
88	0xbecb6f12	-0.39733177
89	0xbd240cf5	-0.04005142
90	0xbcdff6b6	-0.02733932
91	0xbdeaf4f8	-0.11472505
92	0xbdc70087	-0.097168975
93	0xbd03d6c0	-0.032187223
94	0x3d219d93	0.039456915
95	0xbdca46f2	-0.09876813
96	0x3d8ffe9c	0.07030985
97	0xbe187f32	-0.14892271
98	0x3ca80517	0.02051024
99	0xbed088dc	-0.40729415
100	0xbe176292	-0.14783695
101	0x3eda605f	0.4265165
102	0xbea9fea1	-0.3320208
103	0x3dbef174	0.09323397
104	0xbe945bfd	-0.2897643
105	0xbe427e46	-0.18993482
106	0xbe803a2f	-0.2504439
107	0x3d29c546	0.0414479
108	0xbe25ef94	-0.16204673
109	0x3e886a4d	0.266436
110	0x3e85b668	0.26115727
111	0xbe1a6cfd	-0.15080638
112	0x3db1b95b	0.08677932
113	0x3e4efb0d	0.20212956
114	0x3c240457	0.0100108
115	0x3d6b608a	0.057465114
116	0xbe328adf	-0.17435788
117	0x3d927a11	0.071521886
118	0xbe478a68	-0.19486392
119	0x3dc2f698	0.0951969
120	0xbe47bf6f	-0.1950662
121	0x3d5e8d79	0.054334138
122	0xbd042f99	-0.032271955
123	0x3daadd2d	0.08342967
124	0xbe37b19a	-0.17938843
125	0x3e2e7394	0.17036277
126	0xbd9cca9e	-0.07655834
127	0x3dbb2880	0.09138584
128	0xbda36b3e	-0.07979439
129	0xbcdfd509	-0.027323263
130	0xbcd1c8e3	-0.025608486
131	0x3e67fe48	0.22655594
132	0xbdb9d75d	-0.090742804
133	0x3da10b2c	0.07863459
134	0x3e4f6a7d	0.20255466
135	0xbdefe5b4	-0.11713734
136	0x3e36cbf2	0.17851236
137	0x3d8b2392	0.06793894
138	0x3e1db45a	0.1540083
139	0x3e8f1682	0.2794686
140	0xbdb4c3b1	-0.08826388
141	0x3b665410	0.003514532
142	0xbdc0be6e	-0.094113216
143	0xbd9e2abc	-0.07722995
144	0xbe5dd391	-0.21662737
145	0xbd3d1c22	-0.046169408
146	0x3e91a120	0.2844324
147	0xbe677566	-0.22603378
148	0x3db1f510	0.0868932
149	0x3e700f69	0.23443379
150	0xbe62b58a	-0.22139564
151	0x3e438634	0.19094163
152	0x3d904b68	0.070456326
153	0x3e613005	0.21990974
154	0x3e0e36c0	0.13888073
155	0xbe7f6f0b	-0.24944703
156	0x3cb6806f	0.022278039
157	0xbde18582	-0.11011793
158	0xbd869006	-0.06570439
159	0xbc061ad5	-0.008185108
160	0xbdc6c19f	-0.09704899
161	0x3d0a15e0	0.033712268
162	0x3cd67ab4	0.026181556
163	0x3cbbf395	0.022943297
164	0x3d0c3f15	0.034239847
165	0xbe2cb19b	-0.16864626
166	0xbe1a23ee	-0.15052769
167	0xbaf27164	-0.0018496928
168	0x3d52d276	0.051470242
169	0x3df11b0d	0.11772738
170	0x3e2b7c46	0.16746625
171	0xbd216d8e	-0.03941112
172	0xbcbac80d	-0.02280047
173	0x3ca8266d	0.020526135
174	0xbe11346c	-0.14180154
175	0xbb8ea584	-0.004353227
176	0x3e34b49f	0.17647026
177	0x3aed4929	0.0018103468
178	0xbd947dac	-0.072505325
179	0x3dfcc7f6	0.12342827
180	0xbe457409	-0.19282545
181	0xbe0ff253	-0.14057283
182	0x3e17e6f8	0.14834201
183	0xbe521c04	-0.205185
184	0x3c668a7f	0.014071106
185	0x3d60be4b	0.054868978
186	0xbd16a993	-0.036782812
187	0xb845d6fe	-4.7168687e-05
188	0xbda91586	-0.082560584
189	0xbde930dc	-0.11386272
190	0xbe1aadee	-0.15105411
191	0xbd1ad455	-0.03780015
192	0xbe0c7e09	-0.13719954
193	0x3e399423	0.18122916
194	0x3e361978	0.17783153
195	0xbe58847d	-0.2114429
196	0x3c233067	0.0099602705
197	0x3e41a3cd	0.18910141
198	0xbe6e46cf	-0.23269199
199	0xbe81f09c	-0.25378883
200	0x3e5948d9	0.21219195
201	0xbdd1376c	-0.10215649
202	0xbe315456	-0.17317328
203	0x3e9d88af	0.30768344
204	0xbe0b4d71	-0.1360376
205	0x3e582d46	0.2111102
206	0x3e1367d2	0.14395073
207	0xbc815a6d	-0.015790189
208	0x3d1a4356	0.037661873
209	0xbd8ffec3	-0.07031014
210	0xbc9b9a85	-0.01899458
211	0xbe5034ec	-0.20332688
212	0x3d1f98f7	0.038964238
213	0xbe02c956	-0.12772116
214	0x3d6f4b32	0.05842132
215	0x3e5df23a	0.21674433
216	0x3c44d8c4	0.012014572
217	0x3de31e64	0.11089781
218	0xbd547bac	-0.051875755
219	0x3d813ece	0.06310807
220	0x3d3e71a6	0.046495102
221	0x3d2f6705	0.042822856
222	0x3dee56c3	0.11637642
223	0xbdc7d231	-0.09756888
224	0xbe063066	-0.131044
225	0xbdaa84ac	-0.083260864
226	0xbd23ff52	-0.040038414
227	0x3e9952f8	0.29946113
228	0xbcd47c24	-0.025938101
229	0x3e8465dc	0.25858963
230	0x3e42a933	0.19009857
231	0x3e4432e4	0.19160038
232	0xbd8849cb	-0.066547
233	0x3ee162dc	0.44020736
234	0xbe198fbf	-0.14996241
235	0x3cbe4292	0.023225103
236	0x3e7f8e19	0.2495655
237	0x3ce87ace	0.02837887
238	0x3de724ed	0.1128634
239	0x3d384da7	0.04499593
240	0xbe006718	-0.12539327
241	0x3bb08a08	0.0053875484
242	0x3c0a4d68	0.008441307
243	0xbdae169f	-0.085004084
244	0x3cc0f88a	0.023556013
245	0x3d161d30	0.03664893
246	0x3d76d674	0.060263112
247	0x3e3d3b66	0.1847969
248	0xbd379e1d	-0.044828523
249	0x3dbf82e9	0.09351141
250	0x3d963369	0.073340245
251	0x3e002655	0.12514623
252	0xbe378c7b	-0.17924683
253	0x3e2e8c97	0.17045818
254	0xbca74468	-0.02041836
255	0x3c1b6b9d	0.009486106

features.6.bias f4 [8]
0	0x3dc5faa4	0.096669465
1	0xbe82c212	-0.2553869
2	0x3d3c88d7	0.04602894
3	0x3e01ba0e	0.1266863
4	0x3d852716	0.06501596
5	0xbe9908aa	-0.29889423
6	0xbe370c26	-0.17875728
7	0xbe41f5c8	-0.18941414

classifier.0.weight f4 [128, 1568]
0	0xbd1bc0de	-0.03802573
1	0xbdca8d3a	-0.09890218
2	0xbe534fd0	-0.20635915
3	0xbbd171d6	-0.006391744
4	0x3e4e9f33	0.20177917
5	0x3e03b2ec	0.12861222
6	0x3e03b2c9	0.1286117
7	0x3e7270df	0.2367587
8	0x3e0099fb	0.12558739
9	0x3dac007d	0.08398531
10	0x3e14ed89	0.14543737
11	0xbe35998e	-0.17734358
12	0xbdf41bdc	-0.11919376
13	0x3db6257a	0.08893867
14	0xbde45eb9	-0.111508794
15	0xbe65f6ae	-0.22457382
16	0x3d742fbe	0.059615843
17	0x3d46f0e6	0.048569582
18	0xbdb73a2e	-0.08946644
19	0x3d6ce35d	0.057834018
20	0x3d15fadc	0.03661619
21	0xbda812b5	-0.08206693
22	0x3db12334	0.086492926
23	0x3dc75632	0.09733237
24	0x3dd2c89b	0.10292169
25	0xbdcf791e	-0.10130523
26	0xbe510821	-0.20413257
27	0x3d849ab9	0.064748235
28	0xbebbc755	-0.36675516
29	0xbd088a84	-0.033335224
30	0xbc25b3ea	-0.010113696
31	0xbd629b77	-0.055324044
32	0xbe225fa0	-0.1585679
33	0x3e2d48f7	0.16922365
34	0x3dd4514b	0.10367068
35	0x3b96b81c	0.0045995843
36	0x39632143	0.00021660798
37	0x3d9b6dc5	0.07589296
38	0xbd74a68b	-0.05972914
39	0xbe009c71	-0.12559678
40	0xbea636a4	-0.32463562
41	0xbdf4c40e	-0.11951457
42	0xbe1be6c2	-0.15224746
43	0xbe62c000	-0.22143555
44	0xbd82200b	-0.06353768
45	0xbe0787ae	-0.13235351
46	0xbd09a55c	-0.033604965
47	0x3e1b65ff	0.15175627
48	0x3d0ce600	0.034399033
49	0x3dfee6bc	0.12446353
50	0x3d6eaf59	0.058272693
51	0x3c96caee	0.018407311
52	0xbd283f14	-0.04107578
53	0x3c986097	0.018600745
54	0xbe06e069	-0.13171543
55	0xbe943445	-0.28946128
56	0xbe0b0acb	-0.13578336
57	0x3c9fe4db	0.019518306
58	0x3d4855b4	0.048909858
59	0x3dce6062	0.10076977
60	0x3d0fc5d4	0.035100773
61	0x3e8ee8f7	0.27912113
62	0x3e16814e	0.14697763
63	0x3e6807f7	0.22659288
64	0x3e2ecbff	0.17070006
65	0x3e25b0b9	0.16180696
66	0x3def059e	0.11670993
67	0x3daf9855	0.08573977
68	0xbde338b7	-0.11094802
69	0xbf096bed	-0.53680307
70	0xbdc06559	-0.093943305
71	0x3dcff096	0.1015331
72	0x3e273578	0.1632899
73	0x3d22abe0	0.039714694
74	0x3daeeeb4	0.08541623
75	0x3eb32170	0.34986448
76	0x3dfc8bd4	0.123313576
77	0x3d65e328	0.056124836
78	0x3e557a94	0.20847541
79	0x3cea1185	0.028572807
80	0x3c82d3f9	0.015970217
81	0x3e399a73	0.18125324
82	0x3d3e296a	0.046426214
83	0xbe60587f	-0.21908759
84	0xbd8a85be	-0.067637905
85	0xbd823fd3	-0.0635983
86	0x3e86ed7d	0.26353064
87	0x3e17fc81	0.14842416
88	0x3ea49068	0.32141423
89	0x3e94318f	0.2894406
90	0x3d83266c	0.06403813
91	0xbe4c2a92	-0.19938114
92	0x3d7cb55c	0.061696395
93	0x3e8e8f2f	0.27843615
94	0xbe07bfa8	-0.13256705
95	0x3de4c9d4	0.11171308
96	0x3e24ebbc	0.1610555
97	0xbebd0b32	-0.36922604
98	0x3c7c9a1e	0.015417604
99	0x3d95e0ee	0.073182926
100	0x3e75f56f	0.24019407
101	0x3e78ae54	0.24285251
102	0x3eaffeda	0.34374124
103	0x3d24f770	0.040275037
104	0xbe651de9	-0.22374691
105	0xbe458597	-0.19289242
106	0x3e4070e7	0.18793069
107	0x3e96012b	0.29297766
108	0x3d2a1de1	0.0415324
109	0x3e55bcc5	0.20872791
110	0x3e69b6bc	0.22823614
111	0xbe221cf4	-0.15831357
112	0x3c91b81c	0.017787986
113	0x3de89eaa	0.11358388
114	0x3e82eec7	0.25572798
115	0x3ea9898f	0.3311276
116	0x3eb9d60f	0.36296126
117	0x3dd65463	0.10465314
118	0xbe863e5b	-0.26219448
119	0x3dcd79ea	0.10033019
120	0x3ea97daf	0.331037
121	0x3e3345a4	0.17507035
122	0x3de42ab2	0.11140956
123	0x3e6f749b	0.23384325
124	0xbb944914	-0.004525313
125	0xbe8ef05f	-0.27917764
126	0xbe58e36d	-0.21180506
127	0x3e9291a2	0.28626734
128	0x3e35f071	0.17767502
129	0x3d9961fe	0.07489394
130	0x3e167828	0.14694273
131	0x3df8370c	0.12119874
132	0x3e4be545	0.19911678
133	0x3eb20d5a	0.3477581
134	0x3ea982bd	0.33107558
135	0x3e628c8f	0.22123931
136	0x3db90275	0.09033672
137	0x3de24098	0.110474765
138	0xbe1f6351	-0.1556523
139	0xbed4c524	-0.41556656
140	0xbe98ca26	-0.29841727
141	0x3e244200	0.16040802
142	0x3e40d768	0.18832171
143	0x3e346769	0.17617573
144	0x3e287459	0.16450633
145	0xbc9ca04f	-0.01911941
146	0x3e44ea1c	0.1922993
147	0x3e883481	0.26602557
148	0x3d87a427	0.066231064
149	0x3d2abfcd	0.04168682
150	0x3d7271ba	0.05919049
151	0xbe1c4e5d	-0.15264268
152	0xbee01278	-0.4376409
153	0xbebf6d45	-0.37388054
154	0xbebd1162	-0.36927325
155	0xbe5249ba	-0.20535937
156	0x3de8ec29	0.11373169
157	0x3e8b957d	0.27262488
158	0x3e3dadb7	0.18523298
159	0x3e581ec8	0.21105492
160	0x3e1daca9	0.15397896
161	0x3d9622ae	0.073308334
162	0x3e150932	0.14554289
163	0x3dd87eaa	0.10571034
164	0xbd3eb37b	-0.046557885
165	0xbe8c4e0a	-0.2740329
166	0xbecf9bfa	-0.40548688
167	0xbe7cdc7d	-0.24693485
168	0x3d780eda	0.06056104
169	0xbf0cbd40	-0.5497627
170	0xbe9af122	-0.30262095
171	0x3cace4b8	0.021105155
172	0x3d564e56	0.0523208
173	0xbe1e549f	-0.15461968
174	0x3c83a279	0.016068684
175	0x3d848d03	0.06472208
176	0x3b08e8b2	0.002089065
177	0xbdf1e914	-0.11812034
178	0xbe81c964	-0.2534896
179	0xbe64df5e	-0.22350833
180	0xbe25d15d	-0.16193147
181	0xbc9be4c4	-0.019029982
182	0x3d15042e	0.03638094
183	0x3d5f1822	0.054466374
184	0xbf0e29cf	-0.55532545
185	0xbe66a660	-0.22524405
186	0xbe49f837	-0.19723593
187	0xbe5ff9b4	-0.21872598
188	0xbd9334a6	-0.07187776
189	0xbe141274	-0.14460164
190	0xbead87f9	-0.338928
191	0xbe7e2cf7	-0.2482184
192	0xbe7f983f	-0.24960421
193	0xbdbb77df	-0.09153723
194	0x3dc31d92	0.095271245
195	0x3d2574b8	0.040394515
196	0xbd9c61a8	-0.07635814
197	0xbec38ae8	-0.38191915
198	0xbede429f	-0.43410203
199	0xbef04213	-0.4692541
200	0xbf07c499	-0.5303436
201	0xbe504082	-0.20337108
202	0xbe6d163e	-0.23153016
203	0xbd5156a4	-0.051108018
204	0xbe01b22c	-0.12665623
205	0xbdfbb02a	-0.1228946
206	0x3e3816be	0.17977425
207	0x3d5c96b4	0.05385466
208	0x3ddbca80	0.10731983
209	0x3d6f3018	0.058395475
210	0xbee1b110	-0.440804
211	0xbe96b488	-0.2943461
212	0xbf109b41	-0.564869
213	0xbeffeba5	-0.4998447
214	0xbf29b4cb	-0.66291493
215	0xbf0273f4	-0.5095818
216	0xbeeb61bb	-0.45973
217	0xbe9ae74e	-0.30254596
218	0xbd0e93e0	-0.034808993
219	0x3d3e3b32	0.04644317
220	0xbd961195	-0.07327572
221	0xbd3524d3	-0.04422457
222	0x3df33c34	0.11876717
223	0x3e943b4e	0.28951496
224	0xbef46dec	-0.47740114
225	0xbee86acb	-0.45393977
226	0xbf2e88d0	-0.6817751
227	0xbf7e864c	-0.9942367
228	0xbf8e0673	-1.1095718
229	0xbf0e0e30	-0.554904
230	0xbf096ed2	-0.53684723
231	0xbe5d484b	-0.21609609
232	0x3c96573a	0.01835214
233	0x3e41b571	0.1891687
234	0x3e486b8b	0.19572274
235	0xbd4b2b3f	-0.04960179
236	0xbead67ff	-0.33868405
237	0x3dd9e607	0.10639577
238	0xbe8a6b00	-0.2703476
239	0xbf07fb05	-0.531174
240	0xbf7aecf7	-0.9801783
241	0xbf81f567	-1.0153016
242	0xbf623051	-0.88354975
243	0xbe14af62	-0.14520028
244	0xbf18b940	-0.5965767
245	0xbdb4ba0e	-0.088245496
246	0x3d5277df	0.05138385
247	0x3e3acc30	0.18241954
248	0x3dd3ab14	0.10335365
249	0x3e1add84	0.15123564
250	0xbe669b6f	-0.2252023
251	0xbea067f4	-0.3132931
252	0xbecde192	-0.4021116
253	0xbf413dd0	-0.75484943
254	0xbf66d7fc	-0.90173316
255	0xbf85fc41	-1.0467607

classifier.0.bias f4 [128]
0	0x3d9787c0	0.07398939
1	0xbc535158	-0.012897812
2	0xbd3e9544	-0.04652907
3	0x3e1c6169	0.15271534
4	0xbd0859d2	-0.033288784
5	0x3e603a5b	0.21897261
6	0xbcebbf3e	-0.028777715
7	0xbddd646b	-0.10810169
8	0xbd2d1c6b	-0.04226343
9	0xbc356f4f	-0.011073901
10	0xbd4efba1	-0.05053294
11	0x3dff0d7a	0.12453742
12	0xbc94d0de	-0.018166002
13	0xbe1274e3	-0.14302401
14	0xbe596337	-0.21229254
15	0xbd225a1d	-0.03963672
16	0xbe988e6b	-0.29796156
17	0xbd281aae	-0.04104107
18	0xbebab210	-0.36463976
19	0x3f899b80	1.075058
20	0xbc8c07fa	-0.017093647
21	0xbf4cae28	-0.7995324
22	0x3dde107e	0.108429894
23	0x3e572236	0.21009144
24	0xbf32bc26	-0.6981834
25	0x3edfa765	0.436824
26	0x3eff3ad4	0.4984957
27	0xbf2e7b43	-0.6815683
28	0xbf1453b9	-0.5794025
29	0x3f5c281d	0.8599871
30	0x3e209943	0.15683465
31	0xbf1c3eed	-0.6103352
32	0xbe57674c	-0.21035498
33	0x3f5eab62	0.8698026
34	0x3e97f819	0.2968147
35	0x3d6594e4	0.056050196
36	0x3dd86658	0.105663955
37	0xbd6b4b83	-0.05744506
38	0x3eff55ef	0.4987025
39	0xbcd6c534	-0.02621708
40	0x3db7c4f4	0.08973113
41	0xbece48ec	-0.4029001
42	0xbe80ffd5	-0.25195184
43	0xbd7d30cb	-0.06181411
44	0xbcdf99a9	-0.02729495
45	0x3e80469e	0.25053877
46	0x3f30d504	0.69075036
47	0x3ec36fb2	0.38171154
48	0x3d4424c8	0.04788664
49	0x3dd3becf	0.10339128
50	0x3f282229	0.65677124
51	0xbd50f001	-0.051010136
52	0xbd0b95d5	-0.034078438
53	0xbcf58d02	-0.029974464
54	0xbec7c2d3	-0.39015827
55	0xbee20742	-0.44146162
56	0xbf35e8d6	-0.71058404
57	0xbdffcae5	-0.12489871
58	0x3dd85c19	0.10564441
59	0xbec27377	-0.37978718
60	0x3dc766de	0.09736417
61	0x3b42d609	0.0029729626
62	0x3d90c557	0.070688896
63	0xbd365637	-0.044515815
64	0xbd21f787	-0.0395427
65	0x3ee0a1cf	0.4387345
66	0x3f03a4b0	0.5142317
67	0xbc273cbb	-0.01020735
68	0xbd07a5af	-0.033116993
69	0xbde1a959	-0.110186286
70	0x3ec80ef9	0.39073923
71	0x3de4718a	0.11154468
72	0xbcb6086e	-0.022220816
73	0xbf33081f	-0.69934267
74	0x3e7fd902	0.24985126
75	0xbcff1a97	-0.031140609
76	0x3f30d8a3	0.6908056
77	0x3f292a94	0.66080594
78	0xbf1c63c8	-0.61089754
79	0x3f65f548	0.89827394
80	0x3ddda074	0.1082162
81	0xbe384195	-0.17993768
82	0xbc6545d8	-0.013993703
83	0xbf1f6200	-0.6225891
84	0xbf1839be	-0.5946311
85	0x3e137214	0.14398986
86	0xbcf15f3b	-0.029464355
87	0xbe481f20	-0.19543123
88	0xbd4ac953	-0.049508404
89	0xbbb4c0eb	-0.0055161617
90	0x3bb77ad6	0.00559936
91	0xbeedaca7	-0.46420786
92	0xbd810d71	-0.06301392
93	0x3e5efddd	0.21776529
94	0xbc1b84de	-0.009492127
95	0x3e0ebbb5	0.13938792
96	0xbd091069	-0.033462916
97	0x3f030b14	0.5118878
98	0xbe8404d5	-0.25784937
99	0xbcb1cb61	-0.021703424
100	0x3ee1cf3e	0.44103426
101	0x3f8bb1c4	1.0913625
102	0x3f079d44	0.52974343
103	0xbe167626	-0.14693508
104	0x3f1273aa	0.5720774
105	0xbf0b17b2	-0.5433303
106	0x3ddc8f2c	0.10769495
107	0xbdbe160c	-0.09281549
108	0xbeed03df	-0.46292016
109	0x3f0c74ce	0.5486573
110	0xbd597f11	-0.053099696
111	0xbd31ce49	-0.04340962
112	0x3e05c47c	0.13063234
113	0xbe36a8d2	-0.17837837
114	0xbd532798	-0.05155143
115	0xbdb31eb6	-0.08746092
116	0x3c8adfdd	0.01695245
117	0xbd00e412	-0.031467505
118	0x3e0ff758	0.14059198
119	0x3f38f5b3	0.7224991
120	0xbd3f514a	-0.046708383
121	0xbd977058	-0.07394475
122	0xbcf35e54	-0.029708065
123	0xbf1a0c72	-0.6017524
124	0xbce25b46	-0.027631413
125	0xbd449dc8	-0.048002034
126	0xbf2088ce	-0.6270875
127	0xbd3ecddf	-0.046583053

classifier.3.weight f4 [2, 128]
0	0x3ecc568f	0.3990979
1	0x3e308811	0.17239405
2	0x3e0b2383	0.13587765
3	0x3e2d6c21	0.16935779
4	0xbe15fb82	-0.14646724
5	0xbe1d40d2	-0.15356758
6	0x3e482495	0.19545205
7	0x3e3417ca	0.175872
8	0xbc93ee7c	-0.018058054
9	0x3e3f70fd	0.18695445
10	0x3e07e222	0.13269857
11	0x3dd8fcb2	0.10595073
12	0x3875d0ac	5.8606893e-05
13	0x3d60a0e6	0.054840945
14	0x3d5f71e7	0.054551985
15	0xbd725f0d	-0.05917268
16	0xbd5ee0e5	-0.054413695
17	0x3e772206	0.24134073
18	0xbdc49d49	-0.09600312
19	0xbe904ed7	-0.2818515
20	0xbdfc9c62	-0.12334515
21	0x3ede697b	0.4343985
22	0x3decf9b7	0.11571067
23	0x3df2bc9d	0.118523814
24	0xbd7e59a7	-0.062097218
25	0xbe49b860	-0.1969924
26	0xbe8a7501	-0.27042392
27	0x39092696	0.00013079713
28	0x3d0a34de	0.033741824
29	0xbe628dc4	-0.22124392
30	0xbd0ff6f7	-0.035147633
31	0xbe3abb91	-0.18235613
32	0x3d985eaf	0.074399345
33	0xbe74c2b2	-0.23902395
34	0x3dbe66fb	0.09296986
35	0x3d68916c	0.05677931
36	0xbe7f66f5	-0.24941619
37	0x3e44b4dd	0.19209619
38	0x3e0036ff	0.1252098
39	0x3e4b6668	0.19863284
40	0x3e8a34fe	0.26993555
41	0x3db7027d	0.089360215
42	0x3d9d9930	0.07695234
43	0xbe361b2d	-0.17783804
44	0x3e13a7ff	0.14419554
45	0xbe49b34a	-0.196973
46	0xbe95f26c	-0.29286516
47	0xbdc2e849	-0.09516961
48	0x3e0345f8	0.1281966
49	0xbd1617c6	-0.036643766
50	0x3e89c910	0.2691121
51	0x3e30844b	0.17237966
52	0xbbb8f7e7	-0.0056447866
53	0x3d0f34c9	0.03496245
54	0xbcf9a263	-0.03047294
55	0xbdd8449a	-0.1055996
56	0xbd89b892	-0.06724657
57	0x3da5ceb2	0.080960646
58	0x3e3c7149	0.1840259
59	0xbe7d58c8	-0.24740899
60	0x3e3e3415	0.18574555
61	0x3e0e711d	0.13910337
62	0x3e3466b7	0.17617308
63	0x3d4dca83	0.05024196
64	0xbd693e5a	-0.05694423
65	0x3e2d6d1e	0.16936156
66	0x3dddb0c2	0.108247295
67	0xbc3d373f	-0.011548816
68	0x3db54111	0.08850301
69	0x3e41cfbf	0.18926905
70	0x3e84e10c	0.25952947
71	0x3dc07e8a	0.093991354
72	0xbc39099a	-0.011293793
73	0xbd8a7390	-0.06760323
74	0x3e60131d	0.21882291
75	0xbe2e88ff	-0.17044447
76	0xbdf56a00	-0.119831085
77	0xbe28f202	-0.16498569
78	0xbe0f4448	-0.13990891
79	0xbda50838	-0.08058208
80	0x3d467a1f	0.048456308
81	0x3e10ca9b	0.14139788
82	0xbdd24031	-0.1026615
83	0xbc66c9cd	-0.014086199
84	0xbd35eb6a	-0.04441396
85	0x3c312c7e	0.01081383
86	0x3e299cae	0.16563675
87	0x3d3c3030	0.045944393
88	0x3c68e670	0.014215097
89	0xbe37c5bd	-0.17946525
90	0x3dbc4199	0.09192199
91	0x3df9a27e	0.12189196
92	0x3e944471	0.28958467
93	0xbe305e64	-0.17223507
94	0xbe393f04	-0.18090445
95	0xbe8ff207	-0.2811434
96	0xbd9cf807	-0.07664495
97	0xbe4e81e3	-0.20166735
98	0x3e94312d	0.28943768
99	0x3d93b7d2	0.07212795
100	0x3d8fdbf8	0.070243776
101	0x3d252286	0.040316127
102	0x3cae7b43	0.02129901
103	0x3d8a32af	0.067479484
104	0xbe7c5c91	-0.24644686
105	0xbe9b693d	-0.30353728
106	0x3e6125a7	0.2198702
107	0xbc528e7a	-0.012851352
108	0xbcdac02c	-0.026702963
109	0xbe88523d	-0.26625243
110	0x3e0a43f3	0.13502483
111	0x3d8f85a5	0.070079125
112	0xbdf6aa96	-0.120442554
113	0x3db9b4fd	0.09067724
114	0xbd0c2f64	-0.034224883
115	0x3d1e62d7	0.03866848
116	0x3e40dfc9	0.18835367
117	0x3e2d32f6	0.16913971
118	0xbc043645	-0.0080695795
119	0xbc66046c	-0.01403914
120	0x3c634cf7	0.01387333
121	0x3e2e4708	0.17019284
122	0x3db95a3b	0.09050413
123	0xbe0cd95b	-0.1375479
124	0x3e035343	0.1282473
125	0x3c70f6b1	0.014707253
126	0x3def2ce3	0.11678483
127	0x3deb15fd	0.11478803
128	0xbe5a8966	-0.21341476
129	0x3c7f1ce0	0.015570849
130	0x3da0de61	0.078549154
131	0xbd2776c6	-0.040884756
132	0xbdced4d4	-0.100991875
133	0x3e9671f8	0.29383826
134	0x3cea3f1c	0.028594546
135	0xbddc6d3f	-0.107630245
136	0xbdb15975	-0.08659641
137	0x3ce14ce9	0.027502494
138	0xbdc16fc7	-0.09445148
139	0xbd9a1f70	-0.075255275
140	0xbe4a39f6	-0.19748673
141	0xbe0866c0	-0.13320446
142	0xbeac6979	-0.3367422
143	0x3e153eaf	0.14574693
144	0xbdb4fcab	-0.08837255
145	0x3a2f0db2	0.0006677761
146	0x3df73e6e	0.120724544
147	0x3dde50cd	0.10855255
148	0xbcea615b	-0.028610876
149	0xbed4844d	-0.41507187
150	0xbda57a0c	-0.08079919
151	0xbdf9cb06	-0.12196927
152	0x3d301e79	0.04299781
153	0x3daa0f4d	0.083037
154	0x3e8ce766	0.27520293
155	0x3d904da7	0.07046061
156	0x3d65ab8d	0.056071807
157	0x3e73f398	0.23823392
158	0x3e3de06c	0.18542641
159	0xbe260308	-0.16212094
160	0xbe5d5415	-0.21614106
161	0x3bef5d4d	0.0073048235
162	0x3e537194	0.20648795
163	0x3e72a6f9	0.23696508
164	0xbdabefb8	-0.08395332
165	0xbdf2b315	-0.118505634
166	0xbead98e1	-0.339057
167	0xbcf06498	-0.029344842
168	0x3d82f1ff	0.06393813
169	0xbe587b77	-0.21140848
170	0xbe86a0c0	-0.26294518
171	0x3e433727	0.19064008
172	0xbdc99f0e	-0.098447904
173	0x3c38230f	0.011238827
174	0x3b7982aa	0.0038072267
175	0x3dc72ce9	0.09725363
176	0x3e9143e1	0.283721
177	0x3de54eb4	0.11196652
178	0x3dae3565	0.08506278
179	0x3b35b199	0.0027724265
180	0xbda256ce	-0.07926713
181	0xbe17caec	-0.14823502
182	0x3df13579	0.11777777
183	0x3de708bd	0.112809636
184	0xbcda9dfe	-0.026686665
185	0xbe2f4265	-0.17115171
186	0xbe2a326c	-0.16620797
187	0x3e893d09	0.2680438
188	0xbe62f8dd	-0.22165246
189	0xbe21643f	-0.15760897
190	0xbe1a3fb3	-0.15063362
191	0x3c274504	0.010209326
192	0xbcfb7fba	-0.030700553
193	0xbe739b4f	-0.23789714
194	0xbe9200fe	-0.28516382
195	0xbe91177d	-0.28338233
196	0x3d76b9d5	0.060235817
197	0xbdaa9c31	-0.083305724
198	0x3d33c0bf	0.04388499
199	0xbe5c5d75	-0.21520026
200	0xbcde9b47	-0.027173651
201	0x3e00d3ea	0.12580839
202	0xbd1189c7	-0.035531785
203	0xbdfbbc33	-0.122917555
204	0x3e8d4509	0.27591732
205	0x3e9bce5e	0.30430883
206	0xbd343e6c	-0.044004843
207	0x3e50ca6d	0.2038972
208	0xbe39d450	-0.18147397
209	0xbe8b91df	-0.27259728
210	0xbe122be1	-0.14274551
211	0x3e18b69c	0.1491341
212	0xbbf96429	-0.007610817
213	0xbe5c31ef	-0.21503423
214	0xbd6a98e6	-0.05727472
215	0x3da8b2bb	0.08237215
216	0xbb10a5a3	-0.0022071383
217	0x3e0a6fd7	0.13519226
218	0xbe2259e2	-0.158546
219	0x3e35d9b1	0.17758824
220	0xbea263d3	-0.31716785
221	0x3e55ea5e	0.20890185
222	0xbe0058fc	-0.12533945
223	0x3e5e81ad	0.21729155
224	0xbe09966a	-0.13436285
225	0x3e0d84dd	0.13820215
226	0x3d4493f0	0.047992647
227	0x3db2e55d	0.08735154
228	0xbe4608f6	-0.19339356
229	0x3e8cea30	0.2752242
230	0x3e0b5d8a	0.13609901
231	0xbdddb2ba	-0.10825105
232	0x3eb5debc	0.35521495
233	0x3ca7b06b	0.020469865
234	0xbde1c58e	-0.11024009
235	0xbe594cb5	-0.21220668
236	0x3cafe370	0.021470755
237	0x3e95888c	0.2920574
238	0x3d3bd722	0.045859464
239	0xbe36f8c6	-0.17868337
240	0x3e125435	0.14289935
241	0xbd8724d5	-0.06598822
242	0xbe950b8b	-0.2911037
243	0xbe5ed259	-0.21759929
244	0xbdf6b4ca	-0.120462015
245	0x3bbe483c	0.005806951
246	0xbe73ac4a	-0.23796192
247	0xbe957321	-0.291894
248	0xbd873fd1	-0.06603969
249	0xbe40b0cc	-0.18817443
250	0x3db07073	0.08615198
251	0xbdb4c726	-0.08827047
252	0xbe86055c	-0.26175964
253	0xbdd416d9	-0.1035592
254	0x3e172f29	0.14764084
255	0xbe30b3ec	-0.17256135

classifier.3.bias f4 [2]
0	0xbea3e0f3	-0.3200756
1	0x3ea3e0f0	0.3200755
