Tomato_pretrained_cnn/saved_ckpt/best_model_epoch_40.pt (torch, 839456 bytes, 10 tensors)

features.0.weight f4 [32, 3, 3, 3]
0	0x3e42d75d	0.19027467
1	0xbd39803f	-0.04528832
2	0x3e0b2e54	0.13591892
3	0x3e0ace3e	0.13555238
4	0xbe99046b	-0.29886183
5	0xbf1dbdc9	-0.61617714
6	0x3d8ffdf8	0.070308626
7	0xbf04a9dc	-0.51821685
8	0xbf8fefe0	-1.1245079
9	0x3e96bf08	0.2944262
10	0x3e4facb5	0.20280726
11	0x3e6ee287	0.23328601
12	0x3e46d041	0.1941538
13	0xbdf9537a	-0.12174125
14	0xbec817e9	-0.39080742
15	0x3da40695	0.08009068
16	0xbed6b4f1	-0.41934922
17	0xbf56d1d5	-0.8391393
18	0x3ed18787	0.40923712
19	0x3ea433ac	0.32070673
20	0x3e7e5775	0.2483805
21	0x3e6ceb2f	0.2313659
22	0x3e044295	0.12916024
23	0xbe142b68	-0.14469683
24	0x3e64d307	0.22346126
25	0xbe222bad	-0.15836973
26	0xbf0b63bf	-0.54449075
27	0xbeca948b	-0.39566454
28	0xbe7ea48a	-0.24867454
29	0xbef5263c	-0.47880733
30	0xbd010460	-0.031498313
31	0xbef7d0bf	-0.48401448
32	0xbe09766e	-0.13424084
33	0x3ee69c41	0.45041087
34	0x3da91fba	0.082580045
35	0xbf36a584	-0.71346307
36	0xbf193d75	-0.598594
37	0xbe8413da	-0.25796396
38	0xbed53492	-0.4164167
39	0xbc823729	-0.015895443
40	0xbec5ae39	-0.38609484
41	0xbe97e143	-0.2966405
42	0x3ee0654c	0.43827283
43	0xbe206d6e	-0.15666744
44	0xbea1e1d0	-0.31617594
45	0xbf4dee9e	-0.80442226
46	0xbf69f87b	-0.91394776
47	0xbf6fd29d	-0.93680745
48	0xbef75ece	-0.48314518
49	0xbf92098f	-1.1409167
50	0xbf97aac4	-1.1848989
51	0x3ecba956	0.3977763
52	0xbf06187e	-0.5238112
53	0xbf949943	-1.1609272
54	0x3f236b66	0.6383575
55	0x3e95ace4	0.29233468
56	0x3e35e6f4	0.17763883
57	0x3e3ea68c	0.1861822
58	0x3e8c3b62	0.27389055
59	0x3e7f85fd	0.24953456
60	0x3ea2c7c8	0.31793046
61	0x3db13515	0.08652703
62	0x3e3d2c68	0.18473971
63	0x3eea9fe2	0.45825106
64	0xbefb32e2	-0.49062258
65	0xbf1818c9	-0.5941282
66	0xbe0f0d89	-0.13970007
67	0xbf0ee68d	-0.5582054
68	0xbec80734	-0.39067996
69	0xbe8a9bd5	-0.27072015
70	0xbeb991fc	-0.3624419
71	0xbec446a0	-0.38335133
72	0xbe4d7fb2	-0.20068243
73	0xbfad31af	-1.3530787
74	0xbfb0cd81	-1.3812715
75	0xbeb61f50	-0.35570765
76	0xbfb0943a	-1.3795235
77	0xbf98d540	-1.1940079
78	0xbe6e80b4	-0.23291284
79	0xbfd0c108	-1.6308908
80	0xbf809626	-1.0045822
81	0xbecd3cd6	-0.40085477
82	0xbe953f5c	-0.29149902
83	0xbe4f9b4d	-0.20274086
84	0xbec9a836	-0.39386147
85	0xbe997d59	-0.29978445
86	0xbe4c28c8	-0.19937432
87	0xbeb215c3	-0.34782228
88	0xbe439f16	-0.19103655
89	0xbd63a4c5	-0.05557706
90	0x3ee21910	0.44159746
91	0x3f0f625d	0.56009465
92	0x3f1a25ac	0.6021373
93	0x3f1c97ff	0.6116943
94	0x3f093fff	0.53613275
95	0x3f1d2741	0.6138802
96	0x3f16af25	0.58861
97	0x3ef04710	0.46929216
98	0x3ea2111f	0.31653687
99	0xbea24f6b	-0.31701216
100	0xbee29d48	-0.4426062
101	0xbe9419a7	-0.2892582
102	0xbe8f56a9	-0.27995804
103	0xbe9d8ccb	-0.3077148
104	0xbe6703a6	-0.22559986
105	0xbdbaf72d	-0.09129176
106	0xbe121527	-0.14265881
107	0xbd2eb896	-0.042656504
108	0x3e825e4e	0.25462574
109	0x3eb36c75	0.35043684
110	0x3eca921f	0.39564607
111	0x3eafd70c	0.34343755
112	0x3ef64f82	0.48107535
113	0x3e95bd81	0.29246143
114	0x3e8e9200	0.27845764
115	0x3e778096	0.24170145
116	0x3d667aca	0.056269445
117	0x3e9b7066	0.3035919
118	0x3df7d657	0.12101429
119	0x3ee17a42	0.44038588
120	0x3ce368eb	0.02775999
121	0xbd026a0b	-0.03183941
122	0x3db7d29b	0.08975717
123	0xbdb97ecf	-0.0905739
124	0xbe312ba1	-0.173018
125	0xbe69f8ce	-0.22848818
126	0xbed9abc7	-0.42513868
127	0xbea28042	-0.31738478
128	0xbe3aff8f	-0.1826155
129	0xbe5d8a64	-0.21634823
130	0xbe524eb7	-0.2053784
131	0xbe09db22	-0.13462499
132	0xbea39ca3	-0.31955442
133	0xbebb6231	-0.36598352
134	0xbf06e0d3	-0.52686805
135	0xbf1d6d11	-0.6149455
136	0xbe2eec9a	-0.17082444
137	0x3e9ce560	0.3064375
138	0xbe18ce26	-0.1492239
139	0xbdaeaa9d	-0.08528636
140	0x3e972584	0.2952081
141	0x3d856f49	0.065153666
142	0x3e5359e5	0.20639761
143	0x3ea29492	0.31753975
144	0xbf125632	-0.57162774
145	0xbdc74ea2	-0.09731795
146	0x3e02de03	0.12780003
147	0xbe138f11	-0.14410044
148	0xbe254fd4	-0.16143733
149	0x3ecfcecc	0.4058746
150	0x3e17636d	0.14784022
151	0x3ea2b4ef	0.31778666
152	0x3ed5bd37	0.41745922
153	0xbf4d4de7	-0.80196995
154	0xbe960c06	-0.29306048
155	0x3d4e2030	0.050323665
156	0xbf0960f3	-0.5366356
157	0xbe66fd79	-0.2255763
158	0x3e8614c0	0.26187706
159	0x3d44f46e	0.04808467
160	0x3e4f6388	0.20252812
161	0x3ea591fc	0.3233794
162	0xbe3c0d4c	-0.18364447
163	0xbe8198e2	-0.25311953
164	0xbdea6df5	-0.11446754
165	0xbe859ea9	-0.2609761
166	0xbec1be52	-0.37840515
167	0x3d54b26d	0.051927973
168	0xbe692619	-0.2276844
169	0xbe94844c	-0.29007185
170	0xbe59e26a	-0.21277776
171	0xbe4638f1	-0.19357659
172	0xbd943c0a	-0.07238014
173	0x3d4c8481	0.049931053
174	0xbe426c5c	-0.18986648
175	0xbdcdfde4	-0.100581914
176	0x3dc2d2c9	0.0951286
177	0xbe04a9f3	-0.12955455
178	0xbe8a21a3	-0.26978788
179	0xbbcd3fc3	-0.0062637045
180	0xbddd051f	-0.107919924
181	0xbd441855	-0.047874767
182	0xbe6fa05b	-0.23401015
183	0xbcec73d8	-0.028863832
184	0xbe2dbc35	-0.16966327
185	0x3c9e0b8b	0.019292613
186	0xbe4c0712	-0.19924572
187	0xbe4341ab	-0.19068019
188	0xbe00e95e	-0.12589023
189	0xbdfcebf1	-0.1234969
190	0x3e2a331a	0.16621056
191	0xbe50563a	-0.20345393
192	0xbe1e486c	-0.15457314
193	0xbe9696f1	-0.29412034
194	0xbf4f8f26	-0.810778
195	0x3d3ec6e4	0.046576396
196	0xbdd557dd	-0.10417149
197	0x3e8f94bd	0.28043166
198	0x3e4e94b6	0.20173916
199	0x3e8f3017	0.27966377
200	0xbe681eb0	-0.22667956
201	0x3dc80c36	0.09767954
202	0xbe05e360	-0.13075018
203	0xbf154270	-0.583045
204	0x3d810cf4	0.06301299
205	0x3e6d7a8c	0.23191279
206	0x3efae247	0.4900076
207	0x3e94e923	0.2908412
208	0x3eba1f56	0.36352032
209	0xbe107944	-0.14108759
210	0x3e9a4d21	0.3013697
211	0xbde7f51e	-0.11326049
212	0xbf3ca456	-0.73688257
213	0x3e990e5c	0.29893768
214	0x3e28f2ef	0.16498922
215	0x3e86e40f	0.2634587
216	0x3e3710c3	0.17877488
217	0x3d0b284a	0.03397397
218	0x3d8c75fb	0.068584405
219	0x3e4eadd8	0.20183504
220	0x399f2307	0.0003035294
221	0x3e122f61	0.14275886
222	0x3e916c39	0.2840288
223	0x3e10b528	0.14131606
224	0x3e95ac08	0.29232812
225	0xbe8a7dbc	-0.27049053
226	0xbed242ce	-0.41066593
227	0xbf04e13e	-0.5190619
228	0xbeb6a7c6	-0.35674876
229	0xbf34efbc	-0.70678306
230	0xbeeb190c	-0.45917547
231	0xbe0443af	-0.12916444
232	0xbe6c43b9	-0.23072709
233	0x3b7987a8	0.0038075242
234	0x3c84ca70	0.016209811
235	0xbe9cca91	-0.30623296
236	0xbe62bff5	-0.22143538
237	0xbe3a3b60	-0.18186712
238	0xbf11b53c	-0.56917167
239	0xbdc08efb	-0.09402271
240	0x3e38862c	0.18019933
241	0xbe0b5364	-0.1360603
242	0xbd297733	-0.041373443
243	0xbfbdab4e	-1.4817903
244	0xbc523364	-0.012829635
245	0xbd9aa880	-0.0755167
246	0xbf8eb81d	-1.1149937
247	0xbfa2dd6d	-1.2723824
248	0xbda777c4	-0.0817714
249	0xc007e2c2	-2.1232152
250	0xbfb141da	-1.3848221
251	0x3da89179	0.08230872
252	0xbfe2ceac	-1.7719321
253	0xbedfbfb1	-0.43700936
254	0xbea777be	-0.32708544
255	0xbfabb4cf	-1.3414553

features.0.bias f4 [32]
0	0xbb520ff7	-0.0032052973
1	0xbea18107	-0.31543753
2	0xbe28e8f8	-0.1649512
3	0xbe990b03	-0.29891214
4	0xbdd0a488	-0.10187632
5	0xbe89eedb	-0.26940045
6	0xbe26ba35	-0.1628197
7	0xbd0d6697	-0.034521665
8	0x3e281bb8	0.16416824
9	0x3ebeb02f	0.37243792
10	0xbd33aec8	-0.043867856
11	0xbee45185	-0.44593444
12	0xbeab6822	-0.33477885
13	0xbed26fc6	-0.411009
14	0xbd230b37	-0.039805617
15	0xbec55a91	-0.3854566
16	0x3eb92d56	0.361674
17	0xbe40a782	-0.18813899
18	0xbcbd5fd0	-0.023116976
19	0xbf00f9b8	-0.5038104
20	0xbd6f20af	-0.05838078
21	0xbf68e8a6	-0.90979993
22	0xbf02ed94	-0.51143765
23	0xbe796e11	-0.24358393
24	0x3db6dbf9	0.08928675
25	0xbda05059	-0.07827825
26	0xbd869a29	-0.065723725
27	0xbe142ec6	-0.14470968
28	0xbb8fbe9e	-0.004386737
29	0xbe863e58	-0.2621944
30	0xbe348e14	-0.17632324
31	0xbed266c0	-0.41094017

features.3.weight f4 [16, 32, 3, 3]
0	0xbdec23be	-0.11530255
1	0xbeaa5da2	-0.3327456
2	0xbe46c4bd	-0.19410987
3	0xbeeaadd5	-0.45835748
4	0xbeb90e51	-0.36143735
5	0x3c9aebed	0.018911326
6	0xbe16fc8f	-0.14744781
7	0x3e23fa0c	0.16013354
8	0x3c1e7eb6	0.009673765
9	0x3f27e931	0.65590197
10	0xbdc59996	-0.09648435
11	0xbe3dcf71	-0.18536164
12	0xbdc0a73c	-0.094068974
13	0x3f04cd01	0.5187531
14	0x3ed54aa3	0.41658506
15	0xbbb709f7	-0.0055859047
16	0x3e86b4ca	0.26309806
17	0x3ec29c87	0.38010046
18	0xbe2b3bca	-0.16722026
19	0x3d90d634	0.07072106
20	0xbee75c5b	-0.4518765
21	0xbeeecd41	-0.4664097
22	0xbe479935	-0.19492038
23	0xbe9150f0	-0.28382063
24	0xbf073713	-0.5281841
25	0xbee86ecd	-0.45397034
26	0x3d90af5c	0.07064697
27	0x3f0b0a96	0.5431303
28	0x3f0bcd27	0.5460991
29	0x3ec2f2a6	0.3807575
30	0x3f04c306	0.5186008
31	0x3d2af8d2	0.0417412
32	0xbe9bb39e	-0.30410475
33	0x3efc36eb	0.4926065
34	0xbe1407d4	-0.14456111
35	0xbf4f60c8	-0.8100705
36	0xbf730deb	-0.9494311
37	0xbf15164d	-0.58237153
38	0xbcf50131	-0.029907795
39	0xbf086542	-0.5327951
40	0x3e868cb5	0.26279226
41	0x3f08314d	0.5320023
42	0xbefe8e2a	-0.49717838
43	0x3f15b97c	0.5848615
44	0x3f850ff2	1.0395491
45	0xbdbb604f	-0.09149229
46	0xbc5cd830	-0.0134792775
47	0xbe4f41bc	-0.2023992
48	0xbc8e7d89	-0.017393844
49	0x3e260adf	0.16215084
50	0xbde9163d	-0.11381195
51	0xbed618c2	-0.41815764
52	0xbddf1c26	-0.10894041
53	0xbe5c8bf8	-0.21537769
54	0x3e0910cf	0.13385318
55	0xbbea4dcd	-0.007150388
56	0xbd317a20	-0.043329358
57	0x3e90052b	0.28128943
58	0xbdefdddc	-0.11712238
59	0xbe035727	-0.12826215
60	0x3dbe899b	0.0930359
61	0xbd2cebcb	-0.042217057
62	0xbe1198d7	-0.1421846
63	0x3edae925	0.42756
64	0xbdba3c90	-0.09093583
65	0x3dcd4f3d	0.10024879
66	0x3d32a97a	0.043618657
67	0xbed7f469	-0.42178658
68	0xbd97ba62	-0.074085966
69	0xbd563d02	-0.052304275
70	0xbe6ee4f2	-0.23329523
71	0xbe902b25	-0.28157917
72	0xbf975f87	-1.1826028
73	0xbf88efdd	-1.06982
74	0xbed6b1e8	-0.41932607
75	0xbf954bb4	-1.1663728
76	0xbf2ccf3d	-0.6750372
77	0xbe5e3cc6	-0.2170287
78	0xbfa1be23	-1.263615
79	0xbec04894	-0.37555373
80	0x3e8e3ed6	0.27782315
81	0xbfa755dc	-1.3073077
82	0xbf72532c	-0.9465816
83	0xbe23aadb	-0.15983145
84	0xbfa09501	-1.2545472
85	0xbe349e92	-0.17638615
86	0x3e39cda8	0.18144858
87	0xbedef4c6	-0.43546122
88	0xbe786b90	-0.24259782
89	0x3e9ef0ae	0.31043
90	0x3e756dde	0.23967692
91	0xbe0f16c1	-0.13973524
92	0x3e3fb2f4	0.18720609
93	0xbd8c67ea	-0.068557575
94	0xbdcf8d5e	-0.101343855
95	0xbea2145a	-0.31656152
96	0x3d4994ee	0.049214296
97	0xbcd1f56e	-0.025629725
98	0xbe39feab	-0.18163554
99	0xbdbea9d7	-0.09309738
100	0xbc989c9e	-0.018629368
101	0xbc97fe87	-0.018553985
102	0x3daa5260	0.08316493
103	0x3d577136	0.0525982
104	0x3d2516c8	0.04030493
105	0x3e84b811	0.25921682
106	0x3e4d74af	0.20064043
107	0x3f747b8a	0.95501006
108	0xbf316aeb	-0.6930377
109	0xbf207777	-0.6268229
110	0xbf0c4088	-0.54785967
111	0x3e25e650	0.16201138
112	0x3e4f7d6d	0.2026269
113	0x3e915dd7	0.28391907
114	0xbd6526ee	-0.05594533
115	0x3cf71152	0.030159626
116	0x3eb8427d	0.35988227
117	0xbe86e0ad	-0.2634329
118	0xbd109879	-0.03530166
119	0x3de2a111	0.11065877
120	0x3e33fcf1	0.17576958
121	0x3e675c3d	0.2259378
122	0x3e917486	0.28409213
123	0xbe2196ca	-0.15780178
124	0xbe4ef380	-0.20210075
125	0xbdc87041	-0.09787036
126	0x3df59ee4	0.119931966
127	0xbac75c08	-0.0015209923
128	0xbc6c7b0c	-0.014433634
129	0x3ea8fbaf	0.3300452
130	0xbdc8abd0	-0.09798396
131	0xbebea8d5	-0.37238184
132	0x3e427afa	0.18992224
133	0xbcd4dce7	-0.02598424
134	0xbef49a7a	-0.47774106
135	0x3d526194	0.05136259
136	0x3e204ec9	0.15655054
137	0xbea40baf	-0.32040164
138	0xbdfd94d7	-0.123819046
139	0x3e35a6d0	0.17739415
140	0xb99b3b36	-0.0002960802
141	0x3e083f4b	0.13305394
142	0x3e63f7bc	0.22262472
143	0x3e04b5cd	0.12959976
144	0xbef0a379	-0.4699972
145	0xbecf513b	-0.4049166
146	0xbe832c74	-0.25619853
147	0x3f043f9a	0.5165955
148	0x3ebb26b3	0.36552963
149	0x3e9f48c2	0.31110197
150	0x3e53a4e0	0.20668364
151	0x3dbef7cf	0.093246095
152	0x3e21bc0e	0.15794393
153	0xbead7ecc	-0.338858
154	0xbe73ea96	-0.23819956
155	0xbe445504	-0.19173056
156	0xbead6671	-0.3386722
157	0xbc7d4081	-0.015457273
158	0x3db76a01	0.089557655
159	0xbecea45c	-0.4035977
160	0xbde820ab	-0.11334356
161	0x3e8e61d9	0.27809027
162	0xbe5c5afc	-0.21519083
163	0x3dfd90c2	0.12381126
164	0x3e7b24a5	0.24525698
165	0x3df388a2	0.11891295
166	0xbe460f8c	-0.19341868
167	0x3e0a0246	0.1347743
168	0x3c0779b6	0.008268764
169	0xbee57f10	-0.44823503
170	0xbcfbb1d2	-0.03072444
171	0x3ec6daf2	0.38838917
172	0x3e2bf4ee	0.16792652
173	0x3e90a0d0	0.2824769
174	0x3e01ec3c	0.12687773
175	0xbd878073	-0.066162966
176	0x3df4be25	0.1195033
177	0xbe803008	-0.25036645
178	0xbcddd83d	-0.02708065
179	0xbd42d8d0	-0.04757005
180	0xbd0adc70	-0.03390163
181	0xbe7cabde	-0.24674937
182	0xbe91e322	-0.284936
183	0x3da004f5	0.078134455
184	0x3df849b0	0.1212343
185	0x3e4637b5	0.19357188
186	0x3dfeb8b7	0.12437575
187	0x3e99e231	0.30055383
188	0x3ee202a4	0.4414264
189	0x3e87ffa1	0.26562217
190	0xbde74be2	-0.112937704
191	0xbd8992a9	-0.06717426
192	0x3eff196f	0.49824092
193	0xbd54332a	-0.051806606
194	0xbe9f73e6	-0.3114311
195	0x3e1aec56	0.15129218
196	0xbe003953	-0.12521867
197	0xbe8f82ee	-0.2802958
198	0xbe9f884d	-0.31158677
199	0xbe5ab0de	-0.21356532
200	0xbe9a68cb	-0.30158076
201	0xbe97899f	-0.29597184
202	0xbe41b50d	-0.18916722
203	0xbe34edd7	-0.17668854
204	0xbec09da2	-0.37620264
205	0xbf3a1e45	-0.7270244
206	0x3e257a41	0.16159917
207	0x3e726ff8	0.23675525
208	0x3e27ab06	0.16373834
209	0xbe7206db	-0.23635428
210	0x3e724001	0.23657228
211	0xbe5754e1	-0.21028472
212	0xbda9548d	-0.0826808
213	0xbe1d33b0	-0.15351748
214	0xbea82515	-0.3284079
215	0xbe836ae3	-0.25667486
216	0xbd5445e1	-0.051824454
217	0xbda5e7ee	-0.08100878
218	0x3d9bba43	0.07603886
219	0x3d0429b9	0.032266352
220	0xbea85057	-0.32873794
221	0xbf021164	-0.50807786
222	0x3e1135da	0.14180699
223	0xbf20594a	-0.62636244
224	0xbf0a1a5b	-0.53946465
225	0xbf86c8e0	-1.0530052
226	0xbea683d8	-0.32522464
227	0x3df5a6fe	0.11994742
228	0xbf56d654	-0.8392079
229	0x3eaa24f9	0.33231333
230	0x3f858746	1.0431907
231	0xbf4f10cd	-0.8088501
232	0x3f193479	0.5984569
233	0x3f870ae2	1.0550196
234	0xbf348fbd	-0.7053183
235	0xbe8f4772	-0.27984196
236	0xbf9bc876	-1.2170551
237	0xbede60bf	-0.43433186
238	0xbc65833f	-0.014008342
239	0x3df43ab8	0.11925262
240	0xbf9e7070	-1.2378063
241	0xbf0c407d	-0.547859
242	0x3d8ef249	0.06979806
243	0xbe99b9ba	-0.3002451
244	0xbe7fac80	-0.24968147
245	0x3e263998	0.16232908
246	0xbea4b873	-0.32171974
247	0xbd4431c7	-0.047899034
248	0x3e89a83a	0.2688616
249	0xbe5f2d37	-0.21794592
250	0xbee095c2	-0.43864256
251	0xbeb76715	-0.35820833
252	0xbef94dca	-0.4869216
253	0xbedda561	-0.43290237
254	0xbef7a3c1	-0.48367122
255	0xbeb1eb6d	-0.34749928

features.3.bias f4 [16]
0	0xbe346d0a	-0.1761972
1	0x3d9cd162	0.07657124
2	0xbdce5a1b	-0.1007578
3	0x3d2fc4f7	0.04291245
4	0xbd1fd5dd	-0.039022315
5	0xbd468bea	-0.048473276
6	0xbda107b3	-0.07862797
7	0x3e203181	0.15643884
8	0xbdafdebb	-0.08587404
9	0xbce59cb6	-0.028028827
10	0xbe1d7944	-0.1537829
11	0xbeb26d94	-0.34849226
12	0x3e0c633e	0.13709733
13	0xbf157eed	-0.583968
14	0x3ce5136c	0.027963363
15	0xbe2a0646	-0.16603956

features.6.weight f4 [8, 16, 3, 3]
0	0xbe21500e	-0.15753195
1	0xbc47944d	-0.012181354
2	0xbcd3195c	-0.025768928
3	0xbcbe18a6	-0.023205113
4	0x3e1231e2	0.14276841
5	0x3cc71990	0.024304181
6	0xbe034f1d	-0.12823148
7	0x3ca50ae2	0.02014679
8	0x3daeaa81	0.08528615
9	0xbe1c9cd1	-0.15294196
10	0xbdc17747	-0.094465785
11	0x3ce77e79	0.028258549
12	0xbdb5c8a6	-0.08876161
13	0x3f0c3a91	0.54776865
14	0x3edc8617	0.43071052
15	0xbe2792b9	-0.16364564
16	0x3e9d0cca	0.3067382
17	0x3ec9c1ca	0.39405662
18	0xbd168981	-0.036752228
19	0xbc9c09fa	-0.019047726
20	0x3c441e38	0.011970095
21	0x3db2133e	0.086950764
22	0xbe44e4f9	-0.19227971
23	0x3dcb2f81	0.0992117
24	0x3df5f384	0.120093375
25	0x3ce2c38d	0.027681137
26	0xbcdd1754	-0.026988663
27	0x3d559cce	0.052151494
28	0xbe38664e	-0.18007776
29	0xbe19918b	-0.14996926
30	0x3d600669	0.054693613
31	0x3df13853	0.11778321
32	0xbc4c1aef	-0.012457593
33	0x3e3118c4	0.17294604
34	0x3e8b3781	0.27190784
35	0x3ea6cf19	0.32579878
36	0x3dff9496	0.124795124
37	0x3e4ea09d	0.20178457
38	0x3e1d1c1a	0.15342751
39	0x3e14ded1	0.14538123
40	0x3ea29fd8	0.31762576
41	0x3edded7a	0.43345243
42	0x3e4fe82a	0.20303407
43	0x3ebfd11c	0.37464225
44	0x3ed10eb5	0.40831533
45	0xbcebc515	-0.0287805
46	0xbe3281c4	-0.17432314
47	0xbe24060f	-0.16017936
48	0xbe87e4ab	-0.26541647
49	0xbf539ecd	-0.82664186
50	0xbfab45e4	-1.3380704
51	0x3d94afd2	0.072600976
52	0xbea7ef39	-0.327997
53	0xbf487fc1	-0.78319937
54	0x3e9a2ab3	0.30110702
55	0xbd49297e	-0.049111836
56	0x3e8a2f03	0.26988992
57	0xbe96e772	-0.29473454
58	0xbed0a233	-0.40748748
59	0xbe8f3adf	-0.27974603
60	0x3e130882	0.14358714
61	0xbe023b04	-0.12717825
62	0xbcc08990	-0.023503095
63	0x3e025108	0.12726223
64	0xbdacb69f	-0.0843327
65	0xbe9aced9	-0.30235937
66	0x3bad2e5f	0.005285069
67	0xbf058ce3	-0.521681
68	0xbeea4f0b	-0.4576343
69	0x3c5d4bc9	0.013506838
70	0xbe31b5fa	-0.17354575
71	0xbea97d10	-0.33103228
72	0xbdf413ea	-0.11917861
73	0xbd158976	-0.036508046
74	0xbe0c1afc	-0.13682169
75	0xbcd791de	-0.026314672
76	0xbd679371	-0.056537095
77	0x3dd7a446	0.105293795
78	0xbc4c9ce7	-0.01248858
79	0x3dcfd8b9	0.101487584
80	0x3da1d77a	0.07902427
81	0x3dc7af22	0.09750201
82	0xbca23491	-0.019800456
83	0xbd50d639	-0.05098555
84	0xbe85a8f3	-0.2610546
85	0xbed77e92	-0.42088753
86	0xbe95d2b4	-0.29262316
87	0xbd837744	-0.064192325
88	0xbf2389fa	-0.6388241
89	0xbe7540aa	-0.23950449
90	0xba9af90b	-0.0011823488
91	0xbe006ed1	-0.12542273
92	0xbe1b19f4	-0.15146619
93	0x3d8e46a1	0.06947065
94	0x3d17e08c	0.03707938
95	0xbe071137	-0.1319016
96	0x3d5e1827	0.054222252
97	0xbcf4029e	-0.029786404
98	0x3d60681f	0.054786798
99	0xbee681c0	-0.45020866
100	0xbe5b39d5	-0.2140878
101	0x3e96a23c	0.2942065
102	0xbee1ba46	-0.44087428
103	0x3e85275c	0.2600659
104	0x3dc38646	0.09547095
105	0xbed2a5bc	-0.4114207
106	0x3d724818	0.059150785
107	0xbd6907ed	-0.056892324
108	0x3cc126e3	0.023578113
109	0x3eedab6d	0.4641985
110	0x3e56a65b	0.20961897
111	0xbe3f8c5b	-0.18705885
112	0x3e7a69ae	0.24454376
113	0x3e8c02f2	0.27345997
114	0x3cd6c602	0.026217464
115	0x3e36b90b	0.17844026
116	0xbe2cff95	-0.16894372
117	0xbecb0055	-0.3964869
118	0xbebfd528	-0.37467313
119	0xbe6462fd	-0.22303386
120	0xbf002321	-0.500536
121	0x3b35d5c8	0.0027745832
122	0xbd02b3da	-0.0319098
123	0xbe27d41c	-0.16389507
124	0xbd623aaf	-0.055231746
125	0xbd265141	-0.040604834
126	0xbdf0b76b	-0.11753734
127	0xbd03b365	-0.032153506
128	0xbe1ef73b	-0.15523998
129	0xbd19fd9d	-0.03759538
130	0x3d01f4db	0.031727653
131	0x3e95a3d3	0.2922655
132	0xbc710f9f	-0.014713197
133	0x3e120e0e	0.14263174
134	0x3e81d005	0.2535402
135	0xbcbf0a74	-0.023320414
136	0x3e817a80	0.25288773
137	0x3e74e84b	0.23916738
138	0x3e2385cf	0.15969013
139	0x3eddd529	0.4332669
140	0x3ce2f29b	0.027703574
141	0xbdd8948c	-0.10575208
142	0xbd85fd79	-0.06542487
143	0x3e0966c7	0.13418113
144	0x3e404eca	0.18780056
145	0xbe84d63f	-0.25944707
146	0x3d651736	0.05593034
147	0xbd3e4c08	-0.046459228
148	0xbd18eed5	-0.037337143
149	0x3d653667	0.055960085
150	0xbdd92ba9	-0.10604031
151	0x3c25b8c8	0.010114856
152	0xbd42f1a8	-0.047593743
153	0x3d828cb3	0.063744925
154	0xbc8cc721	-0.017184796
155	0xbe354d43	-0.17705254
156	0xbd985414	-0.07437912
157	0x3db5a84b	0.0886999
158	0xbdd7203a	-0.105041936
159	0xbe87cd34	-0.26523745
160	0xbe3a4388	-0.18189824
161	0xbd43f548	-0.04784134
162	0x3cd67ab4	0.026181556
163	0x3cb954d9	0.022623466
164	0x3d0c3f15	0.034239847
165	0xbe2cb19b	-0.16864626
166	0xbe1a23ee	-0.15052769
167	0xbaf27164	-0.0018496928
168	0x3d52d276	0.051470242
169	0x3e1087ff	0.14114378
170	0x3e2b7c46	0.16746625
171	0xbd3d754a	-0.046254434
172	0xbe02f06c	-0.12787026
173	0xbe4550fe	-0.19269177
174	0xbe033737	-0.12814032
175	0xbd5c6e7e	-0.05381631
176	0xbe0c046c	-0.13673562
177	0x3e247557	0.16060387
178	0xbde689a7	-0.11256724
179	0xbe3129f9	-0.17301168
180	0xbe29cb86	-0.16581544
181	0xbe06da48	-0.13169205
182	0x3d0de291	0.0346399
183	0xbdde3f87	-0.10851961
184	0x3dd033bb	0.10166117
185	0x3d4f92dc	0.050677165
186	0xbcb206ba	-0.021731723
187	0xbd489f9a	-0.048980333
188	0x3cf68fe6	0.030097913
189	0xbda75984	-0.081713706
190	0xbe70adbf	-0.23503779
191	0xbddc46cb	-0.1075569
192	0xbe502f5c	-0.20330566
193	0x3e8649f7	0.26228306
194	0x3e35d637	0.17757498
195	0xbe405a0c	-0.1878435
196	0xbcbb7508	-0.022882953
197	0xbcad5b08	-0.021161571
198	0xbebd7478	-0.3700292
199	0xbe537666	-0.20650634
200	0x3e0c03fa	0.13673392
201	0xbe1a3ecd	-0.15063019
202	0xbd1aaa25	-0.03775992
203	0x3e97d6ab	0.29655966
204	0xbd4ea65b	-0.050451618
205	0x3ee8283f	0.45343205
206	0x3e9dec6e	0.30844444
207	0xbe21adcf	-0.15788959
208	0x3df3478d	0.118788816
209	0xbe968c38	-0.29403853
210	0x3d74b8f1	0.059746686
211	0x3cb67ebb	0.022277227
212	0xbcc1dd89	-0.023665207
213	0xbcb84fd2	-0.022498999
214	0x3e6cbb8d	0.2311842
215	0x3e0ed5c2	0.1394873
216	0x3c44d8c4	0.012014572
217	0x3de31e64	0.11089781
218	0xbd547bac	-0.051875755
219	0x3d813ece	0.06310807
220	0x3d3e71a6	0.046495102
221	0x3d2f6705	0.042822856
222	0x3dd4129a	0.103551105
223	0xbdc7d231	-0.09756888
224	0xbe013290	-0.12616944
225	0x3ef74041	0.4829121
226	0x3ea4573d	0.32097808
227	0x3e6896f0	0.22713828
228	0x3eaa4db8	0.3326242
229	0x3ea90971	0.33015016
230	0x3e440e98	0.19146192
231	0x3eb6849b	0.35648045
232	0xbdc32b6e	-0.09529768
233	0x3f192d7b	0.5983502
234	0xbe736dc6	-0.23772344
235	0xbdb41297	-0.08792608
236	0x3e344710	0.17605233
237	0xbe0a9b8a	-0.13535896
238	0xbcce5234	-0.025185682
239	0x3c1049b4	0.008806635
240	0xbde39407	-0.11112218
241	0xbe086921	-0.13321353
242	0xbd437fd4	-0.04772933
243	0x3cc38182	0.023865465
244	0x3d52b0ed	0.05143826
245	0xbd18c737	-0.03729936
246	0x3e3bac50	0.18327451
247	0x3ec0e834	0.37677157
248	0x3dba33f4	0.090919405
249	0x3dfaa056	0.12237613
250	0x3e338f19	0.17535056
251	0x3e9fa4e2	0.31180483
252	0x3e9b900f	0.30383345
253	0x3e86b762	0.26311785
254	0x3e28cc16	0.16484103
255	0x3e9bea70	0.304523

features.6.bias f4 [8]
0	0x3ebf7a15	0.3739783
1	0xbef1fe3d	-0.4726428
2	0x3f24b710	0.6434183
3	0x3ed561b0	0.41676092
4	0x3cbf9a48	0.023388997
5	0xbedebdc0	-0.43504143
6	0xbe8582a9	-0.26076248
7	0xbf10a389	-0.56499535

classifier.0.weight f4 [128, 1568]
0	0x3d9f522a	0.077793434
1	0x3d82c6e8	0.063855946
2	0xbe147575	-0.14497931
3	0xbdde9b1e	-0.1086943
4	0xbe823753	-0.25432834
5	0xbe3a052d	-0.18166037
6	0xbe3913b5	-0.18073924
7	0xbe4d9f60	-0.20080328
8	0xbea47f72	-0.32128483
9	0xbe7947f8	-0.2434386
10	0xbdc09edd	-0.09405301
11	0xbdb59ee6	-0.08868198
12	0x3c50b0a7	0.01273743
13	0x3d581cc8	0.052761823
14	0x3daf2a44	0.085529834
15	0xbe4ff691	-0.20308901
16	0xbe53a981	-0.2067013
17	0xbe245998	-0.16049802
18	0xbd993002	-0.0747986
19	0x3aa0048d	0.0012208387
20	0xbdd9e8a5	-0.106400765
21	0xbdcbf005	-0.099578895
22	0xbe8fa2b4	-0.2805382
23	0xbdbb6b95	-0.09151379
24	0xbe6fd0c4	-0.23419482
25	0xbe88e716	-0.26738805
26	0xbdad57d6	-0.08464019
27	0x3c41fc41	0.011839927
28	0xbe1627f6	-0.14663681
29	0xbe29af1e	-0.16570708
30	0xbe5337e2	-0.20626786
31	0xbd94458e	-0.07239829
32	0xbd866168	-0.065615475
33	0xbc6626f7	-0.014047376
34	0x3cb01e4b	0.02149882
35	0xbc9f8797	-0.019473834
36	0xbe2cbf40	-0.16869831
37	0xbdef546d	-0.11686025
38	0xbdf23ac6	-0.118276164
39	0xbe38d812	-0.18051174
40	0xbe3a2165	-0.18176802
41	0xbce8aa43	-0.0284015
42	0xbea14cfe	-0.31504053
43	0xbe8055cf	-0.25065467
44	0xbc905b8d	-0.01762178
45	0xbb566fc1	-0.003272042
46	0xbc40f732	-0.011777686
47	0xbcc01063	-0.023445314
48	0x3bd63aa1	0.006537751
49	0xbd715ffe	-0.058929436
50	0xbd75bc69	-0.059994135
51	0xbc889d2a	-0.016676504
52	0x3d3f95fa	0.04677389
53	0xbb8c39a9	-0.0042793346
54	0xbd0f2794	-0.034949854
55	0xbe72ba96	-0.2370399
56	0xbe50a3ec	-0.20375031
57	0xbe1c4aec	-0.15262955
58	0xbde8a5a4	-0.113597184
59	0xbcb855bf	-0.022501824
60	0xbd3b9ee7	-0.045805838
61	0x3c8f4ee5	0.017493675
62	0x3d2a75ec	0.041616365
63	0x3c829570	0.015940398
64	0x3c7cd643	0.015431943
65	0xbd9bd2ed	-0.0760859
66	0xbc9472be	-0.01812112
67	0x3da67e0b	0.081295095
68	0xbd99bf38	-0.07507175
69	0xbd911cd0	-0.07085574
70	0xbe4d6586	-0.2005826
71	0xbde2254d	-0.11042271
72	0xbdce352f	-0.10068738
73	0x3cc72f49	0.02431454
74	0x3de65c8b	0.1124812
75	0x3e3c5a51	0.18393828
76	0x3e825956	0.25458783
77	0x3d9bcea3	0.07607772
78	0x3dd8c258	0.10583943
79	0x3e0e8a52	0.13919953
80	0x3c39f4cd	0.011349869
81	0xbdd42311	-0.10358251
82	0xbd95668d	-0.07294951
83	0xbd9c28d5	-0.076249756
84	0xbd84e13c	-0.064882725
85	0xbe6816cd	-0.22664948
86	0xbd871b3d	-0.06596992
87	0x3da59b50	0.08086264
88	0x3e2a9af8	0.16660678
89	0x3e4dafff	0.20086668
90	0x3e8198d3	0.25311908
91	0x3e5710a6	0.21002445
92	0x3d8ad9bd	0.067798115
93	0x3dc6c04a	0.09704645
94	0xbd8d2cf5	-0.068933405
95	0xbe2f5e4e	-0.17125818
96	0xbdefb888	-0.117051184
97	0xbe5e0b51	-0.21684004
98	0xbe26db14	-0.16294509
99	0xbe7d55b1	-0.2473972
100	0xbd558cd7	-0.05213627
101	0x3da41cee	0.080133304
102	0x3e113964	0.14182049
103	0x3e662569	0.22475208
104	0x3e798b6c	0.24369591
105	0x3e87add1	0.264998
106	0x3e8fa1de	0.28053182
107	0x3dfb9170	0.122835994
108	0x3caeea5c	0.021351986
109	0xbdbbc699	-0.09168739
110	0xbdde18e6	-0.10844593
111	0xbe800c89	-0.25009564
112	0xbe181c0e	-0.14854452
113	0xbdaef7d3	-0.085433625
114	0xbd4fd18e	-0.050736956
115	0x3c9e6d29	0.019339161
116	0x3da69126	0.081331536
117	0x3dfebbd8	0.12438172
118	0x3e54aa45	0.20768078
119	0x3e588a5c	0.2114653
120	0x3e293403	0.16523747
121	0x3d599956	0.05312475
122	0xbd0ce599	-0.03439865
123	0xbda1186f	-0.078659885
124	0xbe3eb5ed	-0.18624087
125	0xbe896ce2	-0.26840883
126	0xbe8dfdf2	-0.27732807
127	0xbe2a5b87	-0.16636477
128	0xbdf014e6	-0.11722736
129	0xbd1bf092	-0.038071223
130	0x3d32189e	0.043480508
131	0x3e15e219	0.1463703
132	0x3e2166c8	0.15761864
133	0x3d9f520e	0.077793226
134	0x3d99f21b	0.07516881
135	0xbda3d06a	-0.07998736
136	0xbe08b287	-0.13349353
137	0xbe7b738a	-0.24555793
138	0xbe3a2992	-0.1817992
139	0xbdecc03e	-0.11560105
140	0xbe2bbfeb	-0.1677243
141	0xbe5516cf	-0.20809482
142	0xbe57e849	-0.21084704
143	0xbd22df42	-0.039763696
144	0xbd0f9059	-0.03504977
145	0xbc9f90c7	-0.019478215
146	0xbe0957ec	-0.13412446
147	0xbd5c6730	-0.053809345
148	0xbde4899d	-0.1115906
149	0xbdd26a4f	-0.10274183
150	0xbe6f4340	-0.23365498
151	0xbddfad97	-0.109217815
152	0xbdfca0b7	-0.123353414
153	0xbe76b66e	-0.24093029
154	0xbe837210	-0.2567296
155	0xbddd749b	-0.10813256
156	0xbe44b6df	-0.19210385
157	0xbe21fef1	-0.15819909
158	0xbdc27e5f	-0.094967596
159	0xbd4d9ea2	-0.050200112
160	0xbdd3cde1	-0.10342003
161	0xbe0070b6	-0.12542996
162	0x3d199ec9	0.037504945
163	0xbe057c50	-0.13035703
164	0xbe22618b	-0.15857522
165	0xbe1e5b6c	-0.15464562
166	0xbd74ca58	-0.059763283
167	0xbe1b5239	-0.15168084
168	0x3cfb7fd9	0.030700611
169	0xbdb92062	-0.0903938
170	0xba56d865	-0.00081956974
171	0xbe06dea1	-0.13170864
172	0xbe4faeeb	-0.2028157
173	0xbe598978	-0.21243846
174	0xbe20ff22	-0.15722325
175	0xbe2b089c	-0.16702503
176	0xbe54c4d1	-0.20778205
177	0xbe05ec1f	-0.13078354
178	0xbe957443	-0.29190263
179	0xbe590011	-0.21191432
180	0xbe623a8e	-0.2209265
181	0xbd2a7184	-0.041612163
182	0x3db79f01	0.089658745
183	0xbddb8b27	-0.107199006
184	0xbe8265c4	-0.25468266
185	0xbdd3fc53	-0.103508614
186	0xbda2a223	-0.079410814
187	0xbe13da8a	-0.14438835
188	0xbe822dd1	-0.2542558
189	0xbe54fd6d	-0.207998
190	0xbe87c452	-0.26516968
191	0xbe01f735	-0.12691958
192	0xbdd2ca12	-0.10292448
193	0xbe766261	-0.24060966
194	0xbdd72275	-0.10504619
195	0x3d5756c0	0.052572966
196	0xbc830532	-0.015993688
197	0xbe1123e4	-0.14173847
198	0xbdd97aa2	-0.106190935
199	0xbdcb679f	-0.099318735
200	0x3b570aed	0.0032812909
201	0xbd8382fb	-0.06421467
202	0x3de2fe24	0.1108363
203	0x3dd70f85	0.10501007
204	0xbdfcfb38	-0.12352604
205	0xbd22cfc9	-0.03974894
206	0x3d11d8d7	0.035607185
207	0xbd4137f4	-0.0471725
208	0x3decba95	0.11559025
209	0x3dcdc44c	0.10047206
210	0xbd56c570	-0.052434385
211	0xbda8ba81	-0.08238698
212	0xbceab70f	-0.028651742
213	0xbbe564f8	-0.007000562
214	0xbcc7d581	-0.024393799
215	0xbce6966b	-0.028147897
216	0x3e1bb2e8	0.15204966
217	0x3d7a2e2c	0.06107919
218	0xbd893bca	-0.06700857
219	0x3bc10b3d	0.0058912323
220	0x3c4f8583	0.012666109
221	0xbe256d96	-0.16155085
222	0xbd0d9b32	-0.034571834
223	0x3c345cf8	0.011008494
224	0xbe1c61b2	-0.15271643
225	0x3d943e03	0.0723839
226	0x3cbf0afb	0.023320666
227	0xbd88801f	-0.06665062
228	0x3bd3a0b8	0.006458368
229	0xbe0d9ed4	-0.1383012
230	0x3cb46918	0.022022769
231	0x3cc26118	0.023727939
232	0x3be52e54	0.006994048
233	0xbbbf7cb3	-0.0058437227
234	0x3d013ae3	0.0315503
235	0xbd928bc4	-0.071555644
236	0x3d66ff27	0.056395676
237	0x3dc508d8	0.096208274
238	0xbd186390	-0.037204325
239	0xbd21e856	-0.039528213
240	0x3cb838ef	0.022488086
241	0xbd17c09d	-0.037048925
242	0xbe113122	-0.14178899
243	0xbd1df562	-0.038564093
244	0xbbefec47	-0.0073218676
245	0x3c14ac78	0.009074323
246	0x3dc560bb	0.096375905
247	0x3da7cba6	0.0819314
248	0xbd20a3c4	-0.03921868
249	0xbd3a42e6	-0.045473956
250	0xbccf010a	-0.02526905
251	0x3daa238f	0.083075635
252	0x3d3b78d2	0.04576952
253	0x3c45252a	0.012032786
254	0x3daff1c5	0.08591036
255	0xbd75e3c0	-0.060031652

classifier.0.bias f4 [128]
0	0x3e17c238	0.14820182
1	0x3c61df79	0.01378619
2	0x3e1ca2aa	0.15296426
3	0xbd992f00	-0.07479668
4	0xbea5325a	-0.32264978
5	0xbae28f43	-0.0017285127
6	0xbe9d8ca3	-0.3077136
7	0x3eec9f55	0.4621531
8	0xbd24d7f5	-0.040245015
9	0xbdc9c285	-0.09851555
10	0x3ba13fca	0.0049209343
11	0x3eade941	0.3396702
12	0xbc841295	-0.016122142
13	0xbe54a305	-0.20765312
14	0xbc994531	-0.01870975
15	0xbb542635	-0.0032371406
16	0xbe02d472	-0.12776354
17	0x3e86e4b2	0.26346356
18	0x3e3acd33	0.1824234
19	0x3dfa030c	0.122076124
20	0x3d85b20a	0.06528099
21	0xbd9c4044	-0.07629445
22	0xbe77b6dc	-0.24190849
23	0x3ce50041	0.027954223
24	0xbc96c01f	-0.018402157
25	0x3d4c5302	0.04988385
26	0x3ece29b2	0.40266186
27	0x3e68daaa	0.22739664
28	0x3bd8db4a	0.006617938
29	0xbc106eca	-0.008815477
30	0x3e17e5cc	0.14833754
31	0x3e1400db	0.14453451
32	0xbcbb28e7	-0.022846652
33	0xbe6318c3	-0.22177415
34	0xbe6dfa9a	-0.23240128
35	0xbeab6895	-0.33478227
36	0x3dce1657	0.10062855
37	0xbe381a1b	-0.17978708
38	0x3cdf2624	0.027239867
39	0x3e8e7d9a	0.278302
40	0x3d1720d0	0.036896527
41	0xbc1ee627	-0.009698427
42	0x3d42b96a	0.047540106
43	0x3dea7536	0.114481375
44	0x3e90ead2	0.28304154
45	0x3e837971	0.2567859
46	0x3d3edbcf	0.046596345
47	0xbe5dcd07	-0.21660243
48	0xbe68cbd9	-0.22734012
49	0x3e5a6792	0.21328571
50	0x3eae74c0	0.34073448
51	0xbce5e558	-0.028063461
52	0xbde6969a	-0.11259194
53	0xbbe363f4	-0.0069394056
54	0x3ec1de55	0.37864938
55	0x3e2bac80	0.16765022
56	0xbcd94cd9	-0.026525902
57	0x3da5f409	0.08103187
58	0xbcf1a3f7	-0.02949713
59	0xbe518328	-0.20460188
60	0xbe94cc12	-0.29061943
61	0x3e194278	0.14966762
62	0x3e08e3b2	0.13368109
63	0x3ec83575	0.39103284
64	0x3e358304	0.1772576
65	0xbe0e65d9	-0.1390604
66	0x3d957b14	0.07298866
67	0x3e28f252	0.16498688
68	0x3ea7cee6	0.32775038
69	0xbdee0915	-0.11622826
70	0x3b954f50	0.004556574
71	0xbed9d9b9	-0.42548922
72	0xbe22f2e9	-0.15912975
73	0xbd1f6f37	-0.038924422
74	0x3e065c60	0.13121176
75	0x3cb888ab	0.022526106
76	0x3e0d2b81	0.13786127
77	0x3caaadd1	0.020834835
78	0xbc143f87	-0.009048349
79	0xbeaaa76d	-0.3333086
80	0x3db7493a	0.08949514
81	0x3e23c42f	0.15992807
82	0xbcca47dd	-0.02469247
83	0xbd940bd2	-0.07228817
84	0xbd1cf83b	-0.03832267
85	0x3dc6fc75	0.09716121
86	0xbda36300	-0.07977867
87	0xbdde8066	-0.10864334
88	0x3d6c9e3c	0.05776809
89	0xbddffe40	-0.10937166
90	0x3d8a9366	0.06766395
91	0x3d6b17dc	0.0573958
92	0x3d4ce29f	0.05002081
93	0x3e9d817c	0.3076285
94	0x3e3eea2b	0.18644015
95	0x3d8ec11c	0.069704264
96	0x3cbdd19e	0.023171242
97	0x3db17ea5	0.08666734
98	0x3e3581e2	0.17725328
99	0x3d5f36ab	0.054495495
100	0xbea21f13	-0.31664333
101	0x3ddbe23a	0.10736509
102	0xbe7ee32b	-0.24891345
103	0x3cad5480	0.021158457
104	0xbe547f64	-0.2075172
105	0x3be70ebe	0.007051318
106	0xbdc09704	-0.09403804
107	0xbd08be43	-0.033384573
108	0xbe2f07a3	-0.17092757
109	0xbecc6121	-0.39917853
110	0xbe27b1f7	-0.16376482
111	0x3c778a82	0.015108706
112	0xbc124c08	-0.00892926
113	0x3e43661c	0.1908192
114	0xbcb4b06e	-0.022056784
115	0xbe10e1e2	-0.14148667
116	0xbc356bf3	-0.0110731
117	0xbdd3d855	-0.103439964
118	0x3da2d20c	0.079502195
119	0x3e54bf6b	0.20776145
120	0x3c653498	0.01398959
121	0xbe441fba	-0.19152728
122	0xbd6cf6c9	-0.05785254
123	0xbe47c8d5	-0.19510205
124	0x3b13724e	0.002249855
125	0xbea9f871	-0.33197358
126	0x3d1e4f03	0.03864957
127	0x3d63f24e	0.055651

classifier.3.weight f4 [10, 128]
0	0xbe268f24	-0.16265541
1	0x3dfb8c23	0.12282588
2	0x3ca25144	0.019814141
3	0xbeb100d4	-0.34570944
4	0xbb7bc568	-0.0038417224
5	0x3e33cc81	0.17558481
6	0x3d3f1df0	0.04665941
7	0xbef08175	-0.46973768
8	0xbd8a95d8	-0.06766862
9	0x3d20c9a2	0.039254792
10	0xbe301c44	-0.17198282
11	0x3e0661f3	0.13123302
12	0x3aa53557	0.0012604397
13	0x3d3934a5	0.04521622
14	0x3d8d23c4	0.068915874
15	0xbe4dbf0b	-0.20092408
16	0x3e2b929b	0.16755144
17	0xbdbbe284	-0.09174064
18	0xbe65324a	-0.22382465
19	0xbe435545	-0.19075496
20	0x3e096b5a	0.13419858
21	0x3d3b1ba2	0.04568065
22	0x3dba082f	0.09083592
23	0xbe895ad3	-0.26827106
24	0x3e2c5705	0.1683007
25	0xbe9bd396	-0.30434865
26	0xbd4c5fa9	-0.049895916
27	0xbe329cee	-0.17442676
28	0xbd2b6cc7	-0.041851785
29	0xbed91d0f	-0.42404982
30	0x3df3f431	0.1191181
31	0xbdf16196	-0.11786191
32	0x3db96073	0.09051599
33	0x3d840a7c	0.06447312
34	0x3da36317	0.07977884
35	0x3d8e1213	0.06937041
36	0x3e1d3709	0.15353025
37	0x3da62e84	0.08114341
38	0xbc5f313a	-0.013622576
39	0xbd2c62d0	-0.042086422
40	0xbdee185f	-0.11625742
41	0x3d02ba63	0.031916033
42	0x3d3c5582	0.045979984
43	0x3e0455c7	0.12923346
44	0x3dd11423	0.10208919
45	0xbe4f787a	-0.20260802
46	0xbdef4d97	-0.11684721
47	0xbd786287	-0.060640838
48	0xbe328633	-0.17434005
49	0x3da4744b	0.080299936
50	0xbdc66179	-0.0968656
51	0x3dc2aae5	0.09505252
52	0x3e12c974	0.14334661
53	0x3e0cb520	0.13740969
54	0x3d86c7ff	0.06581115
55	0x3dda3c82	0.10656072
56	0x3e1ef469	0.15522923
57	0xbd06dd36	-0.032925807
58	0x3dac0312	0.08399023
59	0x3ddda397	0.10822218
60	0x3dae8c45	0.08522848
61	0x3deadf60	0.11468387
62	0x3e4e7a5d	0.20163865
63	0x3b4e614b	0.0031491097
64	0xbe96d56f	-0.29459712
65	0x3c4f7191	0.012661354
66	0xbe1aaf13	-0.15105848
67	0x3e16c09b	0.1472191
68	0x3ccb93d7	0.024850769
69	0xbe8b9312	-0.27260643
70	0x3ceed88c	0.029155992
71	0x3cdd5264	0.027016826
72	0xbe5abf21	-0.21361972
73	0x3d9d4121	0.07678438
74	0x3b723094	0.0036955224
75	0x3db7e2bb	0.08978792
76	0xbe92814d	-0.28614274
77	0x3d60b057	0.05485567
78	0x3d9963f5	0.074897684
79	0xbda77a4e	-0.08177625
80	0xbea2b940	-0.3178196
81	0xbe83d8a5	-0.25751224
82	0xbda5f373	-0.08103075
83	0xbe09988e	-0.13437101
84	0xbe47f7dc	-0.19528145
85	0x3e157283	0.14594464
86	0xbb7e8edc	-0.0038842475
87	0xbdd9c632	-0.10633506
88	0xbe1f391b	-0.15549128
89	0x3e0f178e	0.13973829
90	0x3dd14ea6	0.10220079
91	0x3ceecffa	0.029151905
92	0xbe1c416a	-0.15259328
93	0x3d30d6d3	0.043173622
94	0xbe049374	-0.12946874
95	0x3c14ec3b	0.009089525
96	0x3e5cf66d	0.21578379
97	0xbe99a480	-0.30008316
98	0xbd85a150	-0.065249085
99	0xbdc71bb6	-0.09722082
100	0x3ddaf838	0.10691875
101	0x3ca9b76b	0.020717343
102	0x3d9b2469	0.07575304
103	0x3d542e39	0.051801894
104	0xbbff4792	-0.0077905143
105	0x3dc0a4c0	0.094064236
106	0x3e0087e3	0.12551837
107	0x3c6fcd86	0.014636403
108	0xbdda50e0	-0.10659957
109	0xbca5f3fc	-0.020257942
110	0x3d8fd91f	0.070238344
111	0xbdf664ad	-0.12030921
112	0xbcd41dd3	-0.025893128
113	0x3d8cb9c4	0.068713695
114	0xbd82fbf1	-0.0639571
115	0x3d59458c	0.05304484
116	0xbe4e6843	-0.2015696
117	0xbd0bc428	-0.034122616
118	0xbe38e981	-0.18057825
119	0xbea0f0f8	-0.31433845
120	0xbd1b1e54	-0.03787072
121	0xbd429c18	-0.047512144
122	0xbd8ad95d	-0.0677974
123	0x3db489d5	0.08815352
124	0x3e44281d	0.19155927
125	0xbeab0513	-0.3340231
126	0x3d013409	0.031543765
127	0xbd931239	-0.0718121
128	0xbb01b1dd	-0.0019789853
129	0x3d9176c1	0.07102729
130	0xbbe34598	-0.0069357865
131	0x3e459e07	0.19298564
132	0xbe178168	-0.14795458
133	0x3d90328b	0.0704089
134	0xbe9219de	-0.2853536
135	0x3cd5302f	0.026023952
136	0xbcdde1cb	-0.027085206
137	0x3ce8191b	0.028332284
138	0xbe5f92f5	-0.21833403
139	0x3dd880a7	0.105714135
140	0xbce151b8	-0.027504787
141	0x3d8eab7e	0.06966303
142	0xbdeb09f4	-0.11476508
143	0x3d8aea48	0.06782967
144	0xbddb6250	-0.10712111
145	0x3d74116a	0.05958692
146	0x3e6a6199	0.22888793
147	0x3e155f7e	0.14587209
148	0x3db4b3d5	0.08823363
149	0x3c7121fb	0.014717574
150	0x3d985b0d	0.074392416
151	0x3e69b7e0	0.22824049
152	0xbe779bed	-0.24180575
153	0x3e44ab01	0.19205858
154	0xbdaae70b	-0.08344849
155	0x3e392262	0.18079522
156	0xbde25433	-0.11051216
157	0xbbdcd639	-0.0067394045
158	0xbe5ec43e	-0.21754548
159	0x3e29e118	0.16589773
160	0xbe116c02	-0.14201358
161	0x3de71b63	0.112845205
162	0xbd908964	-0.07057455
163	0x3dee0e61	0.11623836
164	0xbe212d08	-0.15739834
165	0x3d93893d	0.072039105
166	0xbe948bd1	-0.2901292
167	0x3e826a23	0.254716
168	0x3d5f3596	0.054494463
169	0xbe636470	-0.22206283
170	0xbca99c25	-0.020704338
171	0xbeebf5a4	-0.46085846
172	0xbdecadea	-0.11556609
173	0x3e107fd1	0.14111258
174	0x3e27aea6	0.16375217
175	0xbe75ffef	-0.24023412
176	0xbe0d4ca3	-0.13798766
177	0x3e8748b4	0.26422656
178	0x3e814dd5	0.25254694
179	0xbcc3c782	-0.023898844
180	0xbe8fac00	-0.28060913
181	0xbe7135ec	-0.23555726
182	0x3e34bc99	0.1765007
183	0x3da4252a	0.08014901
184	0xbde34e2f	-0.11098897
185	0x3e119b42	0.14219382
186	0xbe40a9df	-0.188148
187	0x3d9faf63	0.07797124
188	0x3c9a1db8	0.018813
189	0x3de2a45b	0.110665046
190	0xbf0c4642	-0.54794705
191	0x3db30b51	0.08742393
192	0x3ea41e64	0.32054436
193	0x3dfa4aa8	0.12221271
194	0xbe10d11e	-0.14142272
195	0x3dd4fc56	0.10399692
196	0xbe7853f9	-0.24250783
197	0xbc52f349	-0.0128753865
198	0x3d88c7c3	0.066787265
199	0xbe0f298f	-0.13980697
200	0x3c16b74b	0.009198974
201	0x3dfc4cfb	0.1231937
202	0xbe3b1d4d	-0.18272896
203	0xbdecb1a3	-0.11557319
204	0x3e3320d9	0.17492999
205	0x3da500b4	0.08056775
206	0x3d645e64	0.05575408
207	0x3e39e5e6	0.18154106
208	0x3dc033bc	0.093848675
209	0xbd748217	-0.059694376
210	0xbe2c3cf3	-0.16820125
211	0x3e022f6a	0.127134
212	0xbd76bc84	-0.060238376
213	0x3e560249	0.20899309
214	0xbd278304	-0.04089643
215	0xbea7c9de	-0.327712
216	0xbe8ca2f5	-0.27468076
217	0xbe1b80b0	-0.15185809
218	0x3dd2014e	0.10254155
219	0xbe163e63	-0.14672236
220	0x3d803341	0.06259776
221	0x3db95079	0.09048552
222	0xbe018c65	-0.12651213
223	0xbe3b120a	-0.182686
224	0x3e094828	0.13406432
225	0x3e7cfd69	0.24706043
226	0x3be40978	0.0069591366
227	0xbe08e814	-0.13369781
228	0x3de14ef0	0.11001384
229	0xbddb34c8	-0.107034266
230	0xbda55b71	-0.08074082
231	0xbdf7f598	-0.1210739
232	0x3db6650a	0.089059904
233	0xbe15aeb0	-0.14617419
234	0xbeb718f1	-0.35761216
235	0x3dd87c10	0.10570538
236	0x3d6e9ec7	0.05825689
237	0xbae51638	-0.0017477935
238	0x3e20afd4	0.15692073
239	0xbe02e5ab	-0.12782924
240	0x3ba02ac8	0.0048879124
241	0xbe1c4b44	-0.15263087
242	0xbe0524ed	-0.13002367
243	0x3e1f4f20	0.15557528
244	0x3dbc1b0d	0.09184847
245	0xbe100e98	-0.14068067
246	0x3cf7e614	0.030261077
247	0x3d77661a	0.060400106
248	0xbd9ee553	-0.07758584
249	0xbe5a100c	-0.21295184
250	0x3deba5a8	0.11506206
251	0xbca87e6a	-0.020568091
252	0xbe6b3a57	-0.22971474
253	0xbcf54626	-0.029940676
254	0xbdacd32d	-0.08438716
255	0xbe15bc44	-0.14622599

classifier.3.bias f4 [10]
0	0x3e91d27e	0.28480905
1	0x3ee294f2	0.4425426
2	0xbe9494b2	-0.29019696
3	0x3e8f9bcd	0.28048554
4	0xbdaafcd1	-0.08349002
5	0xbe3c276e	-0.18374416
6	0xbe701b67	-0.23447953
7	0xbe215ee5	-0.15758856
8	0x3d8755cb	0.066081606
9	0xbed0aa9e	-0.4075517
