Tomato_pretrained_cnn/saved_ckpt/best_model_epoch_36.pt (torch, 839456 bytes, 10 tensors)

features.0.weight f4 [32, 3, 3, 3]
00000000: d9ff 463e 1407 4bbd 748e 063e 94ec 0c3e
00000010: 19f5 97be 9092 1ebf bf3f 9c3d 0185 02bf
00000020: b71e 91bf eff8 973e 1a36 4b3e 7f23 6b3e
00000030: fdc0 463e 8955 f9bd be44 c9be 9e23 a93d
00000040: aa8a d4be 0161 58bf c25f d53e 40a3 a23e
00000050: c677 783e 9006 723e b4c0 063e 4d3a 18be
00000060: c7c5 6d3e 722e 19be cdde 0fbf 0e75 c4be
00000070: 46cd 78be 8044 e4be 4380 b4bc 99aa ddbe
00000080: 5919 c9bd 8d8c e83e 77a3 a93d 00dd 34bf
00000090: 42c7 14bf 68fb 74be 389f b9be 1a81 9abb
000000a0: ee32 a6be 2089 7cbe df4c e33e e542 1cbe
000000b0: 594c 95be d337 4abf 937b 6bbf daf9 64bf
000000c0: 3b79 f2be 1734 89bf c5de 90bf dc09 cc3e
000000d0: 9526 06bf 3403 8fbf dc9b 263f c6f9 a03e
000000e0: 57b2 4a3e d849 483e c159 943e 039f 893e
000000f0: d210 ab3e ff14 d33d bb35 503e 7d00 f33e
00000100: a1c7 ebbe 8156 10bf 6ba4 01be 7454 09bf
00000110: 7c32 b9be 7583 7fbe a676 adbe 0d7c b6be
00000120: 7f57 47be 2e33 aabf 5b73 aebf f128 b8be
00000130: 47ba b1bf 2ffd 96bf f34f 6bbe ad0c d2bf
00000140: 79ed 7ebf 6c78 cebe 540b 97be 6256 4fbe
00000150: efbe ccbe 3bf9 98be ac75 4cbe aa95 b1be
00000160: 5c85 40be 3ad2 55bd a31a e03e 1d0a 0e3f
00000170: f77c 193f b2e0 1a3f 07c3 083f f743 1c3f
00000180: bb79 163f f246 f03e 423a a23e 4c25 9fbe
00000190: e479 e1be f1f2 92be cf7c 8fbe 987c 9bbe
000001a0: 3a2a 68be e71a b3bd 5758 0ebe 0c76 27bd
000001b0: 383f 833e 99c1 b33e af1e cb3e b9f0 af3e
000001c0: 2336 f53e 5b12 953e 1eb9 8f3e 7e1d 773e
000001d0: 5c2e 673d 97d8 9c3e fbe6 f93d 80b9 e13e
000001e0: d8e9 ef3c 9b2b 09bd 7bb9 b33d 83d7 b1bd
000001f0: 98c4 30be 2923 6abe 2a87 d8be 9c91 a1be
00000200: ceb6 37be e401 5dbe d2b2 53be 827c 09be
00000210: b267 a2be f548 bbbe 9778 06bf 9584 1dbf
00000220: 69a0 2ebe 0316 9f3e a16a 1bbe 793c b6bd
00000230: 6825 973e cd28 893d 7a4f 533e df48 a33e
00000240: a71e 12bf b799 c4bd 1f97 073e 3878 15be
00000250: c998 28be b3c7 cf3e 0ca9 183e 7a4b a23e
00000260: eefc d53e a482 4ebf b832 97be 304c 5c3d
00000270: 6581 0abf 5090 6cbe 8d76 853e 3577 573d
00000280: 5fd4 4f3e 8347 a63e 4c0d 3cbe e298 81be
00000290: f56d eabd a99e 85be 52be c1be 6db2 543d
000002a0: 1926 69be 4c84 94be 6ae2 59be f138 46be
000002b0: 0a3c 94bd 8184 4c3d 5c6c 42be e4fd cdbd
000002c0: c9d2 c23d f3a9 04be a321 8abe c33f cdbb
000002d0: 1f05 ddbd 5518 44bd 5ba0 6fbe d873 ecbc
000002e0: 35bc 2dbe 8b0b 9e3c 1207 4cbe ab41 43be
000002f0: 5ee9 00be 34fd febd e780 263e dd4f 53be
00000300: 5fb4 20be af8a 96be 0280 4fbf a469 363d
00000310: accc d7bd 938d 8d3e 7c99 4e3e 630e 8e3e
00000320: 41a6 69be f5fe c43d 3dbf 04be 1bde 14bf
00000330: 02b9 7b3d 51d3 6c3e 043c f93e dd68 933e
00000340: b461 b73e 5c6a 14be d315 983e e9d8 eabd
00000350: 6fe3 3cbf 23f9 963e 320f 263e fb0c 843e
00000360: e0db 3b3e ffa4 283d 47a0 863d 0e5f 4c3e
00000370: 22ec 3f3b ccf3 0e3e 505c 893e 46e1 113e
00000380: e72f 993e 12eb 89be 176f cdbe b17b 04bf
00000390: 3c48 bbbe 4199 34bf 3763 eabe cb9f 17be
000003a0: 5099 6abe 16d0 8a3c 456c e13c b629 92be
000003b0: 0bd9 5ebe c7ee 34be 3431 0dbf a5e5 b7bd
000003c0: af5a 2b3e 3747 ffbd e7aa e6bc d0bb bfbf
000003d0: 231d 76bc f303 abbd d262 8ebf 713f a2bf
000003e0: 07cb d0bd ec2d 0ac0 72ef b3bf 5878 8b3d
000003f0: 33e5 e0bf 3ce7 ddbe a47c a8be 14bc a7bf
0.19433536 -0.049567297 0.13140279 0.13762122 -0.29679182 -0.61942387 0.07629346 -0.509842
-1.1337498 0.2968211 0.19844857 0.2296276 0.19409557 -0.12174518 -0.3931026 0.082587466
-0.41512042 -0.84523016 0.4167462 0.31765175 0.2426444 0.23635316 0.13159448 -0.1486599
0.23219977 -0.14959124 -0.5619934 -0.38370556 -0.24297056 -0.4458351 -0.022033816 -0.43294218
-0.09819288 0.45419732 0.082831316 -0.7064972 -0.58116543 -0.23924029 -0.36254287 -0.004715097
-0.3246073 -0.24661684 0.44394585 -0.15259893 -0.2915981 -0.7899143 -0.91985434 -0.89443743
-0.47358117 -1.0719022 -1.1317984 0.39851272 -0.5240262 -1.1172853 0.6508157 0.31440562
0.19794594 0.19559419 0.28974727 0.2687913 0.3341127 0.10306739 0.20332997 0.4746131
-0.46050742 -0.56381994 -0.12660377 -0.5364449 -0.3617133 -0.2495249 -0.33879584 -0.35641518
-0.19466971 -1.3296869 -1.3628954 -0.35968736 -1.3884972 -1.1796016 -0.22979717 -1.6410118
-0.99581105 -0.4032625 -0.2950083 -0.20247796 -0.3998942 -0.29877648 -0.19966763 -0.34684497
-0.18800873 -0.05220244 0.43770322 0.5548418 0.59956306 0.6049911 0.5342259 0.61041206
0.58779496 0.46929127 0.31685072 -0.31083143 -0.44038308 -0.28700975 -0.2802491 -0.30368495
-0.22672358 -0.087453656 -0.13900886 -0.040884063 0.2563417 0.3510864 0.39671847 0.34363344
0.47892866 0.29115567 0.2807092 0.24132344 0.056440696 0.30633995 0.12202259 0.44086838
0.02928631 -0.03348885 0.08775612 -0.08683684 -0.17262495 -0.22864975 -0.42290622 -0.31556404
-0.17940828 -0.21582752 -0.20673683 -0.13426402 -0.31719738 -0.365791 -0.52527755 -0.6153043
-0.17053379 0.3107148 -0.15177394 -0.08898253 0.29520726 0.06697235 0.20635787 0.31891534
-0.5707802 -0.09599631 0.13241242 -0.14596641 -0.16464533 0.40582046 0.14908236 0.3169821
0.41794533 -0.8066809 -0.29530883 0.053783596 -0.5410369 -0.23101926 0.2606701 0.05260392
0.20295857 0.32476434 -0.18364447 -0.25311953 -0.11446754 -0.2609761 -0.37840515 0.051927973
-0.2276844 -0.29007185 -0.21277776 -0.19357659 -0.07238014 0.049931053 -0.18986648 -0.100581914
0.0951286 -0.12955455 -0.26978788 -0.0062637045 -0.107919924 -0.047874767 -0.23401015 -0.028863832
-0.16966327 0.019292613 -0.19924572 -0.19068019 -0.12589023 -0.124506384 0.1626011 -0.20635934
-0.15693806 -0.29402682 -0.810547 0.04453434 -0.10537085 0.27647075 0.20175737 0.2774535
-0.22817327 0.09618942 -0.12963577 -0.58151406 0.061455734 0.23127486 0.486786 0.28790942
0.3581673 -0.14493698 0.2970415 -0.114671536 -0.73784536 0.2948695 0.16216734 0.25791153
0.18345594 0.041172978 0.06573539 0.19958135 0.0029285033 0.13960189 0.2682824 0.14246091
0.2991936 -0.26937157 -0.40123817 -0.5175124 -0.36578548 -0.70546347 -0.4577882 -0.1480705
-0.22910047 0.016944926 0.027517447 -0.28547448 -0.21762483 -0.17669211 -0.55153203 -0.08979348
0.16733812 -0.12464755 -0.028157664 -1.4979191 -0.015021595 -0.08350363 -1.1123908 -1.2675611
-0.101949744 -2.1590528 -1.4057448 0.06810063 -1.7569946 -0.4334048 -0.32907593 -1.3104272

features.0.bias f4 [32]
00000000: 7acd 0fbc a5d0 9fbe eddb 1bbe 0432 99be
00000010: 12d7 cebd 9b2e 88be 35ba 26be 932e edbc
00000020: 0b7f 283e f4ff bd3e b934 1abd 31a1 e6be
00000030: ff81 afbe 1909 d7be df4b 05bd 6269 c2be
00000040: 8495 bd3e 82a7 40be 08b5 bfbc 15e7 eebe
00000050: 6863 7cbd 0117 68bf ec5d 06bf 116e 79be
00000060: ff45 a73d 968e aebd 7697 a9bd 3437 1abe
00000070: 3d3f cebb e852 86be 0efc 31be 8c2a d2be
-0.008777017 -0.3121387 -0.15220614 -0.2992097 -0.10099615 -0.26598057 -0.1628197 -0.028952872
0.16454713 0.3710934 -0.037647936 -0.45044854 -0.34278867 -0.41999128 -0.03254306 -0.37971026
0.37028134 -0.18813899 -0.023401752 -0.46660677 -0.06161824 -0.906601 -0.52487063 -0.24358393
0.081676476 -0.0852329 -0.08280842 -0.15060121 -0.0062941597 -0.26235127 -0.17381307 -0.41048086

features.3.weight f4 [16, 32, 3, 3]
00000000: ae37 afbd 9c06 afbe b884 30be d257 e2be
00000010: eafc bdbe 0fb1 e13c c185 14be d350 2f3e
00000020: 8874 17bb 45e3 293f d8c0 b1bd 7ed1 3fbe
00000030: af94 bbbd bdcd 043f f1a9 db3e 216a 91bb
00000040: 223b 863e 0ba2 c73e 9f35 42be 39be 7e3d
00000050: 81c2 e1be ba70 e9be 3bab 48be 2184 b2be
00000060: a36c 10bf e5ce dcbe df7b c23d c8a8 073f
00000070: 2424 083f f16b bc3e 4cb8 003f 3d1e d03c
00000080: 2d85 a3be 6a41 f63e f0d8 22be 647f 52bf
00000090: f0a5 76bf 2ebc 18bf f89b 0fbd 42bc 0abf
000000a0: acfb 813e ee85 063f d0db 00bf 8483 133f
000000b0: 8e3d 843f f265 cbbd e0e5 7a3c 65d0 30be
000000c0: ad4c 2dbc db3d 253e 1041 bcbd d1ef d3be
000000d0: 9f69 fdbd 862d 47be cf10 093e cd4d eabb
000000e0: 207a 31bd 2b05 903e dcdd efbd 2757 03be
000000f0: 9b89 be3d cbeb 2cbd d798 11be 4a7a e13e
00000100: 736e afbd 66e3 af3d f1cb 2d3d e9b7 cebe
00000110: 3d52 b6bd 5a08 94bd ca63 5ebe ea4c 97be
00000120: d6db 8cbf 721a 7fbf 4cbc bbbe f48f 8ebf
00000130: 10fc 28bf dd74 74be 2c5a 9dbf bc4c c9be
00000140: b119 9a3e 690a a7bf 238f 70bf 4899 1fbe
00000150: 3df2 a2bf 9b5e 45be bc82 423e e159 cabe
00000160: c94d 6dbe b903 983e 2f88 5e3e 4d07 2cbe
00000170: 338f 403e 370f 94bd dc93 c3bd ce26 9cbe
00000180: 0764 373d 5b30 96bc eaf0 29be d7a9 bebd
00000190: 9e9c 98bc 87fe 97bc 6052 aa3d 3671 573d
000001a0: 045d 913d 11b8 843e 9d80 503e b7aa 7a3f
000001b0: 6f26 2abf 99e5 1cbf 4f69 0fbf 25a2 343e
000001c0: 92df 453e 3e2d 863e 2f99 2ebd 1311 913c
000001d0: 3ad9 a73e f485 7fbe 1c56 20bc 3e46 0f3e
000001e0: 538f 343e 7177 733e 7a20 973e 7ba5 20be
000001f0: b0ac 43be bf50 b5bd 2377 d13d 1829 8abc
00000200: fe43 a4bc 2862 a63e ca7d dfbd 4ccc bbbe
00000210: 134d 413e 1abd 30bd 0c17 f3be 62b5 bc3d
00000220: 40ac 423e b7a4 95be 27d0 70bd df17 573e
00000230: ddcb 6c3c 39a0 2f3e 3130 823e 87b2 003e
00000240: adc9 c9be e411 b0be c624 7bbe e811 103f
00000250: 0ef2 bb3e fbc1 933e 5e24 563e c439 4b3d
00000260: 3a08 053e cc7e adbe 96ea 73be 0455 44be
00000270: 7166 adbe 8140 7dbc 016a b73d 5ca4 cebe
00000280: ab20 e8bd d961 8e3e 999d 47be 9bdd 193e
00000290: 7aac 6c3e f08f 0b3e d631 2cbe 7459 053e
000002a0: 284a 033c 9a75 d9be f4f0 3dbd 1f35 d43e
000002b0: 5d97 c53d 7160 483e 67cc 103e aff6 a3bd
000002c0: f058 dc3d 2609 8dbe fe5e 59bd b830 8dbd
000002d0: b1b0 6ebd 6f49 80be bb40 87be 7ad6 a13d
000002e0: 4eed db3d d6d7 5c3e e523 043e 4338 8e3e
000002f0: dc20 ec3e 9552 943e 08f8 debd 56af 9cbd
00000300: 77bc 053f efa6 28bd 7cee a2be 8b9f 2c3e
00000310: 2c2c 01be 48bc 99be 56a8 8bbe 9bd1 60be
00000320: 53e5 acbe 94d5 8cbe fc44 5ebe 0a5d 26be
00000330: 4c3d a6be b6df 37bf 2fbf 333e f86f 723e
00000340: 06ab 273e db06 72be 0140 723e e154 57be
00000350: 8d54 a9bd b033 1dbe 1525 a8be e36a 83be
00000360: 8826 4fbd c0be a0bd 3c1d 9e3d 2390 a73c
00000370: e021 b0be 09ca 03bf d614 ca3d 2e8b 26bf
00000380: 8a08 09bf b127 87bf 40c3 a9be fa4c ee3d
00000390: 93c2 58bf 9b8b a63e 57e4 843f 017c 51bf
000003a0: df58 183f 2558 863f aae2 2fbf 54d6 94be
000003b0: 409a a1bf 26e2 d2be 76fb d43c 98c8 183e
000003c0: ab91 9ebf 015d 07bf b602 943d 6ad4 9cbe
000003d0: 73f0 6ebe 9b0d 5b3e 194d 9dbe a591 21bd
000003e0: b9d6 a53e a30c 43be 8b1c e9be 4402 a1be
000003f0: e560 f2be 4938 c4be 235c e4be d556 b0be
-0.08555542 -0.3418473 -0.17238128 -0.44207627 -0.3710702 0.027550248 -0.14504148 0.17120676
-0.002311023 0.6636241 -0.0867936 -0.18732259 -0.091592185 0.5187643 0.42903093 -0.0044377004
0.2621699 0.38990816 -0.18965767 0.06219313 -0.44093707 -0.45593816 -0.19596569 -0.3486643
-0.56415766 -0.43126598 0.09496283 0.52991915 0.53180146 0.36801103 0.50281215 0.025405044
-0.31937543 0.48096782 -0.15903068 -0.8222563 -0.9634695 -0.5966214 -0.035060853 -0.5419351
0.25387323 0.5254811 -0.5033541 0.5762255 1.0331285 -0.09931554 0.0153135955 -0.17266996
-0.010577363 0.16136877 -0.09192097 -0.41393903 -0.12373661 -0.1945096 0.13385318 -0.007150388
-0.043329358 0.28128943 -0.11712238 -0.12826215 0.0930359 -0.042217057 -0.1421846 0.44038612
-0.085659884 0.08588295 0.04243082 -0.40374687 -0.089024045 -0.072281554 -0.21717754 -0.29550868
-1.1004589 -0.9964973 -0.36667097 -1.1137681 -0.66009617 -0.23872705 -1.2293143 -0.39316356
0.30097726 -1.3050052 -0.9396841 -0.15585816 -1.2730175 -0.1927437 0.18995184 -0.39521697
-0.23174204 0.2969034 0.21731637 -0.1679966 0.18804626 -0.072294645 -0.09549686 -0.30498356
0.044773128 -0.018333605 -0.16595808 -0.09309738 -0.018629368 -0.018553985 0.08316493 0.0525982
0.070978194 0.25921682 0.20361562 0.9791674 -0.66464895 -0.6128784 -0.56020063 0.17639978
0.19323567 0.26206392 -0.042626556 0.017708337 0.32782918 -0.24953443 -0.009786155 0.13991639
0.17632799 0.23776032 0.29516965 -0.15688126 -0.19108844 -0.08853292 0.10227802 -0.016865298
-0.020051952 0.32496762 -0.10912664 -0.36679304 0.18877058 -0.04314909 -0.4747852 0.092142835
0.1901102 -0.2922723 -0.05879226 0.210052 0.014452902 0.17150964 0.25427392 0.12568103
-0.3941168 -0.3438865 -0.24525747 0.5627732 0.3670811 0.28858933 0.2091231 0.049615636
0.1299142 -0.338858 -0.23819956 -0.19173056 -0.3386722 -0.015457273 0.089557655 -0.4035977
-0.11334356 0.27809027 -0.19493712 0.15025942 0.2311267 0.13629127 -0.16815886 0.13022405
0.008013286 -0.42472535 -0.04637237 0.41446778 0.09648011 0.1956804 0.14140473 -0.080060355
0.10759151 -0.27546042 -0.053069107 -0.06894058 -0.058273975 -0.25056025 -0.26416573 0.07902236
0.10738622 0.2156671 0.12904318 0.277773 0.4611882 0.28969255 -0.10887152 -0.0765063
0.522407 -0.041174825 -0.31822574 0.16857736 -0.12614506 -0.3002646 -0.27276868 -0.21954958
-0.3376871 -0.27506697 -0.21706003 -0.16246429 -0.3246864 -0.7182573 0.175534 0.23675525
0.16373834 -0.23635428 0.23657228 -0.21028472 -0.0826808 -0.15351748 -0.3284079 -0.25667486
-0.050573856 -0.07848883 0.0772042 0.020454472 -0.34400845 -0.51480156 0.098672554 -0.6505612
-0.53528655 -1.0558988 -0.33156776 0.11635776 -0.84671897 0.32528386 1.0382184 -0.8182984
0.59510607 1.049565 -0.68705237 -0.2906977 -1.2625198 -0.41188163 0.025998812 0.1492027
-1.2388204 -0.5287629 0.072270796 -0.3063081 -0.23333912 0.21391909 -0.30722883 -0.039445538
0.32390383 -0.1904779 -0.4552959 -0.3144704 -0.4733955 -0.38324192 -0.44601545 -0.34441248

features.3.bias f4 [16]
00000000: c33d 34be 4e02 b13d 1b5a cebd 3b56 193d
00000010: 4826 0cbd 3843 30bd c967 b0bd e609 1a3e
00000020: 957f a6bd cd7e 18bd 509b 12be 1c8f b1be
00000030: ef80 073e 8749 13bf db13 e53c e956 28be
-0.17601685 0.08643018 -0.1007578 0.03743575 -0.034216195 -0.043032855 -0.086135454 0.15042838
-0.08129803 -0.0372303 -0.1431706 -0.34679496 0.13232778 -0.5753407 0.02796357 -0.16439404

features.6.weight f4 [8, 16, 3, 3]
00000000: 4d9e 35be ef8c 10bd fc99 3ebd f05a 09bd
00000010: 8179 0c3e e039 9d3c f6b5 18be c21b 1d3c
00000020: fa15 a03d 4d16 09be ac79 9dbd 7250 343d
00000030: 2bd0 93bd 0c21 0e3f 89c3 db3e 95df 23be
00000040: 39a5 a03e c09f ca3e 8189 16bd fa09 9cbc
00000050: 381e 443c 3e13 b23d f9e4 44be 812f cb3d
00000060: 84f3 f53d 8dc3 e23c 5417 ddbc 3ae5 313d
00000070: f547 41be c7b1 24be e762 443d 1d2f e33d
00000080: 4e86 adbc 3a0d 2f3e 254d 853e 8704 a13e
00000090: 3d7a e63d a7b5 3b3e 54a3 203e 12b6 0a3e
000000a0: 3638 9f3e 4af7 d83e 65b2 493e e9e3 c33e
000000b0: c561 d53e 9ab7 cbbc dc24 31be 7aa9 27be
000000c0: 5320 85be 10de 51bf 22f9 aabf 175f a13d
000000d0: f3cd a8be 8768 4abf 6f4d 993e c5da 4abd
000000e0: 323e 883e a4a3 98be 4d02 cfbe 11e6 90be
000000f0: 6b2b 103e 6c39 02be 6142 a9bc 5bf3 033e
00000100: 8aee a3bd 9d44 98be b7b5 0e3b b382 03bf
00000110: d212 eabe a43c d23c 8634 28be dbc1 aabe
00000120: ea13 f4bd 7689 15bd fc1a 0cbe de91 d7bc
00000130: 7193 67bd 46a4 d73d e79c 4cbc b9d8 cf3d
00000140: 7ad7 a13d b083 b13d fa6f 8ebb 178c 2ebd
00000150: 1151 86be 71b5 c9be 5d8c 80be 16be 55bd
00000160: 3a49 1fbf 70d8 5dbe 260f f03a 4c2f f9bd
00000170: 88df 16be 4a9b 8a3d c7cd 113d 64fe 0cbe
00000180: 8ed1 4e3d aa64 1fbd 3052 483d b217 efbe
00000190: 5785 71be 161d 923e 003f e6be a61a 7c3e
000001a0: bce5 983d 3ad3 d8be aea0 523d d6d0 86bd
000001b0: ed0a 2f3d 3af8 f63e ac40 623e 2e30 2bbe
000001c0: 868e 813e 11e1 8b3e e09e 9f3c 7a8b 293e
000001d0: bdea 40be bad5 cdbe bfa4 adbe 74cf 3bbe
000001e0: feb4 febe f7fd e13b f5c5 2cbd aeca 28be
000001f0: fc99 03bd abc6 5d3b a5ea c8bd a19c 79bc
00000200: 9d50 1dbe aeeb 33bc 3947 1d3d 8a71 933e
00000210: e014 893b 1b89 1b3e c0c7 803e cd0e c6bc
00000220: 8cfb 8a3e d12f 823e f88e 373e d884 de3e
00000230: a8bd bf3c b5f6 96bd 2852 70bd c30f 003e
00000240: fb8c 343e b13d 85be 58f1 8d3d 6f4f 55bd
00000250: 276b febc 9699 8a3d c112 e6bd 4611 3c3c
00000260: 452c 29bd 8cc6 6b3d 392c f3bc d1d9 45be
00000270: 0b25 a2bd 907f a23d 82d8 c2bd cec7 82be
00000280: 57b4 28be ed29 fdbc b47a d63c d954 b93c
00000290: 153f 0c3d 9bb1 2cbe ee23 1abe 6471 f2ba
000002a0: 76d2 523d ff87 103e 467c 2b3e 11c8 21bd
000002b0: 8c4e f2bd f6ea 3fbe 2af7 03be 9ded 28bd
000002c0: 3787 02be 1219 233e a876 e6bd 808f 31be
000002d0: 8443 26be 9f90 f8bd 63bc 413d 08ca cebd
000002e0: 87f3 f93d ab35 3d3d 18be e2bc 876a 07bd
000002f0: adef 3a3d 0776 a8bd 4adc 78be 56f1 e7bd
00000300: befa 55be 54aa 893e 9c6f 403e d15b 3ebe
00000310: 3b9c 17bc 1288 06bc 2ce2 c0be e2eb 51be
00000320: c666 1c3e 0b16 26be 468a 3abd fc30 9a3e
00000330: 6b75 7bbd c016 e43e e721 9b3e 1b22 1cbe
00000340: 10d2 e13d f94a 9cbe 68c0 423d ae1c 773c
00000350: 757a 8abb 8e9e f5bc c01f 6d3e e69c 213e
00000360: c4d8 443c 641e e33d ac7b 54bd ce3e 813d
00000370: a671 3e3d 0567 2f3d 9a12 d43d 31d2 c7bd
00000380: 9032 01be 6b49 013f 7043 9c3e 172b 7a3e
00000390: 84c6 b73e 7212 a33e b5fa 453e 66fe c63e
000003a0: f8ec a6bd c61e 1b3f ad7c 7fbe e3d5 bcbd
000003b0: 3084 383e fad8 14be 8f19 e2bc 113d 803b
000003c0: ac15 f0bd e727 0ebe 194b 64bd 0405 433c
000003d0: 08e8 223d 2a50 0ebd 2970 383e 1d88 bd3e
000003e0: d808 c33d 0f18 023e 0e8c 2f3e 3b76 a03e
000003f0: fc34 933e e0ef 773e 7d86 313e 2cfc 943e
-0.17736168 -0.035290655 -0.04653357 -0.03353399 0.13718225 0.019192636 -0.14913163 0.0095891375
0.07816692 -0.13387413 -0.07689223 0.04402203 -0.07217439 0.55519176 0.4292262 -0.16003259
0.31376055 0.39575005 -0.036752228 -0.019047726 0.011970095 0.086950764 -0.19227971 0.0992117
0.120093375 0.027681137 -0.026988663 0.043431498 -0.18875106 -0.16083442 0.047945883 0.110929705
-0.021182206 0.1709489 0.2603542 0.31448767 0.11253784 0.18331014 0.15687305 0.13546017
0.31097573 0.42376167 0.19696958 0.3825982 0.41676155 -0.024867821 -0.17299217 -0.16373244
-0.26001224 -0.81979465 -1.3357279 0.07879465 -0.32969627 -0.79065746 0.2994189 -0.04952504
0.2660995 -0.29812348 -0.40431443 -0.28300527 0.14079063 -0.12717217 -0.020661535 0.12885801
-0.08004482 -0.29739848 0.002177579 -0.51371306 -0.45717484 0.025663681 -0.16426286 -0.33351025
-0.11917861 -0.036508046 -0.13682169 -0.026314672 -0.056537095 0.105293795 -0.01248858 0.101487584
0.07902427 0.086676955 -0.0043468447 -0.04261407 -0.26233724 -0.3939624 -0.2510709 -0.052183233
-0.6222111 -0.21664596 0.0018315061 -0.12167224 -0.14733708 0.067679 0.035596635 -0.13768917
0.050492816 -0.03891436 0.048906505 -0.46697766 -0.23586021 0.28537816 -0.4496994 0.2461954
0.07465693 -0.42348653 0.051422767 -0.06582801 0.04273503 0.48236257 0.22094983 -0.16717598
0.2530405 0.2732015 0.019484937 0.16557112 -0.18839546 -0.40202123 -0.33914754 -0.18340856
-0.4974746 0.00689673 -0.042180974 -0.16483566 -0.032129273 0.003384034 -0.0981038 -0.015235097
-0.15362783 -0.010981483 0.038398 0.2879756 0.0041833967 0.1518902 0.25152397 -0.02417698
0.2714504 0.25427106 0.17925632 0.43460727 0.023405865 -0.073712744 -0.0586721 0.12506013
0.17631905 -0.2602363 0.06930798 -0.052077707 -0.031056954 0.067675754 -0.11234046 0.011478728
-0.041301984 0.057562396 -0.029684173 -0.19321372 -0.07917222 0.07934487 -0.09513952 -0.25543064
-0.16475044 -0.03090378 0.026181556 0.022623466 0.034239847 -0.16864626 -0.15052769 -0.0018496928
0.051470242 0.14114378 0.16746625 -0.03949744 -0.11831388 -0.18741974 -0.12887254 -0.04124223
-0.12746893 0.15927532 -0.11253101 -0.17339897 -0.16236693 -0.12136959 0.0472988 -0.10097128
0.12204652 0.04619376 -0.027678534 -0.033060577 0.04563873 -0.08225637 -0.24302784 -0.11325328
-0.20896432 0.26887763 0.18792576 -0.18589713 -0.009253557 -0.008211153 -0.37672555 -0.20500138
0.1527358 -0.16219346 -0.045542024 0.30115497 -0.061391275 0.44548607 0.30299303 -0.15247385
0.11026394 -0.3052595 0.047546774 0.015082521 -0.004226024 -0.029982831 0.23156643 0.15782508
0.012014572 0.11089781 -0.051875755 0.06310807 0.046495102 0.042822856 0.103551105 -0.09756888
-0.12616944 0.5050265 0.305202 0.244305 0.35893643 0.3185001 0.19333918 0.38865966
-0.08150667 0.6059383 -0.24949904 -0.09220483 0.18019176 -0.14535895 -0.027600078 0.0039135297
-0.117228836 -0.13882409 -0.05573568 0.011903051 0.039772063 -0.03474442 0.18011536 0.3701791
0.09523171 0.1270449 0.1714327 0.31340203 0.2875136 0.24212599 0.1733646 0.29098642

features.6.bias f4 [8]
00000000: ee12 c13e a381 f4be 4f5d 1e3f 8c93 cd3e
00000010: fa5a e03c d565 debe c01c 88be 3167 0ebf
0.37709755 -0.47755155 0.6186113 0.40151632 0.027387131 -0.43437067 -0.26584435 -0.5562621

classifier.0.weight f4 [128, 1568]
00000000: c435 b23d c91d 923d d014 2fbe 667c e5bd
00000010: e2f3 8dbe 48d6 44be 980c 4dbe 86dc 37be
00000020: 26c1 85be b833 4bbe 2860 74bd b06a efbd
00000030: a23d 1f3c e064 603d 839a c43d 1e3e 28be
00000040: de49 60be f25d 3abe 4b1e c5bd 5a48 09bd
00000050: bcf9 fabd 7732 02be 4eda 84be 23f3 80bd
00000060: 156e 56be 0654 5dbe 32a6 7dbd 401f 2cbb
00000070: 7bb6 f9bd 8d78 4fbe 908e 73be fb45 c4bd
00000080: aca3 94bd 8728 d4bc 5345 afb8 04dc f0bc
00000090: 46c8 28be d429 f7bd 63cf b8bd 0a66 bcbd
000000a0: 5d0b dfbd 3b8e 07bd 5945 89be 3ff0 6abe
000000b0: d309 80bc 396e f6bc 9263 83bc e2d1 4bbd
000000c0: bab7 aebc 6788 a7bd b0ee 3abd ed8d bebc
000000d0: 2399 3a3d f2ca f6b9 00fd 15bd 9be0 74be
000000e0: 1d19 26be a772 01be 9b0d b4bd baa1 dcbc
000000f0: 7d38 81bd 8f99 44bc a249 ff3c 348b 013d
00000100: f3ef 8c3c 9a40 adbd d219 46bc 0090 5d3d
00000110: 6d29 bdbd 0df7 c8bd a54c 1ebe 4aab 9cbd
00000120: 6de9 bcbd 5fbf ee3c 2b2a c53d 0e1d 1f3e
00000130: f84b 683e 449f a83d 09c5 c53d 52f6 033e
00000140: e4f9 8d3c 7a6e cfbd 2ff4 0bbd a7ae 4ebd
00000150: a423 cebc 3505 40be a837 4cbd 6db7 8a3d
00000160: d03a 1f3e 2d25 3f3e edfb 683e bda7 473e
00000170: c618 5d3d 3ba5 743d 49c4 2ebd 4bc1 fcbd
00000180: 9434 8fbd 284a 2bbe fabe 0bbe a8a8 59be
00000190: d974 50bd a010 a73d 39aa 023e 2954 6f3e
000001a0: 4010 583e 25eb 643e 610b 7b3e caa9 cb3d
000001b0: 2785 4f3d 87be 98bd d40e bcbd 90bd 6ebe
000001c0: 4014 dcbd 3c0a 95bd 2348 19bd d911 073d
000001d0: d87f 803d 9c6f 0a3e f1f6 483e 0eb0 453e
000001e0: 2575 1b3e 2234 613d 148b c3bc 7629 28bd
000001f0: b9e0 20be f244 72be 1625 67be 1e65 22be
00000200: ac40 fcbd 8e02 21bd 16eb b93c eecc 073e
00000210: 0eef 033e 3685 6c3d 1c3b 953d debb 47bd
00000220: c138 cabd 4d8f 62be 9738 d1bd 8a10 fabd
00000230: c974 0bbe c65f 5abe 81a3 4bbe 8e68 1dbd
00000240: 0e7f f7bc 961b 42bc 2480 0abe 62e5 2bbd
00000250: 7f9a a9bd dcdc d1bd c557 67be 16ea ccbd
00000260: 4e2f 85bd 7492 5dbe ee70 42be d295 0dbe
00000270: 5404 32be 1612 17be a700 b3bd 8bab fcbc
00000280: 19f2 dfbd 5e6d c0bd af48 803d 3958 24be
00000290: 1262 56be 4f91 3dbe 487e 4ebd b3a4 d9bd
000002a0: c2f2 813d 02ff e5bd 6564 83bc 8ab7 23be
000002b0: e9df 36be d9bc 33be 4f21 02be 3d5f f8bd
000002c0: af16 4abe 79fd 31be 93ee a0be d6f9 69be
000002d0: d12c 40be 72f3 82bd ca10 c13d 12a6 b9bd
000002e0: 7ac7 91be 3205 cbbd 7e7f 42bd 9ea4 babd
000002f0: 6434 48be 129a 48be 7113 7dbe 3f67 b9bd
00000300: e344 b4bd e291 7fbe 9f64 f4bd 07c3 0f3d
00000310: 99f4 9f3c 1a8b f3bd 17b3 b1bd 4055 b0bd
00000320: 1fe8 bd3c 314f 6dbd e60b 903d 6394 973d
00000330: c1c3 d8bd bb6f 2f3c 15be 423d 7c6b bd3a
00000340: 9cac 003e 89a3 703d 65b3 ecbc 80d0 6fbd
00000350: af2c 50bc 5233 ae3b 13eb 1e3c 92c4 463c
00000360: 114f 293e e3c1 753d 5d63 b0bd 32b7 76ba
00000370: d311 0cbd ea68 27be 6074 1cbc fc8f e43c
00000380: 6241 0cbe 4fed 8a3d 8f8a aa3c df34 95bd
00000390: 97e2 5d3d 9fde ecbd c077 4c3c bf5b 4b3c
000003a0: d21a 2cbc 7731 2cbd ca08 c2bb 78ff 3abd
000003b0: eace d33d 1a1c fd3d dce9 84bc 4774 edbc
000003c0: b965 c53c 0f63 14bd 8b50 cdbd a40f bebc
000003d0: 9d79 2bbd 3c67 89bb 0be2 af3d 03b9 423d
000003e0: 330b 1cbd a15b 95bb 0094 1dbc 4f2c a33d
000003f0: dd33 633d 2a4e c7bc 96ac 983d c7c0 54bd
0.08701661 0.07134587 -0.17097783 -0.11205368 -0.2772513 -0.19222367 -0.20024335 -0.17955217
-0.26123923 -0.19843948 -0.059662014 -0.11690271 0.009719284 0.054783702 0.09599783 -0.16429946
-0.21903178 -0.181999 -0.096249186 -0.033516265 -0.12254664 -0.12714563 -0.25947803 -0.06296375
-0.2094043 -0.21614084 -0.061926074 -0.0026263744 -0.121930085 -0.2026083 -0.23784852 -0.0958366
-0.072577804 -0.025898231 -8.357563e-05 -0.029401787 -0.16482648 -0.12068525 -0.09023931 -0.0919915
-0.10890839 -0.033094626 -0.2681072 -0.22943209 -0.015629685 -0.030081855 -0.01603869 -0.049760707
-0.021327842 -0.081803136 -0.045637786 -0.023261035 0.0455562 -0.00047071982 -0.036618233 -0.23913805
-0.16220517 -0.12641393 -0.087916575 -0.026932586 -0.063096024 -0.011999502 0.03116304 0.031626895
0.01720426 -0.084595874 -0.012091117 0.054092407 -0.09236417 -0.09812746 -0.15458925 -0.07649858
-0.0922421 0.029143987 0.096271835 0.15538427 0.2268523 0.082335025 0.09656722 0.12886932
0.017331071 -0.101284936 -0.03416842 -0.05045953 -0.02516348 -0.18751986 -0.049857765 0.06773267
0.15549779 0.18666525 0.22752352 0.19497581 0.053978704 0.05972789 -0.04266766 -0.12341555
-0.0699245 -0.16727507 -0.1364707 -0.21255744 -0.050892685 0.08157468 0.12760247 0.23371948
0.21099949 0.22355326 0.2451606 0.09944494 0.050664093 -0.07458215 -0.09182516 -0.233145
-0.1074605 -0.07277343 -0.03742231 0.032976005 0.06274384 0.13519138 0.1962545 0.19305441
0.15181406 0.05498136 -0.023870029 -0.041055165 -0.15710725 -0.23659113 -0.22572741 -0.15858886
-0.12317023 -0.039309077 0.022695106 0.13261768 0.12884161 0.057744227 0.07286665 -0.04876315
-0.09874106 -0.22124977 -0.10215872 -0.12210186 -0.13618769 -0.21325597 -0.1988659 -0.03842979
-0.030211952 -0.011847397 -0.13525444 -0.041966803 -0.08281421 -0.10247204 -0.22592075 -0.10005586
-0.06503163 -0.21637899 -0.18988392 -0.13826683 -0.17384464 -0.14752993 -0.08740359 -0.030843517
-0.10934848 -0.0939586 0.06263863 -0.1604928 -0.20935848 -0.18512462 -0.0504134 -0.10627117
0.063451305 -0.112302795 -0.016039083 -0.15987983 -0.17858852 -0.17552508 -0.12708019 -0.1212754
-0.19735216 -0.17381848 -0.31432018 -0.22849211 -0.18767096 -0.0639409 0.094270304 -0.090648785
-0.284725 -0.099131 -0.047484867 -0.091134295 -0.19551235 -0.19590023 -0.24714448 -0.09052896
-0.088022016 -0.24957994 -0.119332545 0.035098102 0.019525813 -0.11891766 -0.08676737 -0.0861001
0.023181973 -0.05793685 0.070335194 0.074013494 -0.10584212 0.010707791 0.047544558 0.0014451589
0.12565845 0.05874971 -0.028894136 -0.05854845 -0.012705966 0.0053161765 0.009699601 0.012131827
0.16534068 0.059999358 -0.08612702 -0.00094114535 -0.034196686 -0.16348615 -0.00954923 0.027900688
-0.13696817 0.06783544 0.020818023 -0.07285475 0.05417117 -0.11565899 0.0124797225 0.012412011
-0.010504441 -0.04203936 -0.005921458 -0.04565379 0.103422 0.123588756 -0.016224794 -0.02898611
0.024096357 -0.036227282 -0.10025128 -0.023200817 -0.041864026 -0.0041932147 0.08588036 0.047539722
-0.038096618 -0.004558042 -0.0096178055 0.079674356 0.055469383 -0.024329264 0.07454793 -0.05194166

classifier.0.bias f4 [128]
00000000: df73 0e3e 2830 9c3c 6902 133e 252b 73bd
00000010: a4b4 9bbe 5970 d73b e49f 90be 717f de3e
00000020: 51d5 18bd 4ef5 bcbd 2381 173c 93c3 9d3e
00000030: 0e4e 303a 2a9e 43be 5430 99bc 9ab2 da3b
00000040: 4165 e8bd 3a95 7b3e 5f84 3f3e 0292 c63d
00000050: 6b1d 773d 9432 1dbd b649 66be 1d70 bc3c
00000060: fae7 90bc 2c71 233d 29c6 bb3e b20e 533e
00000070: 8ab6 083c 998c 2ebc 8d24 273e a2ff 073e
00000080: 2392 08bd cbf4 3dbe cabe 59be 697a a0be
00000090: 2934 993d 8b9b 36be 2991 fb3c 4ede 7a3e
000000a0: d85d 823d 3f9e 02bd 8cb5 073d c660 bc3d
000000b0: 91e8 8b3e 709c 6f3e e1e2 573d 5713 46be
000000c0: a46e 58be 5d9c 5e3e 0e47 a73e 3f7e fdbc
000000d0: 358b cfbd d0f4 333a 543e b13e 8a6d 293e
000000e0: d94c d9bc 0236 aa3d f7a3 f1bc 7573 3abe
000000f0: 973d 8ebe 5ca9 133e fa40 163e 636d b13e
00000100: a318 393e bf76 01be e260 5f3d 1243 193e
00000110: ed94 9c3e 0712 c3bd 0aed 93ba 70af c9be
00000120: 0f1a 0dbe 2853 08bd c11e bb3d c848 923c
00000130: f627 003e 7dd0 863c e6e1 293b 2ac2 a2be
00000140: d4df 853d b17a 1b3e dd47 cabc 7a74 83bd
00000150: 3bf8 1cbd 517b c93d 09df 5abd d049 d6bd
00000160: a3c2 663d 150c d9bd 50a6 5c3d a0d9 943d
00000170: febd 3d3d 8f5d 8a3e 6816 363e d346 343d
00000180: 611c d43c 9a15 bc3d 2d3c 363e 0649 523d
00000190: e3b6 98be f1f6 e03d 0989 60be c4fa 623c
000001a0: 25fa 2dbe 98e5 983c 9d2d a9bd e486 70bc
000001b0: 9abf 15be 4916 babe ff17 25be ed63 523b
000001c0: 86bf a6ba f157 3f3e 6eb0 b4bc 079f 1ebe
000001d0: 11fb d1bc edd3 c4bd 9be6 b73d 0b40 423e
000001e0: f6bf f43c 4d46 39be 2648 65bd 7927 25be
000001f0: af90 293c 0e27 9cbe 6c8b 0e3d 6aa1 393d
0.13911389 0.019065931 0.14356388 -0.059367318 -0.30411255 0.006574672 -0.28246987 0.43456605
-0.03731281 -0.09226476 0.009247097 0.30813274 0.0006725498 -0.19103304 -0.018699802 0.006674123
-0.11347438 0.24568644 0.1870284 0.096958175 0.06033079 -0.038378313 -0.22489056 0.023002679
-0.01768874 0.03990285 0.36674622 0.20611075 0.008344302 -0.010653638 0.16322537 0.1328111
-0.03334249 -0.18550412 -0.21264187 -0.31343392 0.07480652 -0.17832772 0.030708866 0.24498865
0.063655555 -0.031889196 0.03313212 0.091981456 0.27325872 0.2339952 0.052706603 -0.19343315
-0.21135956 0.21739335 0.32671398 -0.030943988 -0.101339735 0.0006864788 0.34617865 0.16545692
-0.026525902 0.083110824 -0.02949713 -0.18208106 -0.27781364 0.14420074 0.14673224 0.34653768
0.18075804 -0.12642954 0.054535754 0.14966992 0.3058237 -0.09524923 -0.0011285853 -0.3939166
-0.13779472 -0.03328243 0.09136725 0.01785697 0.12515244 0.016456837 0.0025922 -0.3178876
0.065368325 0.15183522 -0.02469247 -0.064187005 -0.03832267 0.09837974 -0.05343536 -0.10463297
0.056337964 -0.105980076 0.053869545 0.07268071 0.04632377 0.27024505 0.17781985 0.044012856
0.025892438 0.09183808 0.17796393 0.05133917 -0.29827031 0.109846 -0.21927275 0.0138537325
-0.16989954 0.018664166 -0.08260653 -0.014680598 -0.14623871 -0.36345127 -0.16122435 0.0032103017
-0.0012721873 0.1868589 -0.022056784 -0.15490352 -0.025632413 -0.09610734 0.089795314 0.18969743
0.02987669 -0.18093224 -0.05597701 -0.16128339 0.010349437 -0.30498546 0.03480093 0.045319952

classifier.3.weight f4 [10, 128]
00000000: 144f 1ebe 9658 e43d b96d cb3c 609a b8be
00000010: fe27 aebb fd26 203e cd46 343d 24bd eebe
00000020: 5b11 bcbd b56c d63c c83a 30be 8f82 fa3d
00000030: b138 aabc f338 7f3c c423 8d3d 0967 84be
00000040: 01c3 243e a559 9ebd 2c20 63be 2fa6 2cbe
00000050: 9608 113e 7835 c53c d0d5 ba3d 828e 63be
00000060: 6d14 1a3e eb5a a2be 0cca 2fbd 9b51 1fbe
00000070: dfb1 69bd 610a bdbe 99c5 f13d 78a1 11be
00000080: b67a 983d 5cb0 2f3d d9e2 af3d a3fc 8c3d
00000090: 2c92 1c3e fba3 b03d cd68 8abc 6017 a7bc
000000a0: 567b 02be 65ad 093d 3f45 b43d 0f31 193e
000000b0: e87f cd3d 7953 4ebe d7e6 adbd fb31 41bd
000000c0: 6611 2dbe 1804 c23d a55c cebd df3a d63d
000000d0: 2924 0f3e 8371 073e b7fa a13d 08b4 e33d
000000e0: 69f4 1e3e 550a 7fbc 1203 ac3d 5cce da3d
000000f0: f2df 733d e8d2 c33d e099 583e 5cc9 453c
00000100: 063a 93be 635e 723c 2e41 f9bd 068a 133e
00000110: 5628 6e3c 4b3f 7dbe 9d4e f53c 397d 0f3c
00000120: 10c5 57be d3e2 873d f886 303c 9a3d b13d
00000130: 6491 8abe 447e 5e3d 8f9f 9d3d 65c0 aabd
00000140: 62dd 9ebe d2ad 7ebe 73f3 a5bd bf3b ccbd
00000150: dcf7 47be ac4c 3f3e 1d15 acbc 54df cfbd
00000160: d86c 10be 748d 063e def1 e33d ac54 793d
00000170: 6a91 22be a04a 233d 19f4 07be faaa 0a3d
00000180: 0532 3f3e 45dd 99be f44c 46bd 84ed d6bd
00000190: d4de c23d ef3c 5d3d c5e1 a63d fc88 273d
000001a0: cbb3 70bc 6e85 c63d 087e e13d a10b d43c
000001b0: 77d9 c9bd 498d b2bc 939e 8e3d 4bf1 d5bd
000001c0: 1819 18bd 52b7 5c3d f1fb 82bd 1a4e 9a3d
000001d0: 9d66 4ebe 88d9 10bd d64b 45be f91d 97be
000001e0: 077d 9fbd 70ca f6bc b83d 90bd 24cb c93d
000001f0: dee6 493e e9bc a0be e822 ea3c ec44 b5bd
00000200: 531c f039 841e b83d da5c d2bc 5911 2d3e
00000210: 7d8b fabd 7d60 8c3d 2f27 98be d3b5 fb3c
00000220: 4e7e babb 6235 0e3d 2f56 6fbe 1df8 c23d
00000230: 9703 46bc a135 a13d fd09 ebbd c5a8 993d
00000240: 6834 b4bd 82d7 953d 5f92 5f3e d10c 123e
00000250: d17d 903d b274 243c 22c1 b33d 77d5 733e
00000260: 5216 60be 9d5d 383e 09aa a3bd e414 253e
00000270: 35b3 afbd 534d 0dbd 9b6a 69be 6761 333e
00000280: d97e 24be ed35 ff3d 7efa 74bd bfb5 d53d
00000290: 2a9f 01be b70c 833d db63 92be 7fef 673e
000002a0: c765 393d 0f06 47be e59e fbbc d501 e1be
000002b0: e693 ffbd 9606 013e a205 273e 8680 89be
000002c0: 90df fbbd 7368 6b3e 171f 833e 688e 68bc
000002d0: b1cf 8ebe 564c 51be 048b 3c3e 876d b03d
000002e0: 2f4e e3bd ee23 0e3e dfa9 40be 5439 b83d
000002f0: 6afd c23c 60fb d63d f62f 06bf f4e7 dd3d
00000300: 80ef a93e 4cde f33d 6a5e f0bd 4b11 e03d
00000310: fb48 59be 32b9 34bc 3f9a 643d 30f4 0cbe
00000320: 462d b2ba 4f45 e63d d051 3bbe 9711 eabd
00000330: 139f 2c3e 2c72 c33d ea45 733d c1dd 3b3e
00000340: 28ad d53d 7e77 4ebd f33c 2cbe a8b3 093e
00000350: 84bc 76bd 97a3 363e cdb2 a3bc 4481 a2be
00000360: 700f 58be 0b11 07be dee7 833d 44c2 3cbe
00000370: add4 2a3d afa6 a03d ac47 1bbe 4895 49be
00000380: 9b2a fe3d 5df6 6d3e b4a4 c1bb c633 32be
00000390: ca01 ee3d 6797 c4bd 47c9 babd 6898 fbbd
000003a0: 3f78 9c3d 5779 1fbe 131e a3be 029f ad3d
000003b0: b623 673d 2595 17bc 2ef3 173e 0864 cfbd
000003c0: 3da9 6f3c a008 23be ed24 05be 233c 283e
000003d0: c24d dc3d 3c06 34be 6ef0 093d b9ac b33d
000003e0: ca1f 9abd e2df 5ebe 65c0 fb3d 24f2 a2bc
000003f0: 59df 5cbe 1b62 0bbc 8581 89bd e26c 20be
-0.15459853 0.11149709 0.024832593 -0.3605528 -0.005314826 0.15639873 0.044012833 -0.46628678
-0.09182998 0.026174882 -0.17209923 0.12231933 -0.020778986 0.015577543 0.068915874 -0.2585986
0.16090013 -0.07731942 -0.22180241 -0.16860269 0.14163432 0.024073347 0.09122813 -0.22222331
0.15046854 -0.3170999 -0.042917296 -0.15558474 -0.057054397 -0.3692198 0.11805267 -0.14221752
0.0744528 0.0428928 0.0858819 0.06884124 0.15290135 0.08625027 -0.016895676 -0.020396888
-0.12742361 0.033612628 0.0880227 0.1496012 0.10034162 -0.2014903 -0.08491295 -0.047166806
-0.16901168 0.09473437 -0.10076264 0.104604475 0.13978638 0.13226895 0.07909148 0.111183226
0.15522923 -0.015566428 0.08399023 0.10683891 0.059539743 0.095617115 0.21152449 0.012071934
-0.28755206 0.014793011 -0.12170635 0.1440812 0.014535984 -0.24731176 0.029944712 0.008757883
-0.21071267 0.0663506 0.010774367 0.08654328 -0.2706405 0.054319635 0.07696449 -0.083374776
-0.31028277 -0.24870995 -0.08103075 -0.09972333 -0.19528145 0.18681592 -0.021006161 -0.10150018
-0.1410402 0.13139898 0.11130117 0.060871765 -0.15875784 0.03986609 -0.1327671 0.033854462
0.18671425 -0.30051628 -0.048413232 -0.10494521 0.09515157 0.05401319 0.08148531 0.040902123
-0.0146913035 0.096934184 0.11010367 0.025884451 -0.09855931 -0.021795886 0.069638394 -0.104464136
-0.037133306 0.053885765 -0.0639571 0.07534428 -0.20156331 -0.035363704 -0.1926721 -0.29515055
-0.07787519 -0.030125827 -0.07043022 0.09853199 0.19716975 -0.31394127 0.028581098 -0.088510364
0.0004579747 0.089901954 -0.02567904 0.16901149 -0.122336365 0.06854341 -0.29717395 0.030726349
-0.005691326 0.03471888 -0.2337272 0.0951998 -0.012085817 0.07871557 -0.114765145 0.07502893
-0.08799058 0.073164955 0.2183318 0.14262702 0.070552476 0.010037588 0.087770715 0.23811899
-0.21883515 0.1800446 -0.07991416 0.1612125 -0.08579103 -0.03449757 -0.22794573 0.17517625
-0.16064014 0.124614574 -0.0598092 0.10435056 -0.12658373 0.063989095 -0.2859181 0.22649954
0.045263078 -0.19435905 -0.030715415 -0.4394671 -0.12479381 0.12600169 0.16310742 -0.26855868
-0.122985005 0.22989063 0.25609657 -0.014194109 -0.2789283 -0.20439276 0.18412405 0.08614641
-0.11098897 0.13880894 -0.188148 0.089953095 0.023802478 0.10497165 -0.5241693 0.10835257
0.33190536 0.11907634 -0.11736758 0.10940798 -0.21219246 -0.011030482 0.055811163 -0.13765025
-0.0013593815 0.11243688 -0.18292928 -0.11429136 0.16857557 0.09543261 0.059392847 0.18346311
0.104334176 -0.050406925 -0.16820125 0.1344744 -0.060238376 0.17835842 -0.01998272 -0.31739247
-0.21099639 -0.13190095 0.064407095 -0.18433481 0.04170673 0.07844292 -0.1516406 -0.19685853
0.1241047 0.23238511 -0.0059095267 -0.17402562 0.11621435 -0.0959919 -0.09120422 -0.122849286
0.076401226 -0.15573631 -0.31858882 0.08477594 0.05643054 -0.009251867 0.1483886 -0.10126501
0.014627752 -0.15921259 -0.13002367 0.1642919 0.107570186 -0.17580503 0.033676557 0.087731786
-0.075255945 -0.21765092 0.12292556 -0.019890852 -0.21569575 -0.008507277 -0.06714157 -0.15666535

classifier.3.bias f4 [10]
00000000: 4a2c 863e 1e19 d33e 721d 8bbe 6e4e 803e
00000010: 5c66 7dbd e916 33be 12a3 5dbe b6a5 0cbe
00000020: ead2 843d f577 c3be
0.26205665 0.412301 -0.27170902 0.25059837 -0.061865196 -0.17489208 -0.21644238 -0.13735089
0.06485541 -0.38177457
