Tomato_pretrained_cnn/saved_ckpt/best_model_epoch_65.pt (torch, 839456 bytes, 10 tensors)

features.0.weight f4 [32, 3, 3, 3]
0.200393 -0.06570368 0.13174607 0.14078836 -0.307236 -0.65549934 0.059989296 -0.5377854
-1.219263 0.29486096 0.17505068 0.22123224 0.19590147 -0.12863316 -0.42347658 0.07965769
-0.4197092 -0.9010462 0.4219932 0.30974537 0.2702816 0.2417456 0.1403559 -0.14951351
0.22434774 -0.14861636 -0.6209253 -0.34511134 -0.14855568 -0.3349616 0.012629321 -0.44967705
-0.069197565 0.44753814 -0.018973546 -0.66674906 -0.5446964 -0.20387477 -0.34077218 0.021644013
-0.3786383 -0.29533422 0.42547566 -0.26939964 -0.3195146 -0.81493336 -0.8560883 -0.833758
-0.44475475 -1.1686304 -1.1970308 0.39036337 -0.63734984 -1.1655312 0.65426785 0.37262672
0.28957143 0.22527534 0.3565526 0.35210457 0.39866996 0.18495654 0.2944044 0.42822632
-0.4839209 -0.55614007 -0.15658744 -0.5654769 -0.37285277 -0.24375917 -0.3467804 -0.3515441
-0.2071563 -1.3325573 -1.3054866 -0.37158382 -1.4362905 -1.2128887 -0.19904839 -1.553778
-0.93849784 -0.40039012 -0.28404057 -0.1975545 -0.382042 -0.28550604 -0.20790124 -0.3438489
-0.18612786 -0.055005267 0.4424713 0.5683304 0.6112344 0.6190848 0.55100465 0.6125966
0.59090984 0.47650155 0.3205309 -0.36202013 -0.47522908 -0.30930346 -0.3018927 -0.3175631
-0.25039744 -0.1068925 -0.1500858 -0.050137494 0.25150552 0.34797442 0.39626 0.3507338
0.48375538 0.29769033 0.2807187 0.24204421 0.05342216 0.2980644 0.118691914 0.44516268
0.032679174 -0.028790243 0.098317355 -0.090494245 -0.17266679 -0.22821668 -0.43135414 -0.32318756
-0.18490393 -0.21189244 -0.20483853 -0.13112843 -0.3192701 -0.36651865 -0.5294589 -0.60145605
-0.16054416 0.3080059 -0.13356692 -0.08652311 0.29547724 0.07779473 0.21542314 0.30757853
-0.5579995 -0.08416507 0.1333943 -0.12210532 -0.15681909 0.41158837 0.1706792 0.33543858
0.4172121 -0.7667697 -0.27086613 0.052293755 -0.5138236 -0.23503533 0.25733137 0.052899443
0.2037315 0.3016922 -0.18364447 -0.25311953 -0.11446754 -0.2609761 -0.37840515 0.051927973
-0.2276844 -0.29007185 -0.21277776 -0.19357659 -0.07238014 0.049931053 -0.18986648 -0.100581914
0.0951286 -0.12955455 -0.26978788 -0.0062637045 -0.107919924 -0.047874767 -0.23401015 -0.028863832
-0.16966327 0.019292613 -0.19924572 -0.19068019 -0.12589023 -0.13007364 0.16807902 -0.20218094
-0.15754107 -0.29373762 -0.81753486 0.046564557 -0.10180707 0.29041332 0.18634345 0.27026418
-0.240151 0.0856861 -0.14254439 -0.6056506 0.05510526 0.22469544 0.48864457 0.28739536
0.36701444 -0.14189805 0.30212688 -0.11094172 -0.74511766 0.30389062 0.1711791 0.27539736
0.17564563 0.019552145 0.08021785 0.19953835 0.0031282916 0.13533965 0.29572514 0.10512903
0.3204248 -0.2654756 -0.42767942 -0.5107687 -0.3473914 -0.69131786 -0.47961125 -0.11617082
-0.27927047 -0.0012147927 0.005237081 -0.31604558 -0.18119466 -0.19659021 -0.5593967 -0.10048193
0.17478575 -0.20000611 -0.029231988 -1.4589195 -0.017612223 -0.06608219 -1.0958017 -1.2862211
-0.069798276 -2.0659573 -1.3564242 0.08717421 -1.8255142 -0.45908654 -0.33454227 -1.4128515
00000000: d333 4d3e a78f 86bd 71e8 063e d32a 103e
00000010: 094e 9dbe cece 27bf 56b7 753d 4eac 09bf
00000020: cf10 9cbf 04f8 963e 7c40 333e b48a 623e
00000030: 659a 483e 69b8 03be ecd1 d8be 9223 a33d
00000040: 20e4 d6be f7aa 66bf 7e0f d83e f296 9e3e
00000050: 5a62 8a3e 298c 773e 75b9 0f3e 121a 19be
00000060: 6abb 653e e32e 18be f6f4 1ebf 6fb2 b0be
00000070: fb1e 18be 1680 abbe 36eb 4e3c 123c e6be
00000080: 74b7 8dbd b823 e53e 696e 9bbc 11b0 2abf
00000090: 3971 0bbf 8cc4 50be b179 aebe c94e b13c
000000a0: e1dc c1be 0c36 97be f2d7 d93e c0ee 89be
000000b0: 6b97 a3be 799f 50bf 9a28 5bbf 2a71 55bf
000000c0: e5b6 e3be ae95 95bf 4e38 99bf b5dd c73e
000000d0: 5c29 23bf 2030 95bf 197e 273f eec8 be3e
000000e0: b542 943e 94ae 663e 108e b63e 0d47 b43e
000000f0: 781e cc3e 3f65 3d3e 2cbc 963e 7b40 db3e
00000100: 7bc4 f7be 325f 0ebf 7558 20be 18c3 10bf
00000110: 8fe6 bebe 019c 79be 338d b1be 97fd b3be
00000120: c820 54be 3d91 aabf 2f1a a7bf 3c40 bebe
00000130: 5ed8 b7bf f03f 9bbf 57d3 4bbe 33e2 c6bf
00000140: 6541 70bf efff ccbe c46d 91be ba4b 4abe
00000150: 029b c3be d92d 92be 10e4 54be f70c b0be
00000160: 4d98 3ebe 344d 61bd 998b e23e 1a7e 113f
00000170: dc79 1c3f 577c 1e3f a40e 0d3f 21d3 1c3f
00000180: de45 173f 03f8 f33e a01c a43e b45a b9be
00000190: 3a51 f3be 065d 9ebe ae91 9abe a197 a2be
000001a0: 1834 80be 74ea dabd 18b0 19be f95c 4dbd
000001b0: 55c5 803e b429 b23e 97e2 ca3e 6193 b33e
000001c0: c9ae f73e de6a 983e 5dba 8f3e 70da 773e
000001d0: 32d1 5a3d e69b 983e bf14 f33d 5dec e33e
000001e0: 99da 053d 84d9 ebbc 9c5a c93d 0c55 b9bd
000001f0: 90cf 30be a2b1 69be 73da dcbe d778 a5be
00000200: 7557 3dbe 55fa 58be 31c1 51be 8846 06be
00000210: 5f77 a3be 55a8 bbbe 9e8a 07bf 06f9 19bf
00000220: b065 24be f3b2 9d3e c4c5 08be 0733 b1bd
00000230: cb48 973e d852 9f3d e297 5c3e ef7a 9d3e
00000240: 0ed9 0ebf bc5e acbd 8498 083e 5b12 fabd
00000250: 2f95 20be b6bb d23e 87c6 2e3e 9bbe ab3e
00000260: d39c d53e 054b 44bf f7ae 8abe fa31 563d
00000270: f289 03bf 1aad 70be f0c0 833e 16ad 583d
00000280: fe9e 503e 6677 9a3e 4c0d 3cbe e298 81be
00000290: f56d eabd a99e 85be 52be c1be 6db2 543d
000002a0: 1926 69be 4c84 94be 6ae2 59be f138 46be
000002b0: 0a3c 94bd 8184 4c3d 5c6c 42be e4fd cdbd
000002c0: c9d2 c23d f3a9 04be a321 8abe c33f cdbb
000002d0: 1f05 ddbd 5518 44bd 5ba0 6fbe d873 ecbc
000002e0: 35bc 2dbe 8b0b 9e3c 1207 4cbe ab41 43be
000002f0: 5ee9 00be 0632 05be e81c 2c3e 8508 4fbe
00000300: 7252 21be c764 96be f749 51bf 7aba 3e3d
00000310: 3a80 d0bd 0eb1 943e d1d0 3e3e 1160 8a3e
00000320: 25ea 75be 327c af3d 28f7 11be eb0b 1bbf
00000330: 0eb6 613d 9016 663e 9f2f fa3e 7c25 933e
00000340: 51e9 bb3e b94d 11be 60b0 9a3e 6a35 e3bd
00000350: 08c0 3ebf 8d97 9b3e 9349 2f3e e200 8d3e
00000360: 73dc 333e d22b a03c 4249 a43d c853 4c3e
00000370: 0604 4d3b 7a96 0a3e 4969 973e e44d d73d
00000380: b80e a43e 6bec 87be ccf8 dabe bdc1 02bf
00000390: 49dd b1be 35fa 30bf 9b8f f5be f8ea edbd
000003a0: 8afc 8ebe ae39 9fba d29b ab3b bad0 a1be
000003b0: 188b 39be f24e 49be 9f34 0fbf 78c9 cdbd
000003c0: 09fb 323e 67ce 4cbe ec77 efbc e0bd babf
000003d0: 8247 90bc 1956 87bd 3b43 8cbf e5a2 a4bf
000003e0: 66f2 8ebd a538 04c0 4f9f adbf 6488 b23d
000003f0: 73aa e9bf 640d ebbe 2049 abbe 51d8 b4bf

features.0.bias f4 [32]
0.042742196 -0.36467844 -0.18848379 -0.30882782 -0.10409125 -0.28438178 -0.1628197 -0.06214197
0.18529673 0.41194487 -0.04613136 -0.4125738 -0.2896555 -0.39707673 -0.05049839 -0.3474595
0.3422555 -0.18813899 -0.0116295125 -0.51137185 -0.07128042 -0.90305376 -0.5061398 -0.24358393
0.06824718 -0.06714148 -0.0837869 -0.12797815 0.00263885 -0.2741212 -0.21435465 -0.43759146
00000000: 7112 2f3d 22b7 babe e501 41be ae1e 9ebe
00000010: cb2d d5bd 7d9a 91be 35ba 26be 9488 7ebd
00000020: 6dbe 3d3e 70ea d23e 3df4 3cbd e03c d3be
00000030: ba4d 94be a44d cbbe 66d7 4ebd 36e6 b1be
00000040: 1d3c af3e 82a7 40be b689 3ebc 44e9 02bf
00000050: 78fb 91bd 882e 67bf 6192 01bf 116e 79be
00000060: 2dc5 8b3d 7981 89bd 7798 abbd b40c 03be
00000070: 8ef0 2c3b 9d59 8cbe c97f 5bbe fd0b e0be

features.3.weight f4 [16, 32, 3, 3]
-0.08666171 -0.3057014 -0.22789744 -0.45974126 -0.43971616 -0.054685835 -0.13822503 0.11926244
0.06791133 0.58874726 -0.14816995 -0.03245559 -0.078756936 0.54792976 0.47730905 -0.0338904
0.2229622 0.41899666 -0.32628024 0.069423795 -0.4936206 -0.62175596 -0.23061413 -0.2500303
-0.4166237 -0.49552423 0.018376919 0.514332 0.5370524 0.38256276 0.50843334 0.04629528
-0.28737834 0.4791867 -0.13944964 -0.7952617 -0.9527681 -0.5740369 -0.025431309 -0.53027
0.28472805 0.545298 -0.4918025 0.6000722 1.0568097 -0.08923683 0.042339955 -0.15197428
0.0065865824 0.19159459 -0.10967927 -0.37702027 -0.10635521 -0.2198785 0.13385318 -0.007150388
-0.043329358 0.28128943 -0.11712238 -0.12826215 0.0930359 -0.042217057 -0.1421846 0.43092346
-0.072043285 0.032339487 0.055306282 -0.46567982 -0.12510087 -0.011339072 -0.2863432 -0.3700453
-1.2843637 -1.0487233 -0.27877283 -1.3818928 -0.6994107 -0.011288802 -1.412124 -0.37248793
0.3244665 -1.3327901 -0.8482167 -0.020108437 -1.2611935 -0.19088489 0.22509181 -0.39234462
-0.13202696 0.76069075 0.32090378 -0.077583015 0.20042372 -0.087447435 -0.1413312 -0.34779936
0.06455208 -0.014923875 -0.13554728 -0.09309738 -0.018629368 -0.018553985 0.08316493 0.0525982
0.11398167 0.25921682 0.25680235 0.8713325 -0.75770783 -0.54725844 -0.33692956 0.14909768
0.3234686 0.43355042 -0.077332586 0.089012764 0.47373363 -0.27940288 -0.024766145 0.13714452
0.13451195 0.15222636 0.2644447 -0.17805117 -0.23135118 -0.10884867 0.09660844 4.8103643e-06
-0.0016943607 0.31176704 -0.10105423 -0.37566936 0.18035364 -0.00888918 -0.4462292 0.049323995
0.25311154 -0.27861828 -0.17984855 0.12968214 -0.042467285 0.14049983 0.18405674 0.10101267
-0.5600821 -0.415336 -0.16470711 0.43645853 0.39183655 0.43726996 0.19762622 0.1536467
0.27303183 -0.338858 -0.23819956 -0.19173056 -0.3386722 -0.015457273 0.089557655 -0.4035977
-0.11334356 0.27809027 -0.22902599 0.084962234 0.1770079 0.14783667 -0.16587114 0.022876736
-0.034890514 -0.537635 -0.1547982 0.24741538 0.17730354 0.38189214 0.022223502 -0.08870813
0.04436173 -0.21484366 0.018698052 0.013490624 -0.08524249 -0.227171 -0.28355238 0.051542297
0.13919528 0.11528663 0.13114078 0.33117798 0.4599501 0.21108589 -0.10731779 0.005216587
0.44316077 -0.03752318 -0.25716898 0.1198691 -0.096539736 -0.21455593 -0.33614433 -0.24134599
-0.21223982 -0.3275865 -0.16700268 -0.13686988 -0.30184394 -0.665978 0.10694967 0.23675525
0.16373834 -0.23635428 0.23657228 -0.21028472 -0.0826808 -0.15351748 -0.3284079 -0.25667486
0.02150474 0.055665497 0.12588471 0.103984185 -0.20196651 -0.5592773 0.19568945 -0.60761046
-0.66226774 -1.065836 -0.33326733 0.093251444 -0.8423561 0.32470587 1.0245641 -0.81693333
0.5776619 1.0210891 -0.57705045 -0.2967609 -1.16087 -0.35301602 -0.017910944 0.14074522
-1.3084749 -0.6078805 0.07691862 -0.33569118 -0.33231458 0.11002575 -0.28847006 -0.10331195
0.25397602 -0.21503383 -0.44365302 -0.39085487 -0.43494403 -0.33037144 -0.37577018 -0.4426025
00000000: b27b b1bd e584 9cbe f25d 69be 3563 ebbe
00000010: 7a22 e1be 41fe 5fbd dd8a 0dbe de3f f43d
00000020: 1815 8b3d 24b8 163f ddb9 17be 27f0 04bd
00000030: 514b a1bd 2045 0c3f da61 f43e a9d0 0abd
00000040: 3450 643e bb86 d63e 340e a7be 102e 8e3d
00000050: d7bb fcbe 662b 1fbf 1c26 6cbe f903 80be
00000060: b44f d5be 5ab5 fdbe 318b 963c 43ab 033f
00000070: 447c 093f 44df c33e b028 023f 1fa0 3d3d
00000080: 4123 93be f657 f53e e3cb 0ebe 4596 4bbf
00000090: 9ce8 73bf 15f4 12bf 5255 d0bc c6bf 07bf
000000a0: e0c7 913e a698 0b3f 8acd fbbe 559e 193f
000000b0: 8a45 873f cdc1 b6bd a96c 2d3d 259f 1bbe
000000c0: 42d4 d73b 5f31 443e 869f e0bd cd08 c1be
000000d0: c3d0 d9bd d427 61be cf10 093e cd4d eabb
000000e0: 207a 31bd 2b05 903e dcdd efbd 2757 03be
000000f0: 9b89 be3d cbeb 2cbd d798 11be 00a2 dc3e
00000100: 6e8b 93bd 6976 043d d788 623d 966d eebe
00000110: 711a 00be 84c7 39bc 939b 92be 9476 bdbe
00000120: 0866 a4bf 913c 86bf 50bb 8ebe dde1 b0bf
00000130: 940c 33bf abf4 38bc 7bc0 b4bf bdb6 bebe
00000140: 7920 a63e de98 aabf bb24 59bf 73ba a4bc
00000150: ca6e a1bf 5477 43be 787e 663e 65e1 c8be
00000160: 1332 07be a1bc 423f 804d a43e d8e3 9ebd
00000170: e03b 4d3e a417 b3bd 20b9 10be c212 b2be
00000180: e233 843d 4583 74bc e8cc 0abe d7a9 bebd
00000190: 9e9c 98bc 87fe 97bc 6052 aa3d 3671 573d
000001a0: 396f e93d 11b8 843e 997b 833e a60f 5f3f
000001b0: 24f9 41bf 2119 0cbf 0882 acbe 10ad 183e
000001c0: ad9d a53e 52fa dd3e 8c60 9ebd 534c b63d
000001d0: 378d f23e e50d 8fbe 5fe2 cabc 9d6f 0c3e
000001e0: 80bd 093e 3ae1 1b3e 4c65 873e 0c53 36be
000001f0: 53e7 6cbe 0dec debd a5da c53d b768 a136
00000200: 5015 deba ee9f 9f3e 85f5 cebd bc57 c0be
00000210: a0ae 383e eca3 11bc 2778 e4be f507 4a3d
00000220: d697 813e 0ea7 8ebe 382a 38be 65cb 043e
00000230: 2df2 2dbd 30df 0f3e 5f79 3c3e bbdf ce3d
00000240: 8a61 0fbf eca6 d4be fba8 28be 7e77 df3e
00000250: cd9e c83e d9e1 df3e 875e 4a3e 8f55 1d3e
00000260: d4ca 8b3e cc7e adbe 96ea 73be 0455 44be
00000270: 7166 adbe 8140 7dbc 016a b73d 5ca4 cebe
00000280: ab20 e8bd d961 8e3e ca85 6abe ae00 ae3d
00000290: 8f41 353e 7f62 173e 20da 29be fe67 bb3c
000002a0: 5be9 0ebd 73a2 09bf 6b83 1ebe 755a 7d3e
000002b0: 0f8f 353e 5e87 c33e 100e b63c 9cac b5bd
000002c0: a5b4 353d faff 5bbe a82c 993c c707 5d3c
000002d0: 9d93 aebd 849f 68be c72d 91be 041e 533d
000002e0: 3589 0e3e 661b ec3d c549 063e 2990 a93e
000002f0: 947e eb3e e626 583e 6ec9 dbbd e7ef aa3b
00000300: f8e5 e23e e8b1 19bd a7ab 83be ee7d f53d
00000310: a0b6 c5bd 8db4 5bbe 1c1b acbe 6723 77be
00000320: 6555 59be 6bb9 a7be c002 2bbe 9e27 0cbe
00000330: 4a8b 9abe 897d 2abf 6e08 db3d f86f 723e
00000340: 06ab 273e db06 72be 0140 723e e154 57be
00000350: 8d54 a9bd b033 1dbe 1525 a8be e36a 83be
00000360: b52a b03c 8101 643d ece7 003e a9f5 d43d
00000370: 4fd0 4ebe cc2c 0fbf d162 483e 5c8c 1bbf
00000380: 618a 29bf 506d 88bf 04a2 aabe 9dfa be3d
00000390: a6a4 57bf d93f a63e eb24 833f 8b22 51bf
000003a0: a6e1 133f 0cb3 823f 94b9 13bf 0bf1 97be
000003b0: 6397 94bf 84be b4be f9b9 92bc 841f 103e
000003c0: 1b7c a7bf 0e9e 1bbf 8287 9d3d b7df abbe
000003d0: 2325 aabe 2e55 e13d 59b2 93be 3795 d3bd
000003e0: 2509 823e d431 5cbe 7d26 e3be 211e c8be
000003f0: fcb0 debe 7226 a9be f364 c0be cb9c e2be

features.3.bias f4 [16]
-0.25148788 0.05956871 -0.1007578 0.028280063 -0.061877977 -0.059112392 -0.056400534 0.16504918
-0.085874856 -0.007870227 -0.19284394 -0.37165433 0.16319717 -0.55165863 0.0295038 -0.17226611
00000000: 05c3 80be 52fe 733d 1b5a cebd 97ab e73c
00000010: c373 7dbd d61f 72bd 3f04 67bd a702 293e
00000020: 28df afbd 20f2 00bc e278 45be 7a49 bebe
00000030: 291d 273e 8039 0dbf f4b1 f13c 8766 30be

features.6.weight f4 [8, 16, 3, 3]
-0.14688094 -0.028312806 -0.057373513 -0.018127166 0.11109105 -0.015867695 -0.1416038 0.026248526
0.09213819 -0.16966623 -0.12976956 0.025670372 -0.13415387 0.5360829 0.45513383 -0.18533392
0.26223597 0.34575623 -0.036752228 -0.019047726 0.011970095 0.086950764 -0.19227971 0.0992117
0.120093375 0.027681137 -0.026988663 0.089321755 -0.15399012 -0.12517972 0.06759051 0.102037214
-0.043277342 0.21161358 0.2983722 0.3282595 0.1701483 0.27368093 0.24697477 0.14404505
0.37096956 0.49515283 0.23627533 0.39003918 0.43460447 0.024022376 -0.1840579 -0.24240586
-0.19883853 -0.826863 -1.4811362 0.1242526 -0.3204678 -0.8387388 0.26422787 -0.04801177
0.22657713 -0.2702722 -0.38580915 -0.3098525 0.12034102 -0.13279584 -0.0600773 0.16206683
-0.061888378 -0.31319755 0.047618803 -0.47202757 -0.4853097 0.042271122 -0.14263757 -0.34166613
-0.11917861 -0.036508046 -0.13682169 -0.026314672 -0.056537095 0.105293795 -0.01248858 0.101487584
0.07902427 -0.013832282 -0.0783102 -0.082595475 -0.33700967 -0.47662354 -0.39916193 -0.06737719
-0.72812986 -0.3812345 -0.012394776 -0.12815857 -0.15521424 0.05344103 0.018823767 -0.13347493
0.05819194 -0.03677818 0.07660233 -0.4930982 -0.24874006 0.2323239 -0.46495715 0.20980723
0.075300135 -0.42082304 0.04544301 -0.07955348 0.0374031 0.4786092 0.1862113 -0.19140244
0.23650229 0.21704656 0.05668976 0.23377009 -0.13776338 -0.38723555 -0.399222 -0.27087796
-0.51800406 -0.026971726 -0.10037569 -0.18712157 -0.06286329 -0.06915712 -0.122548886 -0.06307502
-0.15918225 -0.02781437 0.066029504 0.297268 0.010042757 0.17822817 0.24993041 -0.024092723
0.21981724 0.2787594 0.14133568 0.44088796 0.07551823 -0.13967134 -0.07399052 0.13053079
0.23122598 -0.22459841 0.026433578 -0.061624374 -0.03862817 0.03188094 -0.112874255 0.0033283418
-0.06542613 0.0703911 -0.031130657 -0.113654576 -0.09755167 0.09560505 -0.10911234 -0.2765119
-0.2451075 -0.12058758 0.026181556 0.022623466 0.034239847 -0.16864626 -0.15052769 -0.0018496928
0.051470242 0.14114378 0.16746625 -0.005328612 -0.1303541 -0.22939372 -0.09637974 -0.058228396
-0.17108609 0.16310498 -0.11209971 -0.1682451 -0.15229659 -0.10280691 0.039420355 -0.1156703
0.030711697 0.014308511 -0.005260795 -0.067880064 0.019747173 -0.055465695 -0.21612501 -0.122839145
-0.16604996 0.27949396 0.15750656 -0.18654464 -0.031428654 -0.037952494 -0.3919925 -0.23390658
0.07701136 -0.12704077 -0.023672799 0.28322396 -0.062077995 0.47421443 0.31917083 -0.17477159
0.11514901 -0.233583 0.096761614 0.067022406 -0.037817508 0.006317476 0.24516095 0.13598762
0.012014572 0.11089781 -0.051875755 0.06310807 0.046495102 0.042822856 0.103551105 -0.09756888
-0.12616944 0.48415807 0.2931368 0.19941097 0.3661587 0.30150905 0.1698912 0.34362844
-0.16602209 0.6053405 -0.22535774 -0.07016738 0.16147335 -0.12170164 -0.030215401 -0.013208821
-0.08283776 -0.13809444 -0.058958165 0.0391509 0.073016815 -0.036540367 0.16060197 0.37582606
0.07986262 0.08474954 0.16568302 0.33904967 0.32956618 0.28795844 0.1360363 0.2699823
00000000: f567 16be 42f0 e7bc 7d00 6bbd 6c7f 94bc
00000010: b483 e33d f8fc 81bc 9600 11be 2607 d73c
00000020: f3b2 bc3d fcbc 2dbe 50e2 04be ac4a d23c
00000030: a25f 09be bb3c 093f 4d07 e93e 2dc8 3dbe
00000040: cb43 863e f606 b13e 8189 16bd fa09 9cbc
00000050: 381e 443c 3e13 b23d f9e4 44be 812f cb3d
00000060: 84f3 f53d 8dc3 e23c 5417 ddbc 53ee b63d
00000070: 96af 1dbe 1d2f 00be e56c 8a3d e3f8 d03d
00000080: 9543 31bd 3bb1 583e 3ec4 983e a111 a83e
00000090: 5b3b 2e3e e81f 8c3e f4e6 7c3e 8c80 133e
000000a0: b9ef bd3e ac84 fd3e 29f2 713e 37b3 c73e
000000b0: 7a84 de3e 93ca c43c ad79 3cbe 3e39 78be
000000c0: 549c 4bbe 4bad 53bf df95 bdbf 2678 fe3d
000000d0: 5b14 a4be 96b7 56bf e048 873e fda7 44bd
000000e0: d603 683e 1e61 8abe c788 c5be fda4 9ebe
000000f0: 5a75 f63d a2fb 07be 9d13 76bd d9f4 253e
00000100: ab7e 7dbd 6e5b a0be ef0b 433d 99ad f1be
00000110: 837a f8be 7c24 2d3d 950f 12be ddee aebe
00000120: ea13 f4bd 7689 15bd fc1a 0cbe de91 d7bc
00000130: 7193 67bd 46a4 d73d e79c 4cbc b9d8 cf3d
00000140: 7ad7 a13d cca0 62bc 1961 a0bd d127 a9bd
00000150: 888c acbe 0008 f4be f45e ccbe 0dfd 89bd
00000160: b866 3abf 2b31 c3be 7513 4bbc 003c 03be
00000170: 7bf0 1ebe fbe4 5a3d 4d34 9a3c a7ad 08be
00000180: ac5a 6e3d b8a4 16bd afe1 9c3d 5e77 fcbe
00000190: b7b5 7ebe 51e6 6d3e dd0e eebe b5d7 563e
000001a0: f536 9a3d 1e76 d7be 7322 3a3d efec a2bd
000001b0: fe33 193d 440c f53e 2dae 3e3e 00ff 43be
000001c0: a82d 723e 7441 5e3e 8633 683d 6d61 6f3e
000001d0: d811 0dbe bd43 c6be d366 ccbe 84b0 8abe
000001e0: ea9b 04bf cff3 dcbc c591 cdbd cc9c 3fbe
000001f0: 78be 80bd 40a2 8dbd e9fa fabd 7a2d 81bd
00000200: ac00 23be f6da e3bc 7a3a 873d 8333 983e
00000210: 608a 243c 7281 363e c2ed 7f3e 1a5e c5bc
00000220: c517 613e 8db9 8e3e 4dba 103e 11bc e13e
00000230: 4da9 9a3d 0106 0fbe 5788 97bd dda9 053e
00000240: 81c6 6c3e 20fd 65be 3b8b d83c d769 7cbd
00000250: 9238 1ebd 9795 023d 9e2a e7bd 4f20 5a3b
00000260: 23fe 85bd 3629 903d b805 ffbc bbc3 e8bd
00000270: 2cc9 c7bd 95cc c33d 4a76 dfbd f892 8dbe
00000280: 76fd 7abe 9ff6 f6bd b47a d63c d954 b93c
00000290: 153f 0c3d 9bb1 2cbe ee23 1abe 6471 f2ba
000002a0: 76d2 523d ff87 103e 467c 2b3e a39b aebb
000002b0: 8c7b 05be 30e6 6abe be62 c5bd e680 6ebd
000002c0: 3131 2fbe fe04 273e 8894 e5bd 7248 2cbe
000002d0: a3f3 1bbe 6e8c d2bd 3d77 213d 8de4 ecbd
000002e0: 1997 fb3c 3f6e 6a3c bf62 acbb b404 8bbd
000002f0: d3c4 a13c ff2f 63bd e04f 5dbe 1793 fbbd
00000300: 0009 2abe d519 8f3e 6649 213e 8f05 3fbe
00000310: 55bb 00bd 1374 1bbd 3eb3 c8be 3585 6fbe
00000320: 22b8 9d3d fa16 02be 75ed c1bc bb02 913e
00000330: 7f45 7ebd 3ccc f23e 5c6a a33e 53f7 32be
00000340: 3fd3 eb3d 6230 6fbe f42a c63d 0b43 893d
00000350: 88e6 1abd d402 cf3b 790b 7b3e 5740 0b3e
00000360: c4d8 443c 641e e33d ac7b 54bd ce3e 813d
00000370: a671 3e3d 0567 2f3d 9a12 d43d 31d2 c7bd
00000380: 9032 01be 91e3 f73e 0716 963e 6432 4c3e
00000390: 2779 bb3e 655f 9a3e f5f7 2d3e 11f0 af3e
000003a0: b201 2abe 98f7 1a3f 2ec4 66be eab3 8fbd
000003b0: 4559 253e b63e f9bd 4a86 f7bc d069 58bc
000003c0: d8a6 a9bd a168 0dbe 1e7e 71bd b25c 203d
000003d0: d789 953d 5aab 15bd d874 243e 466c c03e
000003e0: 038f a33d 2b91 ad3d cfa8 293e eb97 ad3e
000003f0: e6bc a83e 4a6f 933e 1a4d 0b3e 1f3b 8a3e

features.6.bias f4 [8]
0.3817269 -0.45846358 0.74151075 0.4821448 -0.05165101 -0.4701927 -0.24204595 -0.588038
00000000: b571 c33e bdbb eabe a6d3 3d3f afdb f63e
00000010: 0290 53bd 19bd f0be e5da 77be a989 16bf

classifier.0.weight f4 [128, 1568]
0.11588843 0.14253779 -0.11362341 -0.22231212 -0.3788935 -0.24459809 -0.20421992 -0.16515587
-0.42560348 -0.3740674 -0.19047648 -0.13801743 0.037343774 0.09422401 0.11889714 -0.13042179
-0.35105062 -0.25193268 -0.1776917 -0.06456436 -0.16626832 -0.051476836 -0.28698933 -0.20006132
-0.32458714 -0.34412926 -0.1426202 0.012014128 -0.1636603 -0.31682795 -0.2391311 -0.034218922
-0.07455486 -0.10798767 -0.08426368 -0.07449245 -0.18970934 -0.14898548 -0.14824593 -0.26784214
-0.28240186 -0.004618221 -0.35808757 -0.29262277 0.015383461 0.0068792524 -0.091391 -0.03997168
-0.08278911 -0.19859602 -0.12026706 -0.050960638 0.008125821 -0.1524123 -0.14173077 -0.3544716
-0.21816307 -0.22176313 -0.104258806 -0.011082474 -0.0027889828 0.038815815 0.047859665 -0.06285822
0.031080477 -0.070813514 -0.04237807 0.08367958 -0.073401734 -0.18266931 -0.32869962 -0.06018589
-0.061383087 0.036630332 0.1416391 0.24453026 0.3067593 0.044613976 0.0925333 0.16373678
-0.031089842 -0.14411381 -0.08269872 -0.20699373 -0.09981396 -0.20424524 0.043722652 0.11218623
0.22505245 0.28661862 0.3099643 0.1431834 -0.0012229718 0.16178228 -0.06165987 -0.01636932
-0.10492655 -0.36765555 -0.21688381 -0.26620713 0.04906329 0.07662463 0.22667263 0.31487617
0.34260133 0.33414373 0.30458954 0.097375885 0.0060945046 -0.020365095 -0.040884163 -0.38867623
-0.26221532 -0.23476037 0.03831388 0.08296007 0.11296079 0.17130506 0.25062126 0.21642268
0.06261217 -0.06986525 -0.045634117 -0.025524132 -0.15020868 -0.30371135 -0.4277827 -0.19542414
-0.14990835 -0.07699849 0.011845425 0.16877648 0.16498736 0.045301914 0.0071279234 -0.09632878
-0.10162067 -0.2248189 -0.15342465 -0.13127744 -0.32397658 -0.37613726 -0.35631987 -0.1593379
-0.10713439 -0.14754334 -0.2596951 -0.08194151 -0.11052753 -0.033736147 -0.1594976 -0.061029986
-0.18702587 -0.27148822 -0.39128152 -0.21305174 -0.30871987 -0.20173723 -0.14430071 -0.09037103
-0.14387447 -0.13439889 0.025328841 -0.070380114 -0.20476775 -0.2687942 -0.07078461 -0.21482474
0.044034548 -0.24738333 -0.06889266 -0.22335726 -0.27723804 -0.26138481 -0.21226887 -0.11133315
-0.1658867 -0.22982825 -0.36946666 -0.22086784 -0.28052875 -0.020553302 0.12696029 -0.044293605
-0.3823511 -0.13946964 -0.056981325 -0.14224556 -0.23157962 -0.23221691 -0.28203377 -0.1818859
-0.0857105 -0.34018543 -0.112036206 0.17738649 0.05544082 -0.110054746 -0.0636597 -0.02969614
0.08111819 -0.10594647 -0.033473916 0.012169541 -0.11531004 -0.037857085 -0.0055979853 0.028912451
0.13481034 0.064298324 -0.023174139 -0.106790505 -0.09506496 -0.017474942 0.09427979 0.0048182425
0.023582151 0.04809515 -0.03237705 -0.057829794 0.028534995 -0.13466723 -0.010926611 -0.035798665
-0.1305937 0.028263744 0.023564203 0.02904967 0.023792239 -0.23825447 -0.12568715 -0.07180089
-0.053750396 -0.09309966 0.00687373 0.002817002 0.06898899 0.12197657 -0.032555576 -0.06552352
0.030119317 0.0029783382 -0.23522936 -0.1175143 -0.071566194 -0.047142133 0.034640312 0.009785718
-0.062638246 -0.0021908993 -0.013953168 0.116314076 0.07963524 -0.02010072 0.12194819 -0.043484572
00000000: ea56 ed3d 6df5 113e 64b3 e8bd caa5 63be
00000010: 54fe c1be ec77 7abe 071f 51be 9f1e 29be
00000020: b3e8 d9be c385 bfbe 440c 43be 7154 0dbe
00000030: c9f5 183d 85f8 c03d 5880 f33d 4a8d 05be
00000040: e8bc b3be 52fd 80be d0f4 35be 523a 84bd
00000050: 3e42 2abe 60d9 52bd 44f0 92be e0dc 4cbe
00000060: 4930 a6be b631 b0be 080b 12be e8d6 443c
00000070: 9196 27be 4637 a2be c8de 74be 2429 0cbd
00000080: 38b0 98bd a428 ddbd 7092 acbd 7f8f 98bd
00000090: 2a43 42be a68f 18be c8cd 17be 9b22 89be
000000a0: fa96 90be 7254 97bb 4157 b7be a7d2 95be
000000b0: e90a 7c3c 5a6b e13b 342b bbbd 58b9 23bd
000000c0: 568d a9bd c15c 4bbe 944e f6bd 1abc 50bd
000000d0: 2a22 053c f811 1cbe df21 11be 4d7d b5be
000000e0: 2466 5fbe e015 63be a485 d5bd 4493 35bc
000000f0: 5ec7 36bb 55fd 1e3d 7f08 443d cfbb 80bd
00000100: 7c9c fe3c ad06 91bd a194 2dbd 3360 ab3d
00000110: a653 96bd aa0d 3bbe 514b a8be 7b85 76bd
00000120: d56c 7bbd b009 163d d709 113e 2466 7a3e
00000130: 8e0f 9d3e 25bd 363d 1982 bd3d 9daa 273e
00000140: 20b0 febc 9292 13be f25d a9bd 2af6 53be
00000150: 436b ccbd aa25 51be 8616 333d e5c1 e53d
00000160: 2674 663e adbf 923e a4b3 9e3e ab9e 123e
00000170: 204c a0ba 41aa 253e 0f8f 7cbd f418 86bc
00000180: bbe3 d6bd 593d bcbe ca16 5ebe 4d4c 88be
00000190: 97f6 483d 60ed 9c3d df1c 683e 7337 a13e
000001a0: 7169 af3e e314 ab3e 29f3 9b3e 026d c73d
000001b0: 69b4 c73b b3d4 a6bc 2776 27bd 9200 c7be
000001c0: 1641 86be 0665 70be 04ef 1c3d f8e6 a93d
000001d0: fd57 e73d 986a 2f3e 6e51 803e e89d 5d3e
000001e0: cf3a 803d 8315 8fbd d7ea 3abd fc17 d1bc
000001f0: 4ed0 19be 0e80 9bbe 5606 dbbe 441d 48be
00000200: 9381 19be 62b1 9dbd 5013 423c bed3 2c3e
00000210: 72f2 283e 808e 393d 5b91 e93b 0648 c5bd
00000220: 7f1e d0bd ed36 66be 5a1b 1dbe 986d 06be
00000230: 42e0 a5be 1095 c0be 8f6f b6be 7929 23be
00000240: 4669 dbbd 9a15 17be c2f6 84be f3d0 a7bd
00000250: 425c e2bd ea2e 0abd 5753 23be 94fa 79bd
00000260: b683 3fbe 8100 8bbe 0d56 c8be 3c2a 5abe
00000270: 8810 9ebe 3494 4ebe 91c3 13be 7214 b9bd
00000280: d453 13be dd9f 09be 6e7e cf3c 7323 90bd
00000290: a3ae 51be 659f 89be 86f7 90bd 04fb 5bbe
000002a0: 925d 343d 0e52 7dbe 9817 8dbd c4b7 64be
000002b0: 25f2 8dbe 3bd4 85be 035d 59be a202 e4bd
000002c0: 34de 29be 1958 6bbe bc2a bdbe 2e2b 62be
000002d0: 77a1 8fbe 665f a8bc e101 023e 366d 35bd
000002e0: 86c3 c3be 21d1 0ebe 4065 69bd d2a8 11be
000002f0: 3523 6dbe 45ca 6dbe bb66 90be 4c40 3abe
00000300: fd88 afbd c92c aebe 3d73 e5bd cea4 353e
00000310: ea15 633d 6264 e1bd 0460 82bd 5245 f3bc
00000320: 4b21 a63d 76fa d8bd f21b 09bd c162 473c
00000330: ac27 ecbd 0810 1bbd 4e6f b7bb ced9 ec3c
00000340: b90b 0a3e d7ae 833d b1d7 bdbc fbb4 dabd
00000350: 6bb1 c2bd 9c27 8fbc c315 c13d 59e2 9d3b
00000360: 5b2f c13c 6cff 443d cc9d 04bd efde 6cbd
00000370: 39c2 e93c 35e6 09be 8705 33bc 9fa1 12bd
00000380: 5bba 05be 5e89 e73c b709 c13c 93f9 ed3c
00000390: f1e7 c23c fbf8 73be 22b4 00be 580c 93bd
000003a0: 6029 5cbd 09ab bebd 073d e13b 739d 383b
000003b0: 194a 8d3d dace f93d ff58 05bd 3231 86bd
000003c0: c9bc f63c 3930 433b f7df 70be 56ab f0bd
000003d0: 4c91 92bd 1c18 41bd 00e3 0d3d 4754 203c
000003e0: 7b48 80bd 3195 0fbb d49b 64bc 1336 ee3d
000003f0: cd17 a33d 44aa a4bc f9bf f93d e11c 32bd

classifier.0.bias f4 [128]
0.21113607 -0.026469653 0.22138067 -0.1267596 -0.46813384 -0.05165989 -0.46199563 0.6280659
-0.08085985 -0.13241996 -0.0563382 0.48051462 -0.069065966 -0.22971976 -0.05041893 -0.026017966
-0.20426211 0.37574434 0.24752861 0.17235158 0.051895674 -0.19571154 -0.32106283 0.11411396
-6.4340784e-05 0.032636825 0.5666932 0.25168374 0.05190576 -0.025649462 0.12752697 0.2260865
0.033684142 -0.40948614 -0.32063428 -0.45115703 0.26217034 -0.22765003 0.030985788 0.41076136
-0.06799033 0.0633105 0.13570039 0.13909668 0.32160345 0.37282845 0.09326615 -0.31108934
-0.33342245 0.28153464 0.42703283 -0.019797722 -0.16045436 0.0016169519 0.4413876 0.17748503
-0.040315956 0.03486584 -0.029478017 -0.30794016 -0.35083205 0.15118104 0.20637453 0.44115466
0.15188482 -0.21221943 0.084580205 0.19181558 0.463633 -0.23938705 0.014060133 -0.5487887
-0.30536148 -0.071922064 0.23930272 0.030821394 0.17324486 0.004421172 -0.1028793 -0.5261605
0.10563484 0.24197337 0.012058312 -0.17799182 -0.03832267 0.160696 -0.11568222 -0.08684855
0.1747813 -0.14913808 0.17432466 0.119531155 -0.019624239 0.4680066 0.2201989 0.19204931
0.012396033 0.08356729 0.25079668 0.09705341 -0.4959186 0.22092803 -0.33273044 0.055594236
-0.35299852 -0.006440073 -0.1623963 -0.09424624 -0.26225296 -0.5571762 -0.18879904 0.093346715
-0.020325283 0.17606993 -0.035483602 -0.1662538 0.073371 -0.12538815 0.08397669 0.2957724
-0.058944598 -0.25706488 -0.07283807 -0.34275246 0.039925646 -0.5553582 0.07706705 0.08926447
00000000: 0e34 583e e3d6 d8bc 9db1 623e 45cd 01be
00000010: 3daf efbe 5299 53bd b18a ecbe edc8 203f
00000020: d999 a5bd 1999 07be e2c2 66bd 0306 f63e
00000030: 7572 8dbd a83b 6bbe 1484 4ebd a123 d5bc
00000040: 162a 51be 9061 c03e 2478 7d3e ef7c 303e
00000050: 8f90 543d 9b68 48be 5962 a4be 94b4 e93d
00000060: b2ee 86b8 31ae 053d ce12 113f b1dc 803e
00000070: 229b 543d d21e d2bc 6e96 023e 3883 673e
00000080: 62f8 093d 2ba8 d1be 2d2a a4be 0efe e6be
00000090: 313b 863e 171d 69be e8d5 fd3c 504f d23e
000000a0: 843e 8bbd efa8 813d 0bf5 0a3e 5c6f 0e3e
000000b0: 35a9 a43e 5fe3 be3e 5302 bf3d 1a47 9fbe
000000c0: 59b6 aabe 4f25 903e 0ca4 da3e d52e a2bc
000000d0: 264e 24be e7ef d33a 8efd e13e a3be 353e
000000e0: 5822 25bd 7ccf 0e3d e27b f1bc 55aa 9dbe
000000f0: 42a0 b3be 34cf 1a3e d853 533e 06df e13e
00000100: b287 1b3e 0d50 59be 6338 ad3d 4e6b 443e
00000110: 4e61 ed3e e121 75be 795c 663c 6b7d 0cbf
00000120: 5758 9cbe e04b 93bd c60b 753e 267d fc3c
00000130: 1a67 313e 7bdf 903b 62b2 d2bd 74b2 06bf
00000140: 1457 d83d dec7 773e 3a90 453c 7d43 36be
00000150: 3bf8 1cbd 7e8d 243e cdea ecbd a7dd b1bd
00000160: def9 323e a7b7 18be 2a82 323e c0cc f43d
00000170: 03c3 a0bc 909e ef3e d27b 613e 93a8 443e
00000180: bb18 4b3c 5425 ab3d 6c68 803e f0c3 c63d
00000190: 0be9 fdbe f53a 623e a55b aabe c8b6 633d
000001a0: 39bc b4be 3f07 d3bb 374b 26be 2c04 c1bd
000001b0: 0546 86be 19a3 0ebf 8954 41be 902c bf3d
000001c0: 3581 a6bc ad4b 343e 4157 11bd 703e 2abe
000001d0: 8943 963d c065 00be f9fb ab3d 7b6f 973e
000001e0: e46f 71bd 029e 83be 202c 95bd 407d afbe
000001f0: 1389 233d f42b 0ebf 54d5 9d3d 4ad0 b63d

classifier.3.weight f4 [10, 128]
-0.14386706 0.109209694 0.0065327985 -0.34737968 0.04605023 0.17520921 0.011661658 -0.378078
-0.08984861 0.034477353 -0.22172892 0.13895085 -0.075208 0.04888555 0.068913944 -0.20378251
0.19836189 -0.1032488 -0.22858329 -0.12313504 0.15970233 0.024508916 0.08096161 -0.25399563
0.14870739 -0.37846363 -0.020987345 -0.23590375 -0.04775722 -0.45102656 0.1285548 -0.10452251
0.100328766 0.048294917 0.09485077 0.044470362 0.15765533 0.07188626 -0.039511073 -0.054810103
-0.1206616 -0.00067582313 -0.14598577 0.13391154 0.11396886 -0.17318234 -0.070798 -0.097972
-0.11947342 0.12061261 -0.11944961 0.073933765 0.15410821 0.11784879 0.13094921 0.11603547
0.14783502 -0.03897103 0.08399023 0.11629892 0.07030984 0.12025498 0.23061977 0.038526215
-0.44157517 0.028677616 -0.2081584 0.14077611 0.0076234327 -0.22410765 0.05357303 0.012581179
-0.2067049 0.067300744 -0.24041975 0.09165022 -0.29454798 0.06902108 0.09494551 -0.09536996
-0.3707593 -0.21163185 -0.119625166 -0.15189347 -0.19528145 0.24420424 -0.0766374 -0.092765264
-0.3734333 0.14283888 0.14236422 -0.12648657 -0.12865391 0.03248476 -0.17930277 -0.008947637
0.23062316 -0.3822851 -0.03867594 -0.13735346 0.09308061 -0.0063467547 0.09069468 0.027838953
-0.034532316 0.0894346 0.10385107 -0.033670783 -0.084818386 -0.025517566 0.080032825 -0.19030373
-0.03501193 0.046072792 -0.063974395 0.06297364 -0.2803131 -0.07238532 -0.1424206 -0.39819455
-0.0807733 -0.23120229 -0.05564029 0.11140515 0.17595929 -0.35662204 0.030804716 -0.11159543
0.041498423 0.099322185 -0.04560379 0.22922164 -0.17779641 0.039978188 -0.30030978 -0.003877229
-0.05849878 0.031361856 -0.2608878 0.10672679 -0.0670176 0.080218725 -0.083027944 0.010683245
-0.12700474 0.035649206 0.17847714 0.17569102 0.053010106 -0.012460665 0.08939063 0.21050566
-0.19074935 0.13949028 -0.042647332 0.19918647 -0.116667695 0.034189988 -0.21213415 0.20821828
-0.13675836 0.13350077 -0.12409091 0.1312701 -0.18563189 0.066451415 -0.2550377 0.28379142
0.050918475 -0.30065635 -0.07906128 -0.5036542 -0.07973372 0.12585855 0.10206719 -0.22315495
-0.15837482 0.27807918 0.2567064 -0.020839896 -0.27737033 -0.391231 0.19628021 0.07228414
-0.11098897 0.1362874 -0.18815215 0.10063737 0.027959077 0.09229472 -0.59569836 0.08427034
0.32358557 0.13872017 -0.2354844 0.09153563 -0.22192235 -0.046144202 0.038193163 -0.13779455
-0.0059252824 0.103562415 -0.2942315 -0.11070777 0.16571519 0.090378076 0.061323438 0.16726835
0.081685275 -0.08224815 -0.27008808 0.13600063 -0.060238376 0.17434844 0.04240193 -0.31894806
-0.3132085 -0.19700606 -0.027646156 -0.17885035 0.06570978 0.0726703 -0.083374575 -0.14496896
0.08478316 0.23277965 -0.027923714 -0.14297347 0.11061429 -0.050597277 -0.15023677 -0.16628754
0.06260024 -0.16241322 -0.32931972 0.1049036 0.06494399 -0.0023499115 0.14231482 -0.16449164
0.022048442 -0.117125496 -0.13186724 0.1514953 -0.09005725 -0.18368316 0.054943178 0.106077164
-0.06900967 -0.22012344 0.10540805 -0.124235086 -0.2399943 -0.01381908 -0.14773668 -0.24342093
00000000: e351 13be 55a9 df3d 1611 d63b c0db b1be
00000010: 2a9f 3c3d 0b6a 333e 8a10 3f3c 7193 c1be
00000020: 8c02 b8bd 2038 0d3d e80c 63be 2249 0e3e
00000030: a706 9abd 373c 483d c122 8d3d 5dac 50be
00000040: 611f 4b3e 1b74 d3bd bd11 6abe 392e fcbd
00000050: 0289 233e ecc6 c83c 33cf a53d b70b 82be
00000060: c046 183e fcc5 c1be a7ed abbc c190 71be
00000070: 139d 43bd f4ec e6be dfa3 033e e60f d6bd
00000080: 2b79 cd3d e4d0 453d 1f41 c23d 8e26 363d
00000090: 6670 213e 1a39 933d 5dd6 21bd 8f80 60bd
000000a0: 6e1d f7bd b929 31ba 4b7d 15be 1b20 093e
000000b0: 8168 e93d b656 31be 8bfe 90bd 8ba5 c8bd
000000c0: 7bae f4bd be03 f73d ffa1 f4bd 966a 973d
000000d0: 8bce 1d3e b55a f13d 8d17 063e 01a4 ed3d
000000e0: 1062 173e 16a0 1fbd 1203 ac3d 212e ee3d
000000f0: 9bfe 8f3d 3e48 f63d 9727 6c3e aacd 1d3d
00000100: 2416 e2be 52ed ea3c 7a27 55be 9d27 103e
00000110: fdcd f93b 7a7c 65be 656f 5b3d 4a21 4e3c
00000120: 73aa 53be f9d4 893d 9830 76be 1cb3 bb3d
00000130: fece 96be ed5a 8d3d cb72 c23d 5351 c3bd
00000140: 2ad4 bdbe 05b6 58be 0afe f4bd f689 1bbe
00000150: dcf7 47be ad10 7a3e 12f4 9cbd b7fb bdbd
00000160: a632 bfbe 5b44 123e edc7 113e b285 01be
00000170: dabd 03be bd0e 053d 259b 37be 1c99 12bc
00000180: 7a28 6c3e dfba c3be aa6a 1ebd 63a6 0cbe
00000190: 0ca1 be3d 70f8 cfbb 22be b93d 840e e43c
000001a0: c271 0dbd 7d29 b73d dfaf d43d 60ea 09bd
000001b0: 43b5 adbd 370a d1bc 40e8 a33d fbde 42be
000001c0: ab68 0fbd d3b6 3c3d 0205 83bd 53f8 803d
000001d0: 3385 8fbe c13e 94bd b5d6 11be 28e0 cbbe
000001e0: 796c a5bd 4bc0 6cbe 13e7 63bd 6228 e43d
000001f0: ac2e 343e 2a97 b6be 2c5a fc3c 258c e4bd
00000200: 40fa 293d 6e69 cb3d 0acb 3abd 14b9 6a3e
00000210: 4310 36be 2bc0 233d 34c2 99be 1c19 7ebb
00000220: 6b9c 6fbd 4a75 003d 1693 85be 9393 da3d
00000230: 8640 89bd b749 a43d 8e0a aabd c708 2f3c
00000240: 880d 02be e704 123d b6c2 363e 59e8 333e
00000250: 2021 593d d127 4cbc 6f12 b73d cc8e 573e
00000260: cc53 43be 8ad6 0e3e f8ae 2ebd 8af7 4b3e
00000270: 79ef eebd cd0a 0c3d b239 59be 2c37 553e
00000280: 620a 0cbe 6db4 083e 6023 febd ab6b 063e
00000290: 4916 3ebe ae17 883d 4d94 82be 1c4d 913e
000002a0: e48f 503d a1ef 99be e1ea a1bd 7bef 00bf
000002b0: 6f4b a3bd 10e1 003e 9a08 d13d bb82 64be
000002c0: 022d 22be 6560 8e3e 056f 833e 6eb8 aabc
000002d0: 7c03 8ebe 6e4f c8be aefd 483e b509 943d
000002e0: 2f4e e3bd ed8e 0b3e f5aa 40be f71a ce3d
000002f0: 6f0a e53c 0405 bd3d b07f 18bf ee95 ac3d
00000300: 02ad a53e a90c 0e3e d322 71be 0877 bb3d
00000310: 9d3f 63be b401 3dbd 6f70 1c3d 041a 0dbe
00000320: df28 c2bb 8818 d43d 83a5 96be c1ba e2bd
00000330: 3eb1 293e 2418 b93d 492e 7b3d 6548 2b3e
00000340: 9c4a a73d b871 a8bd fc48 8abe c043 0b3e
00000350: 84bc 76bd 6688 323e a5ad 2d3d 294d a3be
00000360: dd5c a0be f5bb 49be 317a e2bc 8c24 37be
00000370: d992 863d 2bd4 943d 4ac0 aabd be72 14be
00000380: cba2 ad3d ca5d 6e3e 46c0 e4bc a367 12be
00000390: bf89 e23d 173f 4fbd abd7 19be 4847 2abe
000003a0: 8e34 803d a74f 26be 989c a8be b3d7 d63d
000003b0: 5b01 853d f900 1abb faba 113e 7f70 28be
000003c0: ef9e b43c 7edf efbd 3508 07be 9521 1b3e
000003d0: ef6f b8bd 7017 3cbe 190c 613d fc3e d93d
000003e0: f154 8dbd 0a68 61be 2de0 d73d f76e febd
000003f0: 11c1 75be 6c69 62bc 4948 17be 5643 79be

classifier.3.bias f4 [10]
0.44521943 0.62724334 -0.47091377 0.43013445 -0.19872083 -0.18756345 -0.37645802 -0.2968574
0.029696072 -0.5274198
00000000: cdf3 e33e 0593 203f 9c1b f1be 953a dc3e
00000010: 797d 4bbe a210 40be 1bbf c0be b1fd 97be
00000020: 2d45 f33c fc04 07bf
