Tomato_pretrained_cnn/saved_ckpt/best_model_epoch_128.pt (torch, 839470 bytes, 10 tensors)

features.0.weight f4 [32, 3, 3, 3]
0	0x3e71dbfc	0.23619074
1	0xbd961976	-0.07329075
2	0x3e098088	0.13427937
3	0x3dcdea47	0.100544505
4	0xbeb23a0e	-0.34809917
5	0xbf1ca561	-0.6118985
6	0x3cf5328b	0.029931327
7	0xbf1d1e6b	-0.6137454
8	0xbfa5fdf7	-1.2968129
9	0x3e8ebe54	0.27879584
10	0x3df7554e	0.120768175
11	0x3e3b7add	0.18308587
12	0x3deedc64	0.1166313
13	0xbe56c97e	-0.209753
14	0xbede3683	-0.43400964
15	0x3ca13c37	0.019682033
16	0xbf06c9f8	-0.5265193
17	0xbf82f103	-1.0229801
18	0x3ee56152	0.44800812
19	0x3e9b006f	0.30273768
20	0x3e9868be	0.29767412
21	0x3e4d88b1	0.20071675
22	0x3df39209	0.11893088
23	0xbd47a114	-0.0487376
24	0x3e62eacb	0.22159879
25	0xbe320817	-0.17385899
26	0xbf29da24	-0.6634848
27	0xbf0adc76	-0.54242647
28	0xbea5d092	-0.3238569
29	0xbf019f4e	-0.50633705
30	0x3dc9b4cf	0.098489396
31	0xbf27c971	-0.6554175
32	0xbdf9620d	-0.12176905
33	0x3f08a7cc	0.5338104
34	0xbe974042	-0.29541212
35	0xbf6c1d44	-0.92232156
36	0xbf3300b9	-0.6992298
37	0xbeb81c64	-0.3595916
38	0xbf0b69fb	-0.5445859
39	0x3dd856ff	0.10563468
40	0xbf10b97d	-0.5653303
41	0xbeaf2df8	-0.3421476
42	0x3f01f27e	0.5076064
43	0xbef644b3	-0.48099288
44	0xbef9ee60	-0.48814678
45	0xbf74c55f	-0.95613664
46	0xbf5fc3de	-0.87408245
47	0xbf7e0dbb	-0.992397
48	0xbeb7baac	-0.35884607
49	0xbfa3e28f	-1.2803515
50	0xbf9964ad	-1.1983849
51	0x3ef0419a	0.4692505
52	0xbf633225	-0.8874839
53	0xbfa4c73a	-1.2873299
54	0x3f308ae6	0.6896194
55	0x3ed86bcc	0.42269742
56	0x3ea79949	0.32734135
57	0x3e823b0f	0.25435683
58	0x3ecfb436	0.40567178
59	0x3eccb864	0.3998443
60	0x3ee49615	0.44645754
61	0x3e4653b5	0.19367869
62	0x3eb22f70	0.34801817
63	0x3ed36db1	0.41294625
64	0xbf0c6c55	-0.548528
65	0xbf2e6b13	-0.6813213
66	0xbe37e6f2	-0.17959192
67	0xbf2c4acf	-0.6730165
68	0xbef84915	-0.48493257
69	0xbe8070db	-0.25086102
70	0xbf07457b	-0.52840394
71	0xbee36e48	-0.44420075
72	0xbe4eb334	-0.20185548
73	0xbfa5cc16	-1.2952907
74	0xbfa063a0	-1.2530403
75	0xbec03061	-0.3753691
76	0xbfb18d0f	-1.3871173
77	0xbf93e3af	-1.1553859
78	0xbe256abd	-0.16153999
79	0xbfcacfff	-1.5844725
80	0xbf36f93d	-0.7147406
81	0xbec11c25	-0.37716785
82	0xbe845506	-0.25846118
83	0xbe401a7a	-0.187601
84	0xbeb3f82a	-0.35150272
85	0xbe8805c1	-0.2656689
86	0xbe50141a	-0.20320168
87	0xbeb06b63	-0.3445693
88	0xbe3e6d13	-0.18596296
89	0xbd79543a	-0.06087134
90	0x3eec5d77	0.46165058
91	0x3f17fa17	0.5936598
92	0x3f1f850e	0.623124
93	0x3f2336dd	0.6375559
94	0x3f11c6ce	0.56943977
95	0x3f1f51bb	0.62234086
96	0x3f14bf80	0.58104706
97	0x3ef3c587	0.4761164
98	0x3ea2a3d1	0.31765607
99	0xbecaa750	-0.39580774
100	0xbeff78ee	-0.4989695
101	0xbeab79dd	-0.33491412
102	0xbe9fa352	-0.3117929
103	0xbeaba3c8	-0.33523393
104	0xbe89a5e6	-0.26884383
105	0xbe0c2411	-0.13685633
106	0xbe32c1af	-0.17456697
107	0xbd8e0a92	-0.0693561
108	0x3e85b3b2	0.2611366
109	0x3eb5516a	0.35413677
110	0x3ed3d7f9	0.41375712
111	0x3ebd523d	0.36976805
112	0x3effc3a8	0.4995396
113	0x3ea35fc6	0.31909007
114	0x3e9c522d	0.30531445
115	0x3e85e245	0.26149192
116	0x3d8a1d32	0.0674385
117	0x3e8f6798	0.28008723
118	0x3dcf7ee2	0.10131623
119	0x3ee58afb	0.44832596
120	0x3ccc0ff7	0.024909956
121	0xbd13bf3e	-0.036071055
122	0x3dd3d0d0	0.10342562
123	0xbdba0803	-0.09083559
124	0xbe33ea22	-0.17569783
125	0xbe6c8513	-0.23097639
126	0xbee5d338	-0.4488771
127	0xbeb120b1	-0.34595254
128	0xbe4a92c8	-0.19782555
129	0xbe61d837	-0.22055136
130	0xbe5f4b3c	-0.21806043
131	0xbe0e85a3	-0.13918166
132	0xbea43330	-0.32070303
133	0xbebfceed	-0.3746256
134	0xbf0b207e	-0.54346454
135	0xbf1a7696	-0.603372
136	0xbe3054a5	-0.1721979
137	0x3e923ce1	0.28562072
138	0xbdd89a04	-0.10576251
139	0xbdacef4d	-0.084440805
140	0x3e8969af	0.26838443
141	0x3de27f67	0.11059456
142	0x3e676d3f	0.22600268
143	0x3e8ffebe	0.2812404
144	0xbf12c7de	-0.57336223
145	0xbdd602e0	-0.10449767
146	0x3dd27dc0	0.10277891
147	0xbdc1e4b1	-0.094674475
148	0xbe234ba9	-0.15946831
149	0x3ec29a75	0.38008466
150	0x3e590348	0.21192658
151	0x3eb36588	0.350384
152	0x3eca63cc	0.39529264
153	0xbf3e8a01	-0.7442933
154	0xbe8e613e	-0.27808565
155	0x3cb12c00	0.021627426
156	0xbef26a70	-0.4734683
157	0xbe76a430	-0.2408607
158	0x3e588f36	0.2114838
159	0x3d94dc53	0.07268586
160	0x3e4875ba	0.19576159
161	0x3e81a147	0.25318357
162	0xbe3c0d4c	-0.18364447
163	0xbe8198e2	-0.25311953
164	0xbdea6df5	-0.11446754
165	0xbe859ea9	-0.2609761
166	0xbec1be52	-0.37840515
167	0x3d54b26d	0.051927973
168	0xbe692619	-0.2276844
169	0xbe94844c	-0.29007185
170	0xbe59e26a	-0.21277776
171	0xbe4638f1	-0.19357659
172	0xbd943c0a	-0.07238014
173	0x3d4c8481	0.049931053
174	0xbe426c5c	-0.18986648
175	0xbdcdfde4	-0.100581914
176	0x3dc2d2c9	0.0951286
177	0xbe04a9f3	-0.12955455
178	0xbe8a21a3	-0.26978788
179	0xbbcd3fc3	-0.0062637045
180	0xbddd051f	-0.107919924
181	0xbd441855	-0.047874767
182	0xbe6fa05b	-0.23401015
183	0xbcec73d8	-0.028863832
184	0xbe2dbc35	-0.16966327
185	0x3c9e0b8b	0.019292613
186	0xbe4c0712	-0.19924572
187	0xbe4341ab	-0.19068019
188	0xbe00e95e	-0.12589023
189	0xbe0de251	-0.13855864
190	0x3e369b7c	0.1783275
191	0xbe4c2ab8	-0.19938171
192	0xbe217666	-0.15767822
193	0xbe979c1a	-0.29611284
194	0xbf56cf91	-0.8391047
195	0x3d62eb0c	0.05539994
196	0xbdb62094	-0.088929325
197	0x3ea6a7c9	0.32549885
198	0x3e344ce2	0.17607453
199	0x3e8c5885	0.27411285
200	0xbe7d684e	-0.2474682
201	0x3da813c5	0.08206896
202	0xbe1bf511	-0.15230204
203	0xbf236f0e	-0.6384133
204	0x3d789854	0.060692146
205	0x3e6d7c0e	0.23191854
206	0x3f03ee5d	0.5153559
207	0x3e8ef3cd	0.2792038
208	0x3ec09846	0.37616175
209	0xbe169ec4	-0.14709002
210	0x3e9aa800	0.302063
211	0xbdeb92dc	-0.115026206
212	0xbf463898	-0.77430105
213	0x3ea082d2	0.31349808
214	0x3e3bcc83	0.18339734
215	0x3e9d3f88	0.30712533
216	0x3e0e8a91	0.13920046
217	0xbd1e3635	-0.038625915
218	0x3d7051ff	0.058671948
219	0x3e3c7b38	0.18406379
220	0xbd1bcad4	-0.03803523
221	0x3df96edb	0.12179347
222	0x3ea99fdb	0.33129773
223	0x3db82616	0.08991639
224	0x3ea934bb	0.33048043
225	0xbe88b1ed	-0.26698247
226	0xbef59252	-0.47963196
227	0xbf0c84f5	-0.54890376
228	0xbea95797	-0.33074638
229	0xbf396e31	-0.72433764
230	0xbf086449	-0.53278023
231	0xbd922cd1	-0.07137454
232	0xbe9be2a3	-0.30446348
233	0xbd80b8b1	-0.06285227
234	0xbc65817c	-0.014007922
235	0xbeb2af8f	-0.34899566
236	0xbe11fcb9	-0.14256562
237	0xbe358510	-0.1772654
238	0xbf07a556	-0.5298666
239	0xbd5b76a7	-0.053579953
240	0x3e64c2fa	0.22340003
241	0xbe3bfbbd	-0.1835775
242	0xbceb3184	-0.028710134
243	0xbfafe338	-1.3741217
244	0xbd4844fc	-0.048893914
245	0xbd7c7ae4	-0.061640635
246	0xbf843565	-1.0328795
247	0xbf94ebd2	-1.1634467
248	0xbddbd002	-0.10733034
249	0xbfef5814	-1.8698754
250	0xbf9d4211	-1.2285787
251	0x3e0a35ea	0.13497129
252	0xbffa5add	-1.9558979
253	0xbf0eed55	-0.5583089
254	0xbec39109	-0.3819659
255	0xbfc80924	-1.562779

features.0.bias f4 [32]
0	0x3d901c46	0.07036643
1	0xbebbf991	-0.36713842
2	0xbe4e5925	-0.20151193
3	0xbea16027	-0.3151867
4	0xbde0ba14	-0.109729916
5	0xbe936836	-0.28790444
6	0xbe26ba35	-0.1628197
7	0xbdd4515e	-0.10367082
8	0x3e63cb16	0.2224544
9	0x3ee6b5dc	0.45060623
10	0xbc70aea9	-0.01469008
11	0xbeb81c24	-0.3595897
12	0xbe4d692d	-0.20059653
13	0xbeefb41b	-0.46817097
14	0xbdcc7115	-0.09982506
15	0xbeca67f1	-0.39532426
16	0x3ebb8311	0.36623433
17	0xbe40a782	-0.18813899
18	0x3c82cc40	0.015966535
19	0xbf138a54	-0.57632947
20	0xbd8b8d33	-0.06814041
21	0xbf5dfb69	-0.86711746
22	0xbedab275	-0.42714277
23	0xbe796e11	-0.24358393
24	0x3d8125e6	0.06306057
25	0xbd0e101b	-0.034683328
26	0xbdc1f533	-0.09470596
27	0xbdd3081a	-0.103042796
28	0x3bdb1e48	0.0066869594
29	0xbe985d7f	-0.29758832
30	0xbe5eb41d	-0.21748395
31	0xbf008ec8	-0.50217867

features.3.weight f4 [16, 32, 3, 3]
0	0xbca0baaa	-0.019620258
1	0xbea57dcd	-0.3232254
2	0xbec95ddb	-0.3932942
3	0xbee4c9f8	-0.4468534
4	0xbf19bf06	-0.60057104
5	0xbdc29aa2	-0.0950215
6	0xbd65d971	-0.05611557
7	0x3e06b78b	0.13155954
8	0x3d6bb318	0.057543844
9	0x3f041fc0	0.51610947
10	0xbd50432f	-0.05084532
11	0x3e6afe37	0.22948538
12	0xbc9bf549	-0.01903786
13	0x3f0c4537	0.54793113
14	0x3f18fc8f	0.59760374
15	0x3b6c084d	0.003601569
16	0x3e7b566f	0.2454469
17	0x3ee540a8	0.4477589
18	0xbef5ab89	-0.47982433
19	0xbc8580b3	-0.01629672
20	0xbf0951a7	-0.53640217
21	0xbef2215b	-0.47291073
22	0xbe8e9c53	-0.2785364
23	0xbbff2066	-0.0077858446
24	0xbeee7611	-0.46574453
25	0xbe55268d	-0.20815487
26	0x3bb1775c	0.00541584
27	0x3ef3ad40	0.47593117
28	0x3f08ce71	0.53440005
29	0x3ecccfd8	0.40002322
30	0x3ef9f16e	0.4881701
31	0x3d90ff1e	0.0707991
32	0xbe6fd0bb	-0.23419468
33	0x3ef12d2c	0.47104776
34	0xbdd40c5e	-0.10353921
35	0xbf3c1c39	-0.73480564
36	0xbf687dc2	-0.9081689
37	0xbf07b898	-0.5301604
38	0xbd03c9fe	-0.032175057
39	0xbefae587	-0.4900324
40	0x3eaaaae3	0.333335
41	0x3f120a7f	0.57047266
42	0xbef4359a	-0.47697145
43	0x3f20dd9f	0.62838167
44	0x3f890c46	1.070687
45	0xbdbe7508	-0.09299666
46	0x3d24c2b7	0.040224757
47	0xbe308c35	-0.17240985
48	0xbd12a2d3	-0.035799813
49	0x3e674a7b	0.22587006
50	0xbd85b9a1	-0.065295465
51	0xbec8036b	-0.39065108
52	0xbc89d410	-0.016824752
53	0xbe4196e5	-0.18905218
54	0x3e0910cf	0.13385318
55	0xbbea4dcd	-0.007150388
56	0xbd317a20	-0.043329358
57	0x3e90052b	0.28128943
58	0xbdefdddc	-0.11712238
59	0xbe035727	-0.12826215
60	0x3dbe899b	0.0930359
61	0xbd2cebcb	-0.042217057
62	0xbe1198d7	-0.1421846
63	0x3ef84192	0.48487526
64	0x3d802279	0.06256575
65	0x3cbe1b40	0.023206353
66	0x3dc6bb51	0.097036965
67	0xbeb5f0f8	-0.35535407
68	0xbe350ec8	-0.1768142
69	0x3d980d92	0.07424463
70	0xbe652ec4	-0.22381121
71	0xbebc5672	-0.36784703
72	0xbfb34ea5	-1.4008375
73	0xbf892ea8	-1.0717363
74	0xbdbe2676	-0.092846796
75	0xbfc29e4b	-1.5204557
76	0xbf3a639f	-0.7280826
77	0x3e3ed70c	0.18636721
78	0xbfaaebed	-1.3353249
79	0xbe8f6041	-0.28003123
80	0x3eee6cea	0.4656747
81	0xbf890e26	-1.0707443
82	0xbf57ce86	-0.84299505
83	0x3d98eb00	0.07466698
84	0xbf955d5f	-1.166912
85	0xbd62b473	-0.05534787
86	0x3eda78fd	0.42670432
87	0xbe07540e	-0.13215658
88	0x3e87b12a	0.26502353
89	0x3f96a5d4	1.1769357
90	0x3ee39925	0.44452778
91	0x3d3750bc	0.04475473
92	0x3e5140dc	0.20434898
93	0xbc936e7e	-0.017997023
94	0xbe3f3298	-0.18671644
95	0xbeb979c9	-0.36225727
96	0x3d7b0e2b	0.06129281
97	0xbd87091b	-0.065935336
98	0xbe87d1d9	-0.2652729
99	0xbdbea9d7	-0.09309738
100	0xbc989c9e	-0.018629368
101	0x3d31a118	0.04336652
102	0x3dd5cd73	0.10439577
103	0x3d713cdd	0.058895934
104	0x3e4ff786	0.20309266
105	0x3ea0b31d	0.31386653
106	0x3e934295	0.28761736
107	0x3f4ede1e	0.80807674
108	0xbf7c573b	-0.98570603
109	0xbf18a342	-0.5962411
110	0xbe987992	-0.2978025
111	0x3d8e57a0	0.06950307
112	0x3ea88bd3	0.32919177
113	0x3ee81ccb	0.45334467
114	0xbd30c816	-0.043159567
115	0x3e23937c	0.1597423
116	0x3f13e4cb	0.57770985
117	0xbeb27b55	-0.3485972
118	0xbde1ebd3	-0.11031308
119	0x3dcdb90c	0.100450605
120	0x3d65ed38	0.056134433
121	0x3dfbc8b4	0.122941405
122	0x3e3af4b2	0.18257406
123	0xbe8cce45	-0.2750112
124	0xbd94ef00	-0.07272148
125	0xbd10fd76	-0.03539797
126	0x3dbd6623	0.09247997
127	0x3b993058	0.0046749525
128	0x3d659c40	0.056057215
129	0x3ea43c20	0.32077122
130	0xbd891e8b	-0.06695279
131	0xbea0c317	-0.31398842
132	0x3e64e1cc	0.2235176
133	0x3d49b0e6	0.04924097
134	0xbebd9d4c	-0.3703407
135	0xbe32245f	-0.17396687
136	0xbd709fa1	-0.058745984
137	0xbec87ca2	-0.39157587
138	0xbed1ce15	-0.4097754
139	0x3c688329	0.014191427
140	0xbdb00f9a	-0.08596726
141	0xbd3ad6da	-0.045615055
142	0x3dbc1bda	0.09185
143	0x3da05554	0.07828775
144	0xbf63fe45	-0.8905986
145	0xbf207d1b	-0.62690896
146	0xbe74076e	-0.23830959
147	0x3e8f0351	0.27932218
148	0x3e980ca6	0.2969715
149	0x3f071414	0.5276501
150	0x3e26d436	0.1629189
151	0x3e1099db	0.14121191
152	0x3e985225	0.2975017
153	0xbead7ecc	-0.338858
154	0xbe73ea96	-0.23819956
155	0xbe445504	-0.19173056
156	0xbead6671	-0.3386722
157	0xbc7d4081	-0.015457273
158	0x3db76a01	0.089557655
159	0xbecea45c	-0.4035977
160	0xbde820ab	-0.11334356
161	0x3e8e61d9	0.27809027
162	0xbe9e953e	-0.30973238
163	0x3c76624d	0.015038085
164	0x3e0ff090	0.14056611
165	0x3de25e09	0.11053092
166	0xbe72c730	-0.23708797
167	0xbdb7cb72	-0.08974351
168	0xbd96e837	-0.0736851
169	0xbf4200a3	-0.7578222
170	0xbe46845a	-0.19386426
171	0x3e3c8b0c	0.18412417
172	0x3e2df3d4	0.16987544
173	0x3edf9229	0.436662
174	0xbe1e0be4	-0.15434223
175	0xbe93e23f	-0.2888355
176	0xbb40ff15	-0.0029448916
177	0xbe133e04	-0.14379126
178	0x3d4e390d	0.050347377
179	0xbd2aab03	-0.041666996
180	0xbe1ea2e4	-0.15491825
181	0xbe8a9914	-0.27069914
182	0xbea0db6e	-0.31417412
183	0x3cd67fb5	0.026183942
184	0x3e1b5b80	0.15171623
185	0x3d810016	0.062988445
186	0x3e1101db	0.14160864
187	0x3ec0587e	0.37567514
188	0x3ed9a3c6	0.42507762
189	0x3d7f6118	0.062348455
190	0xbe0cd638	-0.13753593
191	0x3d71ee9c	0.059065446
192	0x3ebdb339	0.370508
193	0xbd14e71f	-0.036353227
194	0xbe434d8f	-0.19072555
195	0x3dc9d072	0.09854211
196	0xbcc1854a	-0.023623127
197	0xbdd0b10a	-0.101900175
198	0xbeabcc03	-0.33554086
199	0xbe6fc930	-0.2341659
200	0xbe3d9dd5	-0.1851724
201	0xbed5cd58	-0.41758227
202	0xbdfdc44a	-0.12390955
203	0x3d4fecb8	0.050762862
204	0xbc84e70c	-0.016223453
205	0xbf024630	-0.5088835
206	0x3e1f84df	0.1557803
207	0x3e726ff8	0.23675525
208	0x3e27ab06	0.16373834
209	0xbe7206db	-0.23635428
210	0x3e724001	0.23657228
211	0xbe5754e1	-0.21028472
212	0xbda9548d	-0.0826808
213	0xbe1d33b0	-0.15351748
214	0xbea82515	-0.3284079
215	0xbe836ae3	-0.25667486
216	0x3d8a69e5	0.06758479
217	0x3de8effd	0.11373899
218	0x3d92f649	0.071758814
219	0x3e3e166b	0.1856324
220	0xbdccc2a2	-0.09998061
221	0xbf0867c1	-0.53283316
222	0x3ea64db4	0.32481158
223	0xbef43886	-0.47699374
224	0xbf3fe02a	-0.7495142
225	0xbf8163b8	-1.0108557
226	0xbe992f6b	-0.2991899
227	0x3d84f7dd	0.06492589
228	0xbf4b1499	-0.79328305
229	0x3eb79a78	0.35860038
230	0x3f8051f7	1.0025014
231	0xbf4b051a	-0.7930466
232	0x3f0b8662	0.54501927
233	0x3f779e17	0.967256
234	0xbeb0bfb2	-0.34521252
235	0xbe31cd8e	-0.17363569
236	0xbf4631cb	-0.7741973
237	0xbd5b94f5	-0.053608853
238	0x3ce1c5aa	0.027560074
239	0x3d95a10b	0.07306107
240	0xbf9c31e1	-1.2202722
241	0xbef236ff	-0.47307584
242	0x3d964922	0.07338168
243	0xbebe31b3	-0.37147292
244	0xbf03d07d	-0.5149
245	0x3d102d59	0.035199497
246	0xbea51930	-0.3224578
247	0xbe51b887	-0.20480548
248	0x3e6247df	0.22097729
249	0xbe4a495d	-0.19754548
250	0xbea33dfc	-0.31883228
251	0xbf135b69	-0.57561356
252	0xbeaa7ac5	-0.3329679
253	0xbecb75df	-0.39738366
254	0xbe8973c7	-0.26846144
255	0xbf002b1d	-0.50065786

features.3.bias f4 [16]
0	0xbeb686d5	-0.35649744
1	0x3d7f7557	0.062367763
2	0xbdce5a1b	-0.1007578
3	0x3d194bbd	0.037425745
4	0xbdc7a46f	-0.0974816
5	0xbd988a31	-0.07448233
6	0xbd268ccf	-0.04066163
7	0x3e126245	0.142953
8	0xbdafdf28	-0.085874856
9	0xbc59ccba	-0.0132934395
10	0xbe861bc3	-0.26193056
11	0xbec4742f	-0.3836989
12	0x3e52373c	0.20528883
13	0xbef3599a	-0.47529298
14	0x3d35cb35	0.044383246
15	0xbe2f7518	-0.17134511

features.6.weight f4 [8, 16, 3, 3]
0	0xbe22cde2	-0.1589885
1	0xbd8e8d7c	-0.0696058
2	0xbd885e79	-0.06658644
3	0xbd81dec8	-0.0634132
4	0x3d8cdaeb	0.06877693
5	0xbd9d4b6e	-0.07680403
6	0xbe48ece6	-0.1962162
7	0xbd0f1e19	-0.034940813
8	0x3c882fe1	0.016624393
9	0xbe38147e	-0.17976567
10	0xbe56a283	-0.20960431
11	0xbd01adca	-0.03165988
12	0xbe091b8a	-0.13389412
13	0x3efe240c	0.49636877
14	0x3ee95d3f	0.45578954
15	0xbe53f91c	-0.20700496
16	0x3e766dd4	0.24065334
17	0x3eac931c	0.33705986
18	0xbd168981	-0.036752228
19	0xbc9c09fa	-0.019047726
20	0x3c441e38	0.011970095
21	0x3db2133e	0.086950764
22	0xbe44e4f9	-0.19227971
23	0x3dcb2f81	0.0992117
24	0x3df5f384	0.120093375
25	0x3ce2c38d	0.027681137
26	0xbcdd1754	-0.026988663
27	0x3e07852f	0.132344
28	0xbe119415	-0.14216645
29	0xbd6bc031	-0.057556335
30	0x3da03aa5	0.078236856
31	0x3d789228	0.06068626
32	0xbd8bf47c	-0.06833741
33	0x3e83d1b1	0.2574592
34	0x3eae8e1c	0.34092796
35	0x3eaedc73	0.34152564
36	0x3e571194	0.210028
37	0x3ea93441	0.3304768
38	0x3ebc3abf	0.3676357
39	0x3e7573b9	0.23969926
40	0x3ec522dc	0.38503158
41	0x3f0558a4	0.5208838
42	0x3ea5ce4b	0.32383952
43	0x3ec10169	0.37696388
44	0x3f06b0de	0.5261363
45	0x3dc39a39	0.095509
46	0xbe3a51a5	-0.18195207
47	0xbea22131	-0.31665948
48	0xbde601b5	-0.11230794
49	0xbf5b7aae	-0.8573407
50	0xbfe0c5a1	-1.7560312
51	0x3e794221	0.24341632
52	0xbe826642	-0.25468642
53	0xbf5489db	-0.8302285
54	0x3e4e4198	0.2014221
55	0xbd863894	-0.0655376
56	0x3e11bc0d	0.14231892
57	0xbe477699	-0.19478835
58	0xbe98a2f7	-0.29811832
59	0xbeaa21fb	-0.3322905
60	0x3e270678	0.16311061
61	0xbdc4c940	-0.09608698
62	0xbdef551c	-0.11686155
63	0x3e20c801	0.15701295
64	0xbc5381c0	-0.012909353
65	0xbe8ac3e1	-0.2710257
66	0x3d1207ee	0.035652094
67	0xbee096d4	-0.43865073
68	0xbeecc340	-0.46242714
69	0x3dddafad	0.10824523
70	0xbdd25da1	-0.102717645
71	0xbea0518f	-0.31312224
72	0xbdf413ea	-0.11917861
73	0xbd158976	-0.036508046
74	0xbe0c1afc	-0.13682169
75	0xbcd791de	-0.026314672
76	0xbd679371	-0.056537095
77	0x3dd7a446	0.105293795
78	0xbc4c9ce7	-0.01248858
79	0x3dcfd8b9	0.101487584
80	0x3da1d77a	0.07902427
81	0xbddf7914	-0.10911766
82	0xbe49d2a3	-0.19709258
83	0xbe32f9e4	-0.17478138
84	0xbeda514f	-0.4264016
85	0xbf0cf11a	-0.5505539
86	0xbf0498c8	-0.51795626
87	0xbddfd0b2	-0.10928477
88	0xbf388150	-0.72072315
89	0xbf1909e6	-0.5978073
90	0xbcb2d298	-0.021828935
91	0xbe0b6b31	-0.13615109
92	0xbe38dc92	-0.18052891
93	0x3d60c696	0.054876886
94	0xbc64093e	-0.013918219
95	0xbe0ad1a1	-0.1355653
96	0x3d18bfc8	0.03729227
97	0xbd14346e	-0.036182813
98	0x3da8257e	0.08210276
99	0xbf0874f9	-0.53303486
100	0xbe8489c9	-0.25886372
101	0x3e01b355	0.12666066
102	0xbeeb5fe8	-0.45971608
103	0x3e2d65a8	0.1693331
104	0x3d076970	0.033059537
105	0xbedb9716	-0.42888707
106	0x3d71f362	0.05907
107	0xbe27fff9	-0.1640624
108	0x3d87de1d	0.066341616
109	0x3eea5997	0.45771477
110	0x3e1612db	0.1465563
111	0xbe1c94d4	-0.15291148
112	0x3e786163	0.242559
113	0x3e24ba2f	0.16086648
114	0x3d9f722e	0.0778545
115	0x3e7de0f5	0.24792846
116	0xbe0a6833	-0.13516311
117	0xbeab0f28	-0.3341
118	0xbec22234	-0.3791672
119	0xbe8618db	-0.26190838
120	0xbf0a11d3	-0.5393345
121	0xbd5352ca	-0.051592626
122	0xbde34919	-0.11097927
123	0xbe7f83c9	-0.24952616
124	0xbe0182b9	-0.12647523
125	0xbde31772	-0.11088456
126	0xbe4d4a9d	-0.20047994
127	0xbe144dee	-0.14482853
128	0xbe561753	-0.20907335
129	0xbde398fc	-0.11113164
130	0x3d0f53c4	0.034991995
131	0x3e862832	0.26202542
132	0x3d02b2ba	0.03190873
133	0x3e527fc6	0.20556554
134	0x3e80e0cb	0.25171503
135	0x3d25db7a	0.040492512
136	0x3e3a4668	0.1819092
137	0x3e95f485	0.29288116
138	0x3e01e6aa	0.12685648
139	0x3ee31e8b	0.4435924
140	0x3df4303e	0.11923264
141	0xbe4c413b	-0.19946758
142	0xbd9ecbd8	-0.07753724
143	0x3daa8fdd	0.08328221
144	0x3e737ea2	0.23778775
145	0xbe171cd3	-0.1475709
146	0x3d0b1f6f	0.033965524
147	0xbd9018e8	-0.070360005
148	0xbda0e872	-0.078568354
149	0xbcb5dda6	-0.022200417
150	0xbd83b189	-0.064303465
151	0xbc3c87d1	-0.0115069905
152	0xbdca4de7	-0.0987814
153	0x3daeaf2a	0.08529504
154	0xbd118d17	-0.035534944
155	0xbd764d25	-0.060132165
156	0xbdab0e11	-0.08352292
157	0x3d9f202b	0.077698074
158	0xbdaac81d	-0.0833895
159	0xbe70b453	-0.23506288
160	0xbe9d01e3	-0.30665502
161	0xbe3d7128	-0.18500197
162	0x3cd67ab4	0.026181556
163	0x3cb954d9	0.022623466
164	0x3d0c3f15	0.034239847
165	0xbe2cb19b	-0.16864626
166	0xbe1a23ee	-0.15052769
167	0xbaf27164	-0.0018496928
168	0x3d52d276	0.051470242
169	0x3e1087ff	0.14114378
170	0x3e2b7c46	0.16746625
171	0xbbd3ac0e	-0.0064597195
172	0xbe14beb1	-0.14525868
173	0xbe6a8163	-0.2290092
174	0xbdbabae8	-0.09117681
175	0xbda2eb1c	-0.07955
176	0xbe3cb6cd	-0.18429108
177	0x3e2a3674	0.16622335
178	0xbd98c985	-0.07460312
179	0xbddfa82a	-0.109207466
180	0xbd7e833c	-0.062136874
181	0x3cc6a148	0.024246827
182	0x3dbb04dd	0.09131787
183	0xbcf978ac	-0.030453049
184	0x3db96d72	0.09054078
185	0xbe09bd08	-0.13451016
186	0x3cacd3c9	0.02109708
187	0x3bb8a410	0.005634792
188	0x3b8e3eb7	0.0043409723
189	0xbd47710d	-0.048691798
190	0xbe4fdd46	-0.20299253
191	0xbe267183	-0.16254239
192	0xbe07b533	-0.13252716
193	0x3e9be398	0.30447078
194	0x3e0650b9	0.13116731
195	0xbe351858	-0.17685068
196	0xbd8ad29a	-0.0677845
197	0xbdb420cc	-0.08795318
198	0xbec6ce8e	-0.38829464
199	0xbe85dce8	-0.261451
200	0xbd479e22	-0.04873479
201	0xbdb6e939	-0.089312024
202	0x3cf7b47b	0.030237427
203	0x3e815fe9	0.25268486
204	0xbd69af36	-0.05705186
205	0x3f07955b	0.52962273
206	0x3ebaed43	0.3650914
207	0xbd81133e	-0.06302498
208	0x3dc117d7	0.09428375
209	0xbe556de1	-0.20842697
210	0x3e2f9d63	0.17149882
211	0x3d7fdb8c	0.062465236
212	0xbdefdae0	-0.11711669
213	0x3d9269cb	0.07149085
214	0x3e67aae4	0.22623783
215	0x3d0bb25c	0.034105644
216	0x3c44d8c4	0.012014572
217	0x3de31e64	0.11089781
218	0xbd547bac	-0.051875755
219	0x3d813ece	0.06310807
220	0x3d3e71a6	0.046495102
221	0x3d2f6705	0.042822856
222	0x3dd4129a	0.103551105
223	0xbdc7d231	-0.09756888
224	0xbe013290	-0.12616944
225	0x3efa502d	0.48889294
226	0x3ebf91a4	0.37415802
227	0x3e48c2ed	0.19605608
228	0x3e7c059d	0.24611516
229	0x3ea7ade9	0.3274987
230	0x3e725d4e	0.23668405
231	0x3e81512e	0.25257248
232	0xbea4f371	-0.3221698
233	0x3f1473fc	0.5798948
234	0xbe6fa1a0	-0.23401499
235	0xbda43e3a	-0.08019681
236	0x3e0322f7	0.12806307
237	0xbe00ff14	-0.12597305
238	0xbd743a79	-0.059626076
239	0x3b0b4083	0.0021248169
240	0xbd487f4a	-0.048949517
241	0xbe150227	-0.14551602
242	0xbd3bfd45	-0.045895834
243	0x3d55b0d6	0.052170597
244	0x3dda89ae	0.106707916
245	0x3c04a09a	0.008094931
246	0x3dc0d871	0.09416283
247	0x3ec84a9a	0.39119416
248	0x3dd8b6ea	0.10581763
249	0xbd09a320	-0.033602834
250	0x3dbfda69	0.0936783
251	0x3eb5d1ae	0.35511535
252	0x3e976dd4	0.2957598
253	0x3e918fd5	0.28430048
254	0x3dc31b4b	0.0952669
255	0x3e40a053	0.18811159

features.6.bias f4 [8]
0	0x3ebeffd5	0.3730456
1	0xbedebb62	-0.43502337
2	0x3f51a935	0.81898814
3	0x3f159574	0.5843117
4	0xbe3a9758	-0.18221796
5	0xbf070d64	-0.5275481
6	0xbe2c855e	-0.1684775
7	0xbf1855ca	-0.59505904

classifier.0.weight f4 [128, 1568]
0	0x3e1bfc90	0.15233064
1	0x3e31505a	0.17315808
2	0xbe0bcf2f	-0.13653253
3	0xbe91e618	-0.2849586
4	0xbee0a60a	-0.43876678
5	0xbeb80d3a	-0.3594759
6	0xbede71a1	-0.43446067
7	0xbe6dc00a	-0.23217788
8	0xbf04e4e0	-0.51911736
9	0xbeb36dc9	-0.35044697
10	0xbe85b652	-0.26115662
11	0xbdee9af4	-0.11650649
12	0x3dec5b66	0.1154087
13	0x3dcc3418	0.099708736
14	0x3e0dfe3c	0.13866514
15	0xbe5757cf	-0.2102959
16	0xbef813c6	-0.48452586
17	0xbeba066e	-0.3633303
18	0xbedc796c	-0.43061388
19	0xbe3f094a	-0.18655887
20	0xbe4f98ef	-0.20273183
21	0xbe49577f	-0.19662283
22	0xbe8f7227	-0.2801678
23	0xbda04dfb	-0.078273736
24	0xbed9ed31	-0.42563775
25	0xbec35067	-0.3814728
26	0xbe241fc8	-0.16027749
27	0x3d5514a1	0.052021626
28	0xbe311594	-0.17293388
29	0xbed261d8	-0.41090274
30	0xbec4a2db	-0.384055
31	0xbe72f61f	-0.237267
32	0xbddb6dea	-0.10714324
33	0xbd0037b5	-0.031303126
34	0xbdb6b05f	-0.08920359
35	0xbdf80b74	-0.121115595
36	0xbe2125ec	-0.15737122
37	0xbe6b645e	-0.22987506
38	0xbea61838	-0.32440352
39	0xbe9bc1c5	-0.30421272
40	0xbed9126f	-0.42396876
41	0x3cfd9e6d	0.030959332
42	0xbf197b38	-0.5995364
43	0xbee07d1f	-0.4384546
44	0x3d18de87	0.037321594
45	0x3d80b612	0.06284727
46	0xba58922f	-0.0008261529
47	0x3e152fb5	0.1456898
48	0x3d166d2b	0.036725204
49	0xbea8ffc3	-0.3300763
50	0xbe495948	-0.19662964
51	0xbe962e19	-0.29332045
52	0xbe1bd38f	-0.15217422
53	0xbe79f317	-0.24409138
54	0xbeb80ab7	-0.35945675
55	0xbefaf203	-0.49012765
56	0xbe96a508	-0.29422784
57	0xbebe5bf4	-0.3717953
58	0xbd9e1538	-0.07718891
59	0x3dea2d55	0.11434428
60	0x3d8c1185	0.06839279
61	0x3dd1e748	0.102491915
62	0xbd11e6c9	-0.035620485
63	0xbd0b21c8	-0.033967763
64	0x3d942fc4	0.07235673
65	0xba3aa7f5	-0.00071203645
66	0xbc9de5d9	-0.019274639
67	0x3d2934a5	0.04130997
68	0xbe98e453	-0.29861698
69	0xbe1a3e8a	-0.1506292
70	0xbf07eef7	-0.53099006
71	0xbe6f08ba	-0.23343173
72	0x3d697669	0.05699769
73	0x3dc1fb70	0.09471786
74	0x3def9b21	0.1169951
75	0x3e904b75	0.2818257
76	0x3e5065c4	0.2035132
77	0x3ddb91a5	0.10721139
78	0x3e5e3fbb	0.21703999
79	0x3ebdba4d	0.370562
80	0x3d207f41	0.03918386
81	0xbc827f11	-0.01592973
82	0xbdf28f72	-0.11843766
83	0xbe4bca7c	-0.1990146
84	0xbeacde0b	-0.33763155
85	0xbe5f2d70	-0.21794677
86	0x3e3fc3df	0.18727063
87	0x3deb9fb1	0.11505068
88	0x3ebeb6cd	0.3724884
89	0x3eb87a59	0.36030844
90	0x3eb81741	0.3595524
91	0x3df5065d	0.11964104
92	0x3e1c9fe6	0.15295371
93	0x3e945b76	0.2897603
94	0xbcc570fe	-0.02410173
95	0x3d049b20	0.0323745
96	0xbe081ea7	-0.13292943
97	0xbecbb2ba	-0.39784795
98	0xbe905ee4	-0.28197396
99	0xbe94944c	-0.29019392
100	0x3e29254d	0.16518135
101	0x3d6d585e	0.0579456
102	0x3e92f8c5	0.2870542
103	0x3e9c60a3	0.30542478
104	0x3f08d1fb	0.53445405
105	0x3ef04b82	0.46932608
106	0x3eafd2c7	0.34340498
107	0x3d7f405a	0.06231723
108	0xbdae360f	-0.085064046
109	0xbcadb09d	-0.02120238
110	0xbdfcfd63	-0.12353017
111	0xbe94ccd1	-0.29062513
112	0xbee5aebc	-0.44859874
113	0xbea60c83	-0.3243142
114	0x3da73d91	0.0816604
115	0x3d74d0d0	0.05976945
116	0x3e105611	0.14095332
117	0x3e1821c8	0.14856637
118	0x3e8acb88	0.27108407
119	0x3eb3bab9	0.35103396
120	0x3e0236db	0.12716238
121	0xbe157529	-0.14595474
122	0xbd96f6b0	-0.07371271
123	0xbdb0b44c	-0.08628139
124	0xbe81652e	-0.25272506
125	0xbeaedb7c	-0.34151828
126	0xbf14252b	-0.57869214
127	0xbeb242b9	-0.3481653
128	0xbe3ac548	-0.1823932
129	0xbcb690b6	-0.0222858
130	0x3d2fa699	0.04288349
131	0x3e844656	0.25834912
132	0x3e5c570b	0.2151758
133	0x3d3631da	0.044481136
134	0xbe2cb785	-0.16866882
135	0xbe1ca73d	-0.15298171
136	0x3ca97630	0.020686239
137	0xbe9ff416	-0.3124091
138	0xbe8a5efe	-0.27025598
139	0xbe345ab0	-0.1761272
140	0xbef73ae2	-0.48287112
141	0xbf0bb2ae	-0.5456952
142	0xbecdb7ac	-0.40179193
143	0xbe39c9d2	-0.18143395
144	0xbd86a0ae	-0.06573616
145	0xbdf9ac8d	-0.121911146
146	0xbe9e1123	-0.3087245
147	0xbdb82551	-0.089914925
148	0x3c86ee1b	0.01647096
149	0x3d6d5f7d	0.057952393
150	0xbe0ee1e1	-0.13953353
151	0x3c54a9cb	0.012979935
152	0xbe7ca1f9	-0.24671163
153	0xbecf46a5	-0.40483585
154	0xbf3c5fc6	-0.7358364
155	0xbe82563f	-0.25456426
156	0xbeeed7ce	-0.4664902
157	0xbeaa134f	-0.33217856
158	0xbde18030	-0.11010778
159	0xbe40778b	-0.18795602
160	0xbe5d4536	-0.21608433
161	0xbe0f07ac	-0.1396777
162	0x3db48e80	0.08816242
163	0x3d84407e	0.064576134
164	0xbe490f7a	-0.1963481
165	0xbea1874b	-0.31548533
166	0xbb2a5a88	-0.0025993902
167	0xbeeca3b6	-0.46218652
168	0xbe1b7ba2	-0.15183881
169	0xbf08ff4f	-0.5351457
170	0xbebdf4fd	-0.37100974
171	0xbeea3f5b	-0.4575146
172	0xbea6a094	-0.32544386
173	0xbe8ebd46	-0.2787878
174	0xbe26f5c3	-0.16304688
175	0xbe2484b0	-0.16066241
176	0xbe3eb9ba	-0.18625537
177	0xbea62aa8	-0.3245442
178	0xbe9f5412	-0.31118828
179	0xbdbcad2a	-0.09212716
180	0xbe9e6ae8	-0.30940938
181	0xbe5fad9b	-0.21843569
182	0x3dd7ff48	0.10546738
183	0x3ba791be	0.0051138094
184	0xbf08f2b4	-0.53495336
185	0xbe4def0e	-0.20110723
186	0xbe95136c	-0.2911638
187	0xbe8bd001	-0.27307132
188	0xbe893eee	-0.26805824
189	0xbec876a1	-0.39153007
190	0xbefec688	-0.49760842
191	0xbe5fef68	-0.2186867
192	0xbe57556d	-0.21028681
193	0xbec41227	-0.382951
194	0xbdc3c916	-0.095598385
195	0x3e1f2213	0.15540342
196	0x3d4fefa1	0.050765637
197	0xbe74ee0c	-0.23918933
198	0xbe27417f	-0.16333579
199	0xbe21fe5a	-0.15819684
200	0xbd63fcbf	-0.05566096
201	0xbd916b29	-0.07100517
202	0xbd5e2d9f	-0.054242726
203	0xbdcd20e6	-0.100160405
204	0xbe437d14	-0.19090682
205	0xbe3d25d6	-0.18471465
206	0x3c9e9e8b	0.019362709
207	0x3b75b190	0.0037489869
208	0x3d587b1f	0.052851792
209	0x3e0f4c17	0.1399387
210	0xbe447716	-0.19186053
211	0xbe718e7e	-0.23589513
212	0xbe1427c0	-0.14468288
213	0xbd964ac1	-0.07338477
214	0x3d869513	0.065714024
215	0x3bf143dd	0.0073628263
216	0xbd4b3923	-0.049615037
217	0xbcde6243	-0.027146464
218	0xbdae66a9	-0.085156746
219	0xbdfaaba7	-0.12239771
220	0x3cc123e8	0.023576692
221	0xbe432765	-0.19057997
222	0xbe28debc	-0.16491216
223	0xbe05885b	-0.13040297
224	0xbe81aa9e	-0.25325483
225	0xbe0f2496	-0.139788
226	0x3d01be08	0.03167537
227	0x3ce198e8	0.027538732
228	0x3d79d7ec	0.060996935
229	0xbd9cb3ad	-0.07651458
230	0xbc91db4c	-0.017804764
231	0xbd962819	-0.07331867
232	0xbe018716	-0.12649187
233	0xbd92224f	-0.0713545
234	0x3da189d4	0.07887617
235	0xbd9b1d44	-0.07573941
236	0xbd259711	-0.04042727
237	0x3dc53364	0.096289426
238	0xbdab1b3d	-0.08354805
239	0xbe46bfd3	-0.19409113
240	0xbd2cc72c	-0.042182133
241	0xbe57973c	-0.21053785
242	0xbeba9114	-0.3643881
243	0x3d8c3722	0.06846453
244	0x3d7c058c	0.061528727
245	0x3cdd859b	0.027041247
246	0x3daac95f	0.0833919
247	0x3d81d08a	0.06338604
248	0xbd0d4eda	-0.034499027
249	0xbdfcc674	-0.123425394
250	0xbb8d4ea0	-0.0043123513
251	0x3e1bf42a	0.1522986
252	0x3dcb9280	0.09940052
253	0xbda6a234	-0.081364065
254	0x3dc0e1b2	0.09418048
255	0xbdf80c5b	-0.121117316

classifier.0.bias f4 [128]
0	0x3e9699f6	0.29414338
1	0xbdda2535	-0.10651628
2	0x3eaad5a6	0.33366126
3	0xbe5fce39	-0.21856011
4	0xbf4cc27b	-0.79984254
5	0xbe0fef77	-0.14056192
6	0xbf379461	-0.71710783
7	0x3f6c2416	0.9224256
8	0xbe38d08d	-0.18048306
9	0xbe1ed904	-0.15512472
10	0xbdb6220c	-0.08893213
11	0x3f393362	0.7234403
12	0xbe48382e	-0.19552681
13	0xbe8b5fad	-0.27221432
14	0xbbf79017	-0.0075550186
15	0x3da86ca7	0.08223849
16	0xbeb26a64	-0.34846795
17	0x3f04ff04	0.5195162
18	0x3ea86312	0.32888085
19	0x3e8835d3	0.26603565
20	0xbb921996	-0.0044586165
21	0xbecfbf83	-0.405758
22	0xbf05572d	-0.52086145
23	0x3e872ebd	0.26402846
24	0x3b4232ed	0.0029632405
25	0xbdbe87de	-0.09303258
26	0x3f4e0549	0.80476815
27	0x3ec79dd8	0.38987613
28	0x3e29f00d	0.16595478
29	0xbd9b98d2	-0.075975075
30	0xbd03baef	-0.032160696
31	0x3eda445a	0.42630273
32	0x3e134498	0.14381635
33	0xbf3813f9	-0.71905476
34	0xbeef67bd	-0.46758834
35	0xbf3af0f3	-0.7302391
36	0x3f0621e5	0.5239547
37	0xbe658863	-0.22415309
38	0x3d77e485	0.060520668
39	0x3f25958a	0.64681304
40	0xbea8fbcd	-0.3300461
41	0x3e212d54	0.15739948
42	0x3e9780b6	0.29590386
43	0x3e364ac2	0.17801955
44	0x3e959395	0.2921416
45	0x3f0d2281	0.55130774
46	0x3deb1343	0.11478283
47	0xbf009f5e	-0.50243175
48	0xbf002f0b	-0.5007178
49	0x3ea2b265	0.3177673
50	0x3f061d6c	0.52388644
51	0x3c0e41f3	0.008682716
52	0xbe8de57a	-0.2771414
53	0xbcf15abf	-0.029462216
54	0x3f00e14e	0.5034379
55	0x3e66a1cb	0.22522657
56	0xbd252258	-0.040315956
57	0xbd73da1f	-0.05953419
58	0xbd79e391	-0.06100804
59	0xbef53944	-0.47895253
60	0xbef8e56b	-0.48612532
61	0x3db08c01	0.086204536
62	0x3e92afaa	0.28649646
63	0x3f1e9cc5	0.6195796
64	0x3dc387dd	0.09547398
65	0xbec22de7	-0.37925646
66	0x3daf7169	0.08566553
67	0x3e82f6f7	0.25579044
68	0x3f362f00	0.71165466
69	0xbef80205	-0.4843904
70	0xbd6bd106	-0.057572387
71	0xbf499456	-0.7874197
72	0xbf2b6b91	-0.6696101
73	0xbe052638	-0.1300286
74	0x3ed91f53	0.4240671
75	0x3ca5f799	0.020259665
76	0x3e6042c1	0.21900465
77	0xbd8118ca	-0.06303556
78	0xbe8cb9c9	-0.27485493
79	0xbf4e6aca	-0.806317
80	0x3e2aca20	0.16678667
81	0x3edfbda8	0.43699384
82	0x3d8e4899	0.06947441
83	0xbebb9adf	-0.36641595
84	0xbd1cf83b	-0.03832267
85	0x3e6d66ca	0.23183742
86	0xbe7bfab2	-0.24607351
87	0xbcaaa848	-0.020832196
88	0x3ecccda9	0.40000656
89	0xbe3c668e	-0.18398497
90	0x3e951ff7	0.2912595
91	0x3e2de75d	0.1698279
92	0xbe1d2305	-0.1534539
93	0x3f328e0f	0.69748014
94	0x3e9070c0	0.2821102
95	0x3ee2b182	0.44276053
96	0x3cd91b9b	0.026502421
97	0x3ccaeaba	0.02477013
98	0x3eacdf89	0.33764294
99	0x3e66971b	0.2251858
100	0xbf4bb893	-0.7957851
101	0x3ede1a94	0.43379653
102	0xbf05a570	-0.5220556
103	0x3d66d742	0.05635763
104	0xbf2765e7	-0.65389866
105	0xbd84da01	-0.064868934
106	0xbea24b6d	-0.3169817
107	0xbe453361	-0.19257881
108	0xbed0ba55	-0.4076716
109	0xbf52102e	-0.8205594
110	0xbe70439b	-0.2346329
111	0x3e6d2c34	0.23161393
112	0xbdfb5e8f	-0.12273895
113	0x3e1c7aa7	0.15281163
114	0xbd111956	-0.035424553
115	0xbe434488	-0.19069111
116	0x3e4ee290	0.20203614
117	0xbe4664a1	-0.19374324
118	0xbb84f3b5	-0.0040573725
119	0x3eefb554	0.4681803
120	0xbe2b1400	-0.16706848
121	0xbeb4a1d4	-0.35279715
122	0xbdef759c	-0.11692354
123	0xbf1817f1	-0.5941153
124	0x3db2c611	0.087291844
125	0xbf6fbcb5	-0.9364732
126	0x3d2c3821	0.042045716
127	0x3dddc99f	0.10829472

classifier.3.weight f4 [10, 128]
0	0xbe3b7477	-0.18306147
1	0x3e009d28	0.1255995
2	0xbc9e9647	-0.019358767
3	0xbed24228	-0.41066098
4	0x3d7aa9ff	0.061197277
5	0x3e027c5f	0.12742756
6	0x3bbf1001	0.0058307652
7	0xbed67837	-0.41888592
8	0xbdc5bcba	-0.09655137
9	0x3d0950ed	0.033524442
10	0xbe878823	-0.26471052
11	0x3e2ed600	0.17073822
12	0xbdc5e474	-0.096627146
13	0x3d355153	0.04426701
14	0x3d31b7e7	0.043388274
15	0xbea8331f	-0.32851502
16	0x3e08d4b1	0.13362385
17	0xbd97e3cd	-0.074164964
18	0xbea988c4	-0.33112156
19	0xbe4d3e8d	-0.20043392
20	0x3e15cfc5	0.14630039
21	0xbe1d7293	-0.15375738
22	0x3dade30a	0.0849057
23	0xbeaca55f	-0.33719918
24	0x3e1e2fa6	0.15447864
25	0xbed5c708	-0.4175341
26	0x3bcc9770	0.0062436387
27	0xbe985bb5	-0.29757467
28	0xbca3f537	-0.020014388
29	0xbf1bccf1	-0.6085959
30	0x3e09c96c	0.13455743
31	0xbdc4e454	-0.09613863
32	0x3d78ae62	0.06071318
33	0x3d200e5e	0.0390762
34	0x3da143aa	0.07874234
35	0x3db72cf0	0.08944118
36	0x3e26f15f	0.16303013
37	0x3da20c5c	0.079125136
38	0xbcd041ae	-0.025421944
39	0xbd8210bf	-0.0635085
40	0xbe1bc7d9	-0.15212955
41	0xbec8fc5f	-0.39255044
42	0xbe446749	-0.19180025
43	0x3df4394a	0.119249895
44	0x3dd8a15a	0.1057765
45	0xbe46c5d4	-0.19411403
46	0xbd4aaaef	-0.04947942
47	0xbdfef8f0	-0.12449825
48	0xbe5748cd	-0.21023865
49	0x3dabf55c	0.08396408
50	0xbe5b4363	-0.21412425
51	0x3da842b1	0.082158454
52	0x3e1f1838	0.15536582
53	0x3e13788f	0.14401458
54	0x3deda853	0.11604371
55	0x3ddd0e86	0.10793786
56	0x3e176210	0.14783502
57	0xbd9aa669	-0.075512715
58	0x3d57d519	0.05269346
59	0x3df616cf	0.12016069
60	0x3db2bf79	0.08727927
61	0x3e0542d7	0.13013779
62	0x3e678431	0.22609021
63	0x3d611e0e	0.054960303
64	0xbed26a19	-0.4109657
65	0x3cbdbe64	0.023162074
66	0xbe362f8c	-0.17791575
67	0x3e03b33e	0.12861344
68	0xbd05b879	-0.03264663
69	0xbe634b55	-0.22196706
70	0x3d07fdaa	0.033200897
71	0x3c7f8f65	0.015598153
72	0xbe94d6cd	-0.2907013
73	0x3d8b2623	0.067943834
74	0xbf189329	-0.5959955
75	0x3e028ab7	0.12748228
76	0xbeaf9068	-0.3428986
77	0x3e02e2e9	0.12781872
78	0x3dab4983	0.083636306
79	0xbe017d5f	-0.12645482
80	0xbeca3132	-0.39490658
81	0xbe56ab8a	-0.20963874
82	0xbe014331	-0.12623288
83	0xbe1ac69b	-0.15114824
84	0xbe47f7dc	-0.19528145
85	0x3e961857	0.29315445
86	0xbe3bb5c8	-0.18331063
87	0xbd9e9030	-0.07742345
88	0xbf0bddb8	-0.5463519
89	0x3e1cacbb	0.15300266
90	0x3e275da2	0.16344312
91	0xbe309435	-0.17244036
92	0xbe01312c	-0.12616414
93	0x3da214a9	0.07914097
94	0xbe42268b	-0.18960015
95	0xbdccdc50	-0.10002959
96	0x3e5f3fe2	0.21801713
97	0xbeb3d0c0	-0.351202
98	0x3bb8b901	0.0056372886
99	0xbdf8376e	-0.121199474
100	0x3dd16dd9	0.1022603
101	0xbd1d28c3	-0.03836895
102	0x3e0cd65d	0.13753648
103	0x3c869f7e	0.016433474
104	0xbcfb523b	-0.030678859
105	0x3df3c18a	0.11902149
106	0x3d80431b	0.06262799
107	0x3c1d9f93	0.009620565
108	0xbdfa88a0	-0.122330904
109	0xbc72d24a	-0.014820645
110	0x3da2e3fe	0.07953642
111	0xbe627ea1	-0.22118618
112	0xbcf9272e	-0.03041419
113	0x3b51dcf3	0.0032022565
114	0xbd830502	-0.063974395
115	0x3d66c0a5	0.056336064
116	0xbee3a67a	-0.4446295
117	0xbdebc985	-0.11513046
118	0xbdeca756	-0.11555354
119	0xbe8ff526	-0.2811672
120	0x3bfae9cd	0.0076572658
121	0xbec0cf80	-0.3765831
122	0xbd927be6	-0.07152538
123	0x3dfa8bee	0.12233721
124	0x3e1fa9d8	0.15592134
125	0xbed218ea	-0.41034633
126	0x3cb46647	0.022021426
127	0xbe24646f	-0.16053937
128	0xb9c6f985	-0.0003795141
129	0x3da912a4	0.082555085
130	0x3c7ed8ba	0.015554601
131	0x3e4c86fc	0.19973367
132	0xbe443819	-0.19162025
133	0x3db840da	0.089967445
134	0xbe904a94	-0.281819
135	0x3d561d0e	0.052273802
136	0xbcfd9815	-0.030956307
137	0xbc779f73	-0.015113699
138	0xbe04c953	-0.12967424
139	0x3dd40a75	0.10353557
140	0xbd23d25f	-0.039995547
141	0x3da283c1	0.07935286
142	0xbe1ffcd3	-0.15623789
143	0xbce2ece1	-0.027700843
144	0xbdfd1905	-0.12358288
145	0xbd8cba12	-0.068714276
146	0x3da11015	0.078643955
147	0x3e48b4b5	0.19600184
148	0x3d61de76	0.055143796
149	0xbcbd59d9	-0.023114132
150	0x3dead2b8	0.11465973
151	0x3e5e8196	0.2172912
152	0xbe5b0925	-0.21390207
153	0x3e0c219f	0.136847
154	0x3cd0c5b2	0.025484893
155	0x3e909be4	0.28243935
156	0xbdf596b0	-0.11991632
157	0x3dccb24d	0.09994946
158	0xbe893410	-0.26797533
159	0x3e3fb8d2	0.18722847
160	0xbe23567f	-0.15950964
161	0x3e220699	0.1582283
162	0xbe0f6864	-0.14004666
163	0x3e07cafc	0.13261026
164	0xbe76ef1f	-0.24114655
165	0x3daec029	0.085327454
166	0xbe9658d7	-0.29364654
167	0x3e80e13b	0.25171837
168	0x3d536bb4	0.051616386
169	0xbf03c15f	-0.51466936
170	0xbda9499f	-0.08265995
171	0xbefde951	-0.4959207
172	0xbded31f2	-0.11581792
173	0x3e0276bc	0.12740606
174	0x3d98d94d	0.07463322
175	0xbe1cd61d	-0.15316053
176	0xbdb13b5d	-0.08653901
177	0x3ea67c2a	0.32516605
178	0x3e812a68	0.25227666
179	0xbdd0ca82	-0.10194875
180	0xbe70d059	-0.23516978
181	0xbf2b18fa	-0.66834986
182	0x3e497d27	0.19676648
183	0x3de33098	0.11093253
184	0xbde34e2f	-0.11098897
185	0x3e1a1669	0.15047611
186	0xbe40ab41	-0.18815328
187	0x3dcf45c6	0.1012073
188	0x3c9c93ff	0.019113539
189	0x3d9e3729	0.07725365
190	0xbf0e73cc	-0.5564544
191	0x3df69500	0.12040138
192	0x3ea5199c	0.322461
193	0x3e1304e4	0.14357334
194	0xbe73bec4	-0.2380324
195	0x3dd66ebe	0.10470341
196	0xbe8fd95e	-0.28095526
197	0xbda0da74	-0.078541666
198	0x3d67d1ae	0.05659645
199	0xbe464cd7	-0.1936525
200	0x3b8014e9	0.0039087427
201	0x3e118eb2	0.1421459
202	0xbebc9ecc	-0.36839902
203	0xbe578cf6	-0.21049866
204	0x3e22d6a0	0.15902185
205	0x3d807151	0.062716134
206	0x3d6e23c7	0.05813959
207	0x3e40f9a4	0.1884523
208	0x3e0b1435	0.13581927
209	0xbe04aaa7	-0.12955724
210	0xbea0daa6	-0.31416816
211	0x3e11d44a	0.14241138
212	0xbd76bc84	-0.060238376
213	0x3e88b796	0.26702565
214	0x3da1d393	0.07901683
215	0xbea07249	-0.31337193
216	0xbec6f45c	-0.38858306
217	0xbe9dae0a	-0.30796844
218	0x3daaf834	0.08348122
219	0xbe02a2a6	-0.12757358
220	0x3d0f9f76	0.035064183
221	0x3da1ac4d	0.07894192
222	0xbdeabdfd	-0.11462019
223	0xbddafe05	-0.10692982
224	0x3e02e028	0.12780821
225	0x3e7a05b6	0.24416241
226	0xbdd53235	-0.10409967
227	0xbd94d8c0	-0.07267904
228	0x3d9ed088	0.07754618
229	0xbc0352e3	-0.008015367
230	0xbe139d82	-0.14415553
231	0xbe286a70	-0.16446853
232	0x3d84754f	0.06467687
233	0xbe5c0095	-0.21484597
234	0xbed43d7a	-0.41453153
235	0x3dbf24e5	0.09333209
236	0x3d68c8ca	0.056832112
237	0xbbea3606	-0.0071475534
238	0x3e1a17a6	0.15048084
239	0xbe725954	-0.23666888
240	0x3bff1ef2	0.0077856714
241	0xbd7aff2f	-0.06127852
242	0xbe07225c	-0.13196701
243	0x3e3a1661	0.181726
244	0xbec57597	-0.38566276
245	0xbe72d8f4	-0.23715574
246	0x3d72d7cc	0.05928783
247	0x3dd5b7d1	0.10435451
248	0xbdcf2584	-0.101145774
249	0xbe5c3ae1	-0.21506836
250	0x3dcce734	0.10005036
251	0xbde64d90	-0.112452626
252	0xbe97e80b	-0.29669222
253	0x3c9b16a1	0.018931689
254	0xbe4b5487	-0.19856463
255	0xbe30b4ab	-0.1725642

classifier.3.bias f4 [10]
0	0x3f49d91c	0.7884691
1	0x3f7139a3	0.9422857
2	0xbf400e2e	-0.75021636
3	0x3f37ab55	0.71745807
4	0xbeef5fee	-0.46752876
5	0xbe15e2f0	-0.14637351
6	0xbf23504d	-0.63794404
7	0xbf0e8d18	-0.5568404
8	0xbd06d454	-0.032917336
9	0xbf545cc0	-0.82954025
