Tomato_pretrained_cnn/saved_ckpt/best_model_epoch_15.pt (torch, 839456 bytes, 10 tensors)

features.0.weight f4 [32, 3, 3, 3]
0	0x3e3de1f8	0.18543231
1	0xbcbdad5a	-0.02315395
2	0x3e008d36	0.12553868
3	0x3e15c9c5	0.1462775
4	0xbe83c198	-0.25733638
5	0xbf17391c	-0.59071517
6	0x3db95cfa	0.09050937
7	0xbef40475	-0.4765965
8	0xbf85fd55	-1.0467936
9	0x3e9864e7	0.29764482
10	0x3e6dac5c	0.23210281
11	0x3e707518	0.23482168
12	0x3e525036	0.2053841
13	0xbdb06ebb	-0.0861487
14	0xbebd7174	-0.3700062
15	0x3db6eb76	0.08931629
16	0xbeca7fea	-0.39550716
17	0xbf49cdce	-0.7882966
18	0x3ecbf0dd	0.39832202
19	0x3ea7d4fa	0.32779676
20	0x3e4f0009	0.20214857
21	0x3e6d9a90	0.23203492
22	0x3e0e57c1	0.13900663
23	0xbe4687c3	-0.19387726
24	0x3e64b00d	0.22332783
25	0xbe375e99	-0.1790718
26	0xbf15499c	-0.58315444
27	0xbe672bc0	-0.22575283
28	0xbdb8216d	-0.089907505
29	0xbeab9dde	-0.3351888
30	0x3c69829c	0.014252331
31	0xbe93a5e1	-0.28837493
32	0x3d7c40c3	0.0615852
33	0x3eeaf937	0.4589326
34	0x3d9eaf64	0.07748297
35	0xbf0a275b	-0.539663
36	0xbee980a9	-0.45605972
37	0xbdc2e504	-0.095163375
38	0xbe7941cc	-0.24341506
39	0x3d0dc280	0.034609318
40	0xbe4fb0fc	-0.20282358
41	0xbdbe9e86	-0.0930758
42	0x3eeda3cf	0.4641404
43	0xbe110c0a	-0.14164749
44	0xbe19b154	-0.15009052
45	0xbf2e0d7a	-0.67989314
46	0xbf48bb63	-0.7841093
47	0xbf55e2b3	-0.8354904
48	0xbee4d678	-0.44694877
49	0xbf756fce	-0.95873725
50	0xbf80cead	-1.0063072
51	0x3ed0326f	0.40663478
52	0xbf065436	-0.52472246
53	0xbf82b3a2	-1.021107
54	0x3f22bbd9	0.6356788
55	0x3e926e80	0.2859993
56	0x3e16bc68	0.14720309
57	0x3e30472a	0.17214647
58	0x3e6d8447	0.23194991
59	0x3e59e6fe	0.21279523
60	0x3e865393	0.26235637
61	0x3d7fa7c6	0.06241586
62	0x3e10ecba	0.14152804
63	0x3efb63df	0.49099633
64	0xbecd3e26	-0.40086478
65	0xbf06a6bd	-0.5259817
66	0xbdd82b4d	-0.10555134
67	0xbf002e11	-0.5007029
68	0xbea6959a	-0.32536012
69	0xbe8caf2d	-0.274774
70	0xbe8ee8a9	-0.2791188
71	0xbeab8456	-0.33499402
72	0xbe5b75e7	-0.21431695
73	0xbf9e60c2	-1.2373278
74	0xbfa02757	-1.2512006
75	0xbec17507	-0.37784597
76	0xbfaa86bc	-1.3322368
77	0xbf9127a9	-1.1340228
78	0xbe9fc0be	-0.31201738
79	0xbfc2061f	-1.5158118
80	0xbf866943	-1.0500873
81	0xbed0d8dc	-0.4079045
82	0xbe9fd877	-0.31219837
83	0xbe5a28bd	-0.21304603
84	0xbedde5fc	-0.43339527
85	0xbea217e9	-0.31658867
86	0xbe48d784	-0.19613463
87	0xbeb34b20	-0.35018253
88	0xbe43cae3	-0.19120364
89	0xbd53db44	-0.05172278
90	0x3ed96ece	0.4246735
91	0x3f082159	0.53175884
92	0x3f14301c	0.5788591
93	0x3f12f32f	0.5740232
94	0x3f027877	0.50965065
95	0x3f19a5ee	0.60018814
96	0x3f14f495	0.581857
97	0x3eeadb80	0.4587059
98	0x3e9e49f6	0.30915803
99	0xbe819f1b	-0.253167
100	0xbed02c14	-0.4065863
101	0xbe88f01f	-0.26745698
102	0xbe86bf94	-0.26318038
103	0xbe9197c6	-0.28436106
104	0xbe4d62bb	-0.20057194
105	0xbd5522bc	-0.05203508
106	0xbde90b23	-0.11379077
107	0xbcb710ad	-0.022346819
108	0x3e86985a	0.2628811
109	0x3eb74c4f	0.35800406
110	0x3ecb739a	0.39736634
111	0x3eaf21f8	0.34205604
112	0x3ef36bdb	0.47543225
113	0x3e9396bb	0.28825936
114	0x3e922b01	0.28548434
115	0x3e7362d9	0.23768176
116	0x3d638a68	0.055551916
117	0x3ea160f9	0.31519297
118	0x3e02c24f	0.12769435
119	0x3edf0669	0.43559578
120	0x3cecd269	0.028908925
121	0xbd208637	-0.039190497
122	0x3da046a3	0.07825973
123	0xbda859ff	-0.082202904
124	0xbe37e4b5	-0.17958339
125	0xbe72b434	-0.23701555
126	0xbed306ff	-0.41216275
127	0xbe9a088a	-0.3008464
128	0xbe2c7b3a	-0.16843882
129	0xbe5ab5b4	-0.21358377
130	0xbe505f8d	-0.2034895
131	0xbe02271f	-0.12710236
132	0xbe9e073e	-0.308649
133	0xbeba71eb	-0.36415038
134	0xbf04c75d	-0.51866704
135	0xbf26df70	-0.6518469
136	0xbe4889ab	-0.19583766
137	0x3e996d79	0.29966334
138	0xbe301715	-0.17196305
139	0xbdd6d90f	-0.104906194
140	0x3e960eaf	0.29308078
141	0x3d52bade	0.05144774
142	0x3e44dbe3	0.19224505
143	0x3ea7699c	0.3269776
144	0xbf18671c	-0.5953233
145	0xbdea4bfa	-0.11440273
146	0x3e00f183	0.1259213
147	0xbe2740bf	-0.16333292
148	0xbe358aed	-0.17728777
149	0x3ecffe3b	0.4062365
150	0x3e05a768	0.13052142
151	0x3e9a95c7	0.30192396
152	0x3ed87c20	0.422822
153	0xbf56d112	-0.83912766
154	0xbe9d552b	-0.3072904
155	0x3d7784ee	0.060429506
156	0xbf0850bc	-0.5324819
157	0xbe5f9b73	-0.21836643
158	0x3e91f154	0.2850443
159	0x3d9c623d	0.07635925
160	0x3e622303	0.22083668
161	0x3eb9bc22	0.36276346
162	0xbe3c0d4c	-0.18364447
163	0xbe8198e2	-0.25311953
164	0xbdea6df5	-0.11446754
165	0xbe859ea9	-0.2609761
166	0xbec1be52	-0.37840515
167	0x3d54b26d	0.051927973
168	0xbe692619	-0.2276844
169	0xbe94844c	-0.29007185
170	0xbe59e26a	-0.21277776
171	0xbe4638f1	-0.19357659
172	0xbd943c0a	-0.07238014
173	0x3d4c8481	0.049931053
174	0xbe426c5c	-0.18986648
175	0xbdcdfde4	-0.100581914
176	0x3dc2d2c9	0.0951286
177	0xbe04a9f3	-0.12955455
178	0xbe8a21a3	-0.26978788
179	0xbbcd3fc3	-0.0062637045
180	0xbddd051f	-0.107919924
181	0xbd441855	-0.047874767
182	0xbe6fa05b	-0.23401015
183	0xbcec73d8	-0.028863832
184	0xbe2dbc35	-0.16966327
185	0x3c9e0b8b	0.019292613
186	0xbe4c0712	-0.19924572
187	0xbe4341ab	-0.19068019
188	0xbe00e95e	-0.12589023
189	0xbdf44610	-0.11927426
190	0x3e214fa3	0.15753035
191	0xbe56c58d	-0.20973797
192	0xbe177fae	-0.147948
193	0xbe95218f	-0.29127166
194	0xbf4ea5fa	-0.8072201
195	0x3d6029b8	0.054727286
196	0xbdcc7d6f	-0.09984862
197	0x3e873af6	0.2641217
198	0x3e5bfbe5	0.21482809
199	0x3e90d251	0.2828546
200	0xbe5e231b	-0.21693079
201	0x3de63ae2	0.112417
202	0xbdeeb6e5	-0.11655978
203	0xbf104214	-0.5635083
204	0x3d9e1ac3	0.07719948
205	0x3e7a79c1	0.24460508
206	0x3ef81ec7	0.4846098
207	0x3e90264e	0.28154224
208	0x3eaf5ba5	0.34249607
209	0xbe1ec417	-0.1550449
210	0x3e968cd6	0.29404324
211	0xbdfc2bc3	-0.123130344
212	0xbf3e18b7	-0.7425646
213	0x3e95f5ce	0.29289097
214	0x3e1f87d4	0.15579158
215	0x3e712789	0.23550238
216	0x3e2ebcf4	0.17064267
217	0x3d95dbee	0.07317339
218	0x3d8eabea	0.06966384
219	0x3e5a4b07	0.21317683
220	0x3ce7555c	0.028238945
221	0x3e0eb778	0.13937175
222	0x3e801f41	0.25023845
223	0x3e1d7e9d	0.1538033
224	0x3e83801c	0.25683677
225	0xbe98da13	-0.29853877
226	0xbeb9ce58	-0.3629024
227	0xbf031041	-0.51196676
228	0xbebc797e	-0.3681144
229	0xbf2e335d	-0.68047124
230	0xbee4b8c5	-0.44672218
231	0xbe33a748	-0.17544281
232	0xbe5bd02a	-0.21466127
233	0x3bf89cd0	0.007587053
234	0x3cc8cfae	0.024513092
235	0xbe708cbe	-0.23491189
236	0xbe614551	-0.21999098
237	0xbe186ebf	-0.14885996
238	0xbf07c428	-0.53033686
239	0xbdd8b8b5	-0.10582105
240	0x3e22259b	0.15834658
241	0xbde83e04	-0.113399535
242	0xbd8531a0	-0.06503606
243	0xbfc7bcab	-1.5604452
244	0x3cef4307	0.029206766
245	0xbdf56502	-0.11982156
246	0xbf95d46e	-1.1705453
247	0xbfbaf856	-1.4607036
248	0xbe026d3e	-0.12736985
249	0xc00d7abe	-2.2106166
250	0xbfccb6b5	-1.5993258
251	0x3dbc0baf	0.09181916
252	0xbff7ea01	-1.9368287
253	0xbeb815f0	-0.35954237
254	0xbeabc540	-0.33548927
255	0xbfb3b8ab	-1.4040731

features.0.bias f4 [32]
0	0xbd58a56e	-0.05289214
1	0xbe73b714	-0.23800308
2	0xbde32d81	-0.110926636
3	0xbe96a7a5	-0.29424778
4	0xbdd4d520	-0.10392213
5	0xbe7a8aef	-0.24467061
6	0xbe26ba35	-0.1628197
7	0xbc2a72f4	-0.0104033835
8	0x3e19748f	0.1498587
9	0x3eaf4c66	0.34237975
10	0xbca4e3eb	-0.020128211
11	0xbeeb19bc	-0.4591807
12	0xbec74573	-0.38920173
13	0xbed821e7	-0.42213365
14	0x3be67093	0.007032463
15	0xbec2eee4	-0.38072884
16	0x3ed2f3d6	0.41201657
17	0xbe40a782	-0.18813899
18	0xbcf77cd1	-0.030210884
19	0xbee40417	-0.4453437
20	0xbd6a6509	-0.05722526
21	0xbf6aeb46	-0.9176525
22	0xbf053e26	-0.52047956
23	0xbe796e11	-0.24358393
24	0x3d881266	0.06644134
25	0xbdd923a7	-0.10602503
26	0xbdb17a58	-0.08665913
27	0xbe0457ab	-0.12924068
28	0xbb916e5d	-0.004438205
29	0xbe6f9b3e	-0.23399064
30	0xbdc178cb	-0.094468676
31	0xbec4f3b4	-0.3846718

features.3.weight f4 [16, 32, 3, 3]
0	0xbddb17a2	-0.10697867
1	0xbed96459	-0.42459372
2	0xbe1e3af9	-0.15452184
3	0xbec8de40	-0.39232063
4	0xbeba45a6	-0.36381263
5	0x3d21f6d9	0.039542053
6	0xbda46164	-0.08026388
7	0x3e170c12	0.14750698
8	0x3c4d7593	0.012540239
9	0x3f2a1455	0.66437274
10	0xbdb9ddd6	-0.09075515
11	0xbebd6d75	-0.36997572
12	0xbe3033ad	-0.17207213
13	0x3f077522	0.52913105
14	0x3ed07a29	0.407182
15	0x3c954ca3	0.01822502
16	0x3e83d99a	0.25751954
17	0x3ecddf4d	0.40209427
18	0xbd824548	-0.063608706
19	0x3e058ce5	0.13042028
20	0xbee6e086	-0.45093173
21	0xbea1c67a	-0.31596738
22	0xbe507215	-0.20356019
23	0xbf170fb6	-0.5900835
24	0xbf04acc1	-0.518261
25	0xbee0dc30	-0.4391799
26	0x3dd7df9a	0.105406955
27	0x3f0cff65	0.550772
28	0x3f02deb5	0.51121074
29	0x3ea1f6a0	0.31633472
30	0x3f029b0b	0.51017827
31	0x3a20dbc7	0.0006136265
32	0xbebd63b2	-0.36990124
33	0x3efd7f8c	0.49511373
34	0xbe2ce6d7	-0.16884933
35	0xbf5dc96f	-0.8663549
36	0xbf7b1231	-0.9807463
37	0xbf1a1670	-0.60190487
38	0xbd219cf5	-0.039456327
39	0xbf06f759	-0.5272117
40	0x3e773c24	0.24144036
41	0x3f04ffe1	0.5195294
42	0xbef8eecd	-0.4861969
43	0x3f146e87	0.5798115
44	0x3f859317	1.0435513
45	0xbc6cb329	-0.014447012
46	0xbd193656	-0.037405334
47	0xbe51164d	-0.20418663
48	0xbd934fc7	-0.07192951
49	0x3d6a337f	0.057178017
50	0xbd0e75c0	-0.034780264
51	0xbeef83ca	-0.46780235
52	0xbe4e558b	-0.2014982
53	0xbe3a2923	-0.18179755
54	0x3e0910cf	0.13385318
55	0xbbea4dcd	-0.007150388
56	0xbd317a20	-0.043329358
57	0x3e90052b	0.28128943
58	0xbdefdddc	-0.11712238
59	0xbe035727	-0.12826215
60	0x3dbe899b	0.0930359
61	0xbd2cebcb	-0.042217057
62	0xbe1198d7	-0.1421846
63	0x3ed7f3a8	0.42178082
64	0xbdf0cf40	-0.1175828
65	0x3d93d26d	0.0721787
66	0xbb9cedda	-0.0047890963
67	0xbec82c2f	-0.3909621
68	0xbd9cd7a5	-0.076583184
69	0xbdb6f7e3	-0.089339994
70	0xbe9166e0	-0.283988
71	0xbe90ac93	-0.28256664
72	0xbf4f5dc9	-0.8100248
73	0xbf505014	-0.8137219
74	0xbea94398	-0.33059382
75	0xbf645683	-0.89194506
76	0xbf0991fe	-0.5373839
77	0xbe7c6067	-0.2464615
78	0xbf7b8b31	-0.98259264
79	0xbe965ee4	-0.2936927
80	0x3e7733d1	0.2414086
81	0xbfb0487c	-1.377212
82	0xbf799b6d	-0.97502786
83	0xbe4f9708	-0.20272458
84	0xbfa8290a	-1.3137524
85	0xbe70b1c8	-0.23505318
86	0x3e2375cf	0.15962909
87	0xbee0e0bc	-0.4392146
88	0xbe92b42b	-0.28653082
89	0x3e28def8	0.16491306
90	0x3dbc0f6d	0.0918263
91	0xbe797470	-0.24360824
92	0x3e20b67b	0.15694611
93	0xbd950bb1	-0.072776206
94	0xbe0cc487	-0.13746844
95	0xbe91f871	-0.28509858
96	0x3d322be6	0.043498896
97	0xbd86a3fd	-0.06574247
98	0xbe16848a	-0.14698997
99	0xbdbea9d7	-0.09309738
100	0xbc989c9e	-0.018629368
101	0xbc97fe87	-0.018553985
102	0x3daa5260	0.08316493
103	0x3d577136	0.0525982
104	0xbc2fe863	-0.010736558
105	0x3e84b811	0.25921682
106	0x3dadfe4b	0.08495768
107	0x3f802285	1.0010535
108	0xbf0362f9	-0.51322895
109	0xbf0675ae	-0.52523315
110	0xbf10cb08	-0.565598
111	0x3e73d36b	0.23811118
112	0x3e2cb637	0.16866384
113	0x3e3aaa63	0.1822906
114	0xbcfc63e9	-0.03080936
115	0xbc2ee435	-0.010674526
116	0x3e82fcff	0.25583646
117	0xbe830767	-0.25591585
118	0xbd83698c	-0.06416616
119	0x3dc8f28b	0.098118864
120	0x3db84784	0.089980155
121	0x3e1e5ae4	0.1546436
122	0x3ea471b6	0.32118005
123	0xbe822aff	-0.25423428
124	0xbea0a9a2	-0.3137942
125	0xbde942cf	-0.11389696
126	0x3e05970c	0.13045901
127	0xbc415fac	-0.011802595
128	0xbc94cf59	-0.018165277
129	0x3eb6df8f	0.35717437
130	0xbdfbfef9	-0.123044915
131	0xbeb03929	-0.3441861
132	0x3e65e28b	0.224497
133	0xbd1282c0	-0.035769224
134	0xbef0a61a	-0.47001725
135	0x3e09c224	0.13452965
136	0x3de51fc9	0.11187703
137	0xbeaba7a0	-0.33526325
138	0x3ca20c96	0.019781392
139	0x3deaa87a	0.114579156
140	0xbcdd6ca8	-0.02702935
141	0x3e7e28fc	0.24820322
142	0x3e4fedd2	0.20305565
143	0x3daa1869	0.08305437
144	0xbe76429c	-0.24048847
145	0xbe517722	-0.20455602
146	0xbe5de832	-0.21670607
147	0x3f1ed373	0.62041396
148	0x3ecb8345	0.39748588
149	0x3e66df35	0.22546084
150	0x3e60787e	0.21920964
151	0xbbd02161	-0.0063516353
152	0x3d59dc7c	0.053188786
153	0xbead7ecc	-0.338858
154	0xbe73ea96	-0.23819956
155	0xbe445504	-0.19173056
156	0xbead6671	-0.3386722
157	0xbc7d4081	-0.015457273
158	0x3db76a01	0.089557655
159	0xbecea45c	-0.4035977
160	0xbde820ab	-0.11334356
161	0x3e8e61d9	0.27809027
162	0xbd3e37be	-0.04643988
163	0x3e70425f	0.23462819
164	0x3e8339a5	0.25629917
165	0x3e430589	0.1904508
166	0xbcf9e985	-0.030506859
167	0x3e65f90c	0.22458285
168	0x3db63c69	0.08898241
169	0xbe970a80	-0.29500198
170	0xbc593c08	-0.0132589415
171	0x3ef4cbca	0.4781173
172	0x3d255d03	0.040371906
173	0x3e1ccfad	0.15313597
174	0x3e763022	0.24041799
175	0xbd139aad	-0.036036182
176	0x3e37810f	0.17920326
177	0xbe6d647e	-0.23182866
178	0xbd982762	-0.07429387
179	0xbccc1720	-0.02491337
180	0xbd3ec82e	-0.046577625
181	0xbe93dcb8	-0.28879333
182	0xbe92967a	-0.2863043
183	0x3d90a2cc	0.07062301
184	0x3c8d5308	0.017251506
185	0x3e82fb45	0.25582328
186	0x3e2835ac	0.16426724
187	0x3e818e85	0.25304046
188	0x3eee0fb1	0.46496347
189	0x3eb4886d	0.35260335
190	0xbdcc63be	-0.09979962
191	0xbdc7e0d1	-0.09759677
192	0x3f137d54	0.5761311
193	0xbd6f7493	-0.058460783
194	0xbebba248	-0.36647248
195	0x3e399f8a	0.18127266
196	0xbe37c14c	-0.1794483
197	0xbec34af8	-0.38143134
198	0xbe868635	-0.26274267
199	0xbe6cbec0	-0.2311964
200	0xbef651ae	-0.48109192
201	0xbe61b2f3	-0.2204092
202	0xbe1d8ee1	-0.15386535
203	0xbe444e89	-0.19170584
204	0xbebb518b	-0.3658565
205	0xbf311a17	-0.69180435
206	0x3e594696	0.21218333
207	0x3e726ff8	0.23675525
208	0x3e27ab06	0.16373834
209	0xbe7206db	-0.23635428
210	0x3e724001	0.23657228
211	0xbe5754e1	-0.21028472
212	0xbda9548d	-0.0826808
213	0xbe1d33b0	-0.15351748
214	0xbea82515	-0.3284079
215	0xbe836ae3	-0.25667486
216	0xbcfe6689	-0.031054752
217	0xbde70fc0	-0.11282301
218	0x3db61b74	0.08891955
219	0xbd499c96	-0.049221598
220	0xbeca85bc	-0.39555156
221	0xbecf8cb2	-0.4053703
222	0x3da478b8	0.08030838
223	0xbf20561c	-0.6263139
224	0xbedb5cc4	-0.42844212
225	0xbf864f66	-1.049298
226	0xbeaa807b	-0.33301148
227	0x3df03d21	0.117304094
228	0xbf591295	-0.8479398
229	0x3eaa1803	0.33221444
230	0x3f8548fd	1.0412899
231	0xbf50beb3	-0.81540984
232	0x3f1d2742	0.6138803
233	0x3f887ce1	1.066311
234	0xbf56dee1	-0.83933836
235	0xbecc101a	-0.39856035
236	0xbfb14332	-1.3848631
237	0xbef95e34	-0.48704684
238	0xbcfe6487	-0.031053795
239	0x3df48f7f	0.11941432
240	0xbf9c7f43	-1.2226337
241	0xbf03bc79	-0.5145946
242	0x3d914b89	0.07094485
243	0xbe308e7b	-0.17241852
244	0xbe1a9a7a	-0.1509799
245	0x3eab09f5	0.33406034
246	0xbe80f804	-0.2518922
247	0xbd1b7077	-0.03794905
248	0x3ee9fe03	0.45701608
249	0xbdfc5412	-0.12320723
250	0xbed9085b	-0.42389187
251	0xbe224bde	-0.15849254
252	0xbeabdd01	-0.3356705
253	0xbebf9c77	-0.3742406
254	0xbef48076	-0.47754258
255	0xbe966191	-0.29371312

features.3.bias f4 [16]
0	0xbdebbb0e	-0.11510287
1	0x3df04d02	0.11733438
2	0xbdce5a1b	-0.1007578
3	0x3d818164	0.063235074
4	0xbc792328	-0.015206136
5	0x3af82011	0.0018930455
6	0xbde1327d	-0.10995958
7	0x3ddf4601	0.10902024
8	0xbda48654	-0.080334336
9	0xbced6afc	-0.028981678
10	0xbdfb5a47	-0.122730784
11	0xbeacbd5f	-0.3373823
12	0x3dc1ee4c	0.0946928
13	0xbf1c2d5b	-0.61006707
14	0x3ce92405	0.028459558
15	0xbe358047	-0.17724715

features.6.weight f4 [8, 16, 3, 3]
0	0xbe51615b	-0.20447294
1	0xbcc6800f	-0.024230985
2	0xbcfd94f7	-0.030954821
3	0xbd60bd03	-0.054867756
4	0x3e13d9bf	0.14438532
5	0x3d4aadae	0.04948204
6	0xbe0a28ea	-0.1349217
7	0x3d1d1950	0.038354218
8	0x3dae978a	0.085249975
9	0xbd8fd2d6	-0.07022636
10	0xbd7a1bdc	-0.061061725
11	0x3d88fa7b	0.066884
12	0xbce4ecbe	-0.027944919
13	0x3f08b212	0.53396714
14	0x3ec8e7e6	0.39239424
15	0xbdf631c4	-0.12021211
16	0x3e9ea13c	0.30982387
17	0x3ed480d5	0.4150454
18	0xbd168981	-0.036752228
19	0xbc9c09fa	-0.019047726
20	0x3c441e38	0.011970095
21	0x3db2133e	0.086950764
22	0xbe44e4f9	-0.19227971
23	0x3dcb2f81	0.0992117
24	0x3df5f384	0.120093375
25	0x3ce2c38d	0.027681137
26	0xbcdd1754	-0.026988663
27	0x3c9ea982	0.019367937
28	0xbe4bec2e	-0.19914314
29	0xbe2ee5b4	-0.17079812
30	0x3c5b8b77	0.01339995
31	0x3dece719	0.11567516
32	0x3cb48b19	0.022038983
33	0x3de444e8	0.11145955
34	0x3e64c1cf	0.22339557
35	0x3e98f95d	0.2987775
36	0x3d721943	0.059106123
37	0x3dcc1ff1	0.0996703
38	0x3dc991e0	0.098422766
39	0x3dc3f90c	0.09568986
40	0x3e8d234b	0.2756599
41	0x3eb325d2	0.34989792
42	0x3e38156b	0.1797692
43	0x3ebbf171	0.36707643
44	0x3ec8151f	0.39078614
45	0x3cd8225b	0.02638357
46	0xbdf5cf80	-0.12002468
47	0xbdebc720	-0.115125895
48	0xbe884fde	-0.26623434
49	0xbf4ccab9	-0.7999683
50	0xbfa31ecb	-1.2743772
51	0x3d488366	0.048953436
52	0xbea8aaed	-0.32942906
53	0xbf43b810	-0.7645273
54	0x3e927621	0.2860575
55	0xbd657c56	-0.05602678
56	0x3e97deda	0.2966221
57	0xbeb60edf	-0.3555822
58	0xbedbde4a	-0.4294303
59	0xbe84f336	-0.25966805
60	0x3e25992f	0.16171716
61	0xbdb49167	-0.08816796
62	0x3d8124ed	0.06305871
63	0x3db78a1a	0.08961888
64	0xbe110eb8	-0.14165771
65	0xbe83e534	-0.25760806
66	0xbd9e3651	-0.07725204
67	0xbf0da731	-0.5533324
68	0xbec4d58f	-0.38444182
69	0xbb8ca755	-0.0042924085
70	0xbe533a65	-0.20627744
71	0xbebef9cc	-0.37299955
72	0xbdf413ea	-0.11917861
73	0xbd158976	-0.036508046
74	0xbe0c1afc	-0.13682169
75	0xbcd791de	-0.026314672
76	0xbd7506a7	-0.059820797
77	0x3dd7a446	0.105293795
78	0xbc80390a	-0.015652198
79	0x3db32e52	0.08749069
80	0x3da1d77a	0.07902427
81	0x3e79d8da	0.24399129
82	0x3dae0072	0.08496179
83	0xbc936727	-0.017993523
84	0xbe870416	-0.26370305
85	0xbe8a1c5d	-0.26974764
86	0xbdffa6ac	-0.12482962
87	0x3c816146	0.015793454
88	0xbef1415c	-0.47120178
89	0xbd754bef	-0.05988687
90	0x3b8f5581	0.0043742065
91	0xbdf0f7e3	-0.11766031
92	0xbe175c80	-0.1478138
93	0x3d9853a9	0.07437832
94	0x3da0e08b	0.07855328
95	0xbe0fcaa3	-0.14042144
96	0x3d7a92ed	0.061175276
97	0xbce04276	-0.027375441
98	0x3ce01111	0.027351888
99	0xbee86136	-0.45386666
100	0xbe52a5b3	-0.20571022
101	0x3eb77d8b	0.3583797
102	0xbedf56bd	-0.43620864
103	0x3e941559	0.28922537
104	0x3e0b7cef	0.13621877
105	0xbeae3f8e	-0.34032863
106	0x3d9d5929	0.076830216
107	0x3c009052	0.007846909
108	0xbd780e5f	-0.06056058
109	0x3eef3395	0.4671904
110	0x3e668439	0.22511376
111	0xbe4d5889	-0.20053305
112	0x3e879b3e	0.26485628
113	0x3e9af77f	0.3026695
114	0xbce54dfd	-0.02799129
115	0x3dee534b	0.116369806
116	0xbe7f3f94	-0.24926597
117	0xbebaffcc	-0.36523283
118	0xbeb6b23e	-0.35682863
119	0xbd933fac	-0.07189879
120	0xbee5bbb9	-0.44869784
121	0xbd1aea78	-0.037821263
122	0x3dac22b8	0.084050596
123	0xbdcc8078	-0.09985441
124	0xbd9b4bff	-0.075828545
125	0x3cbe3586	0.023218881
126	0xbdb02b13	-0.08601966
127	0x3d37a0d0	0.044831097
128	0xbe0044d0	-0.1252625
129	0x3cf8ec70	0.03038618
130	0x3d26c595	0.040715773
131	0x3e88fc00	0.2675476
132	0x3cc404ff	0.023928164
133	0x3e1137d1	0.14181449
134	0x3e8af298	0.2713821
135	0xbd7a9a78	-0.06118247
136	0x3e87dc1b	0.26535115
137	0x3e63f00d	0.22259541
138	0x3e3c28e3	0.18374972
139	0x3edcaba8	0.43099713
140	0xbb9e0f37	-0.004823591
141	0xbc5f3c92	-0.013625281
142	0xbd13b5e7	-0.036062147
143	0x3e08953e	0.13338181
144	0x3d965ee3	0.07342317
145	0xbe7bac79	-0.24577512
146	0x3e0898af	0.13339494
147	0xbdab3b2d	-0.08360896
148	0x3ce38105	0.027771482
149	0x3e076739	0.1322297
150	0xbe1851f6	-0.14875016
151	0x3d7093ba	0.058734633
152	0xbc5b62ae	-0.013390226
153	0x3dc7b7a1	0.09751821
154	0xbce04327	-0.02737577
155	0xbe8aee89	-0.27135113
156	0xbc4bfc10	-0.012450233
157	0x3d22340d	0.03960042
158	0xbdd1b1f7	-0.10239022
159	0xbe45d03e	-0.1931772
160	0xbdc9b830	-0.09849584
161	0x3da38f30	0.07986295
162	0x3cd67ab4	0.026181556
163	0x3cb954d9	0.022623466
164	0x3d0c3f15	0.034239847
165	0xbe2cb19b	-0.16864626
166	0xbe1a23ee	-0.15052769
167	0xbaf27164	-0.0018496928
168	0x3d52d276	0.051470242
169	0x3e1087ff	0.14114378
170	0x3e2b7c46	0.16746625
171	0xbd49d4f6	-0.04927536
172	0xbd1d7c98	-0.0384489
173	0xbdd0c5ba	-0.10193963
174	0xbe274e9d	-0.16338582
175	0x3bee0a47	0.0072644087
176	0xbd496d6a	-0.04917661
177	0x3dfe1876	0.12407009
178	0xbdcb17e4	-0.09916666
179	0xbdffe90d	-0.12495623
180	0xbe112946	-0.14175901
181	0xbda7b598	-0.08188933
182	0x3dc9d92e	0.09855877
183	0xbe07abf2	-0.13249186
184	0x3d9ecae2	0.077535406
185	0xbac2f042	-0.0014872628
186	0xbcacc318	-0.021089122
187	0xbd311ca3	-0.0432402
188	0x3d4fd760	0.050742507
189	0xbd9e288d	-0.07722578
190	0xbe6df4ca	-0.23237911
191	0xbd87b32f	-0.066259734
192	0xbe6dcd85	-0.2322293
193	0x3e88f73b	0.26751122
194	0x3e5cfae2	0.21580079
195	0xbe2d62b5	-0.16932185
196	0x3c07009d	0.008239892
197	0x3d2f8194	0.042848185
198	0xbeb58de7	-0.35459825
199	0xbe418b41	-0.18900777
200	0x3e75812e	0.2397506
201	0xbe3e945e	-0.18611285
202	0xbd7ec485	-0.062199134
203	0x3eabdb33	0.33565673
204	0xbd86c267	-0.06580048
205	0x3ed68cd3	0.41904315
206	0x3e8dca0f	0.2769322
207	0xbdd5702e	-0.10421787
208	0x3e0a9d85	0.13536651
209	0xbe96c5c8	-0.2944777
210	0x3b773a6c	0.003772403
211	0xbd483808	-0.04888156
212	0x3d44ddb4	0.048062995
213	0xbd97944f	-0.074013345
214	0x3e54b938	0.2077378
215	0x3e3da56c	0.18520135
216	0x3c44d8c4	0.012014572
217	0x3de31e64	0.11089781
218	0xbd547bac	-0.051875755
219	0x3d813ece	0.06310807
220	0x3d3e71a6	0.046495102
221	0x3d2f6705	0.042822856
222	0x3dd4129a	0.103551105
223	0xbdc7d231	-0.09756888
224	0xbe030052	-0.12793091
225	0x3edcab68	0.43099523
226	0x3e84adc5	0.25913826
227	0x3e818efa	0.25304395
228	0x3e9e6fb3	0.30944595
229	0x3e9f51d3	0.31117114
230	0x3e1c70c7	0.15277396
231	0x3ecb17b2	0.39666516
232	0xbd05345e	-0.032520644
233	0x3f0c42ca	0.5478941
234	0xbe907c14	-0.28219664
235	0xbdb0b26c	-0.08627781
236	0x3e64b608	0.22335064
237	0xbe1dc3aa	-0.15406671
238	0x3c946822	0.01811606
239	0x3d16f083	0.036850464
240	0xbe17d976	-0.14829049
241	0xbe1221e0	-0.14270735
242	0xbd848193	-0.06470027
243	0xbd94a0be	-0.07257222
244	0xbd4de1bb	-0.0502641
245	0xbd8d0707	-0.06886106
246	0x3e133649	0.14376177
247	0x3ea765d8	0.32694888
248	0x3d9a0e4c	0.07522258
249	0x3df9c64b	0.121960245
250	0x3e2824a8	0.16420233
251	0x3e827495	0.2547957
252	0x3e5ca151	0.21545912
253	0x3e44f189	0.19232763
254	0x3e2d2fe3	0.16912799
255	0x3e99f397	0.30068657

features.6.bias f4 [8]
0	0x3ec03f16	0.3754813
1	0xbefd8bcc	-0.4952072
2	0x3eece519	0.46268538
3	0x3eab7810	0.33490038
4	0x3def8e6d	0.116970874
5	0xbecc033e	-0.39846224
6	0xbe935102	-0.28772742
7	0xbf02764b	-0.5096175

classifier.0.weight f4 [128, 1568]
0	0x3db08ec3	0.0862098
1	0x3d68bf26	0.05682292
2	0xbdd27efe	-0.10278128
3	0xbbda8e03	-0.006669761
4	0xbdfd1abb	-0.12358614
5	0xbd569074	-0.052383855
6	0xbde06a20	-0.10957742
7	0xbd6edbd6	-0.05831512
8	0xbdd5e069	-0.104431935
9	0xbbfb3b4f	-0.0076669822
10	0x3c8c494d	0.017124796
11	0xbdce36d4	-0.100690514
12	0xbc75c988	-0.015001662
13	0x3d8e46ef	0.06947123
14	0x3d797cce	0.06091004
15	0xbdc81bb2	-0.097709075
16	0xbd8aefa6	-0.067839906
17	0xbd91cfa2	-0.07119681
18	0xbd63b993	-0.0555969
19	0xbcfaca14	-0.030613936
20	0xbdcb528b	-0.09927853
21	0xbdd808f1	-0.105485804
22	0xbe3b4069	-0.1828629
23	0xbc2973e6	-0.010342574
24	0xbd233f80	-0.03985548
25	0xbd9fca8c	-0.078023046
26	0xbd63f5e7	-0.055654433
27	0xbc64c2d1	-0.0139624635
28	0xbc07f802	-0.008298876
29	0x3c193a8a	0.009352336
30	0xbd9d0e49	-0.0766874
31	0xbd2a8e96	-0.041639887
32	0xbd4953d4	-0.04915221
33	0xbaf4f2fa	-0.0018688135
34	0xbca330fa	-0.019920815
35	0xbc1b0baf	-0.009463235
36	0xbdf500ca	-0.11963041
37	0xbe0b0124	-0.13574654
38	0xbd91dc74	-0.07122126
39	0xbd56e060	-0.052460074
40	0xbe0b87a6	-0.13625965
41	0xbccd0a3c	-0.025029294
42	0xbdc1afcb	-0.09457358
43	0xbddb9f6d	-0.107237674
44	0x3d0d4f27	0.034499314
45	0x3d2366d8	0.039893
46	0x3d3f15b1	0.046651546
47	0x3bd5a249	0.00651959
48	0x3ca4603c	0.02006542
49	0xbd62d1ee	-0.055375986
50	0xbdafe0a2	-0.08587767
51	0xbd8bbcf5	-0.0682315
52	0xbd7a1144	-0.061051622
53	0xbd57f986	-0.0527282
54	0xbd0bce41	-0.034132246
55	0xbd8a159d	-0.06742404
56	0xbb02effa	-0.0019979463
57	0xbd5850ad	-0.052811313
58	0xbdcd3090	-0.10019028
59	0xbbb964bd	-0.005657761
60	0xbcdfd052	-0.027321015
61	0xbc4a3521	-0.0123417685
62	0x3ceb411b	0.028717568
63	0xbcd7d723	-0.026347702
64	0xbd09f484	-0.033680454
65	0xbe0284a9	-0.12745918
66	0xbd9fc958	-0.07802075
67	0xbc53f74b	-0.012937377
68	0xbd896848	-0.06709343
69	0xbca15b0b	-0.019696733
70	0xbdb12e19	-0.086513706
71	0x3b792fe2	0.0038022925
72	0xbdbfd8bd	-0.093675114
73	0x3a164119	0.0005731746
74	0x3d223e7e	0.03961038
75	0x3dac2ff9	0.084075876
76	0x3df0b6f9	0.11753649
77	0x3b83daa8	0.0040238686
78	0xbbca5969	-0.0061752093
79	0x3d23038d	0.03979831
80	0x3c81201a	0.015762378
81	0xbe0159be	-0.1263189
82	0xbd8d8514	-0.06910148
83	0x3bc4e1e2	0.0060083726
84	0xbbd93479	-0.0066285697
85	0xbd5d2328	-0.053988606
86	0xbd7aa153	-0.061189007
87	0xbaeec700	-0.0018217266
88	0x3d57e86b	0.052711885
89	0x3dd317d8	0.10307282
90	0x3dc70d02	0.09719278
91	0x3e054c05	0.1301728
92	0x3cf5e1b1	0.030014845
93	0x3c3e1cf0	0.011603579
94	0xbdade58c	-0.08491048
95	0xbe0fa988	-0.14029515
96	0xbdaefb91	-0.08544076
97	0xbe06f851	-0.13180663
98	0xbdb2446b	-0.08704456
99	0xbdd5d942	-0.10441829
100	0xbcade3dc	-0.021226816
101	0x3cc64199	0.024201201
102	0x3ceb5084	0.028724916
103	0x3df457d2	0.11930813
104	0x3e05ece8	0.13078654
105	0x3e0c051a	0.13673821
106	0x3e2275d1	0.15865256
107	0x3d63a128	0.055573612
108	0x3d689e48	0.056791574
109	0xbdcff216	-0.10153596
110	0xbdb29729	-0.08720238
111	0xbe106ea2	-0.14104703
112	0xbcaf43a7	-0.021394564
113	0x3c727557	0.014798484
114	0xbc104b40	-0.0088070035
115	0x3ccae7d8	0.024768755
116	0x3ce9ad64	0.028525062
117	0x3d0db0c2	0.034592398
118	0x3d9a9821	0.075485475
119	0x3df0626b	0.11737522
120	0x3db794e6	0.08963947
121	0xbb6c175c	-0.0036024665
122	0xbd74e2b0	-0.0597865
123	0xbd0d22df	-0.034457084
124	0xbdc12732	-0.09431304
125	0xbdbd1216	-0.09231965
126	0xbe093e5f	-0.13402699
127	0xbdeb78de	-0.11497663
128	0xbccb18ad	-0.02479204
129	0x3cca61ff	0.024704931
130	0x3c8cad0d	0.01717236
131	0x3dd8b130	0.10580671
132	0x3df7338f	0.12070381
133	0x3d3020dd	0.04300009
134	0x3c7794d1	0.015111164
135	0xbc1584ec	-0.009125929
136	0xbddee6f2	-0.10883893
137	0xbe165df5	-0.1468428
138	0xbdce8356	-0.10083644
139	0xbcf23c39	-0.029569732
140	0xbcaa6c11	-0.020803483
141	0xbe008c9f	-0.12553643
142	0xbd6ea1a7	-0.058259632
143	0xbc4c8973	-0.012483942
144	0xbce654fc	-0.028116696
145	0x3ce10570	0.027468413
146	0xbdd3b9e1	-0.10338188
147	0xbd4a8feb	-0.049453657
148	0xbdb836ff	-0.08994865
149	0xbd90c8b9	-0.07069535
150	0xbe466e2f	-0.19377969
151	0xbd0e451a	-0.03473387
152	0xbdc4923b	-0.09598204
153	0xbe03ed76	-0.12883553
154	0xbdda4c5f	-0.10659098
155	0xbd8bbe7b	-0.06823441
156	0xbdd6d2bf	-0.104894154
157	0xbdd18a83	-0.10231497
158	0xbd874fb2	-0.066069975
159	0xbbf5cb71	-0.0075010587
160	0xbdb924f0	-0.090402484
161	0xbda12dfa	-0.078700975
162	0xbd1c0755	-0.03809293
163	0xbe21bb10	-0.15794015
164	0xbddb98fa	-0.10722537
165	0xbde2578e	-0.11051856
166	0x3d68249d	0.056675542
167	0xba51e7da	-0.0008007266
168	0x3d00c5d3	0.03143866
169	0x3b96651c	0.00458969
170	0x3b68ce75	0.0035523449
171	0xbe094f21	-0.13409092
172	0xbe06f0ae	-0.1317775
173	0xbe07e1e8	-0.1326977
174	0xbd8669f4	-0.06563178
175	0xbd91fd57	-0.07128399
176	0xbe37bda3	-0.17943434
177	0xbddad352	-0.106848374
178	0xbe638051	-0.22216918
179	0xbe03510a	-0.12823883
180	0xbd0bf8c1	-0.034172777
181	0x3c89859e	0.016787346
182	0x3dd0b786	0.10191254
183	0xbc8c8fad	-0.017158354
184	0xbe2c7a61	-0.16843559
185	0xbd98a048	-0.07452446
186	0xbe025d23	-0.12730841
187	0xbde67014	-0.11251846
188	0xbe0082fc	-0.12549967
189	0xbdeadde9	-0.11468107
190	0xbe0be8d4	-0.13663036
191	0xbd869147	-0.06570678
192	0xbcd8aaaa	-0.026448566
193	0xbd809d34	-0.06279984
194	0x3ba5d31c	0.0050605666
195	0x3d975028	0.073883355
196	0x3d28bb33	0.041194152
197	0xbda365fd	-0.07978437
198	0xbc92d4b6	-0.017923694
199	0xbc785be3	-0.015158626
200	0x3ccaf1f7	0.024773581
201	0xbd12d1df	-0.03584468
202	0x3db9d5f4	0.090740114
203	0x3df53f70	0.1197499
204	0xbc939b6e	-0.01801845
205	0xbb252931	-0.0025201554
206	0x3d9e5caa	0.07732518
207	0x3d89a200	0.06720352
208	0x3e160048	0.14648545
209	0x3de31375	0.110876955
210	0x3c9d7ecd	0.019225502
211	0xbd10cee6	-0.035353564
212	0x3be84ba4	0.007089095
213	0x3d3cd73b	0.046103697
214	0xbcb2ab12	-0.021810088
215	0xbca70c74	-0.02039168
216	0x3db2643f	0.08710527
217	0x3d37194b	0.044701856
218	0xbd6aabfb	-0.05729292
219	0xbcbcec1e	-0.023061808
220	0xbd278a5d	-0.040903438
221	0xbd2732bd	-0.040819872
222	0x3d339b6e	0.0438494
223	0x3c259e72	0.010108577
224	0xbd8f427c	-0.06995103
225	0xbba66d67	-0.0050789597
226	0x3d84f23c	0.06491515
227	0xbce36aa2	-0.027760807
228	0x3d3d2887	0.046181228
229	0xbce4a32d	-0.02790984
230	0x3c310458	0.010804258
231	0xbcfd8761	-0.030948343
232	0xbccd2114	-0.025040187
233	0x3b7f9b08	0.0039002318
234	0x3d1b7647	0.037954595
235	0x3bb31814	0.005465517
236	0x3dcfad74	0.101405054
237	0x3dce3891	0.10069383
238	0xbc8092b1	-0.015694948
239	0xbd3b781d	-0.045768846
240	0x3c58aa72	0.013224231
241	0xbd199d6b	-0.03750364
242	0xbd52c07c	-0.0514531
243	0x3d10d2bc	0.035357222
244	0x3c925829	0.017864304
245	0xbc99637c	-0.018724196
246	0x3d038ec3	0.03211857
247	0x3c4b2fef	0.012401565
248	0xbc5e3b41	-0.013563932
249	0x3d2b42db	0.041811805
250	0x3c5a613e	0.013328848
251	0x3dc8bd68	0.098017514
252	0x3c856a42	0.01628602
253	0xbc71b09e	-0.0147515815
254	0x3d457d1e	0.048215024
255	0xbd9d1141	-0.076693065

classifier.0.bias f4 [128]
0	0x3dc3e0d3	0.09564366
1	0x3d867b88	0.065665305
2	0x3dd2ddc4	0.10296205
3	0x3c32411f	0.010879784
4	0xbe1e6c65	-0.15471037
5	0x3c63a2f8	0.013893835
6	0xbe1ba84f	-0.15200923
7	0x3e54812a	0.20752397
8	0x3c4c3bde	0.012465445
9	0xbd9c9713	-0.076460026
10	0x3c38258a	0.011239419
11	0x3e2a8d07	0.1665536
12	0x3cb2be00	0.021819115
13	0xbe15cd66	-0.14629135
14	0xbc993054	-0.018699802
15	0xbca82b59	-0.020528482
16	0xbd0a0095	-0.03369196
17	0x3e066227	0.1312338
18	0x3d9d8482	0.076912895
19	0x3d425a97	0.047449674
20	0x3d810d4f	0.063013665
21	0x3c7f9c99	0.015601301
22	0xbdcfe4d3	-0.10151067
23	0xbc2ed99c	-0.010671999
24	0xbc1094a0	-0.008824497
25	0x3d7113e6	0.058856867
26	0x3e1d8d17	0.15385853
27	0x3e125428	0.14289916
28	0x3c17dfaf	0.009269639
29	0x3c31de37	0.010856203
30	0x3ddfd953	0.10930123
31	0x3cfc2616	0.03077988
32	0xbd4f7b93	-0.05065496
33	0xbc78b40f	-0.015179648
34	0xbe057eed	-0.130367
35	0xbe3a53e2	-0.18196061
36	0xbcfb392f	-0.030666916
37	0xbde0f598	-0.10984343
38	0x3d0e0694	0.034674242
39	0x3dc4c9af	0.096087806
40	0x3de1bd84	0.11022475
41	0xbc9b3a61	-0.018948736
42	0xbd0fccba	-0.03510735
43	0x3d11ab5c	0.03556381
44	0x3e2637e6	0.16232261
45	0x3e174881	0.14773752
46	0x3d61cf5d	0.055129398
47	0xbdc3d044	-0.09561208
48	0xbd639686	-0.055563472
49	0x3d9a7d18	0.07543391
50	0x3e60331b	0.21894495
51	0xbbc39e30	-0.005969785
52	0xbd13510f	-0.035965975
53	0x3bce1308	0.00628889
54	0x3e4d7d3a	0.20067301
55	0x3da66d2d	0.081262924
56	0xbca48489	-0.020082729
57	0x3da0be36	0.0784878
58	0xbcf1a3f7	-0.02949713
59	0xbdbd9cdf	-0.092584364
60	0xbe25b5d7	-0.16182648
61	0x3df80e9e	0.12112163
62	0x3cc5441a	0.024080325
63	0x3e71c9bc	0.23612112
64	0x3e3502ae	0.17676803
65	0xbd811e80	-0.063046455
66	0x3c4a6002	0.012351992
67	0x3dbfe41f	0.093696825
68	0x3e18d92d	0.14926596
69	0xbcec9837	-0.028881175
70	0x3c9252a3	0.01786167
71	0xbe6020a6	-0.21887454
72	0xbcd03fec	-0.025421105
73	0xbcee425d	-0.029084379
74	0xbcb0c84a	-0.02157988
75	0x3a072deb	0.00051566836
76	0x3db39d9a	0.087702945
77	0x3d690802	0.056892402
78	0x3d57244e	0.052524857
79	0xbe0aaab7	-0.13541685
80	0x3d818b84	0.063254386
81	0x3d930b3b	0.071798764
82	0xbcca47dd	-0.02469247
83	0xbba312c3	-0.004976602
84	0xbc732d60	-0.014842361
85	0x3ce27079	0.027641522
86	0xbc9c1340	-0.019052148
87	0xbd95cebc	-0.07314822
88	0xbc4f2004	-0.01264191
89	0xbd8aae93	-0.06771579
90	0xbc1a5f8b	-0.009422193
91	0xbb8356cc	-0.0040081497
92	0x3cdc23e6	0.026872586
93	0x3e09ce28	0.13457549
94	0x3df01fce	0.11724816
95	0xbc230ba3	-0.009951505
96	0x3d02698e	0.031838946
97	0x3dab749a	0.08371849
98	0x3cb100af	0.021606771
99	0xbca18275	-0.019715527
100	0xbe18a63a	-0.1490716
101	0x3c08428d	0.008316648
102	0xbe00076f	-0.12502836
103	0x3c47a42c	0.012185138
104	0xbd2f1529	-0.04274479
105	0x3cedfad6	0.029050272
106	0xbc8a92c6	-0.01691569
107	0x3cebae41	0.028769614
108	0xbd8d4369	-0.06897623
109	0xbe59cbd2	-0.21269158
110	0xbdd929d2	-0.1060368
111	0xbd007272	-0.031359144
112	0x3d051085	0.032486457
113	0x3e1ede33	0.1551445
114	0xbcc5a17d	-0.024124855
115	0xbd7e1a60	-0.062036872
116	0xbbe992ce	-0.007128096
117	0xbdd5130b	-0.10404023
118	0x3d9816b3	0.074262045
119	0x3da3ed6f	0.08004271
120	0x3d31d02e	0.043411426
121	0xbd2e864d	-0.042608548
122	0xbcfe8485	-0.03106905
123	0xbd14c128	-0.03631702
124	0xbba4d5e9	-0.005030383
125	0xbdbc1398	-0.09183425
126	0x3c49a35b	0.012307013
127	0x3d0735e2	0.03301037

classifier.3.weight f4 [10, 128]
0	0xbe1331ae	-0.1437442
1	0x3ded32f2	0.11581983
2	0x3c178535	0.009248068
3	0xbe949f96	-0.29028004
4	0x3c50655a	0.012719477
5	0x3dd7e516	0.105417415
6	0x3d62b970	0.05535263
7	0xbe8c70ab	-0.2742971
8	0xbda4af33	-0.08041229
9	0x3d0d0f1d	0.03443824
10	0xbe1fe122	-0.15613225
11	0x3dde7bdc	0.10863468
12	0x3d368e02	0.044569023
13	0x3ccba9ea	0.024861295
14	0x3d8d23c4	0.068915874
15	0xbe3fc1bd	-0.18726249
16	0x3e3f1357	0.18659721
17	0xbe04efe1	-0.12982132
18	0xbe1eba79	-0.15500821
19	0xbe5b1c52	-0.21397522
20	0x3e0a8042	0.13525489
21	0x3cb568e2	0.022144739
22	0x3ddbcacb	0.10732039
23	0xbd65e169	-0.05612317
24	0x3e1bf214	0.15229064
25	0xbe709db6	-0.23497662
26	0x3b8de472	0.0043302113
27	0xbd63fed8	-0.05566296
28	0x3b5c5d8d	0.0033625097
29	0xbe968e51	-0.29405454
30	0x3dc18a2f	0.094501846
31	0xbe0ac00b	-0.13549821
32	0x3d7b5502	0.061360367
33	0x3cce8894	0.02521161
34	0x3d892fe1	0.06698585
35	0x3dcf410f	0.10119831
36	0x3e2c343b	0.168168
37	0x3dba8452	0.09107269
38	0xbd5ad6bc	-0.053427443
39	0xbb4860af	-0.0030575206
40	0xbddd9c86	-0.1082087
41	0x3d0fe15d	0.035127033
42	0x3e215524	0.15755135
43	0x3e178c63	0.14799647
44	0x3ddacc01	0.10683442
45	0xbe240e48	-0.16021073
46	0xbe04ecd1	-0.12980963
47	0xbd22b0c6	-0.039719366
48	0xbdbdfe3a	-0.092770055
49	0xbd2d9dcd	-0.04238682
50	0xbd1893a5	-0.03725018
51	0x3df1fb2a	0.11815484
52	0x3e125124	0.14288765
53	0x3dece858	0.115677536
54	0x3d666424	0.056247845
55	0x3dfda809	0.12385566
56	0x3e24561e	0.16048476
57	0xbc73ad8d	-0.014872921
58	0x3dac0312	0.08399023
59	0x3e029f1d	0.1275601
60	0x3dc2ac59	0.09505529
61	0x3dc33f51	0.09533561
62	0x3e428726	0.18996868
63	0xbcaf186a	-0.021373946
64	0xbe3932fa	-0.18085852
65	0x3ac9678d	0.0015365944
66	0xbd6652b4	-0.056231216
67	0x3e2898a3	0.16464476
68	0x3acad3c7	0.0015474492
69	0xbe596198	-0.21228635
70	0x3bfc96a4	0.0077083874
71	0x3c3dc767	0.011583186
72	0xbe20c06a	-0.156984
73	0x3da67f7f	0.08129787
74	0x3e4bca84	0.19901472
75	0x3d5f0037	0.054443564
76	0xbe71c51f	-0.23610352
77	0x3d77274c	0.06034021
78	0x3d858581	0.065196045
79	0xbddd5090	-0.10806382
80	0xbe6a8ef8	-0.22906101
81	0xbe7a2d15	-0.2443126
82	0xbda5f373	-0.08103075
83	0xbca30d99	-0.019903945
84	0xbe473d7a	-0.19457045
85	0x3dca97c0	0.09892225
86	0xbc5899f3	-0.013220298
87	0xbdfa412d	-0.122194625
88	0xbe2b5eff	-0.16735457
89	0x3e1756e6	0.14779243
90	0x3d9e8e78	0.077420175
91	0x3dbebeb6	0.09313719
92	0xbdefa1d6	-0.1170079
93	0xbd939970	-0.07207
94	0xbdb5cb5c	-0.08876678
95	0x3cfe4cca	0.031042475
96	0x3e0ab4cb	0.1354553
97	0xbe69cb8c	-0.22831553
98	0xbd4fa758	-0.0506967
99	0x3d007fc4	0.031371847
100	0x3d800406	0.062507674
101	0x3c3803d7	0.011231384
102	0xbb480aa8	-0.003052393
103	0x3dab15e0	0.08353782
104	0xbc1420f6	-0.009041062
105	0x3dd221fd	0.10260389
106	0x3e067e56	0.13134131
107	0xbc32de2a	-0.010917226
108	0xbdd62fc9	-0.10458333
109	0xbd527ea8	-0.05139032
110	0x3dab5679	0.08366103
111	0xbce0eb75	-0.027456025
112	0xbd4da44d	-0.050205518
113	0x3d86de16	0.06585328
114	0x3d6e2a15	0.0581456
115	0x3cf0b7c8	0.029384509
116	0xbe51db7e	-0.20493886
117	0xbbf49da6	-0.007465082
118	0xbe82eeed	-0.2557291
119	0xbe2fdc67	-0.1717392
120	0xbe0d273f	-0.13784502
121	0xbd393737	-0.045218673
122	0xbdd6dcba	-0.10491319
123	0x3dc17ca0	0.094475985
124	0x3e3c5c9b	0.18394701
125	0xbe7bb7f2	-0.24581888
126	0x3c78d1f0	0.015186772
127	0xbd7aca9a	-0.061228372
128	0xbc82da38	-0.015973195
129	0x3d94d70f	0.07267582
130	0xbda0ac56	-0.078453705
131	0x3e32cabc	0.1746015
132	0xbe069e69	-0.13146366
133	0x3d932273	0.07184305
134	0xbea0c949	-0.31403568
135	0x3d2c2e75	0.042036492
136	0xbc9f3ce7	-0.01943822
137	0x3d05de50	0.032682717
138	0xbe7b6609	-0.24550642
139	0x3dd9cf31	0.10635222
140	0xbba4696c	-0.00501745
141	0x3da214ed	0.079141475
142	0xbdeb09fd	-0.114765145
143	0x3de2e22b	0.11078294
144	0xbe0d3e86	-0.13793382
145	0x3d7e2288	0.06204465
146	0x3e534752	0.20632675
147	0x3e18b3dc	0.14912361
148	0x3da1267f	0.07868671
149	0x3c9950ab	0.018715223
150	0x3d851c6c	0.06499562
151	0x3dca0281	0.09863759
152	0xbe3b61a5	-0.18298967
153	0x3e14c09a	0.14526597
154	0xbdcb01df	-0.09912466
155	0x3d722145	0.05911376
156	0xbdb4305e	-0.08798288
157	0xbda1aec9	-0.07894666
158	0xbe89e24f	-0.26930472
159	0x3e07f560	0.13277197
160	0xbe6847a4	-0.22683579
161	0x3e089a1b	0.13340037
162	0xbd7a312a	-0.061082043
163	0x3df0203c	0.11724898
164	0xbd717802	-0.05895234
165	0x3d5fda17	0.054651346
166	0xbe778448	-0.24171555
167	0x3e6cc33b	0.2312135
168	0x3d49abbb	0.04923604
169	0xbe162f53	-0.1466649
170	0xbd722e71	-0.05912632
171	0xbea7dab8	-0.32784057
172	0xbdf739ff	-0.12071609
173	0x3e05d650	0.13070035
174	0x3e13f0db	0.14447348
175	0xbe6aa230	-0.22913432
176	0xbe307667	-0.17232667
177	0x3e2267fe	0.15859982
178	0x3e7951af	0.24347566
179	0xbcdf93f4	-0.02729223
180	0xbe1b6f32	-0.15179136
181	0x3d745d23	0.059659135
182	0x3e04a146	0.12952146
183	0x3cec7ae8	0.0288672
184	0xbde33d0c	-0.11095628
185	0x3e01a0ad	0.12658949
186	0xbe40a9df	-0.188148
187	0x3d797dbc	0.060910925
188	0x3d2e84d6	0.04260715
189	0x3e0a9eed	0.13537188
190	0xbed66110	-0.41870928
191	0x3e386efa	0.18011084
192	0x3ea38f4c	0.31945264
193	0x3e0a1b2a	0.13486925
194	0xbe01f556	-0.12691244
195	0x3dbc1aef	0.09184825
196	0xbdfbb253	-0.12289872
197	0xbcce8826	-0.025211405
198	0x3d47b0c0	0.048752546
199	0xbdc27b63	-0.094961904
200	0xbb53be84	-0.00323096
201	0x3df153ab	0.117835365
202	0xbe21313b	-0.15741436
203	0xbd1826e0	-0.03714645
204	0x3e2e8d98	0.17046201
205	0x3dd7ff6f	0.10546767
206	0x3db2ac2f	0.08724248
207	0x3e189c13	0.14903288
208	0x3db20fab	0.08694395
209	0xbd7b31a1	-0.061326627
210	0xbe2c3cf3	-0.16820125
211	0x3e01da78	0.12680995
212	0xbd76bc84	-0.060238376
213	0x3dda1fbf	0.10650586
214	0xbc8e287a	-0.017353285
215	0xbe99b3e4	-0.30020058
216	0x3defa610	0.11701596
217	0xbe00e766	-0.12588271
218	0x3ccf6543	0.02531684
219	0xbe1e34a7	-0.15449773
220	0x3d279c78	0.040920705
221	0x3ddb6517	0.10712641
222	0xbd98b24f	-0.07455885
223	0xbe2ea3bd	-0.17054649
224	0x3e3a95ec	0.18221253
225	0x3e769bf0	0.24082923
226	0x3e2bcca3	0.16777281
227	0xbe1400a8	-0.14453375
228	0x3dbfa953	0.09358468
229	0xbda78228	-0.08179122
230	0xbdc7a915	-0.09749047
231	0xbd9b03e5	-0.07569102
232	0x3d14ec9d	0.036358465
233	0xbdd5f5b3	-0.10447254
234	0xbe8fff26	-0.2812435
235	0x3d6fffd7	0.058593597
236	0x3d4f1575	0.050557572
237	0xba25337c	-0.0006301922
238	0x3e191b51	0.14951827
239	0xbdc2ea9c	-0.095174044
240	0x3c90c551	0.017672213
241	0xbe406ca6	-0.18791446
242	0xbe197ff5	-0.14990218
243	0x3e19709c	0.14984363
244	0x3df16555	0.11786906
245	0xbda3fa90	-0.080067754
246	0x3bde280c	0.0067796763
247	0x3d8c54c1	0.06852103
248	0xbda5ee9f	-0.08102154
249	0xbe4ad86e	-0.19809124
250	0x3e0907c0	0.13381863
251	0xbc858396	-0.016298097
252	0xbdd6a222	-0.10480143
253	0xbbe4c6e5	-0.006981718
254	0xbdb5f844	-0.088852435
255	0xbd669640	-0.056295633

classifier.3.bias f4 [10]
0	0x3dce487c	0.10072419
1	0x3e505d19	0.20348014
2	0xbdf7d824	-0.121017724
3	0x3db29345	0.08719496
4	0x3d243d2a	0.040097393
5	0xbe081d54	-0.13292438
6	0xbddbd215	-0.10733429
7	0xbd084968	-0.03327313
8	0x3da2f55b	0.07956954
9	0xbe3f3564	-0.1867271
