Tomato_pretrained_cnn/saved_ckpt/best_model_epoch_22.pt (torch, 839456 bytes, 10 tensors)

features.0.weight f4 [32, 3, 3, 3]
000000 3e c3 47 3e 5b cb e4 bc 94 44 fc 3d 81 c3 0d 3e
       0.19508073 -0.027928999 0.12317768 0.1384411
000010 e9 77 90 be 96 48 1b bf 9d d4 a7 3d 33 e6 f5 be
       -0.28216484 -0.6065763 0.0819485 -0.4802719
000020 d1 f6 88 bf fd 8a 9d 3e 34 b2 69 3e b7 58 6e 3e
       -1.0700322 0.30770102 0.22821885 0.2327603
000030 2b 53 4d 3e ea fa d4 bd d3 0e c2 be d2 ce b0 3d
       0.20051257 -0.103994206 -0.37901935 0.08633198
000040 19 7a c8 be 22 6a 4c bf cb 66 d4 3e aa 05 aa 3e
       -0.39155653 -0.79849446 0.41484675 0.33207446
000050 52 1e 5d 3e cd d9 6b 3e 6d 90 02 3e 77 78 36 be
       0.21593598 0.23032303 0.12750407 -0.17819391
000060 fa 93 63 3e 6b a7 20 be 86 64 10 bf c5 ba a0 be
       0.22224417 -0.15688865 -0.56403387 -0.31392494
000070 f9 2b 28 be b0 47 d1 be 65 5a d6 bb a8 cc ae be
       -0.16423024 -0.40875006 -0.0065415376 -0.34140515
000080 e4 97 d3 bc 76 3b e4 3e a3 31 f2 3c 85 2c 23 bf
       -0.025829263 0.44576615 0.029564684 -0.63739806
000090 eb 3f 0b bf f8 dc 37 be 71 36 ab be 97 31 0b 3c
       -0.54394406 -0.17955387 -0.33439973 0.00849571
0000a0 45 23 80 be dc fa 38 be ad 3b e4 3e 0d f2 48 be
       -0.2502691 -0.18064445 0.4457678 -0.19623585
0000b0 24 3d 76 be 49 ac 45 bf 11 c8 5c bf 4e 62 61 bf
       -0.24046761 -0.7721601 -0.8624278 -0.88040626
0000c0 af 1d ee be ee 4b 81 bf 68 b7 8c bf de a5 ca 3e
       -0.46507022 -1.0101297 -1.0993471 0.39579672
0000d0 39 b7 11 bf fe e9 8f bf bf f2 23 3f b0 0b a1 3e
       -0.569202 -1.1243284 0.64042276 0.3145423
0000e0 b1 6b 47 3e 16 19 41 3e 16 1d 90 3e 84 c4 83 3e
       0.19474675 0.18857226 0.2814719 0.25735867
0000f0 7a 4c 98 3e c1 29 cd 3d 08 b7 3c 3e 3c a2 f8 3e
       0.29745847 0.100177296 0.18429196 0.48561275
000100 11 27 d4 be db 00 04 bf 6e 88 dd bd 4a f8 fa be
       -0.41436055 -0.51563805 -0.108170375 -0.49017555
000110 b0 a4 a4 be 89 e7 85 be 54 23 91 be db e6 a7 be
       -0.32156897 -0.2615321 -0.28347266 -0.32793316
000120 bc 43 59 be 0f 19 a1 bf 5c 08 a2 bf d5 18 bf be
       -0.21217245 -1.2585772 -1.2658801 -0.37323633
000130 e4 1b a4 bf 18 e9 93 bf 23 bf 93 be 7c 15 c8 bf
       -1.2821012 -1.155551 -0.28856763 -1.5631557
000140 63 f3 83 bf 72 fb d2 be 5e c9 9e be fc 02 57 be
       -1.0308651 -0.41207463 -0.31013006 -0.20997232
000150 1e 20 da be b7 67 9f be ab a6 49 be 3f e8 b0 be
       -0.42602628 -0.31133816 -0.19692485 -0.3455219
000160 80 f0 3e be c9 d8 47 bd 81 43 da 3e 84 da 09 3f
       -0.18646431 -0.048790727 0.42629626 0.53849053
000170 52 9b 16 3f 98 7c 15 3f b2 15 05 3f 28 84 1b 3f
       0.5883075 0.5839324 0.5198623 0.6074853
000180 2b d8 16 3f c3 b6 ef 3e 18 ce a2 3e 3b ed 91 be
       0.58923596 0.46819124 0.31797862 -0.28501305
000190 0d 00 db be 1e 8f 8e be be 4c 8e be 0b 73 97 be
       -0.42773476 -0.27843565 -0.27792925 -0.29579958
0001a0 7c 5d 59 be c6 4c 84 bd 4d 7d fa bd e6 d3 e6 bc
       -0.21227068 -0.06459956 -0.122309305 -0.028177213
0001b0 4d e9 83 3e a2 08 b6 3e 3d 40 cb 3e 18 99 ae 3e
       0.25763932 0.3555346 0.39697447 0.34101176
0001c0 db 1d f4 3e 0b a4 94 3e d8 ef 90 3e 25 94 74 3e
       0.47679028 0.29031405 0.28307986 0.23884638
0001d0 cb 68 68 3d 34 25 9e 3e b1 29 00 3e 3b 75 df 3e
       0.056740563 0.3088776 0.12515904 0.43644127
0001e0 24 17 dd 3c 6c b0 1a bd d1 23 a7 3d 1b aa ae bd
       0.026988573 -0.037765905 0.08161128 -0.08528539
0001f0 54 59 36 be 67 c9 6f be 9d b0 d6 be f7 a1 9c be
       -0.17807513 -0.23416673 -0.4193162 -0.3059232
000200 1e b0 30 be 08 b2 5d be 75 70 51 be c5 c9 03 be
       -0.17254683 -0.21649945 -0.20453055 -0.12869938
000210 df 45 a0 be 76 02 bb be fd 40 05 bf 69 af 1e bf
       -0.31303307 -0.36525315 -0.5205229 -0.61986405
000220 a2 93 35 be ce 96 9e 3e aa bb 20 be 69 87 b5 bd
       -0.17732099 0.3097443 -0.15696588 -0.08863718
000230 4e 63 9b 3e 43 4b 86 3d 3b 77 52 3e 8d 42 a9 3e
       0.303492 0.06557324 0.20553295 0.33058587
000240 d1 ef 11 bf 52 4f cd bd 4e 20 08 3e bd 7e 1a be
       -0.57006556 -0.10024895 0.13293573 -0.1508741
000250 68 8b 27 be 61 40 d4 3e 2f 9c 14 3e fb 38 a1 3e
       -0.16361773 0.41455367 0.14512704 0.31488785
000260 51 72 da 3e 97 9c 4f bf 3d 9f 99 be 3f d9 6d 3d
       0.42665341 -0.8109831 -0.30004302 0.05806851
000270 bb 03 09 bf 6b e4 5c be 8a 9c 91 3e 18 7d 96 3d
       -0.5352132 -0.2157151 0.28439742 0.073480785
000280 c9 c7 62 3e ba a0 b5 3e 4c 0d 3c be e2 98 81 be
       0.22146524 0.35474187 -0.18364447 -0.25311953
000290 f5 6d ea bd a9 9e 85 be 52 be c1 be 6d b2 54 3d
       -0.11446754 -0.2609761 -0.37840515 0.051927973
0002a0 19 26 69 be 4c 84 94 be 6a e2 59 be f1 38 46 be
       -0.2276844 -0.29007185 -0.21277776 -0.19357659
0002b0 0a 3c 94 bd 81 84 4c 3d 5c 6c 42 be e4 fd cd bd
       -0.07238014 0.049931053 -0.18986648 -0.100581914
0002c0 c9 d2 c2 3d f3 a9 04 be a3 21 8a be c3 3f cd bb
       0.0951286 -0.12955455 -0.26978788 -0.0062637045
0002d0 1f 05 dd bd 55 18 44 bd 5b a0 6f be d8 73 ec bc
       -0.107919924 -0.047874767 -0.23401015 -0.028863832
0002e0 35 bc 2d be 8b 0b 9e 3c 12 07 4c be ab 41 43 be
       -0.16966327 0.019292613 -0.19924572 -0.19068019
0002f0 5e e9 00 be 2a b8 f6 bd d1 91 23 3e a6 fa 54 be
       -0.12589023 -0.12046845 0.15973593 -0.2079874
000300 98 3e 1a be 8f 99 95 be 6e d8 4e bf 72 34 50 3d
       -0.1506294 -0.29218718 -0.80798995 0.050831266
000310 4a 2f d1 bd 9c 19 8a 3e b7 49 57 3e 6e da 8f 3e
       -0.10214098 0.26972663 0.21024214 0.28096336
000320 6b 45 62 be 57 40 da 3d 15 11 f9 bd 2d ed 11 bf
       -0.22096793 0.10656803 -0.12161461 -0.57002527
000330 c1 27 91 3d c7 bf 74 3e b4 bd f8 3e 8c ac 90 3e
       0.070876606 0.23901282 0.48582232 0.28256643
000340 d7 72 b1 3e a3 61 1c be 96 75 96 3e 94 80 f9 bd
       0.34657928 -0.1527162 0.29386586 -0.121827275
000350 b8 f2 3d bf 28 72 95 3e b5 3c 20 3e 6c 5e 79 3e
       -0.74198484 0.29188657 0.15648158 0.24352425
000360 36 78 38 3e 4e 4c 78 3d e9 e9 87 3d 43 54 5d 3e
       0.18014607 0.060619645 0.06636412 0.21614175
000370 ea 2f 9b 3c a9 22 13 3e f7 c9 86 3e 75 9f 19 3e
       0.018943746 0.1436869 0.26325962 0.15002234
000380 b9 c3 8a 3e 79 b3 91 be ab 53 c3 be 38 00 04 bf
       0.2710245 -0.2845724 -0.3814977 -0.51562834
000390 ea 08 b8 be 0b 2b 31 bf f7 f2 e3 be 46 f8 23 be
       -0.359443 -0.69206303 -0.44521305 -0.16012678
0003a0 72 cd 63 be b7 ad fb 3b a3 ae d6 3c d8 17 88 be
       -0.2224634 0.0076806205 0.02620632 -0.2658069
0003b0 ee 92 6d be ea 8d 1d be 92 8f 0c bf c2 12 d0 bd
       -0.2320058 -0.15386167 -0.5490657 -0.10159828
0003c0 c7 dd 29 3e c9 28 fc bd 02 61 66 bd 1b 1a c9 bf
       0.16588508 -0.12312467 -0.056244858 -1.5711092
0003d0 ef cd 80 3b 5c 3f d8 bd 9c 7a 9b bf cd b9 b6 bf
       0.003930799 -0.1055896 -1.2146792 -1.4275452
0003e0 90 c4 03 be 36 f7 0d c0 f7 15 c4 bf 2d 42 93 3d
       -0.12867951 -2.2182136 -1.5319203 0.071903564
0003f0 27 29 f1 bf 5d 85 c8 be 28 e4 a7 be 5c 04 b4 bf
       -1.8840684 -0.39164248 -0.32791257 -1.406383

features.0.bias f4 [32]
000000 ce cf 0f bd 5b 14 8e be 3e 7a 0e be 6b 02 92 be
       -0.035110287 -0.27749905 -0.13913819 -0.2851747
000010 0f 6b d6 bd 2f f2 80 be 35 ba 26 be a5 43 52 bc
       -0.104696386 -0.2518477 -0.1628197 -0.0128335105
000020 6f 85 23 3e f2 b9 ae 3e 19 27 d5 bc 07 56 e8 be
       0.1596887 0.3412624 -0.02601962 -0.45378134
000030 25 0e c0 be 4a 9d db be 9e 75 d4 bb d9 06 c2 be
       -0.3751079 -0.4289344 -0.0064837476 -0.3789585
000040 91 5e c6 3e 82 a7 40 be 3c 25 9a bc 83 a3 e8 be
       0.38744023 -0.18813899 -0.018816583 -0.4543725
000050 fa fb 6f bd 4f 16 69 bf 5a 73 0a bf 11 6e 79 be
       -0.058589913 -0.91049665 -0.5408226 -0.24358393
000060 ce 11 84 3d 08 df c8 bd b5 c3 af bd 88 dc 02 be
       0.064487085 -0.09808165 -0.0858225 -0.12779438
000070 81 c8 9d ba ff 22 77 be 37 77 07 be 2b a7 c8 be
       -0.0012037904 -0.24134444 -0.1322907 -0.3919004

features.3.weight f4 [16, 32, 3, 3]
000000 9e f1 e9 bd 70 03 e9 be c9 6b 65 be 4e c9 df be
       -0.11423038 -0.45510435 -0.22404398 -0.4370827
000010 e9 b8 ca be 56 5b 46 3c 7c 6f cc bd 66 49 12 3e
       -0.395942 0.012106737 -0.099822015 0.14285812
000020 5e 2a 20 3c 9b 97 29 3f c7 30 99 bd 57 56 a8 be
       0.009775726 0.66246957 -0.07480007 -0.32878372
000030 c8 8c 0c be 25 6f 05 3f 23 8c d4 3e d7 69 d2 3c
       -0.13725579 0.5212272 0.41513166 0.025685234
000040 bb 5a 82 3e 66 bd c7 3e a9 47 d0 bd 67 a4 6e 3d
       0.25459847 0.39011687 -0.10169918 0.058262255
000050 65 26 cc be 2a 0d bb be 62 26 7f be 18 f1 fd be
       -0.39873043 -0.3653348 -0.24916986 -0.49598002
000060 02 62 0c bf ee 71 00 bf 15 34 a2 3d e3 db 0d 3f
       -0.5483705 -0.5017384 0.0792009 0.55413646
000070 e8 34 07 3f 5b ce af 3e a2 c2 03 3f cd ba 99 3c
       0.52815104 0.34337124 0.5146886 0.018765831
000080 00 db af be 3f f6 fc 3e 1b 77 23 be 93 ec 57 bf
       -0.3434677 0.4940662 -0.15963404 -0.8434536
000090 67 61 77 bf 4e fc 18 bf 5b 58 21 bd 04 25 07 bf
       -0.96633 -0.59759986 -0.039390903 -0.52790856
0000a0 13 2d 7f 3e a9 98 05 3f 98 e1 f9 be c2 6f 14 3f
       0.24919538 0.52186066 -0.48804927 0.5798303
0000b0 98 51 85 3f 0d 4e 97 bd 41 ad 04 bd db 71 55 be
       1.0415525 -0.07387934 -0.03239179 -0.20844214
0000c0 e2 f7 81 bd 0b 65 c2 3d 20 93 5e bd 2c 17 e4 be
       -0.06346108 0.09491929 -0.054339528 -0.4454893
0000d0 82 e5 25 be cd 15 3e be cf 10 09 3e cd 4d ea bb
       -0.16200832 -0.18563004 0.13385318 -0.007150388
0000e0 20 7a 31 bd 2b 05 90 3e dc dd ef bd 27 57 03 be
       -0.043329358 0.28128943 -0.11712238 -0.12826215
0000f0 9b 89 be 3d cb eb 2c bd d7 98 11 be 21 9f d5 3e
       0.0930359 -0.042217057 -0.1421846 0.41722968
000100 5b 77 08 be 28 30 5c 3d df 7a 8d 3c 66 83 d0 be
       -0.1332678 0.053756863 0.017270504 -0.4072525
000110 c4 ab d1 bd a8 04 8c bd db 51 83 be a6 9c 9c be
       -0.1023784 -0.068368256 -0.25648388 -0.30588263
000120 3a fa 72 bf 8c d2 6a bf bd 00 c0 be a8 6c 81 bf
       -0.94913065 -0.9172752 -0.37500563 -1.0111284
000130 05 92 1f bf 81 95 82 be 91 30 8e bf ef 7a b3 be
       -0.62332183 -0.25504687 -1.1108571 -0.35054728
000140 e4 9c 84 3e 73 ae ab bf 3a 05 6f bf f7 85 38 be
       0.25900948 -1.3412613 -0.9336735 -0.18019854
000150 0b e0 a1 bf 42 74 37 be d7 35 4e 3e 37 50 c8 be
       -1.2646497 -0.17915443 0.20137726 -0.391237
000160 4d b6 6d be 71 e5 62 3e 79 8b 05 3e a8 04 60 be
       -0.23214073 0.22157837 0.13041486 -0.21876776
000170 08 e6 29 3e 65 ea 9a bd 61 0f f1 bd 5a 33 94 be
       0.16591656 -0.075642385 -0.117705114 -0.28945428
000180 9b 8c 44 3d f9 ff 38 bd fb af 1e be d7 a9 be bd
       0.047985654 -0.04516599 -0.15496819 -0.09309738
000190 9e 9c 98 bc 87 fe 97 bc 60 52 aa 3d 36 71 57 3d
       -0.018629368 -0.018553985 0.08316493 0.0525982
0001a0 5e 34 6a 3c 11 b8 84 3e 98 52 0c 3e e2 f7 78 3f
       0.014294712 0.25921682 0.13703382 0.9725324
0001b0 94 04 18 bf b0 14 13 bf 97 c6 15 bf 44 ca 45 3e
       -0.59381986 -0.5745344 -0.5850615 0.1931544
0001c0 fd 03 27 3e ac b2 4a 3e 87 f7 8c bd 50 68 fe bb
       0.16310115 0.1979472 -0.068831496 -0.0077639
0001d0 5f 78 94 3e 9e dd 7c be d7 31 12 bd a8 ee d2 3d
       0.28998086 -0.24693915 -0.035692062 0.10299426
0001e0 75 e9 06 3e f2 e7 4e 3e 22 57 9f 3e 6c 16 2e be
       0.13174994 0.20205668 0.31121165 -0.17000741
0001f0 93 fb 5a be 29 85 9a bd b2 29 f2 3d 54 ae 05 bc
       -0.2138503 -0.075449295 0.11824359 -0.008159239
000200 a0 c2 77 bc 5a 8c ae 3e 8e ba f6 bd 7b ad ae be
       -0.015122086 0.34091455 -0.12047301 -0.3411673
000210 cf 54 49 3e e1 37 34 bd 61 2e ee be 5e ad 09 3e
       0.19661258 -0.043998603 -0.4651976 0.1344504
000220 9f e1 dd 3d b7 44 b9 be ba 66 69 bc a7 27 02 3e
       0.108340494 -0.36185238 -0.014245683 0.12710439
000230 1f 03 4a bd 1d af 74 3e d2 e4 44 3e 09 44 9b 3d
       -0.049319383 0.23894925 0.19227913 0.07581336
000240 f6 4e 93 be 45 be 69 be fb a5 58 be 26 65 18 3f
       -0.2877118 -0.22826488 -0.21157067 0.5952934
000250 35 8d da 3e d5 7c 88 3e 07 41 60 3e f3 d0 f9 3c
       0.42685857 0.2665774 0.21899806 0.030495143
000260 8c f5 d2 3d cc 7e ad be 96 ea 73 be 04 55 44 be
       0.103007406 -0.338858 -0.23819956 -0.19173056
000270 71 66 ad be 81 40 7d bc 01 6a b7 3d 5c a4 ce be
       -0.3386722 -0.015457273 0.089557655 -0.4035977
000280 ab 20 e8 bd d9 61 8e 3e a6 21 bd bd 2b 69 49 3e
       -0.11334356 0.27809027 -0.092349336 0.19669025
000290 b5 43 77 3e 00 0f 45 3e f6 bc 71 bd df 21 40 3e
       0.24146922 0.19244003 -0.059018098 0.18762921
0002a0 08 66 9e 3d 94 44 9e be 7f 5a 29 bd 22 0c e6 3e
       0.07734305 -0.30911696 -0.04134607 0.44931132
0002b0 64 9e 07 3d b4 ba 10 3e 65 ef 32 3e 47 7d a4 bd
       0.033110037 0.14133722 0.17474134 -0.08031707
0002c0 74 c8 00 3e b9 a7 88 be a9 0d b9 bd 03 48 84 bd
       0.12576467 -0.26690462 -0.090358086 -0.06459048
0002d0 f3 06 62 bd c4 00 96 be 67 1e 93 be f8 52 8c 3d
       -0.05518241 -0.2929746 -0.28734133 0.068517625
0002e0 f4 84 24 3d d3 82 7e 3e 4a 27 0d 3e c4 cc 81 3e
       0.040165856 0.24854593 0.13784519 0.25351536
0002f0 e0 d5 ec 3e 60 8f a2 3e c1 d7 dd bd 2a ad c8 bd
       0.46256924 0.3175001 -0.108321674 -0.097986534
000300 b9 74 0c 3f 9a 8d 80 bd 9f 46 b7 be 54 1d 31 3e
       0.54865605 -0.06277008 -0.35796067 0.17296344
000310 9a 35 36 be 50 cc bc be 7d 63 8a be d0 fe 59 be
       -0.17793885 -0.36874628 -0.2702903 -0.2128861
000320 75 ee ec be 98 29 94 be f5 ad 4a be 24 69 32 be
       -0.46275678 -0.28937984 -0.19792922 -0.1742292
000330 a2 e7 b2 be 24 79 36 bf cd 74 2f 3e f8 6f 72 3e
       -0.34942347 -0.71278596 0.171344 0.23675525
000340 06 ab 27 3e db 06 72 be 01 40 72 3e e1 54 57 be
       0.16373834 -0.23635428 0.23657228 -0.21028472
000350 8d 54 a9 bd b0 33 1d be 15 25 a8 be e3 6a 83 be
       -0.0826808 -0.15351748 -0.3284079 -0.25667486
000360 4b 35 27 bd ef 5e be bd 5c 6e 83 3d 8e b3 61 bc
       -0.04082231 -0.09295451 0.06417534 -0.013775719
000370 7c 46 c2 be 49 d6 e9 be 12 03 bd 3d 33 a9 26 bf
       -0.379444 -0.456713 0.09229101 -0.6510193
000380 df 10 fb be b1 cb 85 bf 5d d4 aa be 96 3b eb 3d
       -0.4903631 -1.0452787 -0.33365145 0.114859745
000390 c5 69 57 bf 83 98 a9 3e 73 31 85 3f 92 e5 4e bf
       -0.84145766 0.3312417 1.0405716 -0.80819046
0003a0 fd 35 1d 3f ec 13 88 3f f6 7d 43 bf 7f 87 d0 be
       0.61410505 1.063108 -0.76364076 -0.40728375
0003b0 34 c2 ad bf 9f 0d e9 be 19 8e 0f bd 4e 30 d4 3d
       -1.3574891 -0.45518205 -0.035047624 0.10360776
0003c0 e8 e1 9f bf 88 3a 08 bf ed 51 6c 3d b5 0b 73 be
       -1.2490816 -0.5321431 0.057695318 -0.23734935
0003d0 f0 7d 82 be a3 ab 87 3e e8 65 a2 be ab fa d3 bd
       -0.25486708 0.26498136 -0.31718373 -0.103505455
0003e0 58 04 cc 3e 7e 2d 46 be cb 18 f2 be 32 6b 58 be
       0.39847064 -0.19353291 -0.4728454 -0.21134642
0003f0 b0 88 cb be fb c2 c1 be c2 f4 f6 be fb 93 a2 be
       -0.39752722 -0.3784407 -0.4823361 -0.31753525

features.3.bias f4 [16]
000000 13 30 06 be ea 28 ca 3d 1b 5a ce bd 84 c1 56 3d
       -0.13104276 0.09871085 -0.1007578 0.052430645
000010 f5 9d 98 bc c5 48 22 bc 3f 94 cf bd bc fa 05 3e
       -0.018630007 -0.009905045 -0.101356976 0.13083929
000020 54 86 a4 bd 6c 59 e7 bc 9f c0 00 be 6b 49 b0 be
       -0.080334336 -0.028240882 -0.12573479 -0.34431013
000030 8c 46 e7 3d 69 f3 1c bf f9 8a e8 3c 72 58 31 be
       0.112927526 -0.61308914 0.02838658 -0.17318895

features.6.weight f4 [8, 16, 3, 3]
000000 b1 4b 49 be 40 86 a7 bc d6 ab a3 bc eb 86 29 bd
       -0.1965778 -0.020449758 -0.019979399 -0.041388433
000010 b4 d9 18 3e b0 4f 29 3d 89 8e 05 be aa e8 fd 3c
       0.14926797 0.04133576 -0.13042654 0.030994732
000020 08 2f aa 3d 3f f6 e1 bd c3 f9 ae bd 18 87 46 3d
       0.08309752 -0.11033296 -0.08543732 0.04846868
000030 7b 60 4a bd d2 ec 09 3f 5a 84 d0 3e 84 fd 12 be
       -0.049408417 0.53876984 0.40725976 -0.14354521
000040 4b 10 9c 3e c1 20 d1 3e 81 89 16 bd fa 09 9c bc
       0.3048118 0.40845302 -0.036752228 -0.019047726
000050 38 1e 44 3c 3e 13 b2 3d f9 e4 44 be 81 2f cb 3d
       0.011970095 0.086950764 -0.19227971 0.0992117
000060 84 f3 f5 3d 8d c3 e2 3c 54 17 dd bc b1 b7 bd 3c
       0.120093375 0.027681137 -0.026988663 0.02315888
000070 48 36 4f be 1d 23 3a be b0 3a ff 3c 4f d3 f5 3d
       -0.2023555 -0.18177457 0.031155914 0.120031945
000080 59 03 b7 3b c0 81 07 3e 84 ae 74 3e a6 18 9a 3e
       0.005585116 0.1323309 0.23894697 0.3009693
000090 dd 8f aa 3d 21 bf 16 3e 5b 8e 04 3e 84 5b f7 3d
       0.08328221 0.14721347 0.1294493 0.12078002
0000a0 5e ca 9a 3e f3 68 cb 3e d5 7e 48 3e f9 3c c3 3e
       0.3023252 0.39728507 0.19579633 0.38132456
0000b0 b0 18 d0 3e b7 3e 88 3a 91 e7 06 be 51 f5 09 be
       0.40643835 0.0010394667 -0.13174273 -0.13472487
0000c0 2d 4f 8b be 49 2f 4e bf 37 11 a3 bf 66 8b 68 3d
       -0.27208844 -0.805409 -1.2739629 0.056773566
0000d0 1b 7c a9 be f6 23 45 bf ba c8 9c 3e 91 39 24 bd
       -0.33102497 -0.77008 0.30621892 -0.040093962
0000e0 50 0b 9b 3e 95 4b ab be 20 1d dc be c4 6d 84 be
       0.30282068 -0.33456102 -0.4299097 -0.25864995
0000f0 20 15 18 3e b4 60 cc bd 93 a8 12 3d a2 14 bf 3d
       0.14851809 -0.09979382 0.035805296 0.09330107
000100 cc 90 00 be 97 1e 9d be 30 f4 6f bd 7c 72 11 bf
       -0.12555236 -0.306874 -0.058582485 -0.56815314
000110 4c 8f dc be da 1d 98 bc 99 4b 4e be 41 ab b4 be
       -0.43078077 -0.018568922 -0.20146026 -0.35286906
000120 ea 13 f4 bd 76 89 15 bd fc 1a 0c be de 91 d7 bc
       -0.11917861 -0.036508046 -0.13682169 -0.026314672
000130 a7 06 75 bd 46 a4 d7 3d 0a 39 80 bc 52 2e b3 3d
       -0.059820797 0.105293795 -0.015652198 0.08749069
000140 7a d7 a1 3d 34 08 57 3e 8d 29 bb 3d 49 ba d7 bc
       0.07902427 0.20999223 0.091387846 -0.026333945
000150 b4 3f 83 be 0b a8 98 be b1 fb 0c be 63 c2 f8 bb
       -0.2563454 -0.29815707 -0.13767888 -0.007591532
000160 82 67 0f bf 6c 95 d0 bd 9c 33 6c 3b 5c 88 ef bd
       -0.56017315 -0.1018475 0.0036041504 -0.1169593
000170 5f b1 17 be 20 a5 98 3d 33 cc 82 3d 20 64 0d be
       -0.14813755 0.0745337 0.06386604 -0.13807726
000180 83 fb 6f 3d a7 af 06 bd 8b c3 04 3d f7 15 de be
       0.05858947 -0.03288236 0.032413047 -0.43376133
000190 80 6b 53 be ef 4e ab 3e ac 53 d4 be 2b 41 87 3e
       -0.20646477 0.3345866 -0.41470087 0.26416907
0001a0 69 e9 f8 3d 41 04 b9 be 14 b8 93 3d 5d c3 ba bb
       0.121538945 -0.36136058 0.072128445 -0.0056995586
0001b0 a3 05 e1 bc a1 91 ec 3e e6 60 5d 3e 3d b1 48 be
       -0.027468508 0.46204856 0.21618995 -0.19598861
0001c0 5c 9d 82 3e 5a 6d 9b 3e 11 52 b4 bc 20 84 06 3e
       0.2551068 0.30356866 -0.022011789 0.13136339
0001d0 77 23 54 be c5 ad c8 be 27 dd df be cf fe 20 be
       -0.20716654 -0.39195076 -0.43723413 -0.15722202
0001e0 9a 57 ef be 34 83 55 bd d0 bc 79 bc 4e 95 26 be
       -0.46746522 -0.05212708 -0.01524277 -0.16267893
0001f0 6d 4e aa bd 90 d1 32 bb f2 d9 a7 bd 0c 92 e7 3c
       -0.0831574 -0.0027285554 -0.08195867 0.028267883
000200 32 3b 0f be 84 67 a1 3c 4f 63 24 3d 83 2f 8f 3e
       -0.13987425 0.01970268 0.04013377 0.27965936
000210 37 5c dc 3c 6c 7d 1d 3e 80 f3 8c 3e a8 7d 2d bd
       0.02689944 0.15379876 0.27529526 -0.042356163
000220 d5 49 86 3e 66 fc 6f 3e 00 c8 4b 3e 49 75 de 3e
       0.26228204 0.23436126 0.19900513 0.43448856
000230 d3 9a a4 3b 38 45 03 bd 2e 65 95 bc a7 19 1b 3e
       0.0050233393 -0.032048434 -0.018236723 0.15146504
000240 b4 35 04 3e df 0a 87 be 07 1e d3 3d eb 66 98 bd
       0.12911111 -0.2637548 0.10308462 -0.07441505
000250 9a ff da bb 46 3f de 3d 44 be 1c be c9 92 ff 3c
       -0.006683302 0.10851912 -0.15306956 0.031197922
000260 75 68 9a bc d5 32 99 3d 41 9f e1 bc 03 35 7a be
       -0.018848637 0.074803986 -0.027541758 -0.24434285
000270 f8 76 44 bd 81 fe 36 3d 79 25 d5 bd e3 49 57 be
       -0.04796502 0.044676308 -0.10407538 -0.2102428
000280 6a cd f8 bd 8d ea 23 3d b4 7a d6 3c d9 54 b9 3c
       -0.121485546 0.040018607 0.026181556 0.022623466
000290 15 3f 0c 3d 9b b1 2c be ee 23 1a be 64 71 f2 ba
       0.034239847 -0.16864626 -0.15052769 -0.0018496928
0002a0 76 d2 52 3d ff 87 10 3e 46 7c 2b 3e 97 79 80 bd
       0.051470242 0.14114378 0.16746625 -0.062731914
0002b0 85 7e a9 bd 5b bd 11 be 70 f5 14 be 06 c6 59 bc
       -0.08276085 -0.1423239 -0.14546752 -0.013291841
0002c0 9f 0e b3 bd ee 8c 0b 3e 9c 6b db bd bb 5f 18 be
       -0.08743023 0.13627979 -0.10713884 -0.14880268
0002d0 07 5e 13 be 99 53 d0 bd b7 61 93 3d 11 62 ec bd
       -0.14391337 -0.10172195 0.07196372 -0.11542142
0002e0 b8 a7 b2 3d 28 f7 b5 3c ff be e6 3b a5 b6 90 bc
       0.08723396 0.02221258 0.0070418115 -0.017665217
0002f0 bb b8 bb 3d d0 1d a1 bd 15 b2 74 be a1 d2 ac bd
       0.09166094 -0.078670144 -0.23896058 -0.08438612
000300 79 03 61 be 01 c8 89 3e 07 cd 4e 3e 82 0d 33 be
       -0.21973981 0.26910403 0.20195399 -0.17485622
000310 d6 95 05 ba 2b 86 c9 3c 4a 9d b8 be cd 2c 44 be
       -0.00050958747 0.02460011 -0.36057502 -0.19157715
000320 a7 81 54 3e 67 ed 35 be e3 cc 68 bd be e1 a2 3e
       0.20752583 -0.17766343 -0.05683602 0.31812853
000330 f9 fe 89 bd 8e ca d8 3e fe a2 93 3e 9e 56 0a be
       -0.06738085 0.42342037 0.2883529 -0.13509604
000340 77 7e 12 3e 23 21 93 be ef f3 df 3c 71 f2 37 bc
       0.14306055 -0.2873622 0.027337996 -0.011227236
000350 52 9b 31 3c 59 b5 3d bd 3f 39 59 3e 39 33 30 3e
       0.010840254 -0.046315525 0.21213244 0.1720704
000360 c4 d8 44 3c 64 1e e3 3d ac 7b 54 bd ce 3e 81 3d
       0.012014572 0.11089781 -0.051875755 0.06310807
000370 a6 71 3e 3d 05 67 2f 3d 9a 12 d4 3d 31 d2 c7 bd
       0.046495102 0.042822856 0.103551105 -0.09756888
000380 52 00 03 be 91 66 f4 3e b4 93 8f 3e bc ad 7b 3e
       -0.12793091 0.47734502 0.28042376 0.24577993
000390 8a 56 b9 3e 24 8f a3 3e f5 fa 22 3e 44 fc db 3e
       0.36198837 0.31945145 0.15916045 0.429659
0003a0 7a 81 0c bd 41 4f 10 3f 8a 9c 90 be 6a ad c6 bd
       -0.034303166 0.5637093 -0.2824443 -0.09701045
0003b0 c7 be 3f 3e 2a 38 24 be e9 92 9b bb 25 2f af 3c
       0.1872512 -0.1603705 -0.0047477377 0.021384785
0003c0 e1 cc 13 be a2 00 0e be 45 9d 87 bd 27 a9 35 bd
       -0.14433624 -0.13867429 -0.06621794 -0.04435077
0003d0 17 73 36 bc 32 d8 88 bd 6e 4e 2d 3e a9 65 af 3e
       -0.011135838 -0.06681861 0.1692445 0.34257248
0003e0 1a ba 9f 3d df 8c 09 3e 4f 4f 27 3e 43 d4 92 3e
       0.07799168 0.13432644 0.16338848 0.28677568
0003f0 a0 e9 78 3e c7 9d 5a 3e 68 f8 2b 3e d1 6d 9c 3e
       0.24307871 0.2134925 0.16793978 0.30552533

features.6.bias f4 [8]
000000 3f 34 bd 3e 08 0c f9 be ac b2 05 3f 38 15 b7 3e
       0.36953923 -0.48641992 0.52225757 0.35758376
000010 b2 b6 a2 3d a6 12 d0 be 05 74 8e be 9a 0e 0b bf
       0.079450026 -0.40639228 -0.2782289 -0.54319155

classifier.0.weight f4 [128, 1568]
000000 bf aa e0 3d 55 92 91 3d 7c 6f 1e be cf 59 47 bd
       0.10970067 0.07107989 -0.15472215 -0.048669633
000010 84 c9 28 be 62 62 a0 bd 93 81 ee bd 34 85 8f bd
       -0.16483122 -0.07831265 -0.11645808 -0.07007828
000020 4c d7 08 be 8c f2 5b bd 45 bd bb bc d8 eb e2 bd
       -0.13363379 -0.053698108 -0.0229174 -0.1108014
000030 19 2a 18 3b bc 02 8e 3d 0c 47 8c 3d 1d d0 04 be
       0.0023218452 0.06934115 0.068494886 -0.12970014
000040 0c 48 cf bd e8 4e ba bd 39 99 89 bd 4c 4f 02 bd
       -0.10121164 -0.090970814 -0.06718678 -0.031813905
000050 0a 6e dc bd 98 da ed bd 06 56 59 be a4 ec db bc
       -0.10763176 -0.11613959 -0.21224222 -0.026846237
000060 8b 09 99 bd 42 91 e4 bd 10 f5 92 bc c5 0f 88 3c
       -0.07472523 -0.11160518 -0.01793912 0.016609082
000070 98 48 62 bd 48 3b 15 bd e7 3c bb bd 2e 6e f1 bc
       -0.055245012 -0.036433488 -0.091424756 -0.029471483
000080 2e 35 79 bd 95 1a 32 bc 6e 8a 01 bd b0 cd ad bc
       -0.06084173 -0.010870595 -0.031626157 -0.021216244
000090 ad 38 e4 bd 3e 04 07 be 47 b2 7a bd 82 23 0d bd
       -0.111436225 -0.13185212 -0.061205175 -0.03445769
0000a0 5f 0e 0c be 5c 42 09 3d 94 65 27 be c2 67 0a be
       -0.13677357 0.03351055 -0.16347343 -0.13516143
0000b0 b0 0f d4 3c 8a 28 53 3d 77 0e 55 3d c4 d9 8e bb
       0.025886387 0.051552333 0.052015748 -0.004359456
0000c0 ec 23 fa 3c c0 4e e4 bc 31 8f 9a bc 01 83 e4 bc
       0.030534707 -0.027869582 -0.018867107 -0.027894499
0000d0 ce ec ea bc 9a ab 8f bc ce b5 02 bd 1a aa cb bd
       -0.02867737 -0.01753788 -0.031911664 -0.09944554
0000e0 27 f6 67 bd 86 ad a3 bd 2f 8d d5 bd 3a 31 9a 3c
       -0.056631234 -0.07992081 -0.10427319 0.018822301
0000f0 6e 90 b3 bc 1b a6 93 bc 1d d2 1c 3d e8 fb c8 bb
       -0.021919455 -0.018023541 0.038286317 -0.006133545
000100 cc 25 55 3c 71 b2 af bd e4 11 20 bd 08 7d 17 3d
       0.0130095 -0.08578957 -0.03907956 0.036984473
000110 46 75 bf bd 9f 24 77 bd 9d 4f ff bd d3 7e fa bc
       -0.0934854 -0.06033766 -0.12466357 -0.030578053
000120 ac 00 a6 bd d8 9e 08 3c 47 3f a1 3d eb a7 d6 3d
       -0.08105597 0.008338653 0.07873397 0.104812466
000130 d7 76 1e 3e 9b 27 6e 3d 9e 61 7d 3d ad e2 c6 3d
       0.15475021 0.05814324 0.061860673 0.09711204
000140 2f 95 d6 3c 2f 25 c2 bd 4c 45 75 bd 6e 2f 64 bc
       0.026194183 -0.094797485 -0.05988054 -0.013927324
000150 b8 31 88 bb c2 7d d6 bd dd b2 5a bd df cb 3a 3d
       -0.0041563176 -0.10473205 -0.053393234 0.045604583
000160 89 a1 d6 3d 69 2e 0a 3e bb 28 27 3e bd 39 45 3e
       0.10480029 0.13494267 0.16324131 0.19260307
000170 c8 61 a2 3d d0 a5 88 3d 99 72 8b bd 71 10 b7 bd
       0.079288065 0.06672251 -0.06808967 -0.08938683
000180 77 d4 34 bd 9a fa a3 bd 4c 9d d7 bd 80 c7 01 be
       -0.044147935 -0.08006783 -0.10528049 -0.1267376
000190 70 c1 05 bc 00 1b 65 3d c0 00 93 3d 81 b7 39 3e
       -0.008163795 0.055933952 0.071778774 0.18136407
0001a0 8e aa 4c 3e 34 c2 55 3e eb 4c 78 3e 13 e7 cb 3d
       0.19986936 0.20874864 0.24248092 0.09956183
0001b0 ab 7e 7e 3d 78 50 51 bd 5d a7 39 bd 72 e6 04 be
       0.06213252 -0.05110213 -0.045325626 -0.12978533
0001c0 66 36 64 bd 74 c4 0b bd 9f 0f ff bc 5a 18 8b 3c
       -0.05571594 -0.0341229 -0.031135378 0.016979385
0001d0 3e a7 5a 3d 61 c4 ae 3d 7d f5 1f 3e b0 0c 3e 3e
       0.05338215 0.0853355 0.1562099 0.18559527
0001e0 dd de 0d 3e 12 ec c7 3b 35 c2 fe bc d0 40 e7 bc
       0.13854547 0.00610114 -0.031098465 -0.028229147
0001f0 95 bc ab bd 30 08 e5 bd 12 41 34 be 41 2d 1b be
       -0.083855785 -0.11183202 -0.17602947 -0.15153982
000200 e9 2b 7b bd 9a cf 30 39 af 9b c6 3c c7 56 06 3e
       -0.061321173 0.00016862006 0.024244158 0.1311904
000210 81 8c 39 3e b6 31 ad 3d 90 05 2d 3d ad 76 54 bd
       0.18120004 0.08456747 0.042241633 -0.05187099
000220 5b 66 e7 bd d5 d3 2d be 59 f2 8d bd f1 af cf bc
       -0.1129882 -0.16975339 -0.0693099 -0.02535245
000230 4c 9b ef bc 9d c4 15 be e7 c5 e1 bd 5b d2 d5 bc
       -0.029248856 -0.14625783 -0.11024075 -0.026101282
000240 1c 6a 0e bd a4 24 e1 3c ee 06 d0 bd ed ac 46 bd
       -0.034769163 0.027483292 -0.10157572 -0.04850476
000250 3e 53 aa bd 96 77 bb bd ba f5 49 be 7f 4a a6 bd
       -0.083166584 -0.091536686 -0.19722643 -0.08119678
000260 c1 39 97 bd 03 43 38 be eb c5 dc bd 91 5d d0 bc
       -0.073840626 -0.17994313 -0.10779937 -0.025435241
000270 7d 3c fb bd e7 6b 0c be 55 35 af bd 8b 86 3b bc
       -0.122673966 -0.13713036 -0.08555094 -0.011445652
000280 cd 11 e8 bd 9a 13 d1 bd 68 89 5d bb 87 65 fc bd
       -0.1133152 -0.10208817 -0.0033803824 -0.12324052
000290 01 9a 04 be d4 11 dc bd b0 ae 34 b9 48 17 22 bd
       -0.12949373 -0.10745588 -0.00017231214 -0.039572984
0002a0 e2 bf 1c 3d 72 75 28 3c 2b ce d5 3c 19 fc 22 be
       0.03826893 0.010281907 0.026099285 -0.1591648
0002b0 c3 14 34 be 32 96 1d be 26 56 c9 bd 43 17 98 bd
       -0.17586045 -0.15389326 -0.09830885 -0.07426312
0002c0 3b 39 32 be 41 ce ce bd ae 9c 85 be c1 15 1f be
       -0.17404644 -0.100979336 -0.260961 -0.15535642
0002d0 d3 a7 3c bd 7b 01 de 3c 0e 15 f5 3d 7d 3b 4b bd
       -0.046058487 0.027100315 0.119669065 -0.04961728
0002e0 52 7e 35 be 3c cc 60 bd c9 b3 00 be 1b 2f e7 bd
       -0.17723969 -0.054882273 -0.12568583 -0.112882815
0002f0 c6 b1 23 be 79 7a 08 be fe 98 4c be 67 b1 b3 bd
       -0.15985784 -0.1332797 -0.19980237 -0.08774071
000300 3e 0f 86 bd 5f e4 ac bd 2c 2c 84 3c 07 db 93 3d
       -0.06545876 -0.08441996 0.016134344 0.072195105
000310 99 d6 16 3d 50 75 d4 bd 05 05 7a bd 48 ab 58 bd
       0.03682575 -0.10373938 -0.061039943 -0.05289772
000320 34 73 84 3c bd f3 52 bd 5f 01 bb 3c 79 93 90 3d
       0.016168214 -0.05150198 0.022827802 0.07059378
000330 46 47 81 bd 6e 77 a9 3c b8 a1 e0 3d d1 18 7f 3d
       -0.063124225 0.020686831 0.109683454 0.062279526
000340 e0 e7 2b 3e cc fa 19 3e 21 8d 29 bc db 17 90 bd
       0.16787672 0.15037078 -0.010348589 -0.070358
000350 11 4d b9 bc 1b 12 ae 3c 31 e8 af bc a0 f3 87 bc
       -0.022619756 0.021248868 -0.021473022 -0.016595662
000360 40 f5 b1 3d e3 10 55 3c 59 03 ef bd 0c 26 36 3c
       0.08689356 0.013004514 -0.116705604 0.0111174695
000370 29 47 24 3c 8b 46 90 bd 84 f1 4c 3d e5 01 be 3c
       0.0100267315 -0.07044705 0.050035015 0.023194263
000380 8b 1b cf bd 73 a8 1f 3d d9 c8 94 3d 14 c8 08 bd
       -0.10112675 0.038979005 0.07264871 -0.033393934
000390 8d ad d6 3c 30 48 8c bd ba 3c 77 3b 6b 23 5c bb
       0.026205802 -0.06849706 0.0037725405 -0.0033590447
0003a0 be 4c 65 bb eb 59 bb 3c 41 1d 3a 3d 5d ef 6e 3c
       -0.003498837 0.022870025 0.045438055 0.014583436
0003b0 ea cd f5 3d bf 77 d0 3d 26 9f 25 3c e0 32 38 bd
       0.120021656 0.1017909 0.010108745 -0.044970393
0003c0 c9 74 f3 3c 07 ed 38 3c 67 c3 7a bd 03 20 a5 bb
       0.029718773 0.0112869805 -0.061221506 -0.0050392165
0003d0 c7 c2 8d bc 4b 8f 81 bc 97 7e bf 3d ae 3c 5d 3d
       -0.017304791 -0.015815398 0.09350317 0.054012947
0003e0 a8 d1 b0 bc 37 b0 d1 3c 2b 3f 26 bc 04 76 88 3d
       -0.021584347 0.025596721 -0.010146896 0.06663135
0003f0 07 fe 87 3d be 7c d0 bc 7f 1e 7b 3d 3c 28 0b bd
       0.06640249 -0.025450107 0.06130838 -0.033973917

classifier.0.bias f4 [128]
000000 d6 4d f8 3d a8 a8 4b 3d 9f 9c e7 3d 97 50 bd bc
       0.12124221 0.04972139 0.1130917 -0.023109717
000010 25 f3 4e be 36 0e c2 3c 93 2d 3b be ea 41 8d 3e
       -0.2020994 0.023688417 -0.18279104 0.2758935
000020 81 9e 81 ba fb fd bb bd 34 4e f8 3a 69 64 60 3e
       -0.0009889157 -0.09179302 0.0018944205 0.21913303
000030 54 95 b0 3c ec 76 2c be 54 30 99 bc 59 2b a8 bc
       0.02155558 -0.1684224 -0.018699802 -0.020528482
000040 2e 2f 6e bd 0a 95 2c 3e b7 3d fa 3d 1f d8 94 3d
       -0.058150463 0.16853729 0.122188024 0.07267784
000050 62 52 72 3d ee 57 14 bc 86 15 1a be 0c a3 78 bc
       0.059160598 -0.009054167 -0.15047273 -0.015175592
000060 1a b1 8e bc b4 fe 5b 3d d0 7d 63 3e 2a f2 33 3e
       -0.017418433 0.0537097 0.22215962 0.17572847
000070 a0 63 d1 3b 3f 4c ae 3b 46 76 10 3e 06 ac 70 3d
       0.00639005 0.005319148 0.14107618 0.058757804
000080 85 a0 27 bd 0e fb 8d bd b1 55 1c be ad cf 6e be
       -0.040924568 -0.069326505 -0.15267064 -0.2332141
000090 ff 38 b9 bb d8 fb 10 be ea 29 c9 3c ba 47 1f 3e
       -0.0056525464 -0.14158571 0.024556119 0.15554705
0000a0 3c 39 cf 3d 23 cd 12 bd 49 90 15 bd 0a 1b 37 3d
       0.101183385 -0.035840165 -0.036514554 0.04470352
0000b0 46 b9 47 3e 69 c5 36 3e 67 22 62 3d ab 78 00 be
       0.1950427 0.17848743 0.05520859 -0.12546031
0000c0 43 28 d3 bd 03 b3 0c 3e f0 08 86 3e cf ec e0 bc
       -0.10310414 0.13740163 0.26178694 -0.02745667
0000d0 ab 6e 77 bd d2 f2 8b ba 12 0b 8a 3e 87 00 ec 3d
       -0.060408276 -0.0010677224 0.2696157 0.11523538
0000e0 d9 4c d9 bc 9f f3 b0 3d f7 a3 f1 bc a2 c1 00 be
       -0.026525902 0.08640217 -0.02949713 -0.12573865
0000f0 61 fa 50 be a3 85 01 3e 90 7c 6e 3d 42 c2 95 3e
       -0.20408012 0.12648635 0.05822426 0.2924977
000100 5a 18 3e 3e d9 17 b6 bd 93 e1 95 3c 7c da f8 3d
       0.18563977 -0.08891267 0.018296039 0.121510476
000110 d8 d6 5a 3e c9 5b 2e bd 4f ec 7d 3c b7 8b 8f be
       0.21371019 -0.042568002 0.015498235 -0.2803628
000120 df b9 7b bd 45 8a 14 bd f0 80 0c 3c 95 a7 92 3b
       -0.061456557 -0.036264677 0.008575663 0.0044755437
000130 ec 27 bd 3d bb e7 48 3d 4a 06 05 3d e1 a0 56 be
       0.0923613 0.04904912 0.0324767 -0.20959808
000140 15 45 81 3d 5c a4 b8 3d dd 47 ca bc fe 37 8d bc
       0.063120045 0.09015724 -0.02469247 -0.017238613
000150 3b f8 1c bd 4d c3 4f 3d 02 af 0f bd 03 d4 a4 bd
       -0.03832267 0.050723363 -0.03507901 -0.080482505
000160 9e 90 99 bc c2 2c a4 bd 17 0c 3f b9 3f f7 8a bb
       -0.018745717 -0.080163494 -0.00018219683 -0.0042409
000170 ee 83 2f 3d b7 47 4a 3e ed 75 17 3e 00 b4 6e bb
       0.042850427 0.1975392 0.14791079 -0.0036423206
000180 37 a9 92 3c 01 4b 9b 3d 38 6b 5e 3d 92 9b b8 3b
       0.017902954 0.07582665 0.05430147 0.00563378
000190 26 fb 53 be 6b 84 2a 3d 24 ac 29 be ac 6b 58 3c
       -0.20701274 0.04163019 -0.16569573 0.013209265
0001a0 f5 ed ca bd 4f a9 19 3d 18 b1 0d bd 20 d5 9e 3c
       -0.09908668 0.03751498 -0.034592718 0.019388735
0001b0 15 64 ab bd 13 14 88 be 90 40 f7 bd 5d b7 00 bd
       -0.083686985 -0.26577815 -0.12072861 -0.03142487
0001c0 7b 6e 63 3c 09 e9 2d 3e e2 49 23 bd 4f 65 b1 bd
       0.013881321 0.16983427 -0.039865382 -0.08661901
0001d0 95 4d 44 bc 4e c3 e2 bd 51 bc a9 3d fc f8 f8 3d
       -0.011981388 -0.11072408 0.08287872 0.12156865
0001e0 c4 08 3d 3d 39 df b5 bd 2c 35 02 bd 0b 61 c9 bd
       0.046150938 -0.08880467 -0.03178899 -0.098329626
0001f0 b3 09 6d bb c1 72 35 be c2 55 d3 3c 92 8d fb 3c
       -0.0036169111 -0.17719556 0.025797728 0.030707154

classifier.3.weight f4 [10, 128]
000000 6e fd 1b be 80 ca e0 3d 30 41 4a 3d 9f a2 ac be
       -0.15233395 0.10976124 0.049378574 -0.3371782
000010 51 ad 9c bc d3 ab 13 3e 40 5d 11 3d b6 16 98 be
       -0.019125612 0.14421014 0.03548932 -0.29704827
000020 c3 9b b6 bd ac 25 ad 3c 47 70 2f be 2a d3 de 3d
       -0.08916428 0.021136127 -0.17132674 0.1088012
000030 43 f2 40 3c 2a e2 12 3d c4 23 8d 3d bd c1 3f be
       0.01177651 0.035860218 0.068915874 -0.18726249
000040 af 02 44 3e f7 a6 ee bd 2f 99 28 be 91 c4 43 be
       0.19141649 -0.1165294 -0.16464685 -0.19117953
000050 8c 5f 0c 3e 24 83 6b 3d 10 40 d4 3d ff b4 2f be
       0.13708323 0.057498112 0.103637815 -0.17158888
000060 f0 72 1a 3e dc 2b 6e be 8c 02 01 bd 3d 60 13 be
       0.15082908 -0.23258919 -0.03149657 -0.1439218
000070 98 17 e0 bc bd 10 b0 be 71 fd b7 3d df 64 eb bd
       -0.027355 -0.3438777 0.08983887 -0.11493849
000080 fe aa b4 3d c5 f6 26 3d e6 44 87 3d 44 a7 bb 3d
       0.08821677 0.04076268 0.06604938 0.09162763
000090 4b 2b 1a 3e 05 53 8b 3d 3e c7 f5 bc 88 17 ef bc
       0.15055577 0.06802944 -0.030002233 -0.029186025
0000a0 dd 52 0a be 82 74 85 3d 84 d0 19 3e c5 c8 1d 3e
       -0.13508172 0.06516363 0.15020949 0.15408619
0000b0 e4 96 fa 3d a6 96 4b be 3c 31 a5 bd 05 4a 25 bd
       0.12235811 -0.19881687 -0.08066031 -0.040353794
0000c0 49 45 0a be ef 9c 28 3d ce a0 84 bd 06 c5 c0 3d
       -0.13502993 0.04116529 -0.064759836 0.09412579
0000d0 58 4c 0a 3e 30 79 01 3e d6 3b 4f 3d 42 9e ee 3d
       0.13505685 0.12643886 0.050594173 0.11651279
0000e0 69 f4 1e 3e fa 5c 4a bc 12 03 ac 3d 7a 65 fa 3d
       0.15522923 -0.012351269 0.08399023 0.12226386
0000f0 77 fa b4 3d af 20 cc 3d 61 41 57 3e 08 98 f2 3b
       0.08836835 0.099671714 0.21021034 0.0074033774
000100 65 cc 4e be ee eb e3 3c ba 11 86 bd 45 33 20 3e
       -0.20195158 0.027822461 -0.0654635 0.15644558
000110 7e aa 2b bc e1 b8 81 be 73 70 81 3c 01 40 8a 3b
       -0.01047766 -0.25336364 0.01580069 0.0042190556
000120 a9 36 49 be 7f 6f 8c 3d ec a0 12 3e be 5a 78 3d
       -0.19649757 0.06857204 0.143192 0.060633413
000130 fe bd 81 be 10 57 87 3d b6 b5 86 3d 4c 6b b7 bd
       -0.25340265 0.06608403 0.06577627 -0.08956012
000140 b9 74 63 be 64 59 86 be 73 f3 a5 bd ae e8 6d bd
       -0.22212495 -0.26240075 -0.08103075 -0.05808323
000150 dc f7 47 be 00 23 17 3e 9a d1 a6 bc 92 b1 94 bd
       -0.19528145 0.14759445 -0.020363618 -0.07260431
000160 40 0a 2c be c2 72 18 3e ef 5c 91 3d 76 6d be 3d
       -0.16800785 0.14887527 0.07097804 0.09298222
000170 52 02 29 be 1a 00 4e bc 80 96 d2 bd e9 e4 b5 3c
       -0.16504791 -0.012573266 -0.10282612 0.02220388
000180 fd cd 1f 3e 30 cb 7d be 94 df b4 bc d8 14 ac bc
       0.15605922 -0.24784541 -0.022079267 -0.021006033
000190 20 9d ad 3d ea 18 cc 3c 0d ba 6e 3c 8c 97 7d 3d
       0.08477235 0.024914224 0.014570725 0.061912104
0001a0 5c 37 1b 3b ef e3 c8 3d 93 2b 09 3e e3 23 e1 bb
       0.002368412 0.098091 0.13395528 -0.006870733
0001b0 81 19 cf bd 8b b9 2e bd 47 23 ae 3d 75 eb e0 bc
       -0.10112286 -0.042657416 0.08502822 -0.027456025
0001c0 23 12 11 bd f5 ca 97 3d aa 5e e6 3c 4e 15 d6 3c
       -0.035417687 0.07411758 0.028121311 0.026133206
0001d0 42 e6 51 be 81 52 b3 bc 96 ca 65 be 87 ec 5e be
       -0.20497993 -0.021889927 -0.22440562 -0.21769916
0001e0 3c 1e fd bd 6e f5 29 bd df d4 99 bd 40 6b b3 3d
       -0.123592824 -0.041493826 -0.07511305 0.08760691
0001f0 24 7d 3c 3e 83 b7 92 be 89 41 05 3d f8 b1 8f bd
       0.18407112 -0.28655633 0.032533202 -0.07016367
000200 a0 6e 8e 3c 69 34 78 3d 5a 82 9e bd 26 08 34 3e
       0.017386734 0.060596857 -0.07739706 0.17581233
000210 99 7a 1c be 48 c8 62 3d b2 0d 94 be fd 12 5e 3c
       -0.15281142 0.055366784 -0.289167 0.013554332
000220 e4 93 18 3b a6 f5 22 3d 76 3e 84 be ca ec f6 3d
       0.002328151 0.03978505 -0.25828904 0.12056883
000230 1e cc fd bb fd a2 a1 3d fd 09 eb bd 2b e2 e2 3d
       -0.00774528 0.07892416 -0.114765145 0.11078294
000240 ce c6 ea bd 0c 79 37 3d e2 e8 6e 3e 8a 76 20 3e
       -0.114637 0.044793174 0.23331025 0.15670219
000250 d8 32 92 3d 52 d1 bf 3c 93 ba a0 3d 72 06 23 3e
       0.07138604 0.023415241 0.07848086 0.15920427
000260 a8 9c 47 be 62 43 35 3e da bd e7 bd 8c 4c ae 3d
       -0.19493353 0.17701486 -0.11315508 0.08510694
000270 39 8c b3 bd cf 92 ae bd 71 00 7a be 27 b5 1a 3e
       -0.0876698 -0.08524095 -0.24414231 0.15108167
000280 4a bc 68 be 0f 29 0d 3e c6 cd 44 bd 83 8c f1 3d
       -0.22728077 0.13785194 -0.048047803 0.117943786
000290 4f 52 b4 bd 2d 20 9b 3d 6a bc 7d be 6f 8b 77 3e
       -0.088047616 0.075744964 -0.24778906 0.24174283
0002a0 c2 a0 34 3d cb 84 20 be 23 5e 03 bd 36 16 db be
       0.044098623 -0.15675656 -0.032072198 -0.42790383
0002b0 13 03 d7 bd 39 5e d8 3d cf d7 1f 3e 79 1e 6a be
       -0.10498633 0.105648465 0.15609668 -0.22863187
0002c0 5c d3 31 be 6a 88 4b 3e 67 fd 77 3e 89 eb 29 bc
       -0.17365783 0.19876257 0.24217759 -0.010371097
0002d0 6f 13 50 be 98 dd 9d 3b a8 fe 29 3e 89 b5 1d 3d
       -0.20319913 0.004817676 0.1660105 0.038503204
0002e0 2f 4e e3 bd 1e 10 0b 3e df a9 40 be 55 ed 67 3d
       -0.11098897 0.13580367 -0.188148 0.05662282
0002f0 ca a8 5d 3d 3e b8 d3 3d 15 82 ef be b1 fe 13 3e
       0.054116048 0.10337876 -0.46778932 0.14452626
000300 9b 70 ad 3e e5 4e 09 3e 75 1b 22 be 62 2c c8 3d
       0.33874974 0.13409002 -0.15830787 0.0977409
000310 c9 85 32 be 66 99 c2 bc 9c b4 4e 3d 51 23 c1 bd
       -0.17433847 -0.023754787 0.05046521 -0.09430564
000320 1c f6 1d 3b 49 6c fd 3d 99 33 1a be a8 fc 03 bd
       0.0024102991 0.123741694 -0.15058745 -0.032223374
000330 2f b9 35 3e cc 62 cc 3d 5d 55 6a 3d 37 db 27 3e
       0.17746423 0.099797815 0.057210315 0.16392218
000340 4b 15 cf 3d 10 1e 79 bd f3 3c 2c be 1e 4c f9 3d
       0.10111483 -0.060819685 -0.16820125 0.12172721
000350 84 bc 76 bd f1 f7 3a 3e 26 22 99 3c 24 c3 b3 be
       -0.060238376 0.18258645 0.018693041 -0.35109818
000360 18 be f4 3d 7a b0 0e be 09 1b 33 3d 9e f5 10 be
       0.1195032 -0.13934508 0.043726955 -0.14156196
000370 38 e4 4d 3d 5a 35 e8 3d e6 5b b2 bd 40 3e 45 be
       0.050266474 0.11338301 -0.087089345 -0.19262028
000380 47 88 12 3e d0 c7 6d 3e b8 28 96 3d 70 40 0f be
       0.14309798 0.23220754 0.07331985 -0.13989425
000390 5a cd da 3d 4a 2c a3 bd 1f 93 ce bd da eb 03 be
       0.10683699 -0.07967432 -0.10086655 -0.12882939
0003a0 77 7a 4e 3d 6c 87 f8 bd ac 4d 96 be e8 61 85 3d
       0.05040976 -0.12135205 -0.29356134 0.06512815
0003b0 b4 22 3a 3d 97 aa 43 3c e7 8c 2c 3e 1c ed c2 bd
       0.04544325 0.011942527 0.16850625 -0.09517881
0003c0 cf 4a 92 3c 45 02 2e be d2 10 e5 bd c7 d9 23 3e
       0.017857937 -0.16993053 -0.11184849 0.16001044
0003d0 f0 87 06 3e 0a 6a ec bd a1 8d 96 3c e5 8b 93 3c
       0.13137794 -0.11543663 0.01837808 0.018011043
0003e0 f2 61 83 bd 62 38 4c be b5 b2 0f 3e f2 c6 dd 3b
       -0.06415166 -0.19943383 0.14033015 0.006768101
0003f0 79 b6 00 be 34 3b 2b bc 80 cc a3 bd 99 1a 8f bd
       -0.12569608 -0.010451127 -0.0799799 -0.06987495

classifier.3.bias f4 [10]
000000 46 b9 28 3e ec bd 8c 3e 80 78 32 be 53 be 1e 3e
       0.16476926 0.2748865 -0.1742878 0.1550229
000010 ce 26 10 3c e8 e6 29 be 6a 35 13 be 3f 43 82 bd
       0.008798314 -0.1659199 -0.14375845 -0.063604824
000020 d0 81 9e 3d 99 58 85 be
       0.077396035 -0.26044157
