Tomato_cnn/saved_ckpt/best_model_epoch_40.pt (torch, 839136 bytes, 10 tensors)

conv1.weight f4 [32, 3, 3, 3]
000000 76 57 6d bc fa 95 f8 3d 6d 7c 42 3d da cd 99 3d
       -0.014486184 0.12137981 0.047481943 0.07509966
000010 4a ce eb bb 92 38 80 bd 82 a0 15 3c 9f e9 03 3e
       -0.0071962224 -0.0626079 0.009132506 0.12882088
000020 25 bc b9 3d af 3e 8b 3c b7 41 9b 3d 1f a3 87 3d
       0.09069089 0.016997663 0.075808935 0.0662291
000030 a5 1e 55 be 81 c5 55 be a9 e9 13 be 49 a7 2c bd
       -0.20812471 -0.20876123 -0.14444603 -0.042151723
000040 89 bf f3 3d 94 0d 3b bd ca ca b1 bb b1 ee 75 bd
       0.11901767 -0.045667246 -0.0054257857 -0.060042087
000050 f8 8b e3 3c 44 e6 1d be 9c 1d 05 be 92 22 4e 3d
       0.027776703 -0.1541987 -0.12999576 0.050325938
000060 b2 16 a1 3d 6e de fa bd 05 4d fc bb 1f 6d fd 3c
       0.07865657 -0.12249456 -0.007699611 0.030935822
000070 c2 db 1b be f0 0d 23 bc 23 53 fa bd 41 a5 d2 3d
       -0.1522055 -0.009952053 -0.12222888 0.10285426
000080 7c 1d 46 3d a8 14 98 3d ab 1a cd 3d 9c 5e 01 be
       0.048367962 0.07425815 0.10014852 -0.12633747
000090 68 1f bf bc 84 eb e1 bd 1b 1e 05 bc 2a ae 06 3e
       -0.023330405 -0.11031249 -0.0081248535 0.13152376
0000a0 1c 42 09 3e 10 e7 73 bc c0 a7 c8 3d 75 3d c8 3d
       0.13404125 -0.014886633 0.09797621 0.09777347
0000b0 b6 07 b7 3d 26 91 ef bd df 51 1f bd c8 21 af 3d
       0.089370176 -0.11697607 -0.038896438 0.08551365
0000c0 a0 0d c9 3d aa c9 87 3d f6 cc da bd 96 a7 b3 bc
       0.09817052 0.06630261 -0.106836244 -0.021930497
0000d0 a1 7e 90 3d bc 03 ef bd c2 65 16 3e 5f c9 2c 3d
       0.070554025 -0.11670634 0.14687255 0.04218423
0000e0 da 72 2e bb fe a8 15 3d e9 85 00 bc 62 14 d2 3d
       -0.002661875 0.036538117 -0.007844427 0.10257794
0000f0 d8 29 33 3e d9 d1 41 bc 9a 75 82 3d 59 ac b6 3c
       0.17496431 -0.011829817 0.06370087 0.022298979
000100 6d d1 fb 3d 52 96 32 bd 25 c4 12 bd 6f 20 00 3e
       0.12295804 -0.043600388 -0.03583159 0.12512372
000110 a3 0b f8 bd f3 16 38 bd 76 82 f8 3d 3b 58 79 bd
       -0.121115945 -0.04494376 0.121342584 -0.06087516
000120 21 24 17 be 6a 49 24 be 19 55 6f bd 40 b5 a7 bc
       -0.14759876 -0.1604363 -0.058430765 -0.020472169
000130 99 b1 2c be 30 c3 e0 bd 7c 98 a2 bd 6b e3 72 3d
       -0.16864623 -0.10974729 -0.0793924 0.059298914
000140 9e c4 18 be d5 1d f3 3d f0 05 2f 3e 2f d8 99 3d
       -0.14918754 0.118709244 0.17092109 0.07511937
000150 bd fa 6d 3c ee 4f 44 3e 4a 74 23 3e 68 32 96 3c
       0.014525113 0.19171116 0.1596233 0.018334582
000160 af 1f 8b 3d 07 4b cc 3d a4 9b b4 3d 28 50 8b 3d
       0.067931525 0.09975248 0.088187486 0.06802398
000170 74 71 8d bd ea e2 b4 3d 6c 51 93 3d 17 f6 80 3d
       -0.06906405 0.08832343 0.07193264 0.06296938
000180 d1 12 4b bd e4 a0 8a bc 38 01 1f bd e0 c4 25 be
       -0.04957849 -0.016922422 -0.03881952 -0.16188383
000190 99 77 04 bd fe 2e 1e be 63 e7 e1 bd 1a 7d 25 be
       -0.03234062 -0.15447614 -0.11030462 -0.16161004
0001a0 be 38 00 3d 3e e4 f7 bd 63 3d db bc e8 b0 04 be
       0.031304114 -0.121040806 -0.02676267 -0.1295811
0001b0 2e dd b0 bd 02 ff 0a be 10 24 53 bd 15 46 95 3d
       -0.08635937 -0.1357384 -0.051548064 0.07288758
0001c0 bb e4 df bc ad 38 82 bd 8b cd 5f 3c 79 08 5e bd
       -0.027330747 -0.06358466 0.013659845 -0.0542073
0001d0 31 23 a5 3d aa 31 1a 3d 3f 99 3e 3e 43 87 01 3a
       0.08063353 0.03764502 0.18613146 0.0004941115
0001e0 d7 5c bf 3d e8 0a fb 3d 4c 85 0d 3e e4 66 26 3e
       0.0934388 0.122579396 0.1382038 0.16250187
0001f0 a0 a3 8d 3d 29 d6 11 3d 3a b4 cd bd ce f1 0f be
       0.069159746 0.03560463 -0.10044141 -0.14057085
000200 03 40 ce 3c fe d2 ca bd 24 64 a7 bd 37 79 18 3d
       0.025177008 -0.09903525 -0.08173397 0.037224974
000210 88 ab 8b bd 29 e0 97 3c c1 22 c5 bd 4b 43 a3 bd
       -0.06819826 0.018539505 -0.096257694 -0.079718195
000220 e9 74 9a 3d 20 fe 00 3e 39 a7 46 3e 9a b6 09 bd
       0.0754183 0.12596941 0.19399728 -0.033621408
000230 4f c9 d2 3c b7 22 10 3d ac a8 48 be 9e 97 a4 3d
       0.025730757 0.035189357 -0.19595593 0.08036731
000240 fe 6a 29 be 53 01 a4 3d c3 2b b4 bd 82 92 cd 3d
       -0.1654472 0.08008065 -0.087974094 0.1003771
000250 da 39 a6 bd 07 5e c2 bd 79 89 1b 3e a8 92 4d be
       -0.08116503 -0.094905905 0.1518916 -0.20075476
000260 e8 fe 17 3e 99 fc ce bd f2 15 aa bd 32 82 b7 3c
       0.14843333 -0.10106773 -0.08304967 0.02240095
000270 c9 38 15 3d 03 e7 5e be 32 97 ee 3b 6e 70 c7 3d
       0.036431108 -0.21767811 0.0072812075 0.09738241
000280 68 b7 83 bd 3f 18 df 3d 7c 14 54 3d ab 57 11 be
       -0.06431466 0.108932965 0.051777348 -0.14193599
000290 61 b6 a4 3d 5f b2 08 be e5 ee 6a bd ca 37 1e b9
       0.080425985 -0.13349293 -0.057356734 -0.00015088837
0002a0 ee b6 b6 bc bb 62 02 3d d1 3e 3c 3b d7 3f b9 3d
       -0.022304025 0.031832438 0.0028723965 0.090453796
0002b0 ff e9 51 bd e0 17 f5 bd 01 2d 1d 3d dc 51 fc bd
       -0.051248547 -0.119674444 0.038372997 -0.12320301
0002c0 0c c5 a4 3c 96 97 21 be 2a ad 8a bd 8a 85 7b 3b
       0.02011349 -0.15780482 -0.0677131 0.0038379156
0002d0 af d2 cb 3d 8b 97 27 bd a7 c3 2e 3e eb fc 18 3e
       0.09952294 -0.040916007 0.17066823 0.1494023
0002e0 2d 80 a9 3d 0e 2c d0 3d ec 24 2a 3d 4b c3 12 3e
       0.08276401 0.10164653 0.041539118 0.14332311
0002f0 a5 92 18 3e 93 67 80 be 05 1d 8a bd 25 e2 b5 bc
       0.1489969 -0.2507902 -0.06743816 -0.02220256
000300 97 25 56 be 48 b2 17 be 69 1f 98 3d 2c be 76 3c
       -0.20912777 -0.14814103 0.07427866 0.015059989
000310 c3 85 81 3d 82 1a 84 3c 5d fc f7 3c 95 2c 34 3d
       0.06324341 0.016125921 0.030271703 0.04398783
000320 91 be 08 3e 3e f0 c4 3d ed d9 91 bd d9 10 92 3d
       0.13353945 0.09616135 -0.07121644 0.0713212
000330 5f 4c e9 bd 7c dd 3f bd fa d0 46 bd 73 cf 01 be
       -0.1139152 -0.046842083 -0.04853914 -0.12676792
000340 1d e0 d9 bd d9 e2 d5 bd c0 28 b5 3c 1a 73 40 3d
       -0.10638449 -0.104436584 0.022114158 0.04698477
000350 fa c8 22 3e 75 5e f3 bd 70 d0 28 3e 89 28 d4 3d
       0.15896979 -0.118832506 0.16485763 0.10359294
000360 2c cc a9 3d ae 7d 30 3d f7 ee 1b be 19 a6 0f 3e
       0.08290896 0.043088607 -0.15227877 0.14028205
000370 2f db ba bb 46 49 df bd b5 d4 56 be 41 11 0e bd
       -0.0057023983 -0.10902648 -0.20979579 -0.034684423
000380 df 93 a6 3c 75 b4 b7 3c 69 aa 23 3e 37 8b d4 bd
       0.020334182 0.022424916 0.15982975 -0.103781156
000390 f7 f1 39 3e 41 c3 c6 bb 53 b8 94 bb c5 7a 34 bd
       0.18158709 -0.0060657565 -0.0045385747 -0.044062395
0003a0 d5 b9 96 bc 61 b7 08 be 4d 7e 05 3e 1c 84 35 bd
       -0.018399158 -0.13351204 0.13036461 -0.044315442
0003b0 07 48 00 3e 0b 47 3e 3e a8 9f b9 3d d6 1a 08 bd
       0.12527476 0.18581788 0.09063655 -0.033228718
0003c0 71 22 74 bd f1 d4 0e be 65 b5 dd bd a7 67 d8 bd
       -0.05960316 -0.13948418 -0.10825614 -0.10566645
0003d0 d1 cc 66 bd a8 a1 48 be 24 a2 eb 3d 82 32 0d bd
       -0.056347672 -0.19592917 0.11505535 -0.034471996
0003e0 d3 73 ed ba 8c d3 d6 3d 10 d8 46 3e 31 26 1d 3c
       -0.0018116183 0.10489568 0.19418359 0.009591625
0003f0 02 92 1a 3e 47 26 0e 3d ed 8f 71 bc d9 79 0e 3e
       0.1509476 0.034704473 -0.014743787 0.13913669

conv1.bias f4 [32]
000000 7d 27 9e 3c af 00 8d be 8f de 05 3d e8 ca b6 bd
       0.019305939 -0.27539584 0.03268295 -0.0892542
000010 3e 90 a5 3c 92 64 0e bd 31 e3 d7 bc 7d 0a bd bb
       0.020210382 -0.03476388 -0.02635345 -0.0057690726
000020 8a ce 33 bd 2e 17 3a bb b2 e2 eb bc 1d d2 62 bd
       -0.043898143 -0.0028395164 -0.02879462 -0.05537616
000030 4d 6d 9c 3c 39 1f f5 bc 2a b6 14 bd 0d 51 1d bd
       0.019095087 -0.029922115 -0.036306538 -0.038407374
000040 2f 7d 55 3d a8 a5 34 bc 54 d6 07 3d ac 33 5b 3e
       0.052121338 -0.011025824 0.033163384 0.2140643
000050 40 ef 77 bc 99 6f 07 3d c0 31 39 3e 7f b8 2d be
       -0.015132725 0.033065412 0.18085384 -0.16964911
000060 91 47 5d bd 9e 8b 8b bd 14 e0 fb bd ca 41 34 3d
       -0.05402333 -0.06813739 -0.12298599 0.044008054
000070 23 80 39 3c 96 74 b5 3c 4e 90 5d bc c4 76 57 bd
       0.011322054 0.02215032 -0.013523174 -0.052603498

conv2.weight f4 [16, 32, 3, 3]
000000 c0 e0 02 3d 45 cf f6 bc 85 e7 2f 3d 78 d2 34 bc
       0.03195262 -0.03012813 0.042945404 -0.011036508
000010 7e 50 c1 bd da 2e d7 bd ae b4 f2 3d 8b d6 a6 bd
       -0.09439181 -0.10506983 0.11850868 -0.081463896
000020 08 cd da bd 96 28 dd bd 40 3c 88 bd 77 8a 98 bd
       -0.10683638 -0.10798757 -0.06652117 -0.07448285
000030 0a 88 c7 bd 6f 43 f1 bd 21 df b8 bc 52 e9 e5 3d
       -0.09742744 -0.1178044 -0.022567334 0.11226143
000040 11 c6 04 be bd ef c7 bd 51 a6 68 3d 25 1c 01 3e
       -0.12966181 -0.09762523 0.056799237 0.12608393
000050 fe 8f ba 3d 8e 2a eb bd 3a d8 8e 3d 85 c6 c4 3c
       0.091094956 -0.11482726 0.06974836 0.024020443
000060 34 8c 09 be fa 02 c9 bd 26 fa 24 bc 8f 4a 2d 3d
       -0.1343239 -0.09815021 -0.010069406 0.042307433
000070 58 54 3a bd 02 bb 04 3d 93 32 a2 bd 3f b4 bc 3c
       -0.045490593 0.032404907 -0.079198025 0.023035167
000080 06 59 93 bd b2 06 b0 3d 4a e3 f4 3d 83 1b c5 bd
       -0.07194714 0.08595027 0.119574144 -0.09624388
000090 0a 4e df 3c 72 0f 82 3c 78 2c b7 bd ad d2 1c 3c
       0.027258892 0.015876506 -0.089440286 0.009571713
0000a0 1b 5a e2 3c 37 33 1a bd d6 d8 9c 3d 51 40 31 bd
       0.027630856 -0.0376465 0.07658546 -0.043274228
0000b0 63 bf 5d 3d 78 be b3 3d 75 54 d9 bd 36 8b 14 be
       0.0541376 0.087765634 -0.10611812 -0.1450623
0000c0 42 9d 98 bd a9 c1 50 3c 37 5b 1e be c4 24 bf bb
       -0.074518695 0.012741485 -0.15464483 -0.00583324
0000d0 67 af 24 be 28 d1 1c be 51 9f 91 bd 11 b1 c9 3d
       -0.16082536 -0.15314162 -0.07110465 0.09848226
0000e0 06 5e af bc ea 10 1c bd a6 0a 8c 3c 02 e9 93 3d
       -0.021407139 -0.038102068 0.017094921 0.07222177
0000f0 fc a4 c5 3d 01 04 a6 bd d7 ef cd bb 6e 65 a2 3d
       0.09650609 -0.081062324 -0.0062846947 0.079295024
000100 93 6c b8 3d 9c 1d 67 3e cb b8 e2 bd 2a cb 35 3d
       0.09005084 0.22569889 -0.11070403 0.044383205
000110 58 b4 33 3d 44 f0 3d bd ba e0 c9 bd 56 0b 4e be
       0.04387316 -0.046371713 -0.09857316 -0.20121512
000120 f7 c4 05 be 76 42 0a be e8 a3 0b be 48 52 80 3d
       -0.13063417 -0.13501915 -0.13636744 0.06265694
000130 c0 33 3b be 26 ae 80 3d c4 eb 5d 3d 7d 73 fe 3c
       -0.1828146 0.06283216 0.05417992 0.031060928
000140 dd f0 01 3e 8b dd 00 be 01 08 0c be 27 99 3e be
       0.12689538 -0.12584512 -0.13674928 -0.1861311
000150 0c ad 69 be 98 97 52 be 46 44 8b be 9d 3a 81 be
       -0.22819918 -0.20565641 -0.27200526 -0.2524003
000160 9d 07 ca be c9 8e 95 be 83 92 96 3d 1b 5d 2b 3e
       -0.39458933 -0.292105 0.07352164 0.16734736
000170 18 20 0a 3d 11 67 d1 3c 23 1a 39 3e 0c e7 67 3d
       0.033722013 0.025561841 0.18076377 0.056616828
000180 0a ce 4e 3d 34 09 49 3e 0a 80 6b 3d 51 59 7d 3c
       0.050489463 0.19632417 0.057495154 0.015463189
000190 be 31 8f 3d 4e 2a 39 3d 03 8b 11 be 52 4f 38 3c
       0.069919094 0.04520636 -0.14213185 0.01124938
0001a0 b1 62 43 3c 13 69 2a bc 29 e7 9e bb db 79 b7 3d
       0.011925385 -0.010401028 -0.004849334 0.08958789
0001b0 ef 10 55 3d 11 fe 5a bd e2 9e 4b bd 9a 10 a5 bc
       0.052018102 -0.053464953 -0.04971207 -0.020149518
0001c0 2b b0 f9 3d c9 31 4b 3d 13 9b 88 3d 4e 81 31 bd
       0.121918045 0.049608026 0.06670203 -0.043336205
0001d0 43 38 d7 bd 89 bb b5 3d e6 5a ed bc ef ae 45 bd
       -0.10508778 0.0887366 -0.028974008 -0.048262533
0001e0 8a cb d3 3d a4 da ff 3d e5 97 8f 3d e4 64 0c bd
       0.10341556 0.12492874 0.070113935 -0.034275904
0001f0 40 1d aa 3d 8d 1e 4e 3c 31 1d ef 3c 02 8d 08 bd
       0.0830636 0.012580526 0.029188724 -0.0333376
000200 c9 05 87 bc a5 dc a6 bb c7 69 d1 bb df 1f c2 3d
       -0.01648225 -0.005092221 -0.0063907835 0.09478735
000210 ef 13 73 3d 4b e7 c7 3d 7b 8e a2 bd 4c 7d 6d 3c
       0.059345182 0.097609125 -0.07937332 0.014495205
000220 44 63 17 be 33 fd 20 3c e5 36 c8 bd fd 14 1b be
       -0.1478396 0.009825992 -0.09776095 -0.15144725
000230 b1 10 6c bd 5a 98 04 ba 9a 11 04 bd 1b 43 aa bc
       -0.057633106 -0.00050581025 -0.03224335 -0.020783952
000240 06 a3 49 3e 01 a5 a9 bc b0 c8 d8 3d 37 cc 29 3e
       0.19691095 -0.020708563 0.10585153 0.16581808
000250 09 a9 de 3d 76 db 91 3d 78 fa c6 3d aa 85 18 bb
       0.10872085 0.07121937 0.09715742 -0.002327303
000260 a2 da 07 bd cc 27 8d bd 4c 85 63 bd 73 6a 39 bd
       -0.03316749 -0.06892356 -0.055547044 -0.045267534
000270 60 d5 24 3d de 87 95 3d 1e 7f ef 3c fa bd 6e bc
       0.040242553 0.07301305 0.029235419 -0.014571661
000280 ef a9 b5 bd 7d 4e f9 bb bd 9e 91 3e 06 e0 8b 3e
       -0.08870303 -0.0076082335 0.2844142 0.27319354
000290 d6 b3 0f 3e 24 02 b6 3e 23 56 b6 3e b2 29 c0 3d
       0.14033446 0.35548508 0.35612592 0.09382953
0002a0 78 fc 70 3e 30 68 51 3e 9e 20 84 3e 16 47 3f be
       0.23533809 0.204499 0.25806135 -0.18679461
0002b0 62 35 83 be 79 7e e6 bd 55 77 57 be 40 7b 46 be
       -0.25626665 -0.112545915 -0.21041615 -0.19382954
0002c0 a4 92 99 be e3 eb 51 be a1 2f 8f bd b1 cd 42 be
       -0.2999469 -0.2050014 -0.06991506 -0.19023778
0002d0 b3 66 4d bc 09 9f b9 3d 7d 07 69 3d 34 67 65 3d
       -0.012536692 0.09063537 0.056891907 0.056006625
0002e0 c1 71 5a bd 51 13 36 bc c8 bf 01 3e 39 24 53 3d
       -0.05333114 -0.011113004 0.12670815 0.051548216
0002f0 80 3c a6 3d a2 dd 10 bd 2e 72 ef 3d 8a c7 24 3e
       0.08117008 -0.035367616 0.116917 0.16091743
000300 79 5f 17 3e b2 62 a6 3d 67 dc 18 3d e8 41 5e bd
       0.14782514 0.081242934 0.037319567 -0.05426207
000310 c6 b1 60 3c a1 1f 4e 3c ae b6 7c bd f3 a9 02 3d
       0.0137142595 0.012580783 -0.061697654 0.031900357
000320 88 7a 60 bd 9e 11 9e bd 8b 82 2a 3d 09 4e f1 bc
       -0.054804355 -0.07718204 0.0416284 -0.029456155
000330 84 6f 57 be 76 28 31 bd f3 61 37 be 5e b6 4c 3d
       -0.21038634 -0.043251477 -0.17908458 0.049978606
000340 36 eb 47 bd 8b 7b 76 3d 72 4e 89 3d 8e 29 47 3d
       -0.0488083 0.060176414 0.067044154 0.048623614
000350 a6 46 0b 3e a4 13 c6 bc 9b 78 03 3e 23 9b 02 bc
       0.13601169 -0.024179287 0.12838976 -0.007971558
000360 71 3f 10 3c d1 4b e4 bd 8a f8 8b 3d 62 bf 0b 3c
       0.008804188 -0.11147273 0.068345144 0.008529516
000370 79 db 23 bd c6 ef c2 bd 99 79 02 3e 93 78 1f 3e
       -0.040004227 -0.095183894 0.12741698 0.15573339
000380 ef 11 b9 3d be 19 55 3c 9f 2b 96 bd 75 58 43 b9
       0.09036624 0.013006626 -0.07332539 -0.00018629602
000390 5d bf 1f be 0e e2 24 3d 30 7c 1c bd e3 b3 9f 3c
       -0.15600343 0.040254645 -0.038204372 0.019494956
0003a0 57 09 0a be c7 10 c1 bd fa a4 9a bd 0d 7e ce bd
       -0.13480125 -0.09427028 -0.07550998 -0.10082636
0003b0 e1 63 c4 bd 6d 33 db bd de a1 83 3c a0 32 7f bd
       -0.09589363 -0.10703168 0.016068395 -0.06230414
0003c0 d9 e0 83 3d a7 0a 0c be 6e b4 03 be 38 7a 13 3d
       0.06439371 -0.13675939 -0.12861797 0.03600523
0003d0 31 4a 52 bc 90 71 26 be 9f de 17 bd 3b 3f 4e bd
       -0.012835071 -0.16254258 -0.037077542 -0.05035327
0003e0 5d db 27 be a8 ef cc bd d1 5b 71 3e dd f4 dc 3d
       -0.16392274 -0.10006648 0.23570181 0.107888915
0003f0 97 86 13 bd c2 0c e0 39 7b 8b 13 be 8c 93 e1 bc
       -0.036017027 0.00042734115 -0.14408676 -0.027536176

conv2.bias f4 [16]
000000 da b0 cf bc 07 f7 ad bc 6c 8c ec 3c 89 34 b6 bd
       -0.025352884 -0.021235956 0.028875552 -0.08896739
000010 c1 94 a0 3d 6d 67 03 be 0a f8 7e be d2 8e 38 3e
       0.078408726 -0.12832423 -0.24899307 0.18023232
000020 ef 5b b1 bc 25 ee b8 bd aa 67 bb 3d 35 96 a0 bc
       -0.021650283 -0.090297975 0.09150632 -0.019602874
000030 03 ef 1d be de 85 23 bd c8 d2 85 bd 7e 74 08 3d
       -0.15423207 -0.039922588 -0.06534344 0.03331422

conv3.weight f4 [8, 16, 3, 3]
000000 9b a7 c1 bd b3 16 95 3d ac 80 45 be 8b 63 7f 3d
       -0.09455796 0.0727972 -0.19287366 0.06235079
000010 ef 1a 37 be ed 53 fa bd a4 c2 20 be d9 53 3a 3d
       -0.17881368 -0.12223039 -0.1569925 0.04549012
000020 eb 97 46 3c 69 c4 a6 bd da de 8e 3c 74 b1 cd 3c
       0.012121181 -0.08142931 0.017440248 0.02510903
000030 8a 03 79 bc ee d5 14 3e 59 49 8b 3e da d3 6d bd
       -0.015198598 0.14534733 0.27204397 -0.058063366
000040 5c d0 04 3e 3c 4b ce bd 49 d6 c9 3d 50 b9 1a 3d
       0.12970108 -0.100729436 0.09855325 0.037774384
000050 f8 a0 53 bd 83 8a 75 be 9d b5 cc 3c 7f a8 af 3c
       -0.051667184 -0.2397862 0.024988944 0.02144265
000060 5c 99 e1 3d e8 47 12 be 00 0d 6a 3c c1 55 fe 3c
       0.11015579 -0.14285243 0.014285326 0.03104675
000070 60 64 49 3e 01 32 1d bc 62 63 46 3e 2c 57 a8 3d
       0.19667196 -0.009594441 0.19373849 0.08219752
000080 ec 0a 7b bd 04 0e 08 3e 35 fc 87 bd 81 2b de bd
       -0.061289713 0.13286597 -0.066399015 -0.108481415
000090 16 ed f8 bd 4f 59 aa bd f0 ca b1 3c dd 98 5a 3d
       -0.121545956 -0.083178155 0.021703213 0.053368438
0000a0 07 e8 47 3e 11 a7 74 3e d1 3b 82 3c 89 49 36 3e
       0.19522105 0.23891856 0.015897663 0.17801489
0000b0 9c cd 37 3d 24 74 a0 bd f5 04 41 be 59 fd 1d be
       0.04487382 -0.07834652 -0.18849547 -0.15428676
0000c0 64 54 44 be 64 24 9a bc c6 62 8c bc b3 ed 20 be
       -0.19172817 -0.01881618 -0.017136943 -0.15715675
0000d0 91 fc 2c be b6 74 e1 3c 7a 05 f5 3d cc d1 46 be
       -0.16893221 0.027521472 0.11963935 -0.19415969
0000e0 2a 7e bc 3d 37 b8 b8 bb 2c 8d 04 3e 1b 0b 61 3c
       0.092037514 -0.0056371945 0.12944478 0.013735558
0000f0 9a c8 81 bd 93 80 0f bd 86 9e 6d bd 18 8b 25 3e
       -0.0633709 -0.035034727 -0.058012508 0.16166341
000100 24 af ae 3e a2 6b a4 3e 43 a4 c5 3e cd 81 bc 3e
       0.34117997 0.32113367 0.38601884 0.3681778
000110 da a0 b0 3e 17 d5 6e 3e 2c c2 73 3d cd 90 a1 3d
       0.3449772 0.23323475 0.05951135 0.07888947
000120 b3 c2 1f bd 36 71 82 3c f6 a2 de 3d d9 8e d6 bd
       -0.03900404 0.015923124 0.10870926 -0.10476465
000130 3b 44 34 3c e6 8c 36 3d 1c 28 68 bd 60 be 18 3e
       0.011002596 0.044567965 -0.056678876 0.14916372
000140 57 eb 18 3e 8b 31 7c bd 48 fa 16 3c eb 01 c1 bd
       0.14933525 -0.061570685 0.009214945 -0.09424194
000150 38 9b 38 be af 48 0f bd b1 c7 f0 bd 30 7a 78 bd
       -0.18027961 -0.034981426 -0.11756838 -0.060663402
000160 24 ec c5 bd b8 1a 97 bd cb 8a f2 3c 8a 11 0c be
       -0.09664181 -0.07378143 0.029607197 -0.13678566
000170 b8 1e 3f bd 66 dc 13 3e 37 43 61 be b5 d7 d9 bd
       -0.046660155 0.14439544 -0.21998297 -0.10636846
000180 ac 64 eb 3d 58 a2 b6 3d 78 ef 8d 3e 3b 48 07 bd
       0.11493811 0.08917683 0.27721763 -0.03302787
000190 a0 3c 5c bd 71 33 aa 3d 0a d6 09 3e e6 10 58 3c
       -0.053768754 0.08310593 0.13460556 0.013187623
0001a0 65 c8 fe bd 40 46 27 be c3 8f 21 bd 52 de 0b be
       -0.12440566 -0.16335392 -0.039443742 -0.13659027
0001b0 db 1b 27 3d 35 ae a8 bd da 55 ed bc 34 a2 b1 3c
       0.04079805 -0.08236352 -0.028971601 0.02168379
0001c0 22 58 e8 3b de 72 ff 3c cf 6b 5c 3d 08 9e e9 bd
       0.0070905844 0.031182703 0.05381375 -0.11407095
0001d0 c6 fd 83 bc b8 e0 16 bd 72 e6 89 be e3 45 cc bc
       -0.01611222 -0.036835402 -0.26933628 -0.024935668
0001e0 08 87 4d 3c 11 ae 4a bd f4 59 17 be 64 22 3c 3e
       0.012544401 -0.04948241 -0.14780408 0.18372494
0001f0 72 f5 50 3e 86 28 2e 3e 5b 03 86 bd a8 d6 95 bc
       0.2040613 0.17007646 -0.06543609 -0.018290833
000200 e6 0c 7f be 7d 4d 67 be d8 e8 43 bd a5 ab 2e be
       -0.24907264 -0.22588153 -0.04782948 -0.17057665
000210 20 8d ff 3a 4b 48 fe bd 51 ab 8f bd 28 7e 04 3e
       0.0019497015 -0.124161325 -0.07015098 0.1293875
000220 ee 1a 32 bd 65 3d 1a be 0b 6b 26 be 14 df af 3d
       -0.043482713 -0.15062483 -0.16251771 0.08587471
000230 99 50 ed 3d 87 f8 2a 3c 4e a4 c3 bc 35 78 f4 bc
       0.115876384 0.01043523 -0.023882058 -0.029842475
000240 0a 7f cb bd 5e 30 63 3b 03 c9 5c 3d b7 20 ec 3d
       -0.0993634 0.003466628 0.053902637 0.11529677
000250 9c 6a 86 3c 02 c0 36 3e 89 af 0b be 2d 59 ee 3d
       0.016408257 0.17846683 -0.1364118 0.11638103
000260 68 fe 0a be b4 27 9d 3c 50 82 58 bd 8e e5 6e be
       -0.13573611 0.019183971 -0.05285865 -0.23329756
000270 25 a4 be bc 0d 8f 69 be c1 f1 0a be dc b9 a2 3c
       -0.02327163 -0.22808476 -0.13568784 0.019864015
000280 25 8b 71 bd 77 aa 82 be be 4e 5d 3d 39 d1 d1 bd
       -0.05897059 -0.2552068 0.054030173 -0.10244984
000290 3e 7b 04 3e b3 42 d1 3b 87 4f c2 3b 3f 21 55 3c
       0.12937638 0.006386125 0.0059298906 0.013008415
0002a0 51 07 42 bc 4d 7b 4f b9 e8 60 0e 3e c0 ee c7 be
       -0.011842565 -0.00019786991 0.13904154 -0.3904934
0002b0 95 ea 01 bf 90 31 31 be de cd 67 be 70 a9 d1 be
       -0.5074857 -0.17304063 -0.22637126 -0.40949583
0002c0 c8 47 7d be 04 0e 80 be 0a 81 3a be 34 1a e2 bd
       -0.24734414 -0.25010693 -0.18213287 -0.11040154
0002d0 34 f0 16 3e 3f 24 8a 3d c9 4d a6 bc dc 49 aa 3e
       0.14740068 0.06745195 -0.020300763 0.33259475
0002e0 61 6b 7f 3e bd 6a c4 3d 41 97 38 bd b4 a4 cc 3d
       0.24943306 0.09590671 -0.045066122 0.09992352
0002f0 7b 86 c1 3d 12 44 4c be 97 2f 62 be 0d 09 97 bd
       0.09449478 -0.19947842 -0.22088467 -0.07374773
000300 ea 9e 74 be 4d 74 86 be 36 81 21 be ad a3 cc bd
       -0.23888746 -0.26260605 -0.15771946 -0.09992156
000310 21 be a0 3a 6b e2 85 3d 46 2c a2 be 86 0a f3 be
       0.0012263694 0.065373264 -0.31674403 -0.47468966
000320 fe b8 88 be ac a2 57 be 4d 9b 98 be 0a b3 b3 be
       -0.26703638 -0.21058148 -0.29805985 -0.35097533
000330 10 f5 bc be 9d 7c fe be e7 58 ac be 52 4d 1a be
       -0.36905718 -0.49704447 -0.33661577 -0.15068558
000340 b0 e1 2a be 9e c6 59 3d 22 8e f3 3d 6b 62 ad 3d
       -0.16687655 0.05316793 0.11892344 0.08466037
000350 89 33 b9 3d 2f 81 84 3e 9a a2 7a 3e 08 3c 5a 3e
       0.09043033 0.2587981 0.2447609 0.21311963
000360 92 37 86 3d 7c d1 19 be ec ab 34 bd cf 58 e1 3d
       0.06553568 -0.15021318 -0.04410927 0.11003267
000370 9f 3f 31 bb 9f 4d 13 3d 3b a2 f8 bc d6 c2 cc 3d
       -0.0027045978 0.035962697 -0.030350795 0.099980995
000380 57 0f f4 bd 13 8b 90 bd 4a 7d 29 3d f7 93 da bd
       -0.11916988 -0.07057776 0.04137925 -0.10672753
000390 11 84 0a 3d 38 a1 46 3d ce 9e 99 bd a7 f7 57 3d
       0.033817355 0.048493594 -0.07500993 0.052726414
0003a0 76 10 a5 bc 38 9b 56 3a 2f 6d 9b 3e 02 64 92 3e
       -0.02014945 0.00081865815 0.30356738 0.28591925
0003b0 0e 19 23 3d fc 60 71 3e cd 4d 35 3e 43 35 97 3e
       0.039818816 0.23572153 0.1770546 0.29532823
0003c0 a1 b3 2e 3e 1a dd 49 3e 20 ba 14 3e 3d fd 10 3d
       0.1706071 0.1971325 0.14524126 0.035397757
0003d0 b9 ee 19 bc be 90 c7 bb ba 90 4c 3c 19 5c 01 be
       -0.009395295 -0.0060902527 0.012485677 -0.12632789
0003e0 1e c6 cc 3c 44 f0 44 bd 52 47 24 bd 3b b5 81 3d
       0.024996813 -0.048080698 -0.04010708 0.06333395
0003f0 93 0c c3 bd 40 3e d2 bd 97 11 b5 bd dc 56 55 3d
       -0.09523883 -0.102657795 -0.088412456 0.05208479

conv3.bias f4 [8]
000000 32 bc 8b 3c 59 de 0f 3e 76 b6 96 bd 8c 0c 69 be
       0.017057512 0.14049663 -0.073590204 -0.22758693
000010 01 18 23 3d 4d 42 d6 bd e7 dc df 3c 88 3e 28 bd
       0.039817814 -0.104618646 0.027327014 -0.04107526

fc1.weight f4 [128, 1568]
000000 81 b3 6b 3c af b7 9c bc 96 b1 20 bd 63 e5 c6 3c
       0.014386059 -0.019130556 -0.03923186 0.024279302
000010 ec 7f 3b bd 50 d3 12 ba 21 b8 18 bd 3c 17 42 3d
       -0.045776293 -0.0005600946 -0.037284974 0.04738544
000020 1c 2a 8e bb f9 1b 2f 3c ea e6 3d 3d f9 3c 25 bd
       -0.004338516 0.010687822 0.046362795 -0.04034135
000030 8d 65 29 bd 69 71 0d 3d b9 81 5b 3c 8b 26 85 bd
       -0.041356612 0.034531984 0.0133976275 -0.06501492
000040 a6 5e dd bc e7 7f 69 bd cb 85 ad 3b 9c e2 20 3d
       -0.027022671 -0.057006743 0.0052954904 0.03927861
000050 20 4e 83 bb 7e bb cf 3c e2 4a 30 bd 33 b4 30 3d
       -0.004007116 0.025357958 -0.043040164 0.0431406
000060 14 4c 34 3c 5b 71 d7 bc 5d b2 fa 3c 63 7d 20 bd
       0.011004467 -0.02629917 0.030602628 -0.039182078
000070 58 d4 4c 3c 03 b5 8a 3c 7c 1f 75 bd 7f bc 62 bd
       0.012501799 0.016932016 -0.05984448 -0.055355545
000080 29 a4 bb bc d5 78 35 3d 47 7b 95 3c 63 eb 5c 3d
       -0.022905426 0.044304688 0.01824726 0.05393542
000090 e0 cd 3e bd 4e f8 4d bd 09 55 94 bc 61 00 59 3d
       -0.046583056 -0.05028563 -0.018106954 0.052978877
0000a0 0c f4 68 bd b2 60 cb 3c 2e 74 a2 3b 4b 38 b1 bc
       -0.056873366 0.024826381 0.0049576974 -0.021633288
0000b0 e4 6f 34 3d ac 1a 50 3d 29 14 4b 3d 5a e1 28 3d
       0.04405202 0.050806686 0.049579773 0.041230537
0000c0 ce 90 58 3d 60 42 1d bd 5f cd a9 bc 31 c5 ff b9
       0.05287247 -0.03839338 -0.020727811 -0.0004878431
0000d0 af 8c f6 bc 7b f7 25 bc ce 8c 55 3b a9 27 30 3d
       -0.03009638 -0.010129805 0.0032585147 0.043006573
0000e0 6e df 68 3d cf 9b c6 bc c7 be 35 bd a4 4c a0 3c
       0.056853704 -0.024244217 -0.044371393 0.019567795
0000f0 ba a9 16 bc 55 3b 19 bd f8 86 30 3d 66 46 2e bd
       -0.009195739 -0.0374101 0.043097466 -0.042547606
000100 f6 3d 26 bb d9 70 55 bd 10 90 48 bd 04 51 41 3d
       -0.0025366521 -0.052109573 -0.048965514 0.047196403
000110 31 bc 20 bd 0b 9b 4e 3d ee 91 39 bd 3d fc 3e 3d
       -0.039241973 0.05044083 -0.045305185 0.046627272
000120 22 da 94 bc ba 33 fc bb 70 1f 3d 3a 44 26 fb 3c
       -0.01817042 -0.007696596 0.00072144624 0.030657895
000130 7e 73 80 3c 0d 29 54 bd 70 c9 e9 bc 64 36 4b 3d
       0.015680071 -0.05179696 -0.028538436 0.049612418
000140 8a b9 6a 3d b5 07 1b bd 87 83 90 bc f6 63 30 3d
       0.05730585 -0.037849147 -0.017640842 0.04306408
000150 29 ed 3d 3d 8f 35 40 bc 47 77 05 bc 4d 66 ca 3c
       0.04636875 -0.011731519 -0.008146114 0.024706984
000160 de 20 84 3b 9b 67 59 3c 61 a5 53 bd f2 e9 e8 3c
       0.0040322384 0.01326933 -0.05167139 0.028431866
000170 f8 29 51 bd 5f 7e a9 bc 1f d0 15 bd 4c 52 51 bd
       -0.051065415 -0.020690141 -0.036575433 -0.051103875
000180 7b e6 0d 3b 14 12 54 bd 2e cc 61 bc ad 5a 6c bd
       0.002165227 -0.051775053 -0.01378159 -0.057703663
000190 74 92 08 3c c7 57 20 3c b1 cf 01 bd b6 a6 84 3c
       0.008335698 0.009786553 -0.03169221 0.016192775
0001a0 39 eb 91 bc 66 17 7f 3c 1a e7 5c 3d 33 13 96 bc
       -0.017812358 0.0155695435 0.053931333 -0.018319702
0001b0 de 97 58 3d 0f 5d e6 bc de 27 60 3d 45 83 a6 bc
       0.052879207 -0.028120546 0.05472552 -0.020326266
0001c0 b3 a5 4d 3d 46 be 05 3d 8d 83 a4 3c e5 0c 23 3d
       0.05020685 0.032652162 0.02008226 0.03980722
0001d0 27 bf 8b 3c cc a6 fb bc 37 c6 90 bc 77 ee 26 bc
       0.017058922 -0.030719183 -0.017672641 -0.01018869
0001e0 a1 1b 60 bc 8c dc 0e bd 72 5a d1 bb ba f5 54 3d
       -0.013678462 -0.0348783 -0.0063889557 0.051992156
0001f0 21 2d 4f 3d 19 04 74 3c ed 16 22 bd f7 13 5f bd
       0.050580148 0.014893555 -0.039572645 -0.0544624
000200 7c ae 18 3d 6d 46 5d 3d d0 44 ac bc 3e d4 3d 3d
       0.037275776 0.05402224 -0.021028906 0.046344988
000210 4a b6 55 3d e5 66 be bb 25 79 8c 3c 7e 00 3b 3d
       0.052175798 -0.005810606 0.01714761 0.045654766
000220 8c 1f 99 bb 80 c0 18 bd b3 8c 53 3a 5e 00 d6 3c
       -0.00467295 -0.037292957 0.0008069977 0.026123222
000230 9f 3f 59 3c fc 31 12 bd f7 d9 44 3c c5 78 57 3d
       0.013259797 -0.0356922 0.0120148575 0.05260541
000240 1c 29 80 bd 7c 43 3d 3d 76 e2 39 bd b9 97 b8 b8
       -0.06257841 0.046206936 -0.045381986 -8.802064e-05
000250 1e ea e6 bc 7d ad 6e 3c c6 08 81 bd c4 c1 ed 3c
       -0.028187808 0.01456773 -0.063005015 0.029023059
000260 8f af 63 bd 6b b7 5b bd ed e7 39 bd 35 dd 9f bc
       -0.055587348 -0.053641718 -0.045387197 -0.01951466
000270 01 00 20 bc 03 85 36 bd e5 98 4c bd e4 69 da 3c
       -0.009765626 -0.044560444 -0.0499505 0.02666182
000280 39 c9 a5 bc 6b d7 70 bd 58 c1 09 bc de 5d 1e bd
       -0.020237552 -0.05879919 -0.008407913 -0.038663737
000290 53 9c a1 3c 80 00 06 bd 7a d1 a1 3c 06 86 af bc
       0.019727862 -0.03271532 0.019753207 -0.021426212
0002a0 04 f9 e8 3c e4 13 5f 3b 75 27 17 3d 9c 3a 24 bd
       0.028439052 0.0034038955 0.036902864 -0.040094957
0002b0 0c b9 d4 bc 41 20 6b bb 5b 48 29 bc 64 c4 8d 3b
       -0.025967143 -0.003587738 -0.010332192 0.00432639
0002c0 a6 e5 35 bb 31 53 da 3c 95 03 58 bd fd 70 63 bd
       -0.002775529 0.026650997 -0.05273779 -0.055527676
0002d0 ee 7c 8c 3c 1a 35 44 bd 78 34 19 3d 0b 7e 2f bd
       0.017149415 -0.047902204 0.037403554 -0.042844813
0002e0 91 49 d4 bc 31 fd 94 3c 0a 39 17 bd d1 2b c0 3c
       -0.025913985 0.018187137 -0.03691963 0.023458393
0002f0 6d 5a 71 bd 7f fa 08 3c 4d c5 c2 bc 3c 9a eb 3c
       -0.058924127 0.008360504 -0.023775721 0.028760068
000300 cc 27 12 3d c9 67 14 bd 43 fd 28 bd 9a b3 da 3c
       0.035682485 -0.03623179 -0.041257154 0.026696969
000310 ea 51 8e bc 47 da 61 bd 87 46 0b 3a 41 91 ed bc
       -0.017373044 -0.055139806 0.00053129386 -0.028999927
000320 eb 1e af 3c 7c 34 c6 bc b4 f3 d8 3c 9d 47 0f 3d
       0.021377048 -0.024194948 0.026483394 0.034980405
000330 79 f9 fb bc ab 5f c1 3b e1 d5 30 3d 37 ad 4d 3d
       -0.030758606 0.005901297 0.04317272 0.05021402
000340 5b 9b 15 3d 4c 57 8a bc bf d2 c3 3c 7d 07 65 bc
       0.03652511 -0.01688733 0.023904203 -0.013978836
000350 fc 04 f6 bc 7a b1 1a 3d d6 69 08 bd d7 2e 44 bd
       -0.030031674 0.03776691 -0.033304058 -0.047896232
000360 51 04 eb 3c 31 c3 d0 bc 9e 02 dd bc 62 9c b1 3b
       0.028688582 -0.0254837 -0.026978787 0.0054202536
000370 28 f6 16 bc 8b 26 d8 bc c5 7f b2 bc 64 29 72 bd
       -0.009213962 -0.026385566 -0.02178944 -0.059121504
000380 d4 f6 0c 3c 18 3e f7 3c fc 43 dd 3c 72 f3 10 bd
       0.00860377 0.030180976 0.027009957 -0.035388418
000390 6f bf 23 3d 4f a2 4a bd 01 72 98 3c 4a c8 cb bc
       0.039977487 -0.049471196 0.018609049 -0.024875779
0003a0 dd 65 e0 bc 91 30 2b 3c e7 66 66 3d 14 06 02 3d
       -0.027392322 0.010448591 0.05625048 0.031744078
0003b0 3f 3e b5 3c f9 a9 a7 bb f3 e0 72 bc 09 b3 3e bd
       0.022124408 -0.005116698 -0.01482414 -0.04655746
0003c0 90 69 ba 3c 55 b7 18 bd 39 9b c5 bc 99 ad 37 3d
       0.022755414 -0.037284214 -0.024121867 0.04484329
0003d0 59 be 12 3c 05 80 1a 3a e3 9d ba 3c ae 41 ed bb
       0.008956515 0.000589371 0.022780364 -0.0072404956
0003e0 ad d2 8c 3b 6d 14 3c 3d 8f e5 49 bc 90 87 4e 3d
       0.0042975754 0.045917917 -0.012322797 0.05042225
0003f0 25 b3 d6 3c cb 1f 0d 3c 09 80 35 3d 96 e7 b3 bc
       0.02620847 0.008613537 0.044311557 -0.021961015

fc1.bias f4 [128]
000000 f1 4a 9f bb 8f 15 0f 3a 7b 38 2d bd 51 bf aa bb
       -0.0048612286 0.00054582296 -0.042290192 -0.005210795
000010 d0 31 da bd 13 e8 c3 bc 2f 35 a9 bc eb c7 c4 bb
       -0.10654032 -0.023914373 -0.020655243 -0.0060052774
000020 14 f8 fd 3d d9 95 cd bc e6 f8 85 3d fe 1a ca bb
       0.12400833 -0.025095867 0.06541614 -0.0061677685
000030 48 bf c2 bc 99 5b 8d bc a6 ea 9a bc a8 6a 4c bc
       -0.02377285 -0.017255591 -0.018910717 -0.012476601
000040 5f a6 c4 bb 43 13 2f 3e 48 3e 82 3d f9 f7 ba bd
       -0.0060012783 0.17097192 0.063595355 -0.09129328
000050 c7 4f 6c 3e fe e8 43 bd 33 73 4d bd d4 92 ef bb
       0.23077308 -0.04782962 -0.05015869 -0.0073112044
000060 18 31 ad bc c3 1b 94 3d e7 37 53 bb e1 84 58 3e
       -0.021141574 0.07231858 -0.0032229365 0.2114444
000070 2f c4 bd 3d 1f 1a d5 bc f2 fb 13 3e b0 6a 68 bd
       0.09265935 -0.026013432 0.14451578 -0.05674237
000080 63 11 cc bc 11 18 5a bd db cb 70 bd 03 28 6c be
       -0.024910634 -0.053245608 -0.05878816 -0.23062138
000090 99 e6 7f 3d 0a 5d 1a bc b4 91 b2 bb 8d b2 a6 bb
       0.062475774 -0.009421596 -0.005449498 -0.005087203
0000a0 a5 ca a8 bb c3 bf 61 bc 47 28 ea bb 76 10 28 bd
       -0.0051511102 -0.01377863 -0.0071459147 -0.041031323
0000b0 c4 95 d4 bb db 6b 28 3e 15 dd ff bb 74 3e 3b be
       -0.00648758 0.16447394 -0.0078083375 -0.18285543
0000c0 04 8e 23 bc d2 8a 57 3e 27 28 0b bc ed 04 4e bc
       -0.00998259 0.2104905 -0.00849346 -0.012574417
0000d0 29 b9 1c 3e 7e 60 da bb ca 76 06 3d c3 e2 b7 3d
       0.15305008 -0.006664335 0.03282813 0.08978798
0000e0 82 2f 0f bd c8 7d d3 bb c1 f8 a7 bb 30 2d 66 bc
       -0.034957416 -0.0064542033 -0.0051260893 -0.0140488595
0000f0 00 47 07 3d 63 7a ef bb 23 83 5c bd 27 bd 88 bb
       0.033026695 -0.007308291 -0.053836 -0.0041729393
000100 4e 55 a0 bd 67 45 13 be 55 fe 4d 3e 8a 19 f2 bc
       -0.078287706 -0.14381944 0.20116551 -0.029553194
000110 ef 75 a0 3e 70 4d f0 3c 04 ee 0a bc 3e 02 57 be
       0.31339976 0.0293338 -0.008479599 -0.20996949
000120 59 94 91 bc 42 78 84 3c 44 9b 35 3e 3c 8f c5 bb
       -0.017770933 0.016170625 0.1773501 -0.0060290378
000130 8c c9 c4 bb b4 2c ef bb a9 50 25 bc 22 cb e6 bb
       -0.0060054716 -0.00729903 -0.010090032 -0.0070432583
000140 6f e5 2f be 9c 3c e5 bc 17 a6 01 bd 99 61 6a bd
       -0.17177366 -0.027983002 -0.031652536 -0.057221983
000150 e9 d9 1e bc 27 6a cb bc 09 09 64 3c 46 5d 6b bc
       -0.0096955085 -0.02483089 0.01391817 -0.0143655
000160 d0 49 d0 bc ff 5a 93 3d ab 96 64 bc 1d 07 83 bd
       -0.025425822 0.071950905 -0.013951938 -0.06397841
000170 4f d1 05 be 17 60 08 be 58 9b ad 3a 03 5d 32 be
       -0.13068126 -0.13317905 0.0013245149 -0.17418294
000180 c8 65 72 bc 32 ea 90 bb e5 39 0f 3c de f8 b8 bc
       -0.014794774 -0.0044224495 0.0087418305 -0.022579607
000190 ff 53 c8 bb a4 d5 8b bc 34 e6 63 bd 2a 13 18 bd
       -0.0061135287 -0.017069645 -0.05563946 -0.03712765
0001a0 44 7d 35 3c fb 5a 14 3d 2b 99 e2 bb 88 13 89 3d
       0.011077229 0.03621958 -0.0069152317 0.066931784
0001b0 35 46 70 be 4a 79 4c be 3b cc fc bc 8e 6a 18 bc
       -0.23464282 -0.19968143 -0.030859103 -0.009302748
0001c0 32 09 56 3e 7a 88 f8 bb bc 08 17 bd a1 f4 03 bc
       0.20901945 -0.0075846286 -0.036873564 -0.00805393
0001d0 9d 85 91 3d 19 43 15 bd d9 2a 0b 3e 2c c9 c4 bb
       0.07105563 -0.036440942 0.13590564 -0.006005427
0001e0 e0 62 57 3e a7 dc ff 3d 40 dd d7 bd 07 f7 e8 bb
       0.21033812 0.12493258 -0.10540247 -0.007109526
0001f0 55 2b d8 bc c6 55 18 be 6e c9 c4 bb 63 00 06 bd
       -0.02638785 -0.1487647 -0.0060054576 -0.032715213

output.weight f4 [10, 128]
000000 5c fa 2d be 84 c1 f7 3c 49 9d fc bb 3e ea 35 be
       -0.16990036 0.030243643 -0.0077091795 -0.17765138
000010 5f ee 8f 3d a7 10 68 3d 3c de ca 3c 75 63 f1 bd
       0.070278876 0.056656506 0.024764173 -0.11786548
000020 8b 7b 8e 3c 15 3c 0d 3d 46 ab 1a bd 11 74 ae 3d
       0.017392894 0.034481127 -0.037760995 0.08518232
000030 37 4b 11 3e af 50 0d 3e 7d 43 2a 3d d7 ec 3c be
       0.14188848 0.1380031 0.041568268 -0.18449722
000040 2f 8d 4c 3e cb 70 32 be c3 0c 33 bc a4 69 2e be
       0.19975732 -0.1742584 -0.010928336 -0.17032486
000050 97 81 3e 3e 76 d4 9b 3d 75 e5 e6 3d c4 84 97 3d
       0.18604122 0.07608883 0.11274234 0.0739837
000060 a9 57 43 3e c5 68 21 3e 5a 3d 9f 3d 43 50 d1 3d
       0.19076408 0.15762623 0.07775374 0.10220387
000070 97 3e 28 3e c6 d1 af bd 6a fa 29 bd 9a 45 a4 3d
       0.16430126 -0.08584933 -0.04149858 0.08021088
000080 7f 1e 93 3d ba 66 98 3d 66 07 92 bd 94 e4 e2 3d
       0.07183551 0.074414685 -0.071303174 0.11078754
000090 29 99 4b 3e 3f 8a 1e 3e 9c fc 65 bd d7 10 07 3e
       0.19882645 0.15482424 -0.05614911 0.13190018
0000a0 f0 b4 19 bd 76 08 31 3d 22 9d 4f 3e 09 a3 20 3e
       -0.03752607 0.04322096 0.20274785 0.15687193
0000b0 cf ee 71 3d 5c 11 4d bc 87 4d 95 bd be 70 d6 bd
       0.059065636 -0.012516346 -0.07290178 -0.104707226
0000c0 8b 79 05 3e cd 4c 33 be c8 ad 90 3d 8d 22 04 3e
       0.13034646 -0.17509766 0.07064396 0.12903805
0000d0 8c dc 9d 3e 90 dd ec 3d f1 50 07 3e 4e 11 e9 3d
       0.30832326 0.11565697 0.1321447 0.11380254
0000e0 6b b2 28 3e 7f 1b 78 bd 0c 8a c0 3d bb 29 32 3e
       0.16474311 -0.060573097 0.0940133 0.17398731
0000f0 d0 82 18 3d a0 87 93 3d 52 1e f6 3d 3b 60 90 3d
       0.037234128 0.07203603 0.12017502 0.070496045
000100 d5 ad 33 bd 5f 98 84 3b a9 69 06 be d6 be 0d 3e
       -0.04386695 0.0040464844 -0.13126244 0.1384233
000110 9e ca 95 3b 14 2d d1 be 30 30 91 3c f9 86 48 3d
       0.004571273 -0.40854704 0.017723173 0.048956845
000120 e5 51 1c be 71 ba cd 3d 7e 34 15 3e ed 47 9b 3d
       -0.15265615 0.100453265 0.14570805 0.07582078
000130 8b aa 0d be bc 01 84 3c f7 f5 c4 bc b6 27 9a bc
       -0.13834588 0.016114108 -0.024043066 -0.018817764
000140 5d d9 dd bd 3c 91 4c be 30 28 8f bd 48 a7 89 be
       -0.108324744 -0.19977278 -0.06990087 -0.26885438
000150 6e 48 4d be cd 32 1f 3e a8 2a e4 3d 09 9a ef bd
       -0.20047161 0.15546723 0.111409485 -0.11699302
000160 02 1c 45 be 5f ea 24 3e e5 12 94 3d 17 91 c3 3d
       -0.19248965 0.1610503 0.07230166 0.09549158
000170 b4 fe 95 bd 84 65 38 be 00 cd 34 bd cf cf b7 3d
       -0.073239714 -0.18007475 -0.044140816 0.08975183
000180 e4 08 8c 3d f0 5e 34 be 35 2d b9 bd 6a 58 c5 3c
       0.06837633 -0.17614341 -0.09041826 0.02409001
000190 97 df 87 3d a4 99 64 3c 9f af 87 bd e3 95 0d 3d
       0.06634443 0.013952646 -0.06625294 0.03456677
0001a0 bd a9 d3 3d 7b aa 8e 3e d5 10 45 3e b0 6e e0 3d
       0.103351094 0.2786444 0.19244702 0.10958612
0001b0 2e e2 8a be f8 51 02 be 15 df 16 3d 1c b4 30 bc
       -0.27125686 -0.12726581 0.03683384 -0.010785129
0001c0 57 ff 05 be 42 46 d5 3b 21 4d 13 3d a3 79 1a bd
       -0.13085686 0.0065086195 0.035962228 -0.037713658
0001d0 5d a0 c0 be a4 4e d9 bd 15 9a 04 be d6 7a 21 bd
       -0.37622347 -0.10610703 -0.12949403 -0.039423786
0001e0 2c ee df be 5a 55 8d 3e 40 a7 04 be d7 0f 8a 3d
       -0.43736398 0.2760418 -0.12954426 0.067413025
0001f0 94 60 4d 3e f4 d2 a8 bd bd 9c 3a bc a3 bc e2 bd
       0.20056373 -0.08243361 -0.011389908 -0.11071136
000200 cc 89 d5 bd 39 5b de 3c 26 10 21 3d 87 94 e5 3d
       -0.10426673 0.027143108 0.03932204 0.1120997
000210 61 0a 5e be e8 89 93 3c 46 e4 1f be fd 59 03 3d
       -0.21683647 0.018010095 -0.15614423 0.03206824
000220 2e dd 56 3d b8 31 37 3c fd 69 46 3e 73 d4 18 3e
       0.052457027 0.0111812875 0.19376369 0.14924793
000230 d6 ba fe bc 9a 88 dd bb c4 1e 4e be 4c 48 e7 3d
       -0.03109495 -0.006760669 -0.20128924 0.112930864
000240 11 d6 50 be b1 d2 7b 3d 0f 2f 82 3d 0b 1f a2 3e
       -0.2039416 0.061480228 0.06356632 0.3166431
000250 07 59 f8 3c 68 63 9e bd 00 08 cc 3d ca cf 3d 3d
       0.030315889 -0.07733804 0.099624634 0.04634074
000260 54 79 bd be 52 2e d5 3e 2f de e4 bb 4b b3 1d be
       -0.3700663 0.41636902 -0.006984494 -0.15400426
000270 df 68 25 be b7 75 0c bd d2 a0 ca bd e1 9e 86 3d
       -0.16153286 -0.03429195 -0.09893955 0.065732725
000280 cd 86 7c be 1b 88 06 3e eb c9 ee bd 75 40 b7 3e
       -0.24660797 0.13137858 -0.116596065 0.35791364
000290 0d 15 2e bd 96 d7 3d 3d 30 f6 d9 bd c3 94 41 3e
       -0.042500544 0.046348177 -0.1064266 0.18904404
0002a0 b8 af 8d bd 68 19 08 be b5 07 fc bd a8 18 a1 bd
       -0.06918281 -0.13290942 -0.123061575 -0.07866031
0002b0 b2 87 d7 3a 57 43 4d 3e 9f d8 be 3d 2c ec 6e be
       0.0016443639 0.2004522 0.09318661 -0.2333228
0002c0 b2 b4 f3 bc 91 0e d8 3b 80 7f d5 3d a5 48 94 3b
       -0.029749248 0.0065935333 0.10424709 0.0045252615
0002d0 ab 21 3c bd c1 ca ce 3d 32 e9 06 3e 95 3c a0 3d
       -0.045930546 0.10097266 0.13174894 0.07824055
0002e0 4a d2 b5 bd e5 7b dc 3d 24 69 2a be 44 08 fb bc
       -0.08878 0.107658185 -0.1664167 -0.03064359
0002f0 03 90 86 bd fe 2b 3d 3e 18 08 0d be ef 5a c7 3d
       -0.06570437 0.18473813 -0.13772619 0.09734141
000300 b5 79 ad 3e 7c 54 28 3e 08 da 2a be 2e d2 db 3d
       0.33881918 0.16438478 -0.16684735 0.10733448
000310 5e 17 2c be d0 3f 08 3e 1f 2c 6d 3b f0 47 69 bd
       -0.16805789 0.13305593 0.0036189628 -0.05695337
000320 17 84 29 3d bf 27 37 3e d5 8f 56 be ef 39 a9 3c
       0.041385736 0.17886256 -0.20953305 0.020657508
000330 44 f1 15 3e cf 1c 08 3e 96 08 80 3d 21 16 20 3e
       0.14642817 0.1329224 0.06251638 0.15633442
000340 62 4f 10 3d 68 63 b3 bd e6 51 2f be 15 a4 42 3e
       0.035231955 -0.087591946 -0.17121086 0.19007905
000350 fd 29 a3 bd 79 26 14 3e 66 f9 5e 3b 88 5e 34 be
       -0.07966993 0.14467801 0.0034023165 -0.17614186
000360 a4 9d f6 3d 49 f0 7a be af 2d 8e bd 44 e5 41 be
       0.12041786 -0.24505724 -0.06942307 -0.18935114
000370 fb a4 44 3d 5e 54 3d bd a1 8a dc bd 46 b4 ac be
       0.0480089 -0.046223037 -0.10768629 -0.33731288
000380 53 41 2f 3e 3f e4 91 3d 13 e3 f9 3d f7 6d f1 bd
       0.17114763 0.071236126 0.12201514 -0.11788552
000390 c2 7f a4 3b 26 81 03 be 07 b6 b4 be b1 5d 9e bd
       0.0050201127 -0.12842235 -0.35295126 -0.07732714
0003a0 1d ef 8c bc f7 10 05 bd 37 58 53 be fc 8c b4 3d
       -0.017203862 -0.032486882 -0.2063912 0.08815953
0003b0 5a 8c 98 3d 4c 82 15 bd f4 8e 85 3e 20 d5 fc bd
       0.07448645 -0.036501214 0.26085627 -0.12345338
0003c0 52 c3 40 bc c5 45 21 be f7 73 11 be 3c 3c 4e 3e
       -0.011765318 -0.15749271 -0.14204393 0.20140165
0003d0 d3 27 e1 bc 72 94 67 3c 0a 48 f9 bc 03 91 fe bc
       -0.02748481 0.014134513 -0.030429859 -0.031075006
0003e0 7b cb 80 be 76 16 af be 1a 17 ae 3d 5a 8a 0a 3d
       -0.25155243 -0.34196824 0.085005 0.03382335
0003f0 e7 01 af bd b5 4c c0 bd 17 75 92 bd 57 bf 5a 3c
       -0.08545285 -0.09389631 -0.07151239 0.013351283

output.bias f4 [10]
000000 df 45 c6 3d 2b 1a 9f bd 36 ee a3 be 2e 04 02 3e
       0.096812956 -0.07768663 -0.32017678 0.12696907
000010 8a c3 d5 3d 0d c9 e3 bd ca ff 33 3d db 88 86 3c
       0.10437687 -0.11122332 0.04394511 0.01642268
000020 5c 67 68 3e 56 4c 49 be
       0.22695678 -0.19658026
