Tomato_cnn/saved_ckpt/best_model_epoch_10.pt (torch, 839136 bytes, 10 tensors)

conv1.weight f4 [32, 3, 3, 3]
000000 16 c8 36 bd 17 c2 9e 3d 9a 0c 5a 3c 9f 9a 7f 3d
       -0.04462441 0.077518634 0.0133086685 0.062403318
000010 07 c7 48 bc 22 2e a5 bd 0e 80 7c bd dd 1b 76 3d
       -0.012254483 -0.0806544 -0.06164556 0.060085166
000020 43 45 29 3d 93 3b 50 3d 6d 7d be 3d b7 c0 a7 3d
       0.04132582 0.050838064 0.09301267 0.08191054
000030 ec c0 0e be 83 12 08 be 4f 9d c3 bd 91 bf f3 bc
       -0.13940781 -0.13288312 -0.095514886 -0.029754432
000040 26 87 04 3e 21 76 c7 bc a4 da 16 3c 11 c3 79 bd
       0.1294218 -0.02434832 0.009207401 -0.060977045
000050 bf 32 11 3d df f7 c9 bd 0b ab 67 bd 00 65 cb 3d
       0.035448786 -0.09861731 -0.056559604 0.099313736
000060 7f 0d 8e 3d f1 94 fa bd 80 69 7e 3c 9e 4e 43 3d
       0.06936168 -0.122354396 0.015528083 0.047682397
000070 1b a6 fc bd 1d 8d 51 3b 3a a0 e7 bd 09 53 d9 3d
       -0.123363696 0.003197498 -0.11309858 0.10611541
000080 55 33 8a 3d d6 e5 6e 3d b9 a6 b1 3d ae a3 fe bd
       0.06748072 0.058324657 0.08674378 -0.12433563
000090 b8 ab 16 bd 9d a3 ed bd 0f 76 f2 bc 11 fe e8 3d
       -0.036784858 -0.116034724 -0.02959731 0.11376584
0000a0 6f e5 dd 3d b2 e8 fe bc 90 cb 74 3d 75 e4 75 3d
       0.108347766 -0.031116817 0.059764445 0.060032327
0000b0 d5 0d 73 3d 26 ac e2 bd 9d f9 c7 bc 6e 4c 9c 3d
       0.059339363 -0.11067991 -0.024411017 0.07631765
0000c0 70 52 c7 3d 0b 1a 68 3d 63 c0 d5 bd 0c 79 53 bd
       0.097325206 0.05666546 -0.104370855 -0.05162911
0000d0 7a 8b 35 3d 3d 5f 04 be 67 92 0f 3e 87 9b 09 3d
       0.04432247 -0.12926956 0.14020692 0.033595588
0000e0 28 ac 63 bc 4e 20 cc 3c b8 b9 cd bc 5a 08 b1 3d
       -0.013896026 0.024917748 -0.025112972 0.08644171
0000f0 b9 90 1c 3e ed 99 05 bd 17 3a 0f 3d 2b 6b 12 3d
       0.15289582 -0.0326175 0.03496751 0.035746735
000100 1a 34 0d 3e 13 64 ed bc 30 c2 cd bc 93 79 09 3e
       0.13789406 -0.028978383 -0.02511701 0.13425283
000110 d1 5b df bd 66 62 38 bd bd 9d 00 3e b1 7e 7d bd
       -0.109061845 -0.045015715 0.12560172 -0.0618884
000120 1d 54 e6 bd 68 1c ff bd 23 29 e6 bc 17 b2 52 3c
       -0.11246512 -0.1245659 -0.028095787 0.012859843
000130 a1 bc 0d be e0 00 a6 bd e6 5a 73 bd 86 a3 a8 3d
       -0.13841487 -0.08105636 -0.05941286 0.082343146
000140 8a 4c 0d be ed 06 b6 3d 1b 18 12 3e 5f 19 20 3d
       -0.13798729 0.0888804 0.14267008 0.039086696
000150 be 01 63 bc 86 f5 22 3e 91 2a 07 3e 27 1e 06 bc
       -0.013855396 0.15913972 0.13199832 -0.0081859
000160 60 e2 20 3d a4 65 85 3d 8f ea a5 3d 67 d1 81 3d
       0.039278388 0.06513527 0.08101379 0.063387685
000170 dc 08 a5 bd fd fc a5 3d 5f 2a 7b 3d 34 d3 6c 3d
       -0.080583304 0.08104894 0.061319705 0.057818606
000180 e4 fe 69 bd 27 3c d4 bc fd 42 5e bd 91 53 09 be
       -0.05712785 -0.02590759 -0.054263104 -0.13410784
000190 0d 7b 03 bb c1 01 0b be ff 6f a3 bd 0d b6 09 be
       -0.0020062358 -0.13574888 -0.07980346 -0.13448353
0001a0 e4 3a 7a 3d a0 86 bd bd bc d5 d2 3a 1d bf e3 bd
       0.06109132 -0.09254193 0.0016085426 -0.11120436
0001b0 24 80 ab bd 63 60 07 be 13 0b 12 bd ff 35 b6 3d
       -0.0837405 -0.13220362 -0.035655092 0.08897018
0001c0 ed 57 40 bc 89 bb 12 bd 74 b4 08 3d 59 dc 08 bd
       -0.011739713 -0.03582338 0.03337522 -0.033413265
0001d0 a5 f0 d4 3d 50 b9 15 3c 15 3e 20 3e 38 8a 8c bc
       0.10397462 0.00913842 0.15648682 -0.017155752
0001e0 06 23 a2 3d 12 80 d8 3d e0 75 08 3e 55 d1 1c 3e
       0.079168364 0.105713025 0.13326216 0.15314229
0001f0 8a 74 70 3d c5 9a da 3c 5f 2c bb bd e7 46 07 be
       0.05870489 0.026685128 -0.091393225 -0.13210641
000200 58 6a 2f 3d 4e d0 97 bd 91 c6 70 bd 83 19 8f 3d
       0.042826027 -0.07412778 -0.058783118 0.06987288
000210 32 1a 22 bd 6c ea 41 3d 41 0b 89 bd a0 2e ba bd
       -0.039575763 0.047342703 -0.066916 -0.09090924
000220 2b 06 69 3d 53 c7 b7 3d 54 41 04 3e 9a 83 9d bc
       0.056890648 0.08973565 0.12915546 -0.019227792
000230 9b 81 d7 b9 f3 26 5c bd 64 5e 33 be 88 a4 05 3d
       -0.0004110456 -0.053748082 -0.17516476 0.032627612
000240 49 36 ff bd 3d c1 e6 3d 52 a8 a1 bd 9f bd b1 3d
       -0.12461526 0.11267326 -0.07893433 0.086787455
000250 45 e6 b2 bc 18 ac 9e bd 5c 84 e7 3d 12 fe 0f be
       -0.021838317 -0.07747668 0.113045424 -0.14061764
000260 ca 89 0c 3e 87 fa 83 bd 94 d0 4f bd f0 99 b2 3c
       0.13724437 -0.06444269 -0.050736025 0.021801919
000270 e9 02 38 3c ac 45 1d be d3 94 67 3c 88 de 0c 3d
       0.011231163 -0.15358609 0.014134604 0.03439191
000280 dc cf 95 b9 d2 b4 ae 3d 7c 81 73 3d 5f 20 00 be
       -0.00028574362 0.085305825 0.059449658 -0.12512349
000290 44 ea b2 3d 45 4d fb bd c0 31 3c bd d2 b0 1d 3c
       0.08736089 -0.12270597 -0.045945883 0.009624677
0002a0 27 dd c9 bb ab 87 37 3d dc 19 84 3c b8 9e d5 3d
       -0.0061603966 0.044807117 0.016125612 0.10430664
0002b0 42 ae ea bc 12 95 d8 bd 8f 6f 5b 3d ee e0 dc bd
       -0.028647546 -0.10575308 0.053573187 -0.107850894
0002c0 af c6 0d 3d 80 63 0e be 7c c8 55 bd f3 00 a6 3c
       0.034613308 -0.13905144 -0.05219315 0.020264124
0002d0 2f f6 8d 3d 0b 9f 72 bd 79 34 14 3e a1 ae f6 3d
       0.069317214 -0.059233706 0.14473142 0.120450266
0002e0 93 84 6b 3d 70 1f 9d 3d e8 ce 6f 3c 00 71 ee 3d
       0.05749948 0.07672012 0.014636733 0.11642647
0002f0 30 28 ff 3d 88 3f 0c be ed 7f 1b bd d8 73 8f bc
       0.12458837 -0.1369611 -0.037963796 -0.017511293
000300 fa ef f1 bd 8b 5c c5 bd 7e 8a 3f 3d 44 de 92 3d
       -0.1181335 -0.09636792 0.046762936 0.071713
000310 e6 ae 90 3d 91 0d 44 3c 2e cc 82 3d 03 fb 13 3d
       0.07064609 0.011966125 0.063866004 0.036128055
000320 50 71 ec 3d 0c 74 01 3e bb 10 7d bd 58 3f e3 3c
       0.1154505 0.12641925 -0.061783534 0.027740166
000330 60 31 d8 bd 9d 58 8b bd 81 d7 96 bd e5 d2 67 bd
       -0.105562925 -0.06804011 -0.07365323 -0.05659761
000340 be d7 cd bd f8 e0 d4 bd 9e 1e 73 3d ec e2 74 3d
       -0.10050915 -0.10394472 0.05935537 0.059786722
000350 6c d3 ea 3d d3 a5 f1 bd 9f ab 06 3e 8c 27 9d 3d
       0.11466107 -0.117992066 0.13151406 0.076735586
000360 50 db 8a 3d 43 8e ff 3c 4a 6c 08 be 24 b7 cd 3d
       0.06780112 0.031195765 -0.13322559 0.10044697
000370 33 64 79 bc be 24 b4 bd df 77 2b be 1f de 3d bb
       -0.015221643 -0.087960705 -0.16744946 -0.0028971506
000380 4f 98 49 3d 90 a6 67 ba 98 bf 0f 3e 29 83 c0 bd
       0.04921752 -0.00088367704 0.14037931 -0.09400017
000390 77 3f 0d 3e e1 30 aa bc 4b c7 35 3c ff 8b 44 bc
       0.13793741 -0.02077526 0.011094878 -0.011996268
0003a0 83 e1 fe 3b 9e 54 da bd b6 e8 e1 3d 26 d5 84 bd
       0.007778348 -0.10660671 0.11030714 -0.06485967
0003b0 98 63 0d 3e 3c 99 0a 3e 0c 97 8c 3d 8e 29 ad bc
       0.13807523 0.13535017 0.068647474 -0.021137979
0003c0 c7 a3 c4 bc 19 37 ef bd 85 ca ac bd ba 30 fb bd
       -0.024003876 -0.11680431 -0.08437065 -0.12265153
0003d0 2c 3f 34 bd 50 28 28 be d2 55 c5 3d 5f 97 4f bd
       -0.044005558 -0.16421628 0.096355096 -0.050681468
0003e0 1e 19 c7 bb b7 1b 75 3d 02 a4 0e 3e ef 12 de bc
       -0.0060759922 0.059840884 0.13929752 -0.027108638
0003f0 96 72 0e 3e 7f 18 3f 3d 8e 76 3a 3c 15 ab 01 3e
       0.13910899 0.04665422 0.011380805 0.12662919

conv1.bias f4 [32]
000000 b1 01 fc 3c 8b c5 bc bd d8 f4 ea 3c 8d 95 0c bd
       0.030762525 -0.09217366 0.028681204 -0.03432231
000010 ec 7e 4d 3d 06 19 fb 3a 91 6c 04 bd 53 e5 88 bb
       0.05016987 0.0019157238 -0.0323301 -0.004177728
000020 d1 cc 38 bd 99 cd 99 bc 8c 29 e1 bc 11 5c 94 bc
       -0.045117203 -0.018774794 -0.027485631 -0.018110307
000030 4a 2e c5 3b 8f 81 16 bd 79 b6 11 bd 94 e0 2a 3c
       0.006017481 -0.03674465 -0.03557441 0.01042952
000040 47 0e 74 3d bb 86 d4 bb 8e 32 3b 3c f0 43 ec 3c
       0.05958393 -0.0064857877 0.011425627 0.028840989
000050 7a b4 1b bd fe b7 89 3c c5 43 d8 3d ce 92 c3 bd
       -0.038013913 0.016811367 0.10559801 -0.09549485
000060 c0 07 0b bd 01 a9 3b bd ef ce 76 bd 9b e3 e0 3c
       -0.033942938 -0.04581547 -0.06025594 0.02745228
000070 77 73 9e 3c dd 09 91 bc 3d e3 16 bd 48 ca fc bc
       0.019342167 -0.017704898 -0.036837805 -0.030858174

conv2.weight f4 [16, 32, 3, 3]
000000 84 42 8b 3d f6 5c ff bb 70 63 6e 3d b3 ba 42 3d
       0.06799796 -0.007793064 0.0582003 0.04754133
000010 1f 75 2d bd b2 f5 3d bd be 9b 17 3e 1a 3d 25 bd
       -0.042348024 -0.04637689 0.14805505 -0.040341474
000020 fc 81 20 bd 86 36 bd bd 81 f6 96 bc 60 de 94 bd
       -0.039186463 -0.09238915 -0.01842809 -0.07268977
000030 66 8d 9c bd 97 2a 99 bd 12 e3 db 3c 66 8b f8 3d
       -0.07644157 -0.074788265 0.026841674 0.12135963
000040 61 86 af bd d2 fe 8b bd bf 35 35 3c 70 b9 ba 3d
       -0.085705526 -0.068357125 0.011060177 0.09117401
000050 fd 93 30 3d 64 3b 00 be b1 58 9b 3d 22 24 1b 3c
       0.043109883 -0.12522656 0.07585276 0.009469064
000060 40 7f fc bd 0c 51 90 bd 1b 96 dc bb b2 52 55 bb
       -0.123289585 -0.070467085 -0.006731761 -0.003255051
000070 9e 1e a7 bd 4f 26 6d ba 4b 0d f2 bd 16 c3 ad ba
       -0.08160137 -0.0009046541 -0.11818942 -0.0013256993
000080 d9 63 ba bd 72 58 5d 3d b9 5f c7 3d ef f9 e1 bd
       -0.09101076 0.054039426 0.097350545 -0.11033999
000090 b8 28 ac 3c a1 9d 57 3c 44 0e c1 bd cc 1d 78 3c
       0.02101551 0.01316014 -0.09426549 0.015143823
0000a0 23 f8 0c 3d 95 06 dd bc 59 a7 c6 3d b2 86 a5 bc
       0.03441633 -0.026980678 0.09699888 -0.02020583
0000b0 12 65 a8 3d 15 62 e7 3d a6 6b 97 bb 82 b5 a2 bd
       0.08222403 0.112980045 -0.004620987 -0.07944776
0000c0 f2 24 36 3c 84 65 c6 3d a4 2c 28 bd cc 9c ee 3d
       0.011117207 0.09687331 -0.041058198 0.116510004
0000d0 85 98 ed 3b 32 69 2f 3c 40 73 e6 bc ed 61 10 3e
       0.0072508478 0.010706233 -0.028131127 0.14099856
0000e0 06 1c e3 3c 40 7a 98 bc 31 66 f6 3c 2c 8b dd 3d
       0.027723324 -0.01861298 0.030078026 0.108175606
0000f0 45 00 e5 3d e2 c5 85 bd fd 1c 91 3c a7 76 d1 3d
       0.11181692 -0.06531884 0.017714018 0.10227709
000100 d2 6c 8a 3d b2 f4 cc 3d f5 f0 35 bd f6 75 2f 3d
       0.06759037 0.100076094 -0.044419248 0.042837106
000110 d4 96 cd 3d 39 c7 20 3d 32 9c 27 3d f9 ff 58 bd
       0.10038534 0.039252494 0.040920444 -0.05297849
000120 82 1d a5 bc 7e 83 34 bd a0 88 61 bd 42 d9 dd 3d
       -0.020155672 -0.044070713 -0.055061936 0.10832454
000130 ff c6 b4 bd ed 5c b4 3d be 83 d8 3c ba 9b c3 3c
       -0.08827018 0.08806787 0.026430007 0.023877967
000140 cf a4 94 3d b4 ac a1 bd c5 0a 46 bd 7c cc c5 bd
       0.07257997 -0.07894269 -0.048350114 -0.09658143
000150 1c 4d a8 bd b0 c1 03 bc ce 24 c4 bd 65 5c 33 3c
       -0.082178324 -0.008041784 -0.095773324 0.010947322
000160 f2 9c cc bd a1 80 05 be e5 f3 85 3d 0b 22 24 3e
       -0.099908724 -0.1303735 0.0654066 0.16028611
000170 b9 06 09 3d 46 fd 15 bb d9 06 1e 3e a1 ce 23 3d
       0.033453677 -0.0022886558 0.154323 0.03999198
000180 07 e1 16 3c af 3b 23 3e 71 d2 df 3c 3b ae 85 3d
       0.009208924 0.15940736 0.027322026 0.065273724
000190 66 02 d6 3d ea d4 98 3d f8 1a c0 bd 1e 1a 0b 3d
       0.10449676 0.07462485 -0.09380144 0.033960454
0001a0 2c 47 3e 3d 33 db a4 3c 7e cf 97 3c cf ee d8 3d
       0.046454594 0.020124054 0.018531557 0.10592424
0001b0 a4 ce d7 3d df f3 53 39 03 9a 6c 3b 2d b3 41 3c
       0.105374604 0.00020213377 0.003610254 0.011822504
0001c0 24 d5 0e 3e 3c 3c b9 3d 7f 12 b5 3d a1 34 bd bc
       0.13948494 0.09044692 0.088414185 -0.023096384
0001d0 76 ae 90 bd 4b 85 b3 3d 95 ce b1 bc 4f 10 33 bd
       -0.07064526 0.08765658 -0.021704951 -0.043716725
0001e0 bb d9 ea 3d 3f c5 04 3e f3 5a b6 3d d0 92 32 3c
       0.1146731 0.12965868 0.08904066 0.010899261
0001f0 d2 2b 07 3e d0 e9 85 3d 95 11 af bc be a6 9c bd
       0.1320031 0.06538737 -0.021370688 -0.07648991
000200 b0 49 7b bd 8e 78 33 bd 21 96 19 bd 53 a3 88 3d
       -0.06134957 -0.04381614 -0.03749669 0.066717766
000210 e1 8b f6 3c ad 15 9f 3d 0f 1f c4 bd 55 d7 82 3d
       0.030095996 0.07767806 -0.095762365 0.063887276
000220 ac e7 c2 bd 2b b9 72 3d a3 d7 17 bd 79 98 bf bd
       -0.09516844 0.05925862 -0.03707088 -0.09355254
000230 95 9a 9f 3c f7 ac ad 3d a0 6c 62 3d 3a fb 9b 3d
       0.01948289 0.08480256 0.055279374 0.07616277
000240 e2 1e 4c 3e d8 f9 19 3c 01 42 fe 3d 68 12 3d 3e
       0.19933656 0.009397946 0.12414933 0.18464053
000250 a5 97 0b 3e 4f 3b 26 3e 6a f7 fd 3d bd fc 81 3d
       0.13632067 0.16233562 0.12400706 0.06347034
000260 3d e5 ae 3d bd c5 57 be 3a 15 e5 bd a2 d8 a0 bd
       0.085398175 -0.21071525 -0.11185689 -0.078538194
000270 5a a7 ad bc 68 4a 4a 3d f3 c5 18 3d 29 9b c9 bc
       -0.021197964 0.049387366 0.037298154 -0.024610119
000280 d2 80 c4 bd c1 04 cc 3c c6 28 24 3e f0 92 3a 3e
       -0.09594883 0.02490461 0.16031179 0.18220115
000290 63 eb 5f 3d da 63 59 3e 61 b8 80 3e 6d 65 b2 3c
       0.05466784 0.21229497 0.2514067 0.02177688
0002a0 99 c8 f6 3d 97 e8 13 3e 7d c0 3c 3e 1c 00 e9 bd
       0.1204998 0.14444195 0.18432803 -0.11376974
0002b0 3d 3c 72 be 62 a1 57 bd 69 f4 08 be e8 d3 3e be
       -0.23655792 -0.05264414 -0.13374485 -0.18635523
0002c0 2c fc 7e be e3 27 c7 bd 61 78 26 bc f0 a8 04 be
       -0.24900883 -0.09724405 -0.0101605365 -0.1295507
0002d0 e3 90 ba bd df 18 0c 3d 46 ec 5b bc e6 27 9a bc
       -0.09109666 0.034203406 -0.013423031 -0.018817853
0002e0 26 27 db bd bf f5 86 bd 36 3b 33 3d 86 c7 68 bc
       -0.10700826 -0.06589841 0.04375764 -0.014207726
0002f0 77 1e b9 3c 86 5c 46 bd 1f d2 bb 3d a8 6f fb 3d
       0.022597535 -0.04842808 0.09170937 0.12277156
000300 d3 2e 1a 3e 66 a8 38 3d c9 f6 38 3d c5 e9 96 3c
       0.15056925 0.045082472 0.045157228 0.018422017
000310 a0 56 9b 3d 44 35 af 3d 8a 72 11 be 71 0f e5 bd
       0.07584882 0.085550815 -0.1420385 -0.11184586
000320 28 9a d0 bd cb d5 1c be 57 aa ac bd 91 46 cd bd
       -0.10185653 -0.1531593 -0.08430927 -0.10023225
000330 ac 70 44 be f2 4b 9e bd c7 b0 58 be af 93 8e 3d
       -0.19183606 -0.07729329 -0.21161185 0.06961762
000340 8f 1c fb bc c6 5c a1 3d 3a 08 9d 3d f9 fc 51 3d
       -0.030653266 0.07879023 0.07667585 0.051266644
000350 7f 80 15 3e 3f 1e ad bb cc d6 12 3e 0d f3 60 3c
       0.14599799 -0.0052831466 0.14339751 0.013729823
000360 f2 84 9b 3d 2c a8 5e bd 39 a7 ea 3d 15 04 81 3d
       0.07593717 -0.0543596 0.114576764 0.06299607
000370 19 9f ca 3c cf 9b 1c bd c7 24 22 3e a3 72 2f 3e
       0.024734067 -0.03823453 0.15834342 0.17133574
000380 a4 b2 c3 3d 1d ac bb 3d 78 d9 19 3c 7a 43 41 3d
       0.09555557 0.091636874 0.0093902275 0.04718349
000390 10 5f a8 bd d5 64 ca 3d 89 ec 93 3d 85 97 d1 3d
       -0.08221257 0.098825134 0.0722285 0.10233978
0003a0 3d 01 ce bc 4e 2c f0 3b c8 8d 66 bd 26 7b fa bc
       -0.025147075 0.0073295003 -0.056287557 -0.0305763
0003b0 67 e8 33 bd 0e 05 99 bd 3a c3 91 3d 2a ae 68 3b
       -0.043922808 -0.07471667 0.07117315 0.00355042
0003c0 50 ec f1 3d 51 34 96 bd dc 4f 3f bd cd ad e1 3d
       0.11812651 -0.07334197 -0.04670702 0.11019478
0003d0 52 5c d7 3d ad aa 9a bd 66 a6 68 3d d5 ed 7b 3d
       0.105156556 -0.07552085 0.056799315 0.06150611
0003e0 13 bf d2 bd 67 bd b3 bd 3b ad 79 3e 97 76 03 3e
       -0.10290351 -0.0877636 0.24382488 0.12838207
0003f0 2b 82 56 3d 01 ab cc 3d ad 60 19 bd 21 d2 1e 3d
       0.05237023 0.09993554 -0.037445713 0.038774613

conv2.bias f4 [16]
000000 d3 f1 4a bb 02 52 a9 3b b9 3b f5 3c 9b 8e 22 bd
       -0.0030966892 0.005167247 0.029935705 -0.03968678
000010 78 3d 65 3d 4c 5f 9c bd e4 52 fd bd 97 39 07 3e
       0.055966824 -0.07635364 -0.12369326 0.13205563
000020 32 c7 95 bc c9 11 09 bd a5 ee d5 3d 62 36 7d bc
       -0.01828346 -0.033464227 0.104459085 -0.01545486
000030 54 1b 83 bd 74 ce 82 bc 5d f6 20 bd 6f 6f cc 3c
       -0.06401697 -0.015967585 -0.03929745 0.02495548

conv3.weight f4 [8, 16, 3, 3]
000000 a3 1a b3 bd 5a c9 d0 3d 5c 38 39 be 95 98 ac 3d
       -0.08745315 0.10194655 -0.18087906 0.0842754
000010 0f 44 19 be 88 26 ce bd 91 26 29 be 0d ef 4c 3d
       -0.14967369 -0.10065943 -0.16518618 0.050032664
000020 cf 1b 87 3b fa e5 2f bc fd 45 af bb 0b ed c3 3c
       0.004123188 -0.010735983 -0.0053489194 0.023916742
000030 fe 4d f1 bc 9f 1a dd 3d 1b f3 72 3e 8a 32 92 bd
       -0.029456135 0.10796093 0.2372555 -0.07138546
000040 31 2d 00 3e 54 d6 80 bd bb 88 c0 3d 85 c8 ab 3d
       0.12517239 -0.0629088 0.09401079 0.083878554
000050 57 02 1c bd 9e 10 48 be 1b bc c8 3d 18 a9 37 3d
       -0.03808817 -0.19537589 0.09801503 0.044838995
000060 41 10 ea 3d 6c 16 0b be cf e8 6e bc c3 5a 7d 3d
       0.114288814 -0.13582772 -0.014581873 0.061854135
000070 de 07 58 3e 8e b9 f6 ba 65 c7 57 3e 98 b9 b5 3d
       0.21096751 -0.001882361 0.21072157 0.0887329
000080 52 35 42 bd c1 2d 38 3e 58 7c d7 bc d3 73 7b bd
       -0.04741413 0.17986204 -0.026304409 -0.061389755
000090 79 45 13 be f3 2c 2a be ea 64 ca bc 7c 23 55 bb
       -0.1438197 -0.1661871 -0.024706323 -0.003252237
0000a0 b6 cb cc 3d f7 95 16 3e 4b 82 84 bd 97 8d 1a 3e
       0.09999792 0.14705645 -0.06470164 0.15093075
0000b0 7c 9a 2e 3c e0 0c 2a bd f3 e8 2e be 76 74 16 be
       0.010656949 -0.041516185 -0.1708105 -0.14692864
0000c0 a5 c8 30 be a4 ae ac bb 66 60 d4 ba 1d 38 12 be
       -0.1726404 -0.005269842 -0.0016203045 -0.14279218
0000d0 3e 80 19 be a4 e8 6e 3d 19 58 cb 3d 55 aa 5e be
       -0.14990327 0.058327332 0.09928913 -0.21744664
0000e0 38 d5 b6 3c b1 02 76 3d 9b ca ae 3d b5 3f 04 3d
       0.022318467 0.06006116 0.08534738 0.03228732
0000f0 76 9b 90 3c 3c 2f 80 bd bf 23 8f 3c e1 44 28 3e
       0.017652255 -0.06259009 0.0174731 0.16432525
000100 09 35 9c 3e 3a 0b 9d 3e 8a a2 b8 3e 66 ab a2 3e
       0.30509213 0.30672628 0.36061507 0.31771392
000110 69 45 a9 3e b4 8c 7f 3e bb 1a 90 3d ab ef fa 3d
       0.33060768 0.24956018 0.070363484 0.12252744
000120 b3 c2 1f bd fe 53 73 3c aa 01 dd 3d 00 6d d6 bd
       -0.03900404 0.014851568 0.10791333 -0.10470009
000130 3b 44 34 3c e6 8c 36 3d 9d 36 68 bd 27 be 18 3e
       0.011002596 0.044567965 -0.05669271 0.14916287
000140 57 eb 18 3e 47 33 a1 3c d0 06 a4 bd 95 e8 1f be
       0.14933525 0.019677771 -0.08009112 -0.15616067
000150 ef 7f 70 be 5c 46 f2 bd f1 1b 2b be c1 03 9b 3a
       -0.23486303 -0.11829826 -0.16709878 0.001182668
000160 88 bb 9a bd 3a 6d 13 ba 9b 96 8f bd d2 62 01 be
       -0.075553 -0.0005623881 -0.070111476 -0.12635353
000170 fa a9 62 bd 91 99 d7 3d 85 fc 1d be 69 6d 00 be
       -0.055337884 0.10527337 -0.1542836 -0.12541737
000180 ce 40 56 3c d1 74 15 3d fb c3 53 3e 17 4a 07 bd
       0.013076974 0.036488358 0.2068023 -0.033029642
000190 95 10 5a bd 78 9b a8 3d 32 1c 0d 3e 74 d8 57 3c
       -0.05323847 0.08232778 0.13780287 0.013174165
0001a0 ad 02 fe bd da 6e 27 be fd 17 22 bd 39 df 0b be
       -0.12402854 -0.1635088 -0.03957366 -0.13659371
0001b0 a8 96 ec 3d 93 69 19 bd 70 cd 5e bc 1a 5e bd 3d
       0.11552173 -0.0374542 -0.013598785 0.09246464
0001c0 7b 59 55 3d a4 e6 6f 3d aa d0 08 3e e6 6a 7c bd
       0.05208729 0.058569565 0.13360849 -0.061625384
0001d0 7a 60 0a 3d ad 7a c9 3d b9 fc d9 39 de ba d2 3d
       0.033783413 0.09837852 0.00041577758 0.10289548
0001e0 98 7d 8c bd a8 af ef bb e0 8f 83 bd 13 c2 ee bd
       -0.068598926 -0.007314641 -0.06423926 -0.116581105
0001f0 30 45 a8 3d 5e 27 a9 3d 94 7e 02 3c 35 e7 63 3d
       0.082163215 0.08259462 0.007964749 0.055640418
000200 e4 f7 41 be 1a 5b 34 be 10 7b 19 3c b2 28 b8 bd
       -0.18942219 -0.17612877 0.009367719 -0.08992137
000210 df 7b 90 3d 7f 67 41 bd 62 9e 6a 3c 36 68 04 3e
       0.070548765 -0.047217842 0.014319988 0.12930378
000220 03 4f f1 bc 6f 4e 17 be 34 16 09 be 42 bc f7 3d
       -0.029456621 -0.14776014 -0.13387376 0.12096454
000230 98 cb 0c 3e 70 8f 3e 3d 9a 19 99 3b 0b b3 bc bc
       0.1374954 0.04652351 0.0046722414 -0.023034593
000240 ea de d9 bd 3e 77 86 bc 58 85 41 3d 04 5e c3 3d
       -0.106382206 -0.016414281 0.047246307 0.095394164
000250 09 4d 7b bc 23 bc 2a 3e 97 46 0d be c1 ac de 3d
       -0.015338191 0.16673331 -0.13796459 0.10872794
000260 4f af 09 be ef 3c a0 3d f3 cf a1 3d ab 53 9d bd
       -0.13445781 0.07824122 0.07900991 -0.07681974
000270 7c 04 cd 3c 64 47 f7 bd a8 ab b1 3c e6 2e fa 3d
       0.025026552 -0.120741636 0.021688297 0.122159764
000280 f8 14 3d 3d 17 93 11 be f5 70 59 3d 58 0e eb bd
       0.046162575 -0.14216267 0.05308624 -0.11477345
000290 02 a9 e1 3d 5a 45 9d 3b ce e0 31 39 22 94 15 3c
       0.11018564 0.004799527 0.00016963782 0.009129556
0002a0 cb 80 f6 bc bc 6f 4f bb 9c 66 12 3e 45 ca 7b be
       -0.03009071 -0.0031652292 0.14296955 -0.24588878
0002b0 3d be 85 be 9d 3a 09 bd cf e5 32 bd da 19 17 be
       -0.26121703 -0.033503164 -0.043676194 -0.14755955
0002c0 dc 1c d0 bd 37 e7 43 be af 51 9f bd 6d 6a 8c bd
       -0.101617545 -0.1913117 -0.07779252 -0.068562366
0002d0 f9 3c cf 3d 86 6d a8 3d d7 36 cd bc ef 2d 98 3e
       0.101190515 0.08224015 -0.025050564 0.29722545
0002e0 fe e2 75 3e 7d 3a ef 3d ed 99 95 bc a5 4a d3 3d
       0.24012372 0.11681078 -0.018261874 0.10316972
0002f0 bb 91 ea 3d 97 af 1b be ed f4 3d be 31 1d f1 bc
       0.11453577 -0.15203701 -0.18550463 -0.029432865
000300 84 9d 5c be 5a 10 7b be 04 5f f7 bd cf 87 6b bd
       -0.21544462 -0.24517956 -0.1207867 -0.057502564
000310 91 93 ea 3c b0 54 cf 3d 83 d1 9a be 5f 6d bc be
       0.028634818 0.10123575 -0.3023797 -0.36802194
000320 42 1a 89 bd 60 fc 1b be e9 38 04 be 4e c2 1e be
       -0.066944614 -0.15232992 -0.12912335 -0.15503809
000330 a9 10 88 be 0f 02 94 be e3 6a 1e be 8d 25 34 be
       -0.2657521 -0.2890782 -0.15470462 -0.1759245
000340 60 cb 18 be e9 21 4a 3c 20 75 d4 3d 37 7c c5 3d
       -0.14921331 0.012337186 0.10373902 0.09642833
000350 52 65 61 3d 31 78 41 3e e9 42 46 3e 97 c0 09 3e
       0.055028267 0.18893506 0.19361462 0.13452373
000360 5c 37 86 3d 7c d1 19 be ec ab 34 bd 74 10 e0 3d
       0.06553528 -0.15021318 -0.04410927 0.10940638
000370 25 40 31 bb 9f 4d 13 3d 1f 62 02 bd cc c2 cc 3d
       -0.002704629 0.035962697 -0.031831857 0.09998092
000380 e3 86 f4 bd 40 48 ee bd e9 78 a0 3d 19 43 d8 bd
       -0.1193979 -0.11634874 0.07835562 -0.10559673
000390 a9 5b 82 3d 9a 29 ec 3d 68 01 93 bd 73 99 f6 3d
       0.06365139 0.11531372 -0.071780026 0.12040987
0003a0 ef 53 2d 3c 73 16 9f bd 6c 3e 99 3e 7b 74 8d 3e
       0.010579093 -0.07767954 0.29930437 0.2762793
0003b0 e1 a1 c6 3d 06 57 7c 3e 81 06 21 3e 02 75 ab 3e
       0.09698845 0.24642572 0.15725137 0.33487707
0003c0 a6 24 80 3e 62 0c 72 3e dd 10 55 3e 03 89 10 3d
       0.2502796 0.23637536 0.20807214 0.035286915
0003d0 ec 48 f6 bb 85 d5 91 bb d0 5c 50 3c 6c 70 00 be
       -0.007516017 -0.0044505023 0.012717441 -0.12542886
0003e0 4d ae cb 3c a9 7f 45 bd 24 a4 23 bd 9a 68 83 3d
       0.024863387 -0.04821745 -0.03995146 0.064164355
0003f0 c5 f0 99 bd c8 6e ff bc 83 7b 9f bb cb 55 52 3d
       -0.07516626 -0.031180754 -0.0048670187 0.05135135

conv3.bias f4 [8]
000000 6b af 2e 3d 8a ab b2 3d 50 4e 02 bd 53 b8 e6 bd
       0.04264776 0.08724125 -0.031812966 -0.11265626
000010 9a a6 3a 3c d8 70 cc bc 99 b1 0d 3d 93 e5 28 bd
       0.01139226 -0.024956152 0.0345932 -0.041234564

fc1.weight f4 [128, 1568]
000000 81 b3 6b 3c af b7 9c bc 96 b1 20 bd 63 e5 c6 3c
       0.014386059 -0.019130556 -0.03923186 0.024279302
000010 ec 7f 3b bd 50 d3 12 ba 21 b8 18 bd 3c 17 42 3d
       -0.045776293 -0.0005600946 -0.037284974 0.04738544
000020 1c 2a 8e bb f9 1b 2f 3c ea e6 3d 3d f9 3c 25 bd
       -0.004338516 0.010687822 0.046362795 -0.04034135
000030 8d 65 29 bd 69 71 0d 3d b9 81 5b 3c 8b 26 85 bd
       -0.041356612 0.034531984 0.0133976275 -0.06501492
000040 a6 5e dd bc e7 7f 69 bd cb 85 ad 3b 9c e2 20 3d
       -0.027022671 -0.057006743 0.0052954904 0.03927861
000050 20 4e 83 bb 7e bb cf 3c e2 4a 30 bd 33 b4 30 3d
       -0.004007116 0.025357958 -0.043040164 0.0431406
000060 14 4c 34 3c 5b 71 d7 bc 5d b2 fa 3c 63 7d 20 bd
       0.011004467 -0.02629917 0.030602628 -0.039182078
000070 58 d4 4c 3c 03 b5 8a 3c 7c 1f 75 bd 7f bc 62 bd
       0.012501799 0.016932016 -0.05984448 -0.055355545
000080 29 a4 bb bc d5 78 35 3d 47 7b 95 3c 63 eb 5c 3d
       -0.022905426 0.044304688 0.01824726 0.05393542
000090 e0 cd 3e bd 4e f8 4d bd 09 55 94 bc 61 00 59 3d
       -0.046583056 -0.05028563 -0.018106954 0.052978877
0000a0 0c f4 68 bd b2 60 cb 3c 2e 74 a2 3b 4b 38 b1 bc
       -0.056873366 0.024826381 0.0049576974 -0.021633288
0000b0 e4 6f 34 3d ac 1a 50 3d 29 14 4b 3d 5a e1 28 3d
       0.04405202 0.050806686 0.049579773 0.041230537
0000c0 ce 90 58 3d 60 42 1d bd 5f cd a9 bc 31 c5 ff b9
       0.05287247 -0.03839338 -0.020727811 -0.0004878431
0000d0 af 8c f6 bc 7b f7 25 bc ce 8c 55 3b a9 27 30 3d
       -0.03009638 -0.010129805 0.0032585147 0.043006573
0000e0 6e df 68 3d cf 9b c6 bc c7 be 35 bd a4 4c a0 3c
       0.056853704 -0.024244217 -0.044371393 0.019567795
0000f0 ba a9 16 bc 55 3b 19 bd f8 86 30 3d 66 46 2e bd
       -0.009195739 -0.0374101 0.043097466 -0.042547606
000100 f6 3d 26 bb d9 70 55 bd 10 90 48 bd 04 51 41 3d
       -0.0025366521 -0.052109573 -0.048965514 0.047196403
000110 31 bc 20 bd 0b 9b 4e 3d ee 91 39 bd 3d fc 3e 3d
       -0.039241973 0.05044083 -0.045305185 0.046627272
000120 22 da 94 bc ba 33 fc bb 70 1f 3d 3a 44 26 fb 3c
       -0.01817042 -0.007696596 0.00072144624 0.030657895
000130 7e 73 80 3c 0d 29 54 bd 70 c9 e9 bc 64 36 4b 3d
       0.015680071 -0.05179696 -0.028538436 0.049612418
000140 8a b9 6a 3d b5 07 1b bd 87 83 90 bc f6 63 30 3d
       0.05730585 -0.037849147 -0.017640842 0.04306408
000150 29 ed 3d 3d 8f 35 40 bc 47 77 05 bc 4d 66 ca 3c
       0.04636875 -0.011731519 -0.008146114 0.024706984
000160 de 20 84 3b 9b 67 59 3c 61 a5 53 bd f2 e9 e8 3c
       0.0040322384 0.01326933 -0.05167139 0.028431866
000170 f8 29 51 bd 5f 7e a9 bc 1f d0 15 bd 4c 52 51 bd
       -0.051065415 -0.020690141 -0.036575433 -0.051103875
000180 7b e6 0d 3b 14 12 54 bd 2e cc 61 bc ad 5a 6c bd
       0.002165227 -0.051775053 -0.01378159 -0.057703663
000190 74 92 08 3c c7 57 20 3c b1 cf 01 bd b6 a6 84 3c
       0.008335698 0.009786553 -0.03169221 0.016192775
0001a0 39 eb 91 bc 66 17 7f 3c 1a e7 5c 3d 33 13 96 bc
       -0.017812358 0.0155695435 0.053931333 -0.018319702
0001b0 de 97 58 3d 0f 5d e6 bc de 27 60 3d 45 83 a6 bc
       0.052879207 -0.028120546 0.05472552 -0.020326266
0001c0 b3 a5 4d 3d 46 be 05 3d 8d 83 a4 3c e5 0c 23 3d
       0.05020685 0.032652162 0.02008226 0.03980722
0001d0 27 bf 8b 3c cc a6 fb bc 37 c6 90 bc 77 ee 26 bc
       0.017058922 -0.030719183 -0.017672641 -0.01018869
0001e0 a1 1b 60 bc 8c dc 0e bd 72 5a d1 bb ba f5 54 3d
       -0.013678462 -0.0348783 -0.0063889557 0.051992156
0001f0 21 2d 4f 3d 19 04 74 3c ed 16 22 bd f7 13 5f bd
       0.050580148 0.014893555 -0.039572645 -0.0544624
000200 7c ae 18 3d 6d 46 5d 3d d0 44 ac bc 3e d4 3d 3d
       0.037275776 0.05402224 -0.021028906 0.046344988
000210 4a b6 55 3d e5 66 be bb 25 79 8c 3c 7e 00 3b 3d
       0.052175798 -0.005810606 0.01714761 0.045654766
000220 8c 1f 99 bb 80 c0 18 bd b3 8c 53 3a 5e 00 d6 3c
       -0.00467295 -0.037292957 0.0008069977 0.026123222
000230 9f 3f 59 3c fc 31 12 bd f7 d9 44 3c c5 78 57 3d
       0.013259797 -0.0356922 0.0120148575 0.05260541
000240 1c 29 80 bd 7c 43 3d 3d 76 e2 39 bd b9 97 b8 b8
       -0.06257841 0.046206936 -0.045381986 -8.802064e-05
000250 1e ea e6 bc 7d ad 6e 3c c6 08 81 bd c4 c1 ed 3c
       -0.028187808 0.01456773 -0.063005015 0.029023059
000260 8f af 63 bd 6b b7 5b bd ed e7 39 bd 35 dd 9f bc
       -0.055587348 -0.053641718 -0.045387197 -0.01951466
000270 01 00 20 bc 03 85 36 bd e5 98 4c bd e4 69 da 3c
       -0.009765626 -0.044560444 -0.0499505 0.02666182
000280 39 c9 a5 bc 6b d7 70 bd 58 c1 09 bc de 5d 1e bd
       -0.020237552 -0.05879919 -0.008407913 -0.038663737
000290 53 9c a1 3c 80 00 06 bd 7a d1 a1 3c 06 86 af bc
       0.019727862 -0.03271532 0.019753207 -0.021426212
0002a0 04 f9 e8 3c e4 13 5f 3b 75 27 17 3d 9c 3a 24 bd
       0.028439052 0.0034038955 0.036902864 -0.040094957
0002b0 0c b9 d4 bc 41 20 6b bb 5b 48 29 bc 64 c4 8d 3b
       -0.025967143 -0.003587738 -0.010332192 0.00432639
0002c0 a6 e5 35 bb 31 53 da 3c 95 03 58 bd fd 70 63 bd
       -0.002775529 0.026650997 -0.05273779 -0.055527676
0002d0 ee 7c 8c 3c 1a 35 44 bd 78 34 19 3d 0b 7e 2f bd
       0.017149415 -0.047902204 0.037403554 -0.042844813
0002e0 91 49 d4 bc 31 fd 94 3c 0a 39 17 bd d1 2b c0 3c
       -0.025913985 0.018187137 -0.03691963 0.023458393
0002f0 6d 5a 71 bd 7f fa 08 3c 4d c5 c2 bc 3c 9a eb 3c
       -0.058924127 0.008360504 -0.023775721 0.028760068
000300 cc 27 12 3d c9 67 14 bd 43 fd 28 bd 9a b3 da 3c
       0.035682485 -0.03623179 -0.041257154 0.026696969
000310 ea 51 8e bc 47 da 61 bd 87 46 0b 3a 41 91 ed bc
       -0.017373044 -0.055139806 0.00053129386 -0.028999927
000320 eb 1e af 3c 7c 34 c6 bc b4 f3 d8 3c 9d 47 0f 3d
       0.021377048 -0.024194948 0.026483394 0.034980405
000330 79 f9 fb bc ab 5f c1 3b e1 d5 30 3d 37 ad 4d 3d
       -0.030758606 0.005901297 0.04317272 0.05021402
000340 5b 9b 15 3d 4c 57 8a bc bf d2 c3 3c 7d 07 65 bc
       0.03652511 -0.01688733 0.023904203 -0.013978836
000350 fc 04 f6 bc 7a b1 1a 3d d6 69 08 bd d7 2e 44 bd
       -0.030031674 0.03776691 -0.033304058 -0.047896232
000360 51 04 eb 3c 31 c3 d0 bc 9e 02 dd bc 62 9c b1 3b
       0.028688582 -0.0254837 -0.026978787 0.0054202536
000370 28 f6 16 bc 8b 26 d8 bc c5 7f b2 bc 64 29 72 bd
       -0.009213962 -0.026385566 -0.02178944 -0.059121504
000380 d4 f6 0c 3c 18 3e f7 3c fc 43 dd 3c 72 f3 10 bd
       0.00860377 0.030180976 0.027009957 -0.035388418
000390 6f bf 23 3d 4f a2 4a bd 01 72 98 3c 4a c8 cb bc
       0.039977487 -0.049471196 0.018609049 -0.024875779
0003a0 dd 65 e0 bc 91 30 2b 3c e7 66 66 3d 14 06 02 3d
       -0.027392322 0.010448591 0.05625048 0.031744078
0003b0 3f 3e b5 3c f9 a9 a7 bb f3 e0 72 bc 09 b3 3e bd
       0.022124408 -0.005116698 -0.01482414 -0.04655746
0003c0 90 69 ba 3c 55 b7 18 bd 39 9b c5 bc 99 ad 37 3d
       0.022755414 -0.037284214 -0.024121867 0.04484329
0003d0 59 be 12 3c 05 80 1a 3a e3 9d ba 3c ae 41 ed bb
       0.008956515 0.000589371 0.022780364 -0.0072404956
0003e0 ad d2 8c 3b 6d 14 3c 3d 8f e5 49 bc 90 87 4e 3d
       0.0042975754 0.045917917 -0.012322797 0.05042225
0003f0 25 b3 d6 3c cb 1f 0d 3c 09 80 35 3d 96 e7 b3 bc
       0.02620847 0.008613537 0.044311557 -0.021961015

fc1.bias f4 [128]
000000 f1 4a 9f bb a2 15 0f 3a 6f c9 c4 bb 51 bf aa bb
       -0.0048612286 0.00054582406 -0.006005458 -0.005210795
000010 7d 37 96 bd 13 e8 c3 bc 2f 35 a9 bc eb c7 c4 bb
       -0.07334802 -0.023914373 -0.020655243 -0.0060052774
000020 5b 58 68 3d 23 8a 82 bd f1 f2 1a bc fe 1a ca bb
       0.056724887 -0.06374004 -0.009457336 -0.0061677685
000030 3d ad e9 bb 93 23 8a bc b8 a8 4d bd a8 6a 4c bc
       -0.0071312473 -0.016862666 -0.05020973 -0.012476601
000040 5f a6 c4 bb ed ff 49 3d cc 9a af 3d 70 d0 bf bb
       -0.0060012783 0.049316335 0.08574447 -0.005853705
000050 c7 98 ac 3d 64 a4 a7 bb 31 6a 16 bd d4 92 ef bb
       0.084275775 -0.0051160324 -0.036722366 -0.0073112044
000060 a5 b5 b3 bc 1f d7 4c 3d e7 37 53 bb 5f 8b bc 3d
       -0.0219372 0.050009843 -0.0032229365 0.092062704
000070 42 2e 62 3d 3f 02 0a bc 8f 0e bb 3d c8 17 98 3c
       0.055219896 -0.008423387 0.09133636 0.018566027
000080 93 9f fc bc 95 c9 c4 bb 3c e6 05 bd 5d b1 ce bd
       -0.03083781 -0.0060054758 -0.03269027 -0.10092423
000090 fe 8b be bc 0a 5d 1a bc 25 ab 96 bb 44 58 a5 bb
       -0.023260113 -0.009421596 -0.0045980387 -0.0050459225
0000a0 a5 ca a8 bb c3 bf 61 bc 23 9a e7 bb 6c c9 c4 bb
       -0.0051511102 -0.01377863 -0.007067935 -0.0060054567
0000b0 c4 95 d4 bb a3 04 5d 3d 15 dd ff bb 96 8f b1 bd
       -0.00648758 0.0539595 -0.0078083375 -0.08669965
0000c0 04 8e 23 bc 33 ad 95 3d 27 28 0b bc ed 04 4e bc
       -0.00998259 0.07308426 -0.00849346 -0.012574417
0000d0 34 77 2a 3d 7e 60 da bb 47 c5 4c 3d c1 33 7c 3d
       0.041617587 -0.006664335 0.049992826 0.061572794
0000e0 e7 fc 6e bb c8 7d d3 bb c1 f8 a7 bb 52 67 64 bc
       -0.003646666 -0.0064542033 -0.0051260893 -0.013940649
0000f0 0a e0 dd bb 63 7a ef bb 01 c9 c4 bb f9 b4 c5 ba
       -0.0067710923 -0.007308291 -0.006005407 -0.0015083841
000100 d2 37 e2 bb 1c 31 d4 bc f7 ee 19 3d 8a 19 f2 bc
       -0.006903627 -0.025902323 0.03758141 -0.029553194
000110 74 ab bf 3d 9e f7 dc 3c 04 ee 0a bc 55 19 c5 bd
       0.09358874 0.026973542 -0.008479599 -0.09623972
000120 8c 3b a6 3a 7c 65 b9 3c c1 d5 d8 3c b2 c9 c4 bb
       0.0012682541 0.0226314 0.026469113 -0.0060054893
000130 8c c9 c4 bb 2a 27 b6 bb a9 50 25 bc 22 cb e6 bb
       -0.0060054716 -0.005558868 -0.010090032 -0.0070432583
000140 2a 89 1a bd 9c 3c e5 bc f0 d6 98 bb d2 05 6d 3d
       -0.037728466 -0.027983002 -0.0046642944 0.05786688
000150 d5 48 e3 bb 27 6a cb bc e7 23 40 bc 46 5d 6b bc
       -0.0069361725 -0.02483089 -0.01172731 -0.0143655
000160 d0 49 d0 bc 01 f8 6c 3a ab 96 64 bc 05 c6 c4 bb
       -0.025425822 0.0009039641 -0.013951938 -0.006005051
000170 35 6e 3d bd 00 7f b0 bd 58 9b ad 3a db cb 02 be
       -0.04624768 -0.08617973 0.0013245149 -0.12773077
000180 c1 c7 d3 bb 32 ea 90 bb a6 e1 d6 bb 98 c9 c4 bb
       -0.0064630215 -0.0044224495 -0.006557661 -0.006005477
000190 ff 53 c8 bb a4 d5 8b bc ea ef 62 3c 2a 13 18 bd
       -0.0061135287 -0.017069645 0.013851145 -0.03712765
0001a0 41 ab fe 3c ea d1 1d 3d 2b 99 e2 bb ff 03 bd 3d
       0.03108752 0.038530268 -0.0069152317 0.09229278
0001b0 9e cf cd bd a8 cd ae bd ab 93 85 3c 8e 6a 18 bc
       -0.100493655 -0.085353196 0.016305765 -0.009302748
0001c0 87 52 ab 3d 7a 88 f8 bb b0 26 b6 bb 84 00 f1 bb
       0.0836535 -0.0075846286 -0.005558811 -0.007354798
0001d0 46 d0 46 bd 9d c9 c4 bb 0e 87 84 3d 2c c9 c4 bb
       -0.04853847 -0.0060054795 0.06471072 -0.006005427
0001e0 3e 69 df 3d b9 c1 73 3d 4b f9 2c bd 57 70 e7 bb
       0.10908745 0.05951092 -0.04222993 -0.0070629525
0001f0 bc c9 c4 bb 43 34 4d bd 6e c9 c4 bb 63 00 06 bd
       -0.006005494 -0.05009867 -0.0060054576 -0.032715213

output.weight f4 [10, 128]
000000 5c fa 2d be 84 c1 f7 3c 3d b6 d4 bc 3e ea 35 be
       -0.16990036 0.030243643 -0.025965804 -0.17765138
000010 89 23 1e 3d a7 10 68 3d 3c de ca 3c 75 63 f1 bd
       0.038608108 0.056656506 0.024764173 -0.11786548
000020 40 19 b9 3a a3 92 5b bc c9 b6 99 bd 11 74 ae 3d
       0.0014121905 -0.01340166 -0.075055666 0.08518232
000030 0e b7 10 3e 61 8b ae 3d ab b9 97 3d d7 ec 3c be
       0.1413233 0.08522678 0.0740846 -0.18449722
000040 2f 8d 4c 3e 6b b8 65 be b8 ae 90 bd db 0f 75 be
       0.19975732 -0.22433631 -0.07064575 -0.2393183
000050 49 cc 4e 3e 32 b2 e7 3d 01 af 07 3e c4 84 97 3d
       0.20195116 0.11313285 0.13250352 0.0739837
000060 5a 76 07 3e 45 2f 29 be 5a 3d 9f 3d 62 97 89 3d
       0.13228741 -0.16521938 0.07775374 0.06718327
000070 66 57 1c 3e c6 d1 af bd 8e 8c d8 3c ab 01 8d bc
       0.15267715 -0.08584933 0.02643421 -0.01721271
000080 2f 1d a0 3d a2 34 7d 3d 67 4e 48 bd 6e 4e f0 3d
       0.07818066 0.061817773 -0.048902895 0.11733709
000090 67 3c 0d 3e 3f 8a 1e 3e 96 09 65 bd f9 10 07 3e
       0.13792573 0.15482424 -0.055917345 0.13190068
0000a0 f0 b4 19 bd 76 08 31 3d 22 9d 4f 3e 8e 43 4a 3e
       -0.03752607 0.04322096 0.20274785 0.19752333
0000b0 cf ee 71 3d 6c 0e 13 bd 87 4d 95 bd aa f8 0f bc
       0.059065636 -0.035902426 -0.07290178 -0.0087873135
0000c0 8b 79 05 3e 0e c0 0e be c8 ad 90 3d 8d 22 04 3e
       0.13034646 -0.1394045 0.07064396 0.12903805
0000d0 55 db 76 3e 90 dd ec 3d 93 ee 1b 3e 7a c4 f2 3d
       0.24107106 0.11565697 0.15227728 0.11853881
0000e0 31 b4 28 3e 7f 1b 78 bd 0c 8a c0 3d 06 ea 5a 3e
       0.16474988 -0.060573097 0.0940133 0.21378335
0000f0 e6 39 81 3d a0 87 93 3d 23 03 f3 3d 91 c2 93 3d
       0.063098714 0.07203603 0.11865833 0.07214845
000100 b6 64 8a 3d d8 a9 25 3c 99 76 3d bd d6 be 0d 3e
       0.0675749 0.010111295 -0.04625568 0.1384233
000110 18 1c 9c 3c f2 23 1a be 30 30 91 3c 73 67 17 3d
       0.019056365 -0.15052775 0.017723173 0.03696389
000120 b4 40 00 be c4 8b 2c 3d 1a 22 74 3e 19 48 9b 3d
       -0.12524682 0.04212548 0.23841134 0.07582111
000130 8b aa 0d be 9f 2a 8a 3c f7 f5 c4 bc b6 27 9a bc
       -0.13834588 0.016866026 -0.024043066 -0.018817764
000140 86 ce e0 bc 3c 91 4c be 73 db a4 bd 35 74 b9 bd
       -0.027442228 -0.19977278 -0.08049669 -0.09055368
000150 6e 48 4d be cd 32 1f 3e ec 04 37 3e 09 9a ef bd
       -0.20047161 0.15546723 0.17872971 -0.11699302
000160 02 1c 45 be 01 8a 39 3e e5 12 94 3d b4 b4 bb 3d
       -0.19248965 0.1811905 0.07230166 0.09165326
000170 1e 94 26 bd 29 1e 4c be 00 cd 34 bd b3 c5 97 3d
       -0.0406686 -0.1993338 -0.044140816 0.07410755
000180 f3 08 8c 3d f0 5e 34 be d8 2f 57 3d 5d 66 66 3d
       0.068376444 -0.17614341 0.05253586 0.056249965
000190 97 df 87 3d a4 99 64 3c 2f ee 01 3d e3 95 0d 3d
       0.06634443 0.013952646 0.03172129 0.03456677
0001a0 f3 26 25 3c 91 59 36 3e d5 10 45 3e e9 9a 14 3d
       0.010080087 0.17807604 0.19244702 0.036280546
0001b0 60 ef 8e be 93 8e e2 bd 51 5d 1c 3d 1c b4 30 bc
       -0.27917004 -0.1106235 0.03817493 -0.010785129
0001c0 15 d9 ea bd 42 46 d5 3b c9 73 86 3d 98 77 1a bd
       -0.11467186 0.0065086195 0.06565053 -0.03771171
0001d0 63 8b 5a be b5 c9 d0 bd a9 e5 fa bd d6 7a 21 bd
       -0.21342234 -0.101947226 -0.122508354 -0.039423786
0001e0 32 c8 82 be 08 eb 3a 3e 56 bf 36 be d7 0f 8a 3d
       -0.25543362 0.1825372 -0.17846426 0.067413025
0001f0 94 60 4d 3e b1 05 ff bd bd 9c 3a bc a3 bc e2 bd
       0.20056373 -0.124522574 -0.011389908 -0.11071136
000200 cc 89 d5 bd 39 5b de 3c 7d 60 23 bb 87 94 e5 3d
       -0.10426673 0.027143108 -0.0024929338 0.1120997
000210 b0 1a 34 be e8 89 93 3c 46 e4 1f be fd 59 03 3d
       -0.17588305 0.018010095 -0.15614423 0.03206824
000220 50 4d e0 3c 3c cf 46 bd 7f b9 cd bc 73 d4 18 3e
       0.027380615 -0.048537478 -0.025112865 0.14924793
000230 cf b8 fe bc 59 06 8e 3d aa 86 4f be 4c 48 e7 3d
       -0.031093983 0.069348045 -0.20266214 0.112930864
000240 11 d6 50 be 12 41 03 3e 22 9d c0 3d 5a d8 70 3e
       -0.2039416 0.12817791 0.09404971 0.23520032
000250 6f bc 7c 3d a1 a5 27 bd 41 65 6e 3d ca cf 3d 3d
       0.06170314 -0.04092944 0.058202032 0.04634074
000260 34 50 43 be 7f 88 5c 3e 2f de e4 bb 7c ff b6 bd
       -0.19073564 0.21536444 -0.006984494 -0.089354485
000270 8c 63 98 bd f6 0c 84 bd 10 52 18 be 38 fc 0c 3e
       -0.07440862 -0.064477846 -0.14875054 0.13768089
000280 c2 19 74 be ae c8 23 3e 5c 8f d1 bd 94 39 92 3e
       -0.23837951 0.15994522 -0.10232422 0.28559554
000290 49 e0 9f bd 96 d7 3d 3d 0a c0 bc bd c3 94 41 3e
       -0.07806451 0.046348177 -0.09216316 0.18904404
0002a0 b8 af 8d bd 68 19 08 be b5 07 fc bd a9 5b e0 bd
       -0.06918281 -0.13290942 -0.123061575 -0.10954983
0002b0 b2 87 d7 3a 54 5f 3e 3e 9f d8 be 3d cb 18 a8 be
       0.0016443639 0.18591052 0.09318661 -0.32831416
0002c0 b2 b4 f3 bc 03 90 f1 3c 80 7f d5 3d a5 48 94 3b
       -0.029749248 0.029487615 0.10424709 0.0045252615
0002d0 6c 7a 0b 3d c1 ca ce 3d 04 7d 20 3e da 9f 0c 3e
       0.034052297 0.10097266 0.1567269 0.13732854
0002e0 7b ce f6 bd e5 7b dc 3d 24 69 2a be 50 5c 2a 3d
       -0.12051102 0.107658185 -0.1664167 0.041591942
0002f0 e7 49 52 bd fe 2b 3d 3e df 23 28 be 3f f5 e3 3d
       -0.05134001 0.18473813 -0.16419934 0.11130761
000300 c3 22 68 3e 74 3e 76 3e ad 87 4c bd 2e d2 db 3d
       0.2266951 0.24047261 -0.049934078 0.10733448
000310 19 4e eb bd f4 78 c3 3d 1f 2c 6d 3b 08 c8 b1 bd
       -0.11489505 0.09544554 0.0036189628 -0.08680731
000320 24 1c 40 3d 62 61 2b 3e 0d dd 15 be ed 3d a9 3c
       0.046901837 0.16736367 -0.14635105 0.020659411
000330 44 f1 15 3e 2d 10 20 3e 96 08 80 3d 21 16 20 3e
       0.14642817 0.1563117 0.06251638 0.15633442
000340 97 5f 78 3d 68 63 b3 bd 15 eb 42 be 99 fd 11 3e
       0.060638037 -0.087591946 -0.19034989 0.14256896
000350 9a fa a2 bd 79 26 14 3e 7d 70 4a 3d 88 5e 34 be
       -0.07957955 0.14467801 0.049423683 -0.17614186
000360 a4 9d f6 3d 63 8e 57 be af 2d 8e bd 13 73 2e be
       0.12041786 -0.2105041 -0.06942307 -0.17036085
000370 09 ba 2d 3d cd 35 07 3d a1 8a dc bd de ab ff bd
       0.042413745 0.033010293 -0.10768629 -0.12483953
000380 d6 50 2f 3e 3f e4 91 3d da 8e fc 3d 87 e7 ae bd
       0.1712068 0.071236126 0.12331934 -0.08540254
000390 c2 7f a4 3b 26 81 03 be 15 3b 38 be b1 5d 9e bd
       0.0050201127 -0.12842235 -0.17991288 -0.07732714
0003a0 46 b9 70 3c 8e 38 a3 bd 37 58 53 be a0 37 ba 3d
       0.01469261 -0.07969771 -0.2063912 0.09092641
0003b0 4f 11 86 3d 8a 3a ca bc d1 47 2c 3e 20 d5 fc bd
       0.0654627 -0.024686117 0.16824271 -0.12345338
0003c0 1e 7d 51 3b c5 45 21 be 98 de 31 be 21 4a 4e 3e
       0.0031965445 -0.15749271 -0.17370069 0.20145465
0003d0 32 9b 3e ba 5b cd 35 bc 5b cd cc bc 03 91 fe bc
       -0.00072710507 -0.011096324 -0.025000265 -0.031075006
0003e0 75 ad 8b be 09 f1 91 be a5 38 a3 3d ca 8c 0a 3d
       -0.27280775 -0.28504208 0.079697885 0.033825673
0003f0 53 e1 95 bd 8b 2d 87 bd 17 75 92 bd 57 bf 5a 3c
       -0.07318368 -0.066004835 -0.07151239 0.013351283

output.bias f4 [10]
000000 0d cb 25 3d f8 17 20 3d 1e 55 cf bd 13 cd db 3a
       0.040476847 0.03908536 -0.10123657 0.0016769491
000010 dc 39 bf 3d 7b 8f 3d bd 67 29 05 3d 25 44 c5 bc
       0.09337208 -0.04627941 0.032510187 -0.024080345
000020 98 c7 60 3d f4 1d 01 be
       0.054877847 -0.12609082
