Tomato_cnn/saved_ckpt/best_model_epoch_4.pt (torch, 839122 bytes, 10 tensors)

conv1.weight f4 [32, 3, 3, 3]
000000 19 ca 38 bd d2 8d 9c 3d 0f 7d 5b 3c 8a dd 88 3d
       -0.04511461 0.076442376 0.0133965155 0.0668288
000010 5b 62 02 bc d2 51 9a bd b0 4e 74 bd bd 8c 78 3d
       -0.00795802 -0.07535137 -0.059645355 0.060681093
000020 a8 89 3e 3d f9 13 6b 3d ee 64 c9 3d 4e af b3 3d
       0.046517998 0.057392094 0.09833704 0.08773671
000030 ff ed 01 be 08 63 f7 bd c2 ef aa bd 17 31 a1 bc
       -0.12688445 -0.120794356 -0.083465114 -0.019676728
000040 7b e3 0c 3e ac 48 49 bc 52 ad 3a 3c 62 19 75 bd
       0.13758652 -0.012285393 0.011393862 -0.05983866
000050 91 55 19 3d fb ca b7 bd a3 21 44 bd 8a ae dd 3d
       0.037435118 -0.08974262 -0.04788364 0.10824306
000060 73 6f 9b 3d d2 70 f1 bd 4e 0d cc 3c e6 c8 55 3d
       0.075896166 -0.11789097 0.024908688 0.052193545
000070 7d 01 f2 bd 72 dd 89 3b 11 25 e1 bd be 3f de 3d
       -0.1181669 0.0042073065 -0.10993398 0.108520016
000080 a3 07 8c 3d 9f 60 7b 3d 1a 90 b6 3d 83 5f 02 be
       0.06837394 0.061371442 0.08914204 -0.12731747
000090 88 9e 2c bd 24 e4 f7 bd f9 26 1b bd 7f 3a dd 3d
       -0.042143375 -0.12104061 -0.037878964 0.10802173
0000a0 41 a8 d0 3d 48 1f 24 bd f0 f9 5d 3d 28 06 5c 3d
       0.10188342 -0.040068895 0.054193437 0.05371681
0000b0 42 f6 3d 3d 20 b5 c6 bd 7b b4 51 bc d9 48 a4 3d
       0.046377428 -0.097025156 -0.012799378 0.08021707
0000c0 5b e8 e1 3d d6 f3 88 3d b7 5d c8 bd 8b c6 18 bd
       0.110306464 0.06687133 -0.097835 -0.03729872
0000d0 b1 b1 68 3d 78 0e fd bd 9a 06 0a 3e cb 92 e5 3c
       0.056810085 -0.12356275 0.13479081 0.028024098
0000e0 62 3c a6 bc c5 b9 98 3c ae e6 05 bd 01 47 a1 3d
       -0.020292465 0.01864327 -0.032690696 0.07874871
0000f0 f3 43 16 3e 8e ec 16 bd 0f 03 d7 3c 88 de 18 3d
       0.14674358 -0.03684669 0.026246576 0.037321597
000100 61 2c 0f 3e b2 0b df bc a2 40 c7 bc 07 e4 09 3e
       0.13981773 -0.027227256 -0.024322812 0.13465892
000110 81 08 de bd 39 d5 35 bd 78 75 03 3e d7 f0 7e bd
       -0.10841466 -0.044392798 0.1283778 -0.0622414
000120 ed c7 d2 bd 22 92 ea bd 2c 3c 99 bc 31 ee b4 3c
       -0.10292039 -0.11453654 -0.01870545 0.022086235
000130 8f f0 04 be eb d9 93 bd c2 ab 4d bd 67 75 c0 3d
       -0.12982391 -0.07219299 -0.05021263 0.09397393
000140 ea 93 05 be b5 95 a3 3d 0e c8 08 3e 1a 8f e8 3c
       -0.13044706 0.07987539 0.13357565 0.028388549
000150 b4 c2 c0 bc e3 ac 18 3e 2d 80 fc 3d 2b e9 9d bc
       -0.023530342 0.14909701 0.12329135 -0.019276222
000160 04 c9 e0 3c 1f 22 5e 3d be 69 b5 3d 17 05 90 3d
       0.027439602 0.05423176 0.08858059 0.07032221
000170 d5 d9 96 bd 0a 29 b4 3d 0c 21 8a 3d 0c 8e 84 3d
       -0.07365767 0.0879689 0.067445844 0.06472406
000180 48 44 52 bd 3c e9 b0 bc 01 4b 47 bd 12 e4 fd bd
       -0.05133465 -0.02159559 -0.048655514 -0.123970166
000190 cb 1c 09 3c fe 0b 02 be 32 e6 8e bd 2b 20 ff bd
       0.008368681 -0.12699887 -0.069775 -0.124573074
0001a0 b4 bc 93 3d c8 cc ac bd f8 18 1c 3c f9 3e d2 bd
       0.07213727 -0.084374964 0.009527437 -0.10265917
0001b0 45 5b a0 bd 5d b4 01 be 9b a9 e4 bc e5 f6 c1 3d
       -0.07829908 -0.1266646 -0.027912905 0.094709195
0001c0 b4 8c d7 bb f4 6e e5 bc 99 0a 20 3d 57 de e4 bc
       -0.0065780524 -0.028007008 0.039072607 -0.027938051
0001d0 24 69 e0 3d 42 39 00 3b 22 d3 18 3e 64 d8 b5 bc
       0.10957554 0.0019565378 0.14924291 -0.02219791
0001e0 7d 2a 95 3d 00 c4 c9 3d 07 e5 03 3e 44 b1 16 3e
       0.072834946 0.09851837 0.12880336 0.14716059
0001f0 9d 54 55 3d e0 92 a3 3c 44 ca aa bd 84 48 ff bd
       0.052082647 0.019967496 -0.0833936 -0.12465003
000200 9f d9 53 3d 58 38 86 bd 04 94 52 bd 8a 67 a2 3d
       0.05172121 -0.065537155 -0.05141069 0.07929905
000210 5b 0d fd bc c3 7b 62 3d 31 97 73 bd 52 20 a6 bd
       -0.030890157 0.05529381 -0.05947036 -0.08111633
000220 98 e4 46 3d 09 7d b7 3d d0 2e eb 3d 8d ae 26 bc
       0.048557848 0.089593954 0.11483538 -0.010173452
000230 eb 96 c0 3b 3f 59 83 bd d7 d0 24 be e4 ab b4 3c
       0.005877366 -0.06413507 -0.16095291 0.02205462
000240 06 09 d7 bd 29 33 f0 3d 3c a9 8e bd f7 42 b3 3d
       -0.10499768 0.11728508 -0.06965873 0.08753007
000250 da 5e 31 bb 8b ed 7e bd 08 65 f0 3d ed 21 f0 bd
       -0.0027064593 -0.062238257 0.1173802 -0.11725221
000260 bd 3e 0e 3e e2 f4 72 bd df ec 8c bd 0f ac 41 3c
       0.1389112 -0.05931557 -0.06881117 0.011820807
000270 ca 71 2c bc 01 fa 1a be 22 ba 41 3c b9 42 96 3c
       -0.010525176 -0.15134431 0.011824163 0.018342363
000280 10 a6 17 3c 5d 81 84 3d ad db 83 3d 7c 6d f0 bd
       0.009255901 0.064699866 0.06438384 -0.117396325
000290 2b 34 bf 3d 2e 51 f3 bd 45 1c 23 bd ea b3 86 3c
       0.09336122 -0.11880718 -0.03982188 0.016443212
0002a0 da 7a f2 b9 4a 85 4b 3d 0a 4b bf 3c eb b9 e7 3d
       -0.00046249368 0.04968766 0.023351211 0.11314758
0002b0 b7 40 87 bc 77 d2 c1 bd b5 b1 7a 3d d8 e3 c7 bd
       -0.01651035 -0.09463971 0.06120463 -0.097602546
0002c0 d9 0a 3d 3d 59 45 05 be 9c d2 31 bd 39 f2 01 3d
       0.046152923 -0.13014735 -0.043413743 0.031725142
0002d0 54 59 7f 3d 42 e5 7e bd ad 4f 10 3e a3 d1 e4 3d
       0.06234105 -0.062230356 0.14092894 0.111727975
0002e0 80 3b 56 3d a5 b3 95 3d 6b 13 e3 3b ba 07 df 3d
       0.052302837 0.07309655 0.006929805 0.108901456
0002f0 13 be f6 3d 22 56 fb bd f1 79 ca bc ee f2 07 bc
       0.120479725 -0.12272288 -0.02471635 -0.008297665
000300 7a 89 ec bd 23 a6 b0 bd fa 72 35 3d 0b 44 a3 3d
       -0.11549659 -0.08625438 0.044299103 0.079719625
000310 9d e2 8d 3d 49 47 8b 3c 15 65 92 3d 50 b6 2d 3d
       0.06927989 0.017001765 0.07148186 0.042410195
000320 9d bb f1 3d 3d 3d 00 3e 92 00 6c bd 7a cf b1 3c
       0.118033625 0.1252336 -0.05761773 0.021705378
000330 79 e8 d1 bd b3 69 94 bd c2 43 96 bd 6f e1 3a bd
       -0.10249419 -0.07246723 -0.073371425 -0.045625146
000340 a1 b0 b9 bd 10 5c c7 bd 75 a8 60 3d bf 76 81 3d
       -0.090668924 -0.097343564 0.054848153 0.06321477
000350 a5 60 d8 3d c1 53 f2 bd c6 00 f7 3d 6d 94 97 3d
       0.105653085 -0.11832381 0.120606944 0.07401357
000360 d6 f5 8f 3d 7a af 03 3d 8e 77 05 be 30 07 d1 3d
       0.07029311 0.03214977 -0.13033888 0.10206449
000370 6e cd 29 bc 80 8e a5 bd fa 67 18 be 04 f3 48 3c
       -0.01036392 -0.0808382 -0.14883414 0.012264971
000380 73 c4 7a 3d 6d 82 1a bc 88 2d 05 3e ac 10 d3 bd
       0.061222505 -0.00943051 0.1300565 -0.10305914
000390 36 d9 03 3e 37 f1 e1 bc f3 e5 cb 3b 81 61 d2 bb
       0.12875828 -0.02758084 0.0062224804 -0.006420315
0003a0 87 09 2a 3c 6d 6d da bd e3 7d d4 3d 3f 2d 97 bd
       0.010378248 -0.106654026 0.103755735 -0.07381677
0003b0 02 fd 05 3e f9 7d 02 3e 34 a5 81 3d 3c 55 c8 bc
       0.13084796 0.12743367 0.06330338 -0.024454705
0003c0 6c 27 69 bc a6 87 e4 bd 2b 18 a9 bd f0 30 f3 bd
       -0.01423059 -0.111586854 -0.08256563 -0.118745685
0003d0 8d 7a 16 bd e5 25 1e be 20 5c ba 3d 4a 88 5a bd
       -0.036737967 -0.15444143 0.09099603 -0.05335263
0003e0 7e c8 ad bb 58 0e 39 3d 1e 2c f9 3d 7e 0a 34 bd
       -0.0053034415 0.045179695 0.12166618 -0.04395532
0003f0 7e 57 10 3e 45 23 4f 3d 57 8a 87 3c dc eb f8 3d
       0.14095876 0.050570745 0.016545458 0.121543616

conv1.bias f4 [32]
000000 84 4b 01 3d e3 36 4b bd c2 43 ef 3c df 93 af bc
       0.031566158 -0.04961289 0.029207114 -0.021432815
000010 a2 51 36 3d d7 fd e1 3a 12 62 df bc 1b 4f 1b bc
       0.044511445 0.0017241788 -0.027268443 -0.009479309
000020 9e 49 19 bd 78 e1 46 bc 68 ae 24 bd a3 82 62 bc
       -0.037423722 -0.012138717 -0.04020539 -0.0138250915
000030 68 cd f7 bb d0 94 0c bd b8 7c df bc 48 f1 41 3c
       -0.007562328 -0.034321606 -0.02728115 0.011837311
000040 44 80 13 3d 68 66 1a bb 46 a7 3f 39 65 c2 68 bb
       0.036010996 -0.0023559574 0.00018277494 -0.0035516259
000050 d5 95 a1 bc 3c c6 66 bb 3e 25 b2 3d 14 bd 8e bd
       -0.019724766 -0.0035213372 0.0869851 -0.069696575
000060 86 2c da bc 90 25 fd bc be be 9b bc 85 5a 4d bc
       -0.026632559 -0.0309017 -0.019011851 -0.012533789
000070 ea 1f e8 3b f1 e5 a2 bc 00 98 cf bc dc d8 d9 bc
       0.0070838826 -0.019885035 -0.025341034 -0.026592664

conv2.weight f4 [16, 32, 3, 3]
000000 c0 ea 8c 3d 0d fd a0 bb 13 05 7c 3d e0 eb 47 3d
       0.068807125 -0.0049129785 0.061528277 0.048808932
000010 f0 8b 25 bd 33 35 2e bd 25 55 17 3e c1 7a 24 bd
       -0.040416658 -0.042531203 0.14778574 -0.04015613
000020 49 e8 19 bd 1a 56 cc bd b4 86 b8 bc f1 00 b5 bd
       -0.03757504 -0.0997736 -0.022525169 -0.0883807
000030 55 88 ab bd 53 23 a7 bd 3b f7 6a 3c 3a 28 e9 3d
       -0.08375613 -0.081610344 0.014341171 0.11384626
000040 4d 5f bd bd 1f e7 95 bd 33 a5 cb 3b cd a2 af 3d
       -0.09246693 -0.073194735 0.0062147616 0.08575974
000050 bc 2a 0c 3d e7 18 00 be 1a f5 98 3d 44 68 af 3b
       0.034220442 -0.125095 0.074686244 0.0053530056
000060 18 23 ef bd c6 72 82 bd d0 bd 9d bb 72 2c 13 bc
       -0.116766155 -0.063695475 -0.004813887 -0.008982765
000070 89 87 b5 bd 8c 42 00 bc 51 cd f1 bd 33 cd 28 bb
       -0.08863742 -0.007828366 -0.11806739 -0.0025757074
000080 c1 b2 bd bd 43 25 6f 3d 74 d1 c9 3d bb 30 e0 bd
       -0.0926261 0.058385145 0.09854403 -0.109467946
000090 42 c2 82 3c 68 be f2 3b 58 84 cd bd 62 4e 31 3c
       0.01596177 0.007407952 -0.10035008 0.010821911
0000a0 33 f9 f1 3c dd fa 03 bd ef ae c4 3d 63 5c b2 bc
       0.029537773 -0.032221664 0.096036784 -0.021772569
0000b0 05 19 a8 3d 4a 41 bf 3d 82 4e 1c 3c 4e 51 a2 bd
       0.08207897 0.09338625 0.009540202 -0.07925664
0000c0 62 8c cf ba c4 06 9a 3d 12 d7 35 bd 50 39 dd 3d
       -0.0015834684 0.07520822 -0.04439456 0.10801947
0000d0 d4 ce 41 bb 92 48 20 3c 80 e2 0d bd 81 57 09 3e
       -0.0029572742 0.009782927 -0.034639835 0.13412286
0000e0 23 a9 9e 3c 51 10 de bc f6 34 a2 3c b4 69 cc 3d
       0.01936776 -0.02710739 0.019800644 0.09981099
0000f0 6d 1e d1 3d 0b 75 9a bd 52 4e fe 3b 64 6f 99 3d
       0.102108814 -0.075418554 0.0077608014 0.07491949
000100 03 a9 5f 3d 3e 57 b1 3d bd 5f 8b bd 37 4e 50 3c
       0.05460454 0.08659218 -0.0680537 0.01271396
000110 9a 8f a7 3d b8 4f a6 3c de a0 a8 3c 09 05 82 bd
       0.08181687 0.020301685 0.02058452 -0.06348617
000120 bb 25 34 bc ad 43 56 bd 37 87 87 bd b9 1d e5 3d
       -0.010995324 -0.052310634 -0.06617587 0.1118731
000130 71 d7 b3 bd 4e 6b a4 3d 80 17 2d 3c 8a 60 ec 3a
       -0.087813266 0.08028279 0.010564685 0.0018034142
000140 4e bf ea 3c 41 98 3d bd 0c 0a 78 bc 3b 2a 90 bd
       0.028655674 -0.04628778 -0.015139114 -0.07039305
000150 24 6a 4d bd 21 5f dd 3c 09 3e 79 bd 9f 25 5f 3d
       -0.05015005 0.0270229 -0.060850177 0.054479238
000160 19 91 54 bd ff 68 bf bd 34 27 65 3d 4c b6 18 3e
       -0.05189619 -0.09346198 0.05594559 0.1491329
000170 4e 4b b1 3c 87 99 1d bc f1 f4 13 3e 61 45 f4 3c
       0.021642353 -0.009619123 0.14448906 0.029818239
000180 c0 90 e0 ba ff a6 15 3e 21 a8 37 3c 82 af 80 3d
       -0.0017132983 0.14614485 0.011209519 0.062834755
000190 84 1e d1 3d 2f f3 95 3d e0 68 c0 bd 3a db 00 3d
       0.102108985 0.07321774 -0.09395003 0.03145907
0001a0 23 ab 36 3d c6 95 8a 3c b4 06 6c 3c f0 cc d0 3d
       0.044596802 0.01691712 0.014405895 0.10195339
0001b0 06 e0 e8 3d f4 ef 44 3c 22 c4 69 3c 2a 44 78 3c
       0.11370854 0.0120201 0.014267953 0.01515297
0001c0 c3 e0 10 3e f5 da c6 3d 1a 15 b8 3d f5 f6 b3 bc
       0.1414824 0.097097315 0.089884 -0.021968344
0001d0 14 96 84 bd 5b 3f ac 3d 7d 31 cc bc d8 07 47 bd
       -0.06473938 0.084105216 -0.024925942 -0.048591465
0001e0 6b 49 df 3d 9d 08 fd 3d f8 99 a8 3d 6c 23 f8 3b
       0.10902675 0.123551585 0.08232492 0.007572582
0001f0 e1 38 04 3e df a6 82 3d c5 d2 ee bc b9 f7 ae bd
       0.12912323 0.063794844 -0.029153237 -0.08543343
000200 a5 1f 91 bd 8e 05 45 bd 66 0d 34 bd 6e b6 76 3d
       -0.07086114 -0.048101 -0.04395809 0.060232572
000210 ad c4 ef 3c 42 33 9c 3d e7 e7 c8 bd a1 44 6f 3d
       0.029268587 0.07626964 -0.09809857 0.05841506
000220 c8 41 c1 bd e0 bd 64 3d d7 8c 2e bd 80 82 cb bd
       -0.09436375 0.05584514 -0.042614784 -0.09937
000230 c9 9a 9d 3c e8 dc ab 3d 57 81 6a 3d 55 74 aa 3d
       0.019238846 0.08391744 0.057252254 0.0832297
000240 d2 2f 33 3e c9 ba da 3b 71 80 f1 3d b1 b3 23 3e
       0.17498711 0.0066750986 0.117920764 0.15986516
000250 c3 9e e2 3d 65 11 24 3e 70 c3 d2 3d bf 32 2e 3d
       0.11065438 0.1602226 0.10291183 0.042528864
000260 91 f3 a4 3d 90 38 01 be 52 27 b2 bd d7 83 93 bd
       0.08054269 -0.12619233 -0.08698906 -0.07202881
000270 4d 23 36 bc c2 f2 65 3d f4 3e 2f 3d af a7 0e bb
       -0.011116815 0.056139715 0.042784646 -0.0021767428
000280 42 f5 c3 bd 7f 12 17 3d fb 36 03 3e 13 3d 24 3e
       -0.095682636 0.036882874 0.12813942 0.16038923
000290 b2 28 6a 3c 93 f1 1e 3e d4 d4 5f 3e 63 fa 9b bb
       0.014291929 0.15521841 0.21858531 -0.004760073
0002a0 00 9b 6a 3d bf 0f db 3d c7 0f 21 3e f8 81 8d bd
       0.057276726 0.10696363 0.15728675 -0.06909555
0002b0 28 e9 4b be 4f 15 31 3c 13 1e 3b bd 4e fb f2 bd
       -0.19913161 0.010808303 -0.045682978 -0.11864339
0002c0 d6 70 54 be c6 6f 87 bd 54 ad 04 3b f7 c7 a3 bd
       -0.20746168 -0.06613116 0.0020244913 -0.07997125
0002d0 78 a6 cb bd 03 e8 e4 3c 89 90 97 bc 16 da a8 bc
       -0.09943861 0.027942663 -0.018501537 -0.020611804
0002e0 3b 06 d6 bd 18 45 89 bd a7 d2 3a 3d fd 02 84 bc
       -0.10450407 -0.06702632 0.04561105 -0.016114706
0002f0 bc 95 a4 3c 30 03 4c bd 2e ac c1 3d 7a e5 e3 3d
       0.02009093 -0.049807727 0.09456669 0.111277536
000300 c4 98 0d 3e 18 9a 02 3d da 79 fb 3c 92 c1 9f 3b
       0.13827807 0.031885237 0.030697752 0.0048753703
000310 8a af 87 3d 13 df a5 3d 11 70 a5 bd bb 39 6e bd
       0.06625278 0.08099189 -0.080780156 -0.058160525
000320 eb c7 08 bd ef 04 a0 bd c6 12 02 bc c0 3b 23 bd
       -0.03339378 -0.07813441 -0.007939046 -0.039851904
000330 46 05 02 be 2a 06 ca bc 98 41 16 be 47 79 86 3d
       -0.12697324 -0.024661142 -0.1467346 0.065661006
000340 05 e6 13 bd 2c a6 92 3d 9c d6 91 3d 6d eb 34 3d
       -0.036108036 0.07160601 0.071210116 0.044169832
000350 60 10 0d 3e f4 59 0f bc cd 1c 0e 3e b8 a2 32 3c
       0.13775778 -0.008749474 0.13878174 0.010903053
000360 e5 33 78 3d 25 29 8f bd d3 2a c5 3d c8 ed 52 3d
       0.060596365 -0.069902696 0.09627309 0.051496297
000370 30 cd 15 3c 6b ce 6f bd 54 d8 0b 3e fc 3a 0e 3e
       0.009143159 -0.058546465 0.13656741 0.13889688
000380 ee 54 5e 3d 70 4f bb 3d 67 77 59 3c e8 38 3f 3d
       0.054280214 0.09146011 0.013273097 0.04668513
000390 96 b9 aa bd 3e 39 cb 3d 06 0c 9a 3d f9 ac d3 3d
       -0.08336179 0.099230275 0.075218245 0.10335726
0003a0 0c df b4 bc 83 83 3f 3c e3 6c 82 bd 12 3e 19 bd
       -0.022079013 0.01168907 -0.06368425 -0.03741271
0003b0 f7 e5 5e bd b8 60 9e bd 20 02 8d 3d 11 56 95 bb
       -0.05441853 -0.077332914 0.06885171 -0.004557379
0003c0 b9 7d f1 3d af 05 9d bd e3 fe 54 bd dd 07 0c 3e
       0.11791558 -0.076671 -0.05200089 0.13674875
0003d0 63 61 17 3e 55 d3 0d bc 3e e3 e1 3d 96 40 08 3e
       0.14783244 -0.0086563425 0.11029671 0.13305888
0003e0 36 87 a4 bd 59 54 33 bd 33 12 69 3e 00 fe 08 3e
       -0.08033602 -0.043781612 0.22760849 0.13378143
0003f0 85 38 3a 3d 56 a0 d0 3d 90 81 e3 bc 6a 1b 04 3d
       0.045464057 0.10186832 -0.027771741 0.032252707

conv2.bias f4 [16]
000000 5a fd a8 3a f6 be 00 3c ec ae c6 3c a5 26 90 bc
       0.0012892887 0.007858029 0.024253331 -0.017596552
000010 57 3e 83 3d 36 5a 6e bd 03 cb 2c bd 5d 8c d2 3d
       0.06408375 -0.0581915 -0.042185795 0.102806784
000020 0a 92 8a bc c9 50 46 bb b3 59 c9 3d 62 36 7d bc
       -0.01691534 -0.0030260554 0.09831562 -0.01545486
000030 71 bf 18 bd 6b e6 8c bc 4d e2 00 bd cd ed 67 3c
       -0.037291948 -0.017199716 -0.031465817 0.014155817

conv3.weight f4 [8, 16, 3, 3]
000000 aa 73 92 bd 89 8d ef 3d 70 6f 2c be ae 40 cb 3d
       -0.071509674 0.116969176 -0.16839385 0.09924446
000010 a8 9b 0a be 45 1f b5 bd a5 06 1d be d2 d7 76 3d
       -0.1353594 -0.08843855 -0.15334566 0.060264416
000020 94 42 5b 3c ff 0e 07 bb e0 65 c3 bc 74 b4 25 bc
       0.013382573 -0.0020608304 -0.023852289 -0.010113824
000030 24 f2 39 bd a6 c8 a6 3d 1e e2 5d 3e 36 19 e2 bd
       -0.04539694 0.081437394 0.21668288 -0.11039965
000040 fa 0b cb 3d a2 5e 99 bd f2 3f da 3d 3a 55 d5 3d
       0.09914394 -0.07488753 0.10656728 0.10416646
000050 90 5d b8 bc 28 89 30 be 9e 71 f9 3d 4c 5a 79 3d
       -0.022505552 -0.17239821 0.12179874 0.06087713
000060 ed 40 09 3e 41 7d ea bd 0e 75 dd 3a 93 48 8a 3d
       0.13403673 -0.114496715 0.0016895847 0.06752124
000070 74 d1 5b 3e 85 1b bc 3b 1c b2 5a 3e af d4 cd 3d
       0.21466619 0.0057405853 0.21357006 0.10050332
000080 03 b2 04 bd 80 eb 42 3e 5d 39 ab bb 4a 55 18 bd
       -0.032396328 0.19035149 -0.005225344 -0.037190713
000090 61 bf 1a be 2c ec 2b be cb 19 f6 bc 3a 81 05 bc
       -0.15112068 -0.16789311 -0.030041596 -0.008148486
0000a0 f8 ea ca 3d ac b5 07 3e 55 bf c6 bd ae 47 0f 3e
       0.09908098 0.13252896 -0.097044624 0.13992187
0000b0 8c fd 04 3c ed 43 6b bc 3a 7b 19 be 01 72 09 be
       0.008117091 -0.0143594565 -0.14988413 -0.13422395
0000c0 22 9b 1e be 46 18 63 3c b6 43 8c 3c 4a 69 05 be
       -0.15488866 0.013860768 0.01712213 -0.13028446
0000d0 c6 00 04 be a9 88 9b 3d 9b 47 07 3e 12 69 0d be
       -0.1289092 0.07594425 0.13210909 -0.13809612
0000e0 80 1d ee 3c de 26 ec 3c 56 80 9b 3d 38 ae 68 3d
       0.029066801 0.028827127 0.075928375 0.056806773
0000f0 a0 6e dc bc 05 18 f4 bd 70 a8 b7 3c a5 90 e7 3d
       -0.026908219 -0.11918644 0.022419184 0.11306886
000100 74 b2 7d 3e 35 f5 82 3e 75 67 9f 3e 39 46 86 3e
       0.24775106 0.25577703 0.3113362 0.2622545
000110 6a 35 92 3e 48 d3 5b 3e 4c 61 02 3d b3 63 bf 3d
       0.28556377 0.21467316 0.03183107 0.09345188
000120 b3 c2 1f bd fe 53 73 3c aa 01 dd 3d 00 6d d6 bd
       -0.03900404 0.014851568 0.10791333 -0.10470009
000130 81 79 34 3c d8 b1 36 3d 9d 36 68 bd c1 36 19 3e
       0.011015297 0.0446032 -0.05669271 0.14962293
000140 57 eb 18 3e 61 5d 9b 3d 90 71 94 bd f8 65 1b be
       0.14933525 0.0758617 -0.07248223 -0.15175617
000150 6d b8 4e be 74 da da bd b1 6c 1d be 08 d6 40 bc
       -0.2018754 -0.10686198 -0.15373494 -0.011769779
000160 21 95 91 bd c4 4b 8c 3c 03 a9 eb bd d7 67 15 be
       -0.07108522 0.017125972 -0.11506846 -0.14590393
000170 e5 cb a4 bd 9b 4a 87 3d 50 8e 25 be 10 ad f5 bd
       -0.08046702 0.06606027 -0.16167569 -0.119959
000180 fa 79 e2 bc 74 3a b5 3b 96 c6 40 3e 17 4a 07 bd
       -0.027646054 0.00553065 0.18825755 -0.033029642
000190 95 10 5a bd 78 9b a8 3d 32 1c 0d 3e 74 d8 57 3c
       -0.05323847 0.08232778 0.13780287 0.013174165
0001a0 ad 02 fe bd da 6e 27 be fd 17 22 bd 39 df 0b be
       -0.12402854 -0.1635088 -0.03957366 -0.13659371
0001b0 fd 0f 09 3e 30 34 03 bd 3c 31 9f bc 05 f3 da 3d
       0.13385005 -0.03203219 -0.019432656 0.106908835
0001c0 61 be 93 3d 48 d4 96 3d 58 81 14 3e e4 c3 33 bd
       0.07214046 0.07364708 0.14502466 -0.043887988
0001d0 00 a6 4f 3d 51 df f4 3d 83 4d bc 3b ae 1f be 3d
       0.05069542 0.11956657 0.005746545 0.09283386
0001e0 91 a4 7b bd b9 39 82 3c 5a 60 c3 bd 3c 40 09 be
       -0.06143624 0.015896665 -0.09539862 -0.1340341
0001f0 35 79 c0 3d fb a8 8e 3d 19 8f 00 3d 84 0b 9c 3d
       0.093981184 0.06965824 0.03138647 0.07619384
000200 c8 6f 2f be e3 06 22 be 62 ad 02 3d b2 05 8b bd
       -0.17132485 -0.1582294 0.031903632 -0.06788196
000210 e7 62 c0 3d e0 28 a3 bc 10 ae 1c 3d b6 3d 09 3e
       0.09393864 -0.019916952 0.038251936 0.13402447
000220 a8 79 9f bc f2 4a 0e be 4a 93 f4 bd 4f 42 0c 3e
       -0.01946719 -0.13895777 -0.11942156 0.1369717
000230 71 1c 17 3e 72 8e 7d 3d 4f f4 a0 3c cc 64 1e bc
       0.14756943 0.061903425 0.019647745 -0.009667587
000240 02 71 cc bd 4d ca 59 bc b1 5d 48 3d 76 1f cc 3d
       -0.09982492 -0.013292861 0.048917476 0.09966938
000250 a8 10 88 bc ce dd 29 3e 78 b5 09 be 55 51 df 3d
       -0.016609505 0.16588518 -0.13448131 0.10904185
000260 7d 26 0a be 5c 6d ad 3d be 51 b7 3d 51 06 80 bd
       -0.13491245 0.08468124 0.08951138 -0.06251205
000270 ec 4f 09 3d 81 b2 da bd 65 79 48 3d d1 cd 0d 3e
       0.033523485 -0.10678578 0.048943896 0.13848044
000280 1f ba 84 3d d7 3f 01 be 6d 65 60 3d 12 50 f1 bd
       0.06480812 -0.12622009 0.054784227 -0.1178285
000290 0c e4 dc 3d e6 35 d0 3b 53 e9 fb ba 88 ef 0a 3c
       0.10785684 0.0063540814 -0.0019219316 0.00847996
0002a0 d8 53 ca bc 4c 43 b4 3a c4 60 19 3e 76 40 4b be
       -0.024698183 0.0013752966 0.1497832 -0.19848809
0002b0 a6 b9 57 be b4 19 20 bb 46 d0 1f 3c 6d e6 ba bd
       -0.21066913 -0.0024429383 0.009754246 -0.091259815
0002c0 27 a8 9b bd 20 ed 21 be 1c 97 41 bd 06 00 66 bd
       -0.07600432 -0.15813112 -0.04726325 -0.056152366
0002d0 3a 81 b7 3d 7d 0d b1 3d e4 14 98 bc cf 7a 95 3e
       0.08960195 0.08645151 -0.018564649 0.29195258
0002e0 91 df 7c 3e 2b 19 10 3e be 6a 2a bb 05 d4 00 3e
       0.24694659 0.14072101 -0.0026003565 0.12580879
0002f0 cf b9 12 3e 63 92 05 be bf 60 21 be ec 16 02 bc
       0.14328693 -0.13044123 -0.15759562 -0.007940035
000300 4a 6e 44 be 01 04 61 be bf f0 d1 bd c9 9d f7 bc
       -0.19182697 -0.21974184 -0.10250997 -0.030226605
000310 14 ad 52 3d 98 37 e1 3d d1 11 80 be 46 da 97 be
       0.05143459 0.10996932 -0.25013593 -0.29658717
000320 4b 03 5f 3c 7e e3 dd bd 54 4f a1 bd 9e 4e 1e bd
       0.013611625 -0.10834406 -0.07876459 -0.038649194
000330 37 5a 33 be 18 49 5a be 2e b3 8f bd 1b b6 37 be
       -0.17514883 -0.21316946 -0.07016598 -0.17940561
000340 0c e7 1d be d6 20 8f bc fc 64 c4 3d 0b 8d b1 3d
       -0.15420169 -0.017471712 0.09589574 0.0866948
000350 cc f2 d0 3c bc 62 1e 3e 81 3f 27 3e 9b 0b b7 3d
       0.0255064 0.15467352 0.16332819 0.089377604
000360 5c 37 86 3d 7c d1 19 be ec ab 34 bd 4d 00 e0 3d
       0.06553528 -0.15021318 -0.04410927 0.10937557
000370 25 40 31 bb 9f 4d 13 3d 40 72 02 bd cc c2 cc 3d
       -0.002704629 0.035962697 -0.03184724 0.09998092
000380 e3 86 f4 bd 39 dc da bd 0b 89 bf 3d c2 f0 b0 bd
       -0.1193979 -0.106865354 0.09352311 -0.08639671
000390 5f c3 aa 3d 05 4f 05 3e 37 ca 30 bd f7 66 18 3e
       0.08338045 0.13018425 -0.043161597 0.14883028
0003a0 57 50 19 3d a8 d2 74 bd 2e 6a 89 3e ca cc 81 3e
       0.037430134 -0.05977121 0.2683882 0.25351554
0003b0 bd d7 d1 3d 04 d5 6c 3e 3a 3a 14 3e 87 24 a9 3e
       0.10246227 0.23128134 0.14475337 0.3303568
0003c0 fe 75 85 3e 34 5a 6e 3e 79 bb 4f 3e 03 89 10 3d
       0.26066583 0.23276597 0.20286359 0.035286915
0003d0 ec 48 f6 bb 85 d5 91 bb d0 5c 50 3c 6c 70 00 be
       -0.007516017 -0.0044505023 0.012717441 -0.12542886
0003e0 4d ae cb 3c a9 7f 45 bd 24 a4 23 bd 9a 68 83 3d
       0.024863387 -0.04821745 -0.03995146 0.064164355
0003f0 53 3e 95 bd 33 35 0b bd f3 8f 39 bc 90 10 38 3d
       -0.07287278 -0.03398628 -0.011325824 0.04493767

conv3.bias f4 [8]
000000 ad 97 09 3d d9 1c 8a 3d 90 6f 4e bc b1 57 b4 bd
       0.033591915 0.067437835 -0.012599841 -0.08805788
000010 36 1f 7d bb 29 2b c9 ba 3c a7 fa 3c 12 73 33 bd
       -0.003862334 -0.0015347946 0.030597322 -0.04381091

fc1.weight f4 [128, 1568]
000000 81 b3 6b 3c af b7 9c bc 96 b1 20 bd 63 e5 c6 3c
       0.014386059 -0.019130556 -0.03923186 0.024279302
000010 ec 7f 3b bd 50 d3 12 ba 21 b8 18 bd 3c 17 42 3d
       -0.045776293 -0.0005600946 -0.037284974 0.04738544
000020 1c 2a 8e bb f9 1b 2f 3c ea e6 3d 3d f9 3c 25 bd
       -0.004338516 0.010687822 0.046362795 -0.04034135
000030 8d 65 29 bd 69 71 0d 3d b9 81 5b 3c 8b 26 85 bd
       -0.041356612 0.034531984 0.0133976275 -0.06501492
000040 a6 5e dd bc e7 7f 69 bd cb 85 ad 3b 9c e2 20 3d
       -0.027022671 -0.057006743 0.0052954904 0.03927861
000050 20 4e 83 bb 7e bb cf 3c e2 4a 30 bd 33 b4 30 3d
       -0.004007116 0.025357958 -0.043040164 0.0431406
000060 14 4c 34 3c 5b 71 d7 bc 5d b2 fa 3c 63 7d 20 bd
       0.011004467 -0.02629917 0.030602628 -0.039182078
000070 58 d4 4c 3c 03 b5 8a 3c 7c 1f 75 bd 7f bc 62 bd
       0.012501799 0.016932016 -0.05984448 -0.055355545
000080 29 a4 bb bc d5 78 35 3d 47 7b 95 3c 63 eb 5c 3d
       -0.022905426 0.044304688 0.01824726 0.05393542
000090 e0 cd 3e bd 4e f8 4d bd 09 55 94 bc 61 00 59 3d
       -0.046583056 -0.05028563 -0.018106954 0.052978877
0000a0 0c f4 68 bd b2 60 cb 3c 2e 74 a2 3b 4b 38 b1 bc
       -0.056873366 0.024826381 0.0049576974 -0.021633288
0000b0 e4 6f 34 3d ac 1a 50 3d 29 14 4b 3d 5a e1 28 3d
       0.04405202 0.050806686 0.049579773 0.041230537
0000c0 ce 90 58 3d 60 42 1d bd 5f cd a9 bc 31 c5 ff b9
       0.05287247 -0.03839338 -0.020727811 -0.0004878431
0000d0 af 8c f6 bc 7b f7 25 bc ce 8c 55 3b a9 27 30 3d
       -0.03009638 -0.010129805 0.0032585147 0.043006573
0000e0 6e df 68 3d cf 9b c6 bc c7 be 35 bd a4 4c a0 3c
       0.056853704 -0.024244217 -0.044371393 0.019567795
0000f0 ba a9 16 bc 55 3b 19 bd f8 86 30 3d 66 46 2e bd
       -0.009195739 -0.0374101 0.043097466 -0.042547606
000100 f6 3d 26 bb d9 70 55 bd 10 90 48 bd 04 51 41 3d
       -0.0025366521 -0.052109573 -0.048965514 0.047196403
000110 31 bc 20 bd 0b 9b 4e 3d ee 91 39 bd 3d fc 3e 3d
       -0.039241973 0.05044083 -0.045305185 0.046627272
000120 22 da 94 bc ba 33 fc bb 70 1f 3d 3a 44 26 fb 3c
       -0.01817042 -0.007696596 0.00072144624 0.030657895
000130 7e 73 80 3c 0d 29 54 bd 70 c9 e9 bc 64 36 4b 3d
       0.015680071 -0.05179696 -0.028538436 0.049612418
000140 8a b9 6a 3d b5 07 1b bd 87 83 90 bc f6 63 30 3d
       0.05730585 -0.037849147 -0.017640842 0.04306408
000150 29 ed 3d 3d 8f 35 40 bc 47 77 05 bc 4d 66 ca 3c
       0.04636875 -0.011731519 -0.008146114 0.024706984
000160 de 20 84 3b 9b 67 59 3c 61 a5 53 bd f2 e9 e8 3c
       0.0040322384 0.01326933 -0.05167139 0.028431866
000170 f8 29 51 bd 5f 7e a9 bc 1f d0 15 bd 4c 52 51 bd
       -0.051065415 -0.020690141 -0.036575433 -0.051103875
000180 7b e6 0d 3b 14 12 54 bd 2e cc 61 bc ad 5a 6c bd
       0.002165227 -0.051775053 -0.01378159 -0.057703663
000190 74 92 08 3c c7 57 20 3c b1 cf 01 bd b6 a6 84 3c
       0.008335698 0.009786553 -0.03169221 0.016192775
0001a0 39 eb 91 bc 66 17 7f 3c 1a e7 5c 3d 33 13 96 bc
       -0.017812358 0.0155695435 0.053931333 -0.018319702
0001b0 de 97 58 3d 0f 5d e6 bc de 27 60 3d 45 83 a6 bc
       0.052879207 -0.028120546 0.05472552 -0.020326266
0001c0 b3 a5 4d 3d 46 be 05 3d 8d 83 a4 3c e5 0c 23 3d
       0.05020685 0.032652162 0.02008226 0.03980722
0001d0 27 bf 8b 3c cc a6 fb bc 37 c6 90 bc 77 ee 26 bc
       0.017058922 -0.030719183 -0.017672641 -0.01018869
0001e0 a1 1b 60 bc 8c dc 0e bd 72 5a d1 bb ba f5 54 3d
       -0.013678462 -0.0348783 -0.0063889557 0.051992156
0001f0 21 2d 4f 3d 19 04 74 3c ed 16 22 bd f7 13 5f bd
       0.050580148 0.014893555 -0.039572645 -0.0544624
000200 7c ae 18 3d 6d 46 5d 3d d0 44 ac bc 3e d4 3d 3d
       0.037275776 0.05402224 -0.021028906 0.046344988
000210 4a b6 55 3d e5 66 be bb 25 79 8c 3c 7e 00 3b 3d
       0.052175798 -0.005810606 0.01714761 0.045654766
000220 8c 1f 99 bb 80 c0 18 bd b3 8c 53 3a 5e 00 d6 3c
       -0.00467295 -0.037292957 0.0008069977 0.026123222
000230 9f 3f 59 3c fc 31 12 bd f7 d9 44 3c c5 78 57 3d
       0.013259797 -0.0356922 0.0120148575 0.05260541
000240 1c 29 80 bd 7c 43 3d 3d 76 e2 39 bd b9 97 b8 b8
       -0.06257841 0.046206936 -0.045381986 -8.802064e-05
000250 1e ea e6 bc 7d ad 6e 3c c6 08 81 bd c4 c1 ed 3c
       -0.028187808 0.01456773 -0.063005015 0.029023059
000260 8f af 63 bd 6b b7 5b bd ed e7 39 bd 35 dd 9f bc
       -0.055587348 -0.053641718 -0.045387197 -0.01951466
000270 01 00 20 bc 03 85 36 bd e5 98 4c bd e4 69 da 3c
       -0.009765626 -0.044560444 -0.0499505 0.02666182
000280 39 c9 a5 bc 6b d7 70 bd 58 c1 09 bc de 5d 1e bd
       -0.020237552 -0.05879919 -0.008407913 -0.038663737
000290 53 9c a1 3c 80 00 06 bd 7a d1 a1 3c 06 86 af bc
       0.019727862 -0.03271532 0.019753207 -0.021426212
0002a0 04 f9 e8 3c e4 13 5f 3b 75 27 17 3d 9c 3a 24 bd
       0.028439052 0.0034038955 0.036902864 -0.040094957
0002b0 0c b9 d4 bc 41 20 6b bb 5b 48 29 bc 64 c4 8d 3b
       -0.025967143 -0.003587738 -0.010332192 0.00432639
0002c0 a6 e5 35 bb 31 53 da 3c 95 03 58 bd fd 70 63 bd
       -0.002775529 0.026650997 -0.05273779 -0.055527676
0002d0 ee 7c 8c 3c 1a 35 44 bd 78 34 19 3d 0b 7e 2f bd
       0.017149415 -0.047902204 0.037403554 -0.042844813
0002e0 91 49 d4 bc 31 fd 94 3c 0a 39 17 bd d1 2b c0 3c
       -0.025913985 0.018187137 -0.03691963 0.023458393
0002f0 6d 5a 71 bd 7f fa 08 3c 4d c5 c2 bc 3c 9a eb 3c
       -0.058924127 0.008360504 -0.023775721 0.028760068
000300 cc 27 12 3d c9 67 14 bd 43 fd 28 bd 9a b3 da 3c
       0.035682485 -0.03623179 -0.041257154 0.026696969
000310 ea 51 8e bc 47 da 61 bd 87 46 0b 3a 41 91 ed bc
       -0.017373044 -0.055139806 0.00053129386 -0.028999927
000320 eb 1e af 3c 7c 34 c6 bc b4 f3 d8 3c 9d 47 0f 3d
       0.021377048 -0.024194948 0.026483394 0.034980405
000330 79 f9 fb bc ab 5f c1 3b e1 d5 30 3d 37 ad 4d 3d
       -0.030758606 0.005901297 0.04317272 0.05021402
000340 5b 9b 15 3d 4c 57 8a bc bf d2 c3 3c 7d 07 65 bc
       0.03652511 -0.01688733 0.023904203 -0.013978836
000350 fc 04 f6 bc 7a b1 1a 3d d6 69 08 bd d7 2e 44 bd
       -0.030031674 0.03776691 -0.033304058 -0.047896232
000360 51 04 eb 3c 31 c3 d0 bc 9e 02 dd bc 62 9c b1 3b
       0.028688582 -0.0254837 -0.026978787 0.0054202536
000370 28 f6 16 bc 8b 26 d8 bc c5 7f b2 bc 64 29 72 bd
       -0.009213962 -0.026385566 -0.02178944 -0.059121504
000380 d4 f6 0c 3c 18 3e f7 3c fc 43 dd 3c 72 f3 10 bd
       0.00860377 0.030180976 0.027009957 -0.035388418
000390 6f bf 23 3d 4f a2 4a bd 01 72 98 3c 4a c8 cb bc
       0.039977487 -0.049471196 0.018609049 -0.024875779
0003a0 dd 65 e0 bc 91 30 2b 3c e7 66 66 3d 14 06 02 3d
       -0.027392322 0.010448591 0.05625048 0.031744078
0003b0 3f 3e b5 3c f9 a9 a7 bb f3 e0 72 bc 09 b3 3e bd
       0.022124408 -0.005116698 -0.01482414 -0.04655746
0003c0 90 69 ba 3c 55 b7 18 bd 39 9b c5 bc 99 ad 37 3d
       0.022755414 -0.037284214 -0.024121867 0.04484329
0003d0 59 be 12 3c 05 80 1a 3a e3 9d ba 3c ae 41 ed bb
       0.008956515 0.000589371 0.022780364 -0.0072404956
0003e0 ad d2 8c 3b 6d 14 3c 3d 8f e5 49 bc 90 87 4e 3d
       0.0042975754 0.045917917 -0.012322797 0.05042225
0003f0 25 b3 d6 3c cb 1f 0d 3c 09 80 35 3d 96 e7 b3 bc
       0.02620847 0.008613537 0.044311557 -0.021961015

fc1.bias f4 [128]
000000 f1 4a 9f bb 00 da 51 3a 6f c9 c4 bb 42 c5 a3 bb
       -0.0048612286 0.0008005202 -0.006005458 -0.00499788
000010 49 f3 2d bd 0d 0c 55 bb 2f 35 a9 bc eb c7 c4 bb
       -0.042468343 -0.0032508404 -0.020655243 -0.0060052774
000020 93 05 c6 3c f4 c4 60 bd 35 56 04 bd fe 1a ca bb
       0.02417258 -0.05487533 -0.032308776 -0.0061677685
000030 cf 57 96 3b 82 87 ce bc b2 63 26 bd a8 6a 4c bc
       0.0045881043 -0.0252111 -0.04062242 -0.012476601
000040 5f a6 c4 bb a7 c7 d4 b7 d0 2b 8e 3d 93 72 30 bc
       -0.0060012783 -2.536534e-05 0.0694195 -0.010769504
000050 14 30 2f 3d 64 a4 a7 bb 63 72 fd bc d4 92 ef bb
       0.04277046 -0.0051160324 -0.030938333 -0.0073112044
000060 75 75 a9 bc 16 65 93 3b e7 37 53 bb 38 e3 83 3d
       -0.02068589 0.0044981344 -0.0032229365 0.06439823
000070 10 43 4d 3d 3f 02 0a bc b1 92 8a 3d 58 80 e6 3b
       0.050112784 -0.008423387 0.067662604 0.0070343427
000080 cd cb df bc 95 c9 c4 bb a9 61 7a bc 3f f6 6b bd
       -0.02731886 -0.0060054758 -0.015282073 -0.057607885
000090 b5 69 88 bc 0a 5d 1a bc 25 ab 96 bb 44 58 a5 bb
       -0.016651968 -0.009421596 -0.0045980387 -0.0050459225
0000a0 78 bf a8 bb c3 bf 61 bc 23 9a e7 bb 6c c9 c4 bb
       -0.005149778 -0.01377863 -0.007067935 -0.0060054567
0000b0 c4 16 a6 bb 19 a4 89 3c 15 dd ff bb 41 54 1d bd
       -0.005068632 0.01680188 -0.0078083375 -0.03841043
0000c0 04 8e 23 bc 0b 0b 38 3d 27 28 0b bc ed 04 4e bc
       -0.00998259 0.044932406 -0.00849346 -0.012574417
0000d0 a4 92 98 3c 7e 60 da bb 0b bb e4 3c e1 fd a6 3c
       0.018624611 -0.006664335 0.02792122 0.02038473
0000e0 e7 fc 6e bb c8 7d d3 bb c1 f8 a7 bb 79 e2 83 bc
       -0.003646666 -0.0064542033 -0.0051260893 -0.016099202
0000f0 13 dd 29 3c 63 7a ef bb 01 c9 c4 bb f9 b4 c5 ba
       0.01036765 -0.007308291 -0.006005407 -0.0015083841
000100 52 f4 73 bb 35 c0 3b 3b aa 1b d2 3c 6a 37 b4 bb
       -0.0037224484 0.00286485 0.025647957 -0.00549977
000110 91 19 04 3d 95 8d 0a 3d 04 ee 0a bc e1 f7 57 bd
       0.032250945 0.03382643 -0.008479599 -0.05272663
000120 54 78 b2 3a f7 3f 01 3d 6c 6a 69 3c b2 c9 c4 bb
       0.0013616183 0.031555142 0.014246564 -0.0060054893
000130 8c c9 c4 bb 2a 27 b6 bb a9 50 25 bc 22 cb e6 bb
       -0.0060054716 -0.005558868 -0.010090032 -0.0070432583
000140 41 2f 44 bc 9c 3c e5 bc f0 d6 98 bb a2 d3 89 3d
       -0.011974157 -0.027983002 -0.0046642944 0.06729819
000150 d5 48 e3 bb 27 6a cb bc 56 b2 e2 bc cc a0 8b bb
       -0.0069361725 -0.02483089 -0.027672928 -0.004261112
000160 d0 49 d0 bc 80 6f 0b bc ac 7b 64 bc 05 c6 c4 bb
       -0.025425822 -0.00851047 -0.013945501 -0.006005051
000170 f8 a6 d0 bc 29 a4 81 bd 4e 6c c0 3a c1 df c4 bd
       -0.025470242 -0.06330139 0.0014680715 -0.0961299
000180 c1 c7 d3 bb 32 ea 90 bb 1c 9c 53 3a 98 c9 c4 bb
       -0.0064630215 -0.0044224495 0.00080722733 -0.006005477
000190 ff 53 c8 bb a4 d5 8b bc 68 b7 80 3c 64 ac 11 bc
       -0.0061135287 -0.017069645 0.015712455 -0.008891199
0001a0 c3 85 9d 3c 14 21 21 3c d5 96 e2 bb 21 1c a5 3d
       0.019228822 0.009834547 -0.0069149532 0.08062006
0001b0 69 0b 61 bd d1 d2 63 bd 0f f1 4a 3c 8e 6a 18 bc
       -0.054942522 -0.055620972 0.012386574 -0.009302748
0001c0 d6 ce 59 3d 7a 88 f8 bb b0 26 b6 bb 84 00 f1 bb
       0.05317577 -0.0075846286 -0.005558811 -0.007354798
0001d0 c6 4c 4d bd 9d c9 c4 bb 85 19 4b 3d 2c c9 c4 bb
       -0.050122045 -0.0060054795 0.049584884 -0.006005427
0001e0 3e e2 a6 3d d7 d9 aa 3c 33 21 9e bc 57 70 e7 bb
       0.08148621 0.020855827 -0.01930294 -0.0070629525
0001f0 bc c9 c4 bb d0 28 91 bc 6e c9 c4 bb d1 58 50 bc
       -0.006005494 -0.017719656 -0.0060054576 -0.012716488

output.weight f4 [10, 128]
000000 5c fa 2d be 74 f3 f7 3c 3d b6 d4 bc 58 e9 35 be
       -0.16990036 0.030267455 -0.025965804 -0.17764795
000010 93 34 92 3c a9 71 83 3d 3c de ca 3c 75 63 f1 bd
       0.017847335 0.06418163 0.024764173 -0.11786548
000020 b4 57 7b bd 11 b3 f9 3b 8d 4f ef bd 11 74 ae 3d
       -0.061362937 0.0076202233 -0.11685095 0.08518232
000030 2e 1f fe 3d f1 94 34 3d 4d b0 a2 3d d7 ec 3c be
       0.12408291 0.044087354 0.07943783 -0.18449722
000040 2f 8d 4c 3e 02 7b 69 be 8c ec d1 bd cc 1e 71 be
       0.19975732 -0.2280083 -0.10250196 -0.23546904
000050 e4 93 53 3e 32 b2 e7 3d fc 39 a2 3d c4 84 97 3d
       0.20661885 0.11313285 0.07921216 0.0739837
000060 73 8c cc 3d c4 51 80 be 5a 3d 9f 3d 7e ba 9b bc
       0.09987726 -0.25062382 0.07775374 -0.019009825
000070 d7 bb 18 3e c6 d1 af bd c5 1d 27 3c fa f7 8f bd
       0.14915405 -0.08584933 0.010199969 -0.0702972
000080 38 6d a9 3d a2 34 7d 3d 2b e0 65 bd 57 96 01 3e
       0.08272785 0.061817773 -0.056121986 0.12655006
000090 9b ba 28 3e 3f 8a 1e 3e 96 09 65 bd f9 10 07 3e
       0.16477434 0.15482424 -0.055917345 0.13190068
0000a0 40 b1 19 bd 76 08 31 3d 22 9d 4f 3e 8e 43 4a 3e
       -0.037522554 0.04322096 0.20274785 0.19752333
0000b0 09 f7 72 3d 59 63 61 bd 87 4d 95 bd fd e7 33 bc
       0.059317622 -0.055026386 -0.07290178 -0.010980603
0000c0 8b 79 05 3e 80 5f 13 be c8 ad 90 3d 8d 22 04 3e
       0.13034646 -0.14391899 0.07064396 0.12903805
0000d0 13 2d 49 3e 90 dd ec 3d 57 43 16 3e b3 0f b5 3d
       0.196461 0.11565697 0.14674126 0.08840885
0000e0 31 b4 28 3e 7f 1b 78 bd 0c 8a c0 3d 3a 8f 4c 3e
       0.16474988 -0.060573097 0.0940133 0.19976512
0000f0 2c 60 ac 3d a0 87 93 3d 23 03 f3 3d 91 c2 93 3d
       0.08416781 0.07203603 0.11865833 0.07214845
000100 f1 f5 8f 3d 69 da 8f b9 b2 f4 8f bd c3 4b 2c 3e
       0.070293315 -0.00027437814 -0.07029094 0.16825776
000110 b8 54 c0 3c 20 2c 1f 3b 30 30 91 3c 76 89 20 3d
       0.023477897 0.0024287775 0.017723173 0.039193593
000120 b4 40 00 be 5b e3 fc 3c cc ff 80 3e 19 48 9b 3d
       -0.12524682 0.03087013 0.25195158 0.07582111
000130 8b aa 0d be 9f 2a 8a 3c f7 f5 c4 bc b6 27 9a bc
       -0.13834588 0.016866026 -0.024043066 -0.018817764
000140 a8 35 9f bc 3c 91 4c be 73 db a4 bd 5c 17 a4 bd
       -0.019434765 -0.19977278 -0.08049669 -0.08012268
000150 6e 48 4d be cd 32 1f 3e 34 ba 92 3d b6 99 ef bd
       -0.20047161 0.15546723 0.07164422 -0.1169924
000160 02 1c 45 be 7b 58 36 3e e5 12 94 3d b4 b4 bb 3d
       -0.19248965 0.1780719 0.07230166 0.09165326
000170 91 12 a4 bd 06 1c 47 be 51 57 35 bd b4 92 3f 3c
       -0.08011354 -0.19444284 -0.044272725 0.011692692
000180 f3 08 8c 3d f0 5e 34 be af 7f 7a 3c 5d 66 66 3d
       0.068376444 -0.17614341 0.015289231 0.056249965
000190 97 df 87 3d a4 99 64 3c 1c cb 05 3d b4 ab ce 3c
       0.06634443 0.013952646 0.032664403 0.025228359
0001a0 44 07 a2 bc 9c 8d c3 3d d5 10 45 3e 77 70 09 3d
       -0.019778855 0.09548494 0.19244702 0.03355452
0001b0 ca 45 8e be 87 ee cc bd 46 6f 80 3c 1c b4 30 bc
       -0.2778762 -0.10006433 0.01567806 -0.010785129
0001c0 4d 80 fb bd 42 46 d5 3b c9 73 86 3d 98 77 1a bd
       -0.12280331 0.0065086195 0.06565053 -0.03771171
0001d0 ed f4 73 be b5 c9 d0 bd 72 0c 0c be d6 7a 21 bd
       -0.238239 -0.101947226 -0.13676623 -0.039423786
0001e0 59 f6 42 be 0a b6 58 bc de ba 42 be d7 0f 8a 3d
       -0.19039287 -0.013226995 -0.19016597 0.067413025
0001f0 94 60 4d 3e 81 4f 12 be bd 9c 3a bc a3 41 26 bd
       0.20056373 -0.14288141 -0.011389908 -0.04058994
000200 cc 89 d5 bd 93 d6 de 3c 7d 60 23 bb f4 97 e5 3d
       -0.10426673 0.027201926 -0.0024929338 0.112106234
000210 06 98 23 be bb 18 49 3c 46 e4 1f be fd 59 03 3d
       -0.15975961 0.012273963 -0.15614423 0.03206824
000220 1a 9d c7 3c e2 9f 91 bd d5 cc 09 be 73 d4 18 3e
       0.024366904 -0.07110573 -0.13457043 0.14924793
000230 8a e6 62 3c 76 bd e7 3c 1e ab 37 be 4c 48 e7 3d
       0.01384891 0.028288584 -0.1793637 0.112930864
000240 11 d6 50 be fe fd e2 3d 9c 6c 01 3e 17 5c 31 3e
       -0.2039416 0.110836014 0.12639087 0.17320286
000250 10 80 98 3d a1 a5 27 bd 21 1f 51 3d ca cf 3d 3d
       0.07446301 -0.04092944 0.051055077 0.04634074
000260 e8 b1 2e be fa 37 32 3e 2f de e4 bb 73 bf 68 bd
       -0.17060053 0.17404166 -0.006984494 -0.056823205
000270 75 e9 53 bd f6 0c 84 bd 89 23 12 be 85 f5 13 3e
       -0.051736314 -0.064477846 -0.14271368 0.14449127
000280 85 d1 5a be ae c8 23 3e 82 68 d1 bd 5f 33 37 3e
       -0.21368988 0.15994522 -0.102250114 0.1789069
000290 b7 1c b5 bd 96 d7 3d 3d 0a c0 bc bd c3 94 41 3e
       -0.088433675 0.046348177 -0.09216316 0.18904404
0002a0 4a ad 8d bd 68 19 08 be b5 07 fc bd a9 5b e0 bd
       -0.06917818 -0.13290942 -0.123061575 -0.10954983
0002b0 d0 d4 d7 3a e1 7c b8 3d 9f d8 be 3d e4 a5 81 be
       0.0016466621 0.09008194 0.09318661 -0.25321877
0002c0 b2 b4 f3 bc 04 5d 6a 3d 80 7f d5 3d a5 48 94 3b
       -0.029749248 0.057217613 0.10424709 0.0045252615
0002d0 04 82 99 3d c1 ca ce 3d eb df 3a 3e 5a 9e 8c 3d
       0.07495502 0.10097266 0.1824948 0.06866141
0002e0 7b ce f6 bd e5 7b dc 3d 24 69 2a be 8c c9 13 3d
       -0.12051102 0.107658185 -0.1664167 0.036080882
0002f0 48 bf 63 bd fe 2b 3d 3e df 23 28 be 3f f5 e3 3d
       -0.055602342 0.18473813 -0.16419934 0.11130761
000300 2c 5d 39 3e bb 4a 51 3e e7 96 86 bd c8 04 6e 3d
       0.18101948 0.20438664 -0.06571751 0.05811003
000310 91 73 da bd b1 fd 8e 3c 1f 2c 6d 3b 0a 76 99 bd
       -0.10666574 0.017454954 0.0036189628 -0.07493217
000320 34 1d 40 3d 9a 79 44 3e 6c 7e ec bd ed 3d a9 3c
       0.04690285 0.19187012 -0.115475506 0.020659411
000330 44 f1 15 3e 2d 10 20 3e 96 08 80 3d 21 16 20 3e
       0.14642817 0.1563117 0.06251638 0.15633442
000340 46 d3 ae 3d 68 63 b3 bd 15 eb 42 be 77 f7 16 3e
       0.08536391 -0.087591946 -0.19034989 0.14742838
000350 9a fa a2 bd 79 26 14 3e c8 58 5b bc 0a d6 50 be
       -0.07957955 0.14467801 -0.013387866 -0.2039415
000360 a4 9d f6 3d 2e 2e 31 be af 2d 8e bd 13 73 2e be
       0.12041786 -0.17302772 -0.06942307 -0.17036085
000370 4b 34 fd 3c e2 4f 39 3d d2 89 dc bd d8 19 01 be
       0.030908724 0.045242198 -0.10768475 -0.12607515
000380 d6 50 2f 3e 3f e4 91 3d be 0e 20 3e 87 e7 ae bd
       0.1712068 0.071236126 0.15630624 -0.08540254
000390 c2 7f a4 3b 26 81 03 be 77 54 31 be c5 b1 d0 bd
       0.0050201127 -0.12842235 -0.17317377 -0.10190157
0003a0 fc 66 41 ba f5 8c f8 bc 37 58 53 be 53 9d c7 3d
       -0.00073777116 -0.030340651 -0.2063912 0.09746804
0003b0 aa 0e b5 3d 25 9f 68 bb 26 47 20 3e 20 d5 fc bd
       0.088406876 -0.0035495248 0.15652141 -0.12345338
0003c0 7a 41 b0 3c c5 45 21 be 98 de 31 be 21 4a 4e 3e
       0.021515597 -0.15749271 -0.17370069 0.20145465
0003d0 f2 27 4d 39 5b cd 35 bc f4 26 c4 bb 03 91 fe bc
       0.00019565204 -0.011096324 -0.005986089 -0.031075006
0003e0 47 b9 88 be 9c 11 20 be 88 c1 e4 3d ca 8c 0a 3d
       -0.26703855 -0.15631717 0.11169726 0.033825673
0003f0 53 e1 95 bd 13 9a 7a bd 17 75 92 bd d5 78 85 3b
       -0.07318368 -0.061182093 -0.07151239 0.004073242

output.bias f4 [10]
000000 35 b2 bc 3c 18 51 37 3d 75 24 4f bd 55 dd b9 bc
       0.023034194 0.04475507 -0.050571878 -0.022688547
000010 47 b0 9e 3d 2e ff bc bc 4a 28 a2 3c 4d b3 7d bc
       0.07748466 -0.023070898 0.019794602 -0.015484643
000020 88 0d 5e 3c d8 f6 c4 bd
       0.013553031 -0.09617394
