Tomato_cnn/saved_ckpt/best_model_epoch_92.pt (torch, 839136 bytes, 10 tensors)

conv1.weight f4 [32, 3, 3, 3]
000000 9d 45 64 bc be 6f b8 3d 8d cf 4e 3d 07 0a 2b 3d
       -0.013932613 0.09005688 0.050490905 0.04175761
000010 3a 43 b0 bd e9 1f b8 bd 61 c9 51 3d 9f a5 4a 3e
       -0.086065724 -0.089904614 0.05121744 0.19789742
000020 22 39 44 3e d0 ec 7f bd 5d 8a 00 bd a1 dd bb 3c
       0.1916242 -0.0624817 -0.031381954 0.02293283
000030 0c 61 bd be 80 5a df be 3f 64 84 be 42 f0 c9 bd
       -0.36988103 -0.43623734 -0.25857732 -0.09860279
000040 00 cf db 3d c1 fd b5 bb 99 93 84 bc e9 04 0f be
       0.107328415 -0.0055539315 -0.016183661 -0.13966717
000050 93 5a 07 bd 8c ce 4b be 4a 88 81 be b8 dc 3d bd
       -0.033045363 -0.1990301 -0.25299293 -0.046353072
000060 66 ad dc 3d 73 12 d0 bd 51 62 0b 3d f5 13 de 3a
       0.107752606 -0.10159769 0.03402931 0.0016943204
000070 a4 0d 46 be c3 2d 2a bd ba fa fd bd 7b 6a cf 3d
       -0.19341141 -0.041547548 -0.12401338 0.101277314
000080 19 c8 58 3c 14 6b c4 3d 47 04 f9 3d 96 d4 0f be
       0.013231301 0.09590736 0.12159019 -0.14045939
000090 ac a3 88 bc 4f d7 e0 bd 2f e8 9b 3b 97 7f 25 3e
       -0.016679607 -0.10978567 0.004757903 0.16161953
0000a0 d8 5e 2b 3e 75 ea e8 bb 62 70 18 3e b3 c2 18 3e
       0.16735399 -0.0071080276 0.1488662 0.14918022
0000b0 9b ad e5 3d 78 08 e5 bd fd e7 2f bd 24 a9 c1 3d
       0.11214753 -0.11183256 -0.04294585 0.09456089
0000c0 43 8a 09 3e a5 9a d2 3d 17 07 d4 bd 4f 90 25 3d
       0.13431649 0.10283402 -0.10352915 0.040420827
0000d0 82 33 06 3e 00 23 c4 bd 86 cc 3c 3e b3 86 8d 3d
       0.13105586 -0.09576988 0.18437394 0.069104575
0000e0 6b fa ec 3b 2e 56 68 3d 89 43 d6 3c ef b9 f2 3d
       0.0072320006 0.056722812 0.02615525 0.1185187
0000f0 30 bc 31 3e c3 8c 81 bc 31 8d 1a 3d 47 62 8e 3c
       0.17356944 -0.01581419 0.037732307 0.017380847
000100 b0 99 b5 3d 5e f6 da bd 01 e7 8d bd 8e 8a ad 3d
       0.08867204 -0.10691522 -0.06928826 0.08473693
000110 49 c7 40 be 43 20 c2 bd f2 f1 4c 3d da 39 25 be
       -0.18826021 -0.0947881 0.050035425 -0.1613535
000120 d3 0b fe bd b2 69 22 be e2 3b 72 bd 7f 2c 19 bd
       -0.12404599 -0.15860632 -0.05913914 -0.03739595
000130 b4 4c 2e be 84 a9 e3 bd 5b da e9 bd 17 b3 8b 3c
       -0.17021447 -0.11116317 -0.11418601 0.01705317
000140 82 65 4f be fa 64 1b 3e 0b 6a 52 3e 9a 06 f2 3d
       -0.20253566 0.15175238 0.20548265 0.118176654
000150 9d a3 2b 3d b6 91 64 3e 41 e9 3e 3e 49 c4 18 3d
       0.04190408 0.2232121 0.18643667 0.037296567
000160 bd b1 c2 3d 94 6d 06 3e 46 7d e0 3d 7e f7 b5 3d
       0.09506557 0.13127738 0.10961394 0.08885096
000170 4e 08 25 bd 2d 88 d9 3d 15 d8 bb 3d a4 db 9b 3d
       -0.040291123 0.106216766 0.09172074 0.076102525
000180 fa d2 16 bd ff a0 99 3a 77 a4 86 bc 3f f7 4d be
       -0.036822297 0.0011720954 -0.016435845 -0.20113848
000190 21 6f 93 bd df 08 3a be a4 b9 1e be ae ad 50 be
       -0.071989305 -0.18167447 -0.15500504 -0.20378754
0001a0 cf ea 5a bc db 5d 2b be 3d ad 8a bd af 78 25 be
       -0.013361647 -0.16735022 -0.06771324 -0.16159318
0001b0 85 c0 b0 bd 33 36 05 be a9 5b 5a bd 34 ee 83 3d
       -0.0863047 -0.13008957 -0.05331007 0.06441918
0001c0 7c b6 13 bd 77 14 9a bd db 1e 87 3a 55 48 7f bd
       -0.036062703 -0.075234346 0.0010308878 -0.06232484
0001d0 57 e9 8d 3d 45 6f 72 3d 91 80 5d 3e fb 12 ca 3c
       0.06929272 0.059188146 0.21631075 0.024667254
0001e0 f3 7d e1 3d 6d ce 11 3e e6 32 1f 3e 7b d5 33 3e
       0.11010351 0.14238901 0.1554676 0.17561905
0001f0 ba 8f b8 3d 10 41 5d 3d 18 10 c6 bd d2 06 07 be
       0.09011789 0.054017127 -0.096710384 -0.13186195
000200 d6 17 fa 3c 74 e4 e1 bd b7 05 bd bd 40 e3 da 3c
       0.030528944 -0.11029902 -0.09229606 0.02671969
000210 5e d7 aa bd 89 4f 16 3c f3 58 db bd 51 aa c4 bd
       -0.08341859 0.009174236 -0.10710325 -0.09602798
000220 cb e8 a7 3d df 28 35 3e 2c 7a 7b 3e f1 c4 b5 bd
       0.081986986 0.17691372 0.24558324 -0.08875454
000230 72 86 2b 3d ca 90 c9 3d 79 be 7a be 84 73 bf 3d
       0.041876264 0.098420694 -0.24486722 0.09348205
000240 18 bf 48 be 8f 5b 82 3d 9a 73 73 bd 10 43 09 3e
       -0.19604146 0.0636512 -0.059436418 0.13404489
000250 fc 9f 18 be 0d c5 c1 bd 6d f1 4d 3e a8 68 82 be
       -0.14904779 -0.094614126 0.20111628 -0.2547047
000260 0a db 1f 3e a0 23 f6 bd c0 d4 ab bd af 53 ab 3d
       0.156109 -0.12018514 -0.08390188 0.08365571
000270 d6 f4 ba 3d 3b 46 98 be d5 b2 e7 3c f1 c3 2d 3e
       0.0912873 -0.29741082 0.028283516 0.16969277
000280 f5 32 01 be 1a 62 04 3e d5 9f 26 3d f0 d7 29 be
       -0.12617095 0.12928048 0.04067977 -0.1658628
000290 11 54 97 3d ed f0 17 be f8 f2 94 bd da 41 1d bc
       0.07389081 -0.14838 -0.07272905 -0.00959822
0002a0 d6 59 0f bd 62 b9 b3 3c 20 d8 03 bc 92 87 a8 3d
       -0.034997784 0.021938983 -0.008047134 0.08228983
0002b0 bd 37 8b bd 2e 60 f5 bd 3a 69 05 3d 8e b3 01 be
       -0.067977406 -0.119812354 0.032571055 -0.12666151
0002c0 50 4f b3 3c 40 a4 22 be 90 7e 82 bd 41 f6 c8 3b
       0.021888405 -0.15882969 -0.06371796 0.0061328714
0002d0 a9 43 0d 3e 1b 09 79 bc a4 8e 59 3e 09 14 3f 3e
       0.13795342 -0.015199925 0.2124582 0.18659987
0002e0 f8 eb f3 3d 1e 15 12 3e 13 82 a9 3d 94 fe 3f 3e
       0.11910242 0.14265868 0.08276763 0.18749458
0002f0 3b eb 42 3e f1 a6 d3 be a5 cc 3c bd 92 31 a7 bc
       0.19035046 -0.41338304 -0.0460936 -0.02040938
000300 83 86 ae be ab a3 33 be 5d e1 c2 3d 8a b7 ca bc
       -0.34087 -0.17542903 0.09515641 -0.024745721
000310 6d 8b 39 3d d3 3c 50 3c 05 ff 45 bd 1a aa b1 3d
       0.045298982 0.012709814 -0.04833891 0.086750224
000320 58 c1 18 3e 5d 65 e6 3c 51 50 8c bd 61 11 dd 3d
       0.14917505 0.028124506 -0.06851257 0.107943304
000330 2d 70 dc bd 68 fb 09 bd 24 54 07 bd dc 85 8e be
       -0.10763583 -0.033687025 -0.033039227 -0.27836502
000340 38 28 aa bd a0 29 e4 bd 37 09 a3 bd fb 30 47 3d
       -0.08308452 -0.11140752 -0.07960742 0.048630696
000350 99 f8 3d 3e 2c 7f d1 bd 49 53 3d 3e 05 63 ee 3d
       0.18551864 -0.10229334 0.18488802 0.1163998
000360 71 32 07 3e 8f 06 84 3d 3d 22 40 be fe 29 66 3e
       0.13202836 0.064465635 -0.18763061 0.22476956
000370 50 cc d2 3c 43 e2 09 be 13 3d 72 be cb ef 42 bd
       0.02573219 -0.13465218 -0.2365611 -0.047591966
000380 22 ae b0 3c 59 a9 5a 3d 3d dc 2a 3e 12 6e 15 be
       0.021567408 0.05338416 0.16685577 -0.1459277
000390 c6 77 75 3e 1c c4 ad 3b b7 b2 2b bd df 9e b0 bd
       0.23971471 0.005302919 -0.041918483 -0.08624052
0003a0 4b e2 4c bd 66 73 1d be f8 15 2d 3e ab 40 fc bc
       -0.050020497 -0.15376052 0.16902912 -0.030792555
0003b0 3a 0c a9 3d c8 cf 87 3e 9e 20 f3 3d 43 78 85 bd
       0.08254285 0.26525712 0.118714556 -0.06517079
0003c0 ff f1 c5 bd 67 01 23 be 12 9c ed bd bd 0a 84 bd
       -0.09665298 -0.15918504 -0.11602034 -0.06447361
0003d0 29 ff e8 bc 54 66 4a be 7f 59 10 3e 83 08 00 bc
       -0.028441982 -0.19765598 0.1409664 -0.007814529
0003e0 75 0d af 3b a9 b1 15 3e 49 15 64 3e 0b 8f 9f 3c
       0.0053421804 0.14618553 0.22273745 0.019477388
0003f0 81 23 43 3e 5b 1f 5d 3d 74 ab d4 bc e8 96 2e 3e
       0.19056512 0.05398498 -0.025960661 0.17049754

conv1.bias f4 [32]
000000 7c a5 6a bc b0 f2 e7 be 06 21 f5 3c cf 93 04 be
       -0.014321681 -0.45302343 0.029922973 -0.1294701
000010 92 18 6e bd c2 25 a9 bd d3 94 98 bd c9 58 13 bd
       -0.0581289 -0.08259155 -0.07450261 -0.035973344
000020 02 61 4c bd 0f d4 95 bb 82 ec 35 bd c0 3f e2 bd
       -0.0498972 -0.0045723985 -0.044415005 -0.110473156
000030 3b 62 da 3c 58 cc 83 bd 8b e3 1a bd 2a b0 ee bd
       0.026658168 -0.0643546 -0.037814658 -0.116546944
000040 f2 d4 21 3d 94 a3 06 bc 55 cb 3c 3d 37 ea a7 3e
       0.03950972 -0.008217711 0.04609235 0.3279588
000050 8d 16 17 bc 35 1f 03 3d bf af 50 3e e9 fc 5f be
       -0.009221685 0.032012183 0.20379542 -0.21873821
000060 12 6a f0 bd 6a 75 15 be 22 e5 22 be 89 13 5c 3d
       -0.11738981 -0.14595571 -0.1590772 0.053729568
000070 16 45 64 3b 81 24 13 3d f8 f1 b6 3c 66 33 2c bd
       0.0034831217 0.035923485 0.022332177 -0.042041205

conv2.weight f4 [16, 32, 3, 3]
000000 55 54 9d bc 94 2c 76 bd 64 e7 b3 3d 62 4d cd bc
       -0.019205252 -0.060101107 0.08784369 -0.025061313
000010 ae cb 68 be 14 75 da bc a3 7a 37 3d 82 54 fa bd
       -0.22733948 -0.026667155 0.04479469 -0.1222315
000020 81 88 67 be 9d dc 17 be 0f 61 13 be 66 16 2f be
       -0.22610666 -0.14830251 -0.14392494 -0.17098388
000030 2a 8b 02 be d8 20 47 be dd 00 b0 bd eb 78 12 3e
       -0.127484 -0.19446123 -0.08593915 0.14303939
000040 6d 85 21 be 2b 29 d9 bd fe 62 ea 3d 0b a7 1f 3e
       -0.15773554 -0.10603555 0.114446625 0.15591066
000050 46 22 22 3e 85 5d b6 bd 64 55 86 3d 79 a9 8d 3d
       0.15833387 -0.08904556 0.06559256 0.0691709
000060 32 02 ef bd 72 56 af bd 61 36 2a 3d 41 f2 e4 3d
       -0.116703406 -0.0856141 0.041555766 0.11179019
000070 cb b0 8e 3c 3c 70 ab 3d 72 c1 61 bc e0 67 a4 3d
       0.017418286 0.083710164 -0.013779031 0.08027625
000080 c7 89 c7 bc 61 89 12 3e 90 a2 29 3e 49 67 63 bd
       -0.02435769 0.14310218 0.16565919 -0.055518422
000090 85 e9 5a 3d ea c3 07 3d c2 b1 a3 bd 56 fb e4 3b
       0.053445358 0.033145823 -0.07992889 0.0069879694
0000a0 e4 9d b7 3c 73 69 70 bd 46 2d 61 3d 83 ed 93 bd
       0.022414155 -0.058694314 0.054974817 -0.07223036
0000b0 62 fc c2 3b 46 8c fc 3d 7f d7 e4 bd 90 48 ae bd
       0.0059504965 0.123314425 -0.11173915 -0.08509934
0000c0 db bb d0 bd 7c 0e 2c bb 79 82 07 be 42 38 a7 3c
       -0.101920806 -0.002625375 -0.13233365 0.020412568
0000d0 86 29 d4 bd 73 a7 4a be e1 42 00 be 39 cf 35 3d
       -0.103594825 -0.1979044 -0.12525512 0.044387076
0000e0 8d 8d b1 bd 13 a0 93 bd 87 95 02 bc a3 24 eb 3c
       -0.08669577 -0.07208266 -0.00797022 0.028703993
0000f0 8d 3b 89 3d e0 2f e2 bd 33 c8 26 bd 5a 0f ce 3c
       0.067008115 -0.11044288 -0.04071827 0.025153805
000100 6d 75 55 3d f4 d3 5f 3e 86 8d 2f be 29 57 2d bd
       0.05211394 0.21858197 -0.1714383 -0.04231945
000110 e0 5e c8 bd 66 6f 8d bd 19 85 a1 bd 48 27 3a be
       -0.09783721 -0.06906013 -0.078867145 -0.18179047
000120 bc b0 87 be 03 d6 8d be 59 b0 49 be 9e e1 8e bd
       -0.26502025 -0.2770234 -0.19696178 -0.06976627
000130 00 9b 9c be 14 83 6f 3d e4 af 4d bc 19 1b 8b 3c
       -0.30587006 0.058474615 -0.012554143 0.016980695
000140 95 eb 1a 3e d0 b5 53 be 0a fa 57 be 3a 56 6e be
       0.1512893 -0.20674825 -0.21091476 -0.2327508
000150 80 72 14 bf 23 dc 18 bf 95 ff e5 be d8 bc 34 bf
       -0.57987213 -0.597109 -0.44921556 -0.7060065
000160 84 9c 65 bf ee fe 13 bf c5 b1 78 3d 46 97 25 3e
       -0.8969195 -0.57810867 0.06071641 0.16170987
000170 f0 c9 50 3c 20 5f 04 3d bc 4c 48 3e 5a 82 82 3d
       0.012743458 0.03231728 0.19560522 0.06372519
000180 ac 4b 87 3d 14 c3 58 3e 30 9e 91 3d a0 15 6a 3d
       0.0660623 0.21168166 0.0711025 0.05714953
000190 ec a7 03 3d 79 d8 b7 bd b1 b3 37 bd 91 97 b9 3d
       0.032142565 -0.08976836 -0.0448491 0.09062112
0001a0 92 81 2c bd 42 69 c5 39 fe 47 eb 3c c1 39 da 3d
       -0.042115755 0.0003765319 0.028720852 0.10655547
0001b0 f3 9b 1b 3b db 58 e8 bd c0 cd be bd 47 95 06 bd
       0.0023744076 -0.11345073 -0.093165874 -0.032857206
0001c0 f0 9f dc 3d c5 62 d6 3b b9 84 95 3d 01 68 36 bd
       0.10772693 0.006542536 0.073007055 -0.04453278
0001d0 56 f8 d9 bd 7c 2b 11 3e fb ef b3 3d 7e 47 27 3d
       -0.106430694 0.14176744 0.08786007 0.040839665
0001e0 65 9e 7a bc f4 25 8f 3d 3b e8 27 3e 5a 96 38 be
       -0.015296553 0.06989661 0.16397183 -0.18026105
0001f0 a0 db 84 bd b5 8e 9a 3d 22 ca a1 3d a3 31 1d bb
       -0.06487203 0.075467505 0.07899882 -0.0023985885
000200 cd 81 62 3c 60 c2 fd 3c 59 f7 4b 3c db 3b e9 3d
       0.013824892 0.030976474 0.012449109 0.1138837
000210 7d f4 b9 3d 72 8d e7 3d 1f 56 7b bd 8a a8 bb bc
       0.090798356 0.113062754 -0.06136143 -0.022907514
000220 30 80 42 be 09 44 2a bd a0 8e 3c be 46 0c 7d be
       -0.18994212 -0.04156879 -0.18413782 -0.24711713
000230 c6 ff 1f be 1d 41 bd bd 4b d6 0d be b7 58 23 be
       -0.15624914 -0.09240935 -0.13851278 -0.15951811
000240 27 43 59 3e 8f 1d a3 bc 88 86 85 3d 43 a9 13 3e
       0.21217023 -0.019911556 0.065198004 0.14420037
000250 4a be 38 3d b9 38 4d bd 04 72 87 3d b3 ac d0 bd
       0.04510335 -0.050102923 0.06613544 -0.1018919
000260 6f f7 36 be a7 62 67 be 8c d2 ef 3d 87 47 cf 3d
       -0.17867826 -0.22596227 0.117100805 0.10121065
000270 0f cb 08 3e 64 4e 9a 3e e9 a9 3c 3e 2b a8 be bd
       0.1335871 0.30137932 0.1842419 -0.09309419
000280 6c 13 82 bc 28 df f6 3b ca 03 98 3e 2e 5e a4 3e
       -0.015878402 0.0075339265 0.2969039 0.32103103
000290 bd 16 64 3e ce dd ab 3e 4c 71 b6 3e 97 91 06 3e
       0.22274299 0.3356766 0.35633314 0.13141476
0002a0 21 1f 7f 3e a4 70 43 3e 27 db 89 3e 7a 81 05 be
       0.24914218 0.19085938 0.26925012 -0.13037673
0002b0 9c 4b 26 be fe bb bd 3c 15 81 c9 bd 7b 02 82 bd
       -0.1623978 0.02316093 -0.098390736 -0.06348129
0002c0 6c 38 97 bc aa 3a e4 bc 7b 36 77 3d 42 ab 56 bd
       -0.018459521 -0.027860004 0.06035469 -0.052409418
0002d0 99 26 41 3d 3a d4 f2 3d 46 dc ca 3d d5 e4 f0 3d
       0.04715595 0.11856885 0.09905295 0.11762396
0002e0 4a 7b 69 bc 9e 40 0d 3d c2 e2 31 3e e3 63 ba 3d
       -0.014250586 0.034485452 0.17371657 0.09101083
0002f0 8d 47 fd 3d 71 5f 31 bd 23 30 57 3e ac 7a 8e 3e
       0.12367163 -0.04330391 0.21014456 0.27827966
000300 3e 1a cc 3d 2b 76 ef 3d 1e a8 e3 3d 87 57 74 bd
       0.09965943 0.116924606 0.1111605 -0.059653785
000310 c8 4a 08 3d f4 34 fc 3c 5c b8 46 3b 40 cd 5a 3e
       0.033274442 0.030786969 0.003032229 0.21367359
000320 da 85 06 3e bb ac e2 3b 0a 0f 01 3d 1c 9e c0 3d
       0.13136998 0.0069175637 0.031508483 0.09405157
000330 42 b0 23 be 65 9c 2b bd f9 bc 52 be bd ab b3 bb
       -0.15985206 -0.041897196 -0.205799 -0.0054831193
000340 5b d2 b3 bd ee 3f 8e 3c e0 26 d3 3c 56 c1 c1 3c
       -0.087803565 0.017364468 0.025775373 0.02365176
000350 57 3a d9 3d 03 09 79 bd db dd be 3d 45 61 60 bd
       0.106068306 -0.06079961 0.09319659 -0.054780263
000360 e0 4e 04 be 41 89 83 be 54 c1 6c 3d d2 ef 17 bd
       -0.12920713 -0.25690654 0.05780156 -0.037093945
000370 66 08 3e 3d 2f 74 ee bb 2a d0 49 3d d6 9d 2a 3e
       0.046394728 -0.0072770338 0.049270786 0.16661772
000380 5b 80 67 3d 73 de 61 bd 66 54 5d be 0d ef 3d be
       0.056518894 -0.055143785 -0.21614227 -0.18548222
000390 4c 8c 18 be d5 52 41 3b 04 88 d8 bd 15 d6 44 bc
       -0.14897269 0.0029498835 -0.10572818 -0.012013932
0003a0 78 bd b4 bc aa 98 19 3d 4c 52 f4 bd 96 9a 61 be
       -0.022063002 0.037499107 -0.119297594 -0.22031626
0003b0 dd 9d 4f be c7 70 89 be 91 ac 80 bd c0 07 0e be
       -0.20275064 -0.26843855 -0.062829144 -0.13870144
0003c0 60 bd 13 be c5 42 29 be f3 e5 91 be c9 e2 00 3b
       -0.1442771 -0.16529377 -0.2849575 0.0019666424
0003d0 33 94 c5 bd 0f f2 47 be 42 93 36 bd b6 0e a4 bd
       -0.096474074 -0.19525932 -0.04457403 -0.080106184
0003e0 1e 26 2e be 57 11 d4 bd 12 f5 76 3e 16 fa 06 3e
       -0.17006728 -0.1035487 0.24116924 0.13181338
0003f0 b7 4e 7f be bb b2 6d be bc d2 ce be fc c0 25 be
       -0.24932371 -0.23212712 -0.40395153 -0.16186899

conv2.bias f4 [16]
000000 cd b6 62 bd ad 43 a1 bc 66 d4 19 3c f3 ee 8c bd
       -0.055350114 -0.01968559 0.009389019 -0.068815134
000010 63 cf b7 3d 6f 4c 3e be 62 d3 bf be 1f 0c 54 3e
       0.08975103 -0.18583845 -0.3746596 0.20707749
000020 d9 8a 19 bd a5 13 e0 bd 48 37 b0 3d c9 69 6c bd
       -0.03748593 -0.10941247 0.08604294 -0.057718072
000030 c4 73 40 be b8 ea b5 bd f6 ab bd bd 01 5f a6 3c
       -0.18794161 -0.0888266 -0.092613146 0.020308973

conv3.weight f4 [8, 16, 3, 3]
000000 fd c1 ab bd 0e 8c 76 bd c2 a9 8f be 9b 5a 43 3d
       -0.0838661 -0.06019216 -0.28059202 0.04769383
000010 3f 41 a2 be 23 b0 8b be 56 64 fb bd 0f ec 0b bd
       -0.31690404 -0.2728282 -0.12274997 -0.03416067
000020 b2 de 1e bd e0 3f 23 be 84 99 bc bc 5b 9b ab bd
       -0.038786598 -0.15942335 -0.02302242 -0.08379241
000030 57 35 af bc 17 89 d2 3d dc 39 4c 3e da 47 05 be
       -0.02138774 0.10280054 0.19943947 -0.1301569
000040 5b b2 97 3d 03 66 7d be c2 4b 01 3e 4f 75 8e bc
       0.074070655 -0.24745946 0.12626556 -0.017389921
000050 de 5c 2b bc f7 0d 8d be ec e2 8c bd 72 8c 75 3c
       -0.010459153 -0.27549717 -0.068792194 0.014987098
000060 68 98 fa 3d 96 f7 09 be 7a 76 ac 3d 1e 3a d8 bb
       0.122361004 -0.13473353 0.08421035 -0.006598725
000070 f2 8f 3c 3e 3b 60 06 bd 0e c8 43 3e 3f 52 e1 3d
       0.18414286 -0.032806616 0.19119284 0.11002015
000080 d3 f2 96 bd ba 2d d0 3d 5e df 8c bd d3 95 02 be
       -0.07370534 0.10164972 -0.068785414 -0.12752466
000090 7c a8 b3 bd 6e 30 61 3d 14 84 91 3d 9a 22 b5 3d
       -0.0877237 0.054977827 0.0710527 0.0884449
0000a0 c4 0c 95 3e 5a bd 83 3e c0 3b 1e 3d f1 46 00 3e
       0.29111302 0.257304 0.0386312 0.12527062
0000b0 f8 04 19 bc ed 6b 91 bd bc 0b 35 be 37 0d 23 be
       -0.009339564 -0.07100663 -0.17680258 -0.1592301
0000c0 d7 ac 24 be 3f 3a 76 bc 5d 44 d8 bc 18 a9 0c be
       -0.16081558 -0.015028535 -0.026399786 -0.13736379
0000d0 aa 41 21 be cb 1b 81 3b 41 42 18 3e 72 10 f2 3d
       -0.15747705 0.0039400808 0.14869024 0.11819543
0000e0 f1 ac 4d 3e ba f6 13 be 2f be ab 3d ab c0 4b 3c
       0.20085503 -0.14449587 0.08385884 0.012436072
0000f0 32 29 3b be fd ac 2f be 6c 02 55 be 69 9a ca 3d
       -0.18277434 -0.17155834 -0.20801705 0.09892733
000100 22 bc 9e 3e 17 e3 86 3e 25 b9 b6 3e 91 a7 b9 3e
       0.3100291 0.2634513 0.3568813 0.36260656
000110 49 a6 9b 3e 09 53 36 3e 56 c6 31 3c e6 9c d4 3b
       0.30400303 0.17805113 0.01085051 0.0064884303
000120 b3 c2 1f bd 36 71 82 3c f6 a2 de 3d 68 95 dd bd
       -0.03900404 0.015923124 0.10870926 -0.108195126
000130 9e 39 34 3c 61 9f 36 3d c3 ac 18 bd 8b 4c 18 3e
       0.011000065 0.04458559 -0.037274133 0.14872949
000140 57 eb 18 3e 87 5b 20 bd dc d6 b7 3d 27 ae 95 bd
       0.14933525 -0.039149787 0.08976528 -0.073086075
000150 17 52 bd bd ab 2d af 3d 46 d2 8d bd eb c1 80 bd
       -0.09244173 0.08553632 -0.06924872 -0.06286987
000160 19 77 39 bd cc 25 ff bd 7f ab 8f 3d a4 35 80 be
       -0.045279596 -0.12458381 0.07015132 -0.25040925
000170 e9 8c 8b bd 2b 7e 1c 3e d6 b5 a8 be 54 7a 9a bd
       -0.06813986 0.15282504 -0.3295123 -0.075428635
000180 c0 2d 66 3e e0 ca 22 3e 73 6d c2 3e 10 4e 21 bd
       0.2247839 0.15897703 0.37974128 -0.039381087
000190 32 9a 63 bd c8 2c d3 3d 32 ef 0a 3e 10 16 b5 3c
       -0.055566974 0.10311276 0.13567808 0.022105247
0001a0 61 6e de bd 1c a4 19 be 8c 90 91 bc 5b 31 02 be
       -0.10860897 -0.15004009 -0.01776912 -0.1271414
0001b0 80 a7 91 bc 8e fe f2 bd dd 28 99 bc 5c 0e ab bc
       -0.017780066 -0.11864959 -0.018696243 -0.02088087
0001c0 b5 80 1c bd 32 d6 21 3d 95 8e e6 3b da c1 c9 bd
       -0.038208682 0.039510913 0.00703604 -0.098514274
0001d0 88 53 f1 bb 09 ff 7a bd c7 97 a8 be 3f 5e 98 be
       -0.007364694 -0.061278377 -0.32928297 -0.29759404
0001e0 09 f5 3b 3d a2 87 99 bc 52 12 ee bd 87 0e 96 3e
       0.04588798 -0.018741433 -0.11624588 0.29307958
0001f0 a7 9c 4a 3e 97 ff 01 3e d2 a8 9d bd 4c 7e 68 bd
       0.1978632 0.12695156 -0.076982155 -0.05676107
000200 ff ac 64 be 04 44 56 be df 33 31 bd 89 02 2f be
       -0.22331618 -0.20924383 -0.04326236 -0.17090811
000210 c7 58 3e bc 23 83 fc bd df a6 98 bd b7 a5 e9 3d
       -0.011617846 -0.123297 -0.07453703 0.11408561
000220 eb 7d 81 bd ba 06 02 be dd 11 31 be e2 a9 88 3d
       -0.06322845 -0.12697878 -0.1729197 0.066730276
000230 76 42 dd 3d 8a e0 2b 3c f1 75 3d bc 45 74 11 bc
       0.10803692 0.010490546 -0.011563764 -0.0088778185
000240 cf 56 a5 bd 06 e1 c4 3c 25 83 68 3d 2d 5c 26 3e
       -0.08073198 0.02403308 0.056765694 0.162461
000250 8d b6 4b 3d b2 53 2e 3e 09 61 ed bd b3 c3 fc 3d
       0.04973464 0.17024115 -0.115907736 0.12342014
000260 2f 41 1c be 73 7f 9c 3d c1 f5 e6 bc cb 5c c2 be
       -0.1525924 0.076414965 -0.028193356 -0.3796142
000270 fa c0 9e bc 01 fd 79 be 5d be 80 be 71 34 5a bd
       -0.019379128 -0.2441292 -0.25145236 -0.05327267
000280 ac 0e 40 be bf 0b e3 be 58 26 c4 3d ee 04 2a bd
       -0.18755597 -0.443449 0.09577626 -0.041508608
000290 0e 2b 2e 3e 88 5d 1b 3d 95 8f 16 3d e7 ca f0 3c
       0.17008612 0.037930995 0.036758024 0.029393626
0002a0 11 82 16 3d 9b 8b 1e 3d 85 5d 26 3e 1a 0c 05 bf
       0.036745135 0.038707357 0.16246612 -0.5197159
0002b0 88 4d 3f bf 9a e0 1f be 17 39 e8 be fc c2 36 bf
       -0.7472768 -0.15613022 -0.45356056 -0.7139127
0002c0 a8 57 94 be 67 9a 81 be c3 b2 53 be 10 03 36 bd
       -0.28973126 -0.25313112 -0.20673661 -0.044436514
0002d0 fd be d5 3d e4 d8 50 3d 2c e5 6d bd c9 05 a8 3e
       0.10436819 0.050988093 -0.058079883 0.32816914
0002e0 ed cc a9 3e b5 04 d4 3d 69 21 4a bd fb ba 08 3e
       0.33164158 0.1035246 -0.04934827 0.13352577
0002f0 e3 6e e4 3c c5 13 40 be b1 fb 58 be e0 9b 91 bd
       0.027884906 -0.18757541 -0.21189763 -0.07109809
000300 fa bd 56 be e6 07 6f be 8f 33 12 be ca 4a 9b bd
       -0.20970908 -0.23342857 -0.1427748 -0.07582624
000310 4c b4 e8 3c 62 4b 8f 3d f7 76 b9 be 6f 39 da be
       0.028406285 0.069968 -0.36223575 -0.42621943
000320 ea 0f c5 be f0 0c 53 be f2 73 a4 be dd 1c a0 be
       -0.38488704 -0.20610404 -0.3211971 -0.3127202
000330 db ad d6 be 38 80 08 bf b1 42 f4 be 93 63 f2 bd
       -0.41929516 -0.53320646 -0.47707132 -0.118353985
000340 33 a7 59 be 22 88 a0 3d 18 be f2 3d 05 f6 20 3d
       -0.21255188 0.07838465 0.11852664 0.039297123
000350 93 11 a3 3d 98 9c 97 3e 4e 08 80 3e 58 d9 69 3e
       0.079623364 0.2961166 0.25006336 0.22836816
000360 0c 49 86 3d 7c d1 19 be ec ab 34 bd cf 58 e1 3d
       0.06556901 -0.15021318 -0.04410927 0.11003267
000370 83 a8 42 bb 9f 4d 13 3d 3b a2 f8 bc d6 c2 cc 3d
       -0.0029702492 0.035962697 -0.030350795 0.099980995
000380 57 0f f4 bd 8d 83 2d 3d c5 70 ee 3d fb a5 c7 3c
       -0.11916988 0.042361785 0.11642603 0.024371138
000390 b1 ad 08 3c 2a fd 9b 3c 39 2c 4e bc 0a a3 8e 3d
       0.0083421925 0.019041616 -0.012583786 0.06964691
0003a0 a8 e7 1f bc 9a 25 c1 3d b6 82 94 3e cc ce a1 3e
       -0.009759821 0.09431 0.29005975 0.31603086
0003b0 c7 2d 15 3d 96 1a 66 3e 15 2e 4c 3e 59 b0 92 3e
       0.03642061 0.22471079 0.19939454 0.28650168
0003c0 6d dc d5 3d 8d 87 2e 3e 5b 51 df 3d 13 f8 64 3d
       0.104424335 0.17043896 0.10904189 0.055900645
0003d0 78 65 26 3c df 56 e9 3b ca 81 07 3d f9 f8 ca bd
       0.010156028 0.0071209515 0.03308276 -0.09910769
0003e0 db b4 12 3d dd ba 0e bd e1 68 bf bc a9 2d 8f 3d
       0.03581701 -0.034846175 -0.02336544 0.06991131
0003f0 4f 7c e9 bd da 5c 08 be e3 43 c0 bd 20 f7 d4 3c
       -0.11400663 -0.1331667 -0.09387948 0.025996745

conv3.bias f4 [8]
000000 0c 11 0b bc ab 9d 64 3e 39 16 1b be 6e 82 9a be
       -0.008487951 0.2232577 -0.15145196 -0.30177635
000010 32 c5 ba 3d 77 a7 26 be e3 e7 a3 3c ab e2 80 bd
       0.09119643 -0.1627482 0.020008033 -0.062932335

fc1.weight f4 [128, 1568]
000000 a8 08 b3 3c fc ba 4e bd 52 f6 83 3b fb ce 84 3d
       0.021854714 -0.05047129 0.0040271664 0.06484791
000010 d1 fd 09 bc a3 8b 19 3d 61 7d 02 bc fa 16 5a 3d
       -0.008422331 0.037486684 -0.007964463 0.05324457
000020 fd c8 9e bc b7 d2 59 bc c3 26 d1 3c 22 30 81 bd
       -0.019382948 -0.013294867 0.025531178 -0.06308009
000030 8b e5 aa bd f3 ae 95 bc 0a 1e a2 bc a1 2e bd bc
       -0.08344563 -0.018271899 -0.019789714 -0.023093523
000040 e3 f8 2b 3c 67 47 9b bc 1c cd 81 bc 0d be 27 3c
       0.010496351 -0.018954946 -0.015844874 0.010238183
000050 7e 20 85 bd 9d b6 f1 bc 8e 09 4e bd ca 34 8d 3c
       -0.06500338 -0.029506022 -0.05030208 0.017237086
000060 30 81 67 bc 9e 5c 46 bd 09 a0 38 3c 0a 04 72 bd
       -0.014129922 -0.04842817 0.011268624 -0.059085883
000070 e9 37 a6 bc e9 ca 07 3d 9f 78 8a bd 89 36 99 bd
       -0.020290332 0.033152495 -0.06761288 -0.07481105
000080 4b c9 3e bd cd d5 9a 3c 07 d4 00 bc c2 28 25 bb
       -0.046578687 0.018900776 -0.007863051 -0.0025201296
000090 f8 2e 94 bd 5e 6e 9c bd c3 2c 33 bd a7 2a e0 3c
       -0.07235521 -0.07638238 -0.04374386 0.027364088
0000a0 34 e4 ac bd f6 f5 63 ba d3 31 82 bc 4b 99 14 bd
       -0.08441964 -0.0008696014 -0.015892899 -0.036279004
0000b0 7b da 00 3d e7 2d 0a 3d bb 84 0c 3d 7b 52 96 3c
       0.03145836 0.033735182 0.03430627 0.018349877
0000c0 c7 79 d9 3c 5a db c7 bd bd 87 a0 bd 09 07 d8 bc
       0.026547326 -0.09758635 -0.0783839 -0.026370542
0000d0 fb 8e 65 bd 81 d1 16 bd 43 57 c1 bc 01 b5 7e 3c
       -0.05604456 -0.036820892 -0.02360118 0.015546084
0000e0 7c df 08 3d ee 25 3c bd c3 cc 72 bd 0b 66 f7 3b
       0.033416256 -0.04593461 -0.059277307 0.0075500063
0000f0 d3 c9 8e bc 54 61 5d bd 33 08 88 3c b7 a2 c3 bd
       -0.017430222 -0.054047897 0.016605472 -0.0955252
000100 72 35 ea bc ac 84 df bd 5b 0e d2 bd 1f 4b aa 3c
       -0.028589938 -0.10913977 -0.10256644 0.020787774
000110 5c 3a 84 bd 38 7a c1 3c 59 d4 8b bd 5b b0 9e 3c
       -0.06456444 0.023617849 -0.068276115 0.019371202
000120 7e 2c 37 bd da 34 79 bd 5d cc 0e bd 2c 72 bd bb
       -0.044720165 -0.06084142 -0.034862865 -0.0057814326
000130 e8 0c 16 bc 59 23 9f bd 17 9f 60 bd e2 b4 fd bb
       -0.0091583505 -0.07770414 -0.05483922 -0.00774251
000140 d0 00 fc 39 79 1f 82 bd 78 33 2e bd 30 31 86 3c
       0.0004806579 -0.06353659 -0.042529553 0.016380876
000150 d1 2b d8 3c 67 df 8e bd 2a 41 8f bd 4c 66 02 bd
       0.02638808 -0.06976204 -0.06994851 -0.03183584
000160 e1 fb 4c bd 1d 3c f0 bb 5e 71 98 bd 2f eb 5f 3b
       -0.050044898 -0.007331385 -0.07443498 0.003416728
000170 3e 86 9f bd ab 65 a3 bd e6 b0 bf bd ce 45 d8 bd
       -0.077892765 -0.07978376 -0.093599126 -0.10560189
000180 c7 7f bd bc 5e ee 9f bd 32 23 61 bc 2d 2d ec bd
       -0.023132218 -0.07809137 -0.013741301 -0.11532054
000190 c3 1c 50 bd 06 46 41 bd fe 72 60 bd e0 bc 57 bb
       -0.05080868 -0.04718592 -0.054797165 -0.0032918975
0001a0 2a c6 13 bd 19 fc c0 3a a3 8f ff 3c f1 47 96 bd
       -0.036077656 0.0014723568 0.031196421 -0.073379405
0001b0 b2 87 87 bb 4b 9d 5f bd b8 54 e2 3c f9 d9 43 bd
       -0.004136049 -0.054593366 0.027628288 -0.047815297
0001c0 35 92 b9 3d 68 17 0b 3d 3c 26 1f bd 1d 24 bd bc
       0.0906109 0.03395787 -0.038854823 -0.02308851
0001d0 53 2f 1a bd a2 28 44 bd ee 77 0a bd a5 d6 ce bc
       -0.03764279 -0.047890313 -0.03380578 -0.025248835
0001e0 64 18 0d bd f5 97 80 bd 5e f8 87 bd 75 32 91 bb
       -0.03444709 -0.062789835 -0.06639169 -0.004431064
0001f0 bc 6f b5 3c 62 eb 43 bc 65 e0 1a bd 9c 2e 59 bd
       0.022148006 -0.011957975 -0.037811656 -0.053022966
000200 5d c9 aa bc e7 45 0a bc 5e 6f 9c bd 7d d6 be 3c
       -0.02084797 -0.008439518 -0.07638429 0.023295635
000210 c0 58 f9 3c c3 f9 e8 bc b4 32 91 bb cf ac 20 bc
       0.030437827 -0.028439408 -0.004431093 -0.009806826
000220 14 ba 83 bd be fb 88 bd 75 3b da bc 55 ca 8f ba
       -0.06431976 -0.06688641 -0.02663968 -0.0010970334
000230 6a 72 5f 3c 09 d4 08 bd 5c 3d c7 3c 03 b2 0b 3d
       0.013638118 -0.033405337 0.02432125 0.034105312
000240 d3 14 00 be 79 6d d1 bb 40 1c 8c bd f6 ed 5e bd
       -0.12507944 -0.006391224 -0.06841326 -0.054426156
000250 8c 72 54 bd fe 82 23 bd d7 21 f8 bd 76 2c 88 3b
       -0.051867053 -0.039919846 -0.121158294 0.004155691
000260 49 dd aa bd b1 59 a4 bd 2b 2b 08 bc fc 1c 83 3c
       -0.08342988 -0.0802492 -0.008311073 0.016005032
000270 ba d7 db 3c 80 7b 34 bb ab af 95 bd 93 94 08 bd
       0.026836265 -0.0027539432 -0.07308897 -0.033344816
000280 30 1a 9e bd e5 8b e7 bd fc d7 fe bc f9 dc b9 bd
       -0.077198386 -0.1130598 -0.031108849 -0.0907535
000290 a5 cc 12 bd d4 bd ab bd 42 eb b5 bb 29 6e 94 3c
       -0.035839695 -0.08385816 -0.0055517266 0.018118935
0002a0 74 8c 88 3d d4 ba 23 3d d4 04 95 3d 44 88 61 bb
       0.06667414 0.039973095 0.072763115 -0.0034413496
0002b0 89 e2 7b 3c 3e 89 80 bd c8 5a 91 bd 99 ae 45 bd
       0.015373834 -0.06276177 -0.07097393 -0.048262212
0002c0 75 65 59 bd 60 bf e3 bc 5d 54 e5 bd cf 22 e8 bd
       -0.053075273 -0.027801216 -0.11197732 -0.11334764
0002d0 cd 43 a9 3d 28 33 aa bb cb 78 27 3d d6 00 02 bc
       0.08264885 -0.0051940866 0.04088668 -0.00793477
0002e0 86 0f 0f 3c d9 34 5f 3d 41 95 92 b9 c3 12 cb 3c
       0.008731728 0.05449376 -0.00027958493 0.02478922
0002f0 15 bb 6e bd b9 27 27 3c b9 e7 b8 bc e5 ae e7 bb
       -0.058283884 0.010202342 -0.022571431 -0.0070704096
000300 af bf 59 bc ef 1a 00 bd 31 25 9d 3b a3 9a 0d 3d
       -0.01329033 -0.031275686 0.0047956933 0.0345713
000310 86 be a3 bd 8a d7 ee bd 54 f5 63 bd 66 90 47 bd
       -0.07995324 -0.116622046 -0.055653885 -0.048721693
000320 4c c4 84 3b 1d 59 34 bd ee 19 ce bc 75 38 2a bc
       0.0040517207 -0.044030298 -0.025158849 -0.010389437
000330 2e 1b 97 bd 12 2c d9 bb c1 32 0f 3d ef b0 33 3d
       -0.07378231 -0.006627568 0.034960512 0.04386991
000340 7d 44 10 3d fb ed 84 bd b3 d0 19 bd 64 29 8e bd
       0.035221566 -0.06490704 -0.037552547 -0.069414884
000350 ba ec 56 bd df c6 5d 3c e9 44 b4 bd 9d 25 d2 bd
       -0.052471854 0.013536184 -0.08802206 -0.102610804
000360 05 f7 c7 bc a9 d0 9b bd 59 cb 9c bd b1 8f 27 bd
       -0.02440978 -0.07608158 -0.07655973 -0.04090852
000370 a9 20 16 bc f9 95 8a bc e0 74 5e bc 33 c0 3c bd
       -0.00916306 -0.016917216 -0.01357767 -0.046081733
000380 c5 ad 4e bd d1 4e 33 bc 84 f9 06 3d 2d eb b1 bd
       -0.05045869 -0.010944084 0.0329528 -0.08687434
000390 82 53 4e bc a6 73 be bd 7c 69 49 bc 50 03 94 bd
       -0.012593152 -0.09299402 -0.012293216 -0.07227194
0003a0 9c 10 a1 bd c1 db 0e bd 65 3f 37 3c ee b3 fe 3c
       -0.07864496 -0.034877542 0.011184548 0.031091657
0003b0 98 99 b3 3c 81 ef 0e 3c e7 c4 8d bd 6e 5f 2f bd
       0.021923825 0.008724094 -0.06922322 -0.04281562
0003c0 54 bf c7 3c d4 97 bf bd 91 d7 0f bd af d0 1b 3d
       0.024383225 -0.09355131 -0.03511769 0.038040813
0003d0 1a 54 94 3b 6a 61 23 ba 82 fc b0 3c 7e fc 2a bc
       0.0045266273 -0.00062324724 0.02160478 -0.010436175
0003e0 32 d7 85 ba 7b 23 53 3d 91 f2 57 bc 5a b9 84 3d
       -0.0010211228 0.05154751 -0.013180391 0.064806655
0003f0 e0 a6 34 3c 29 36 c9 3c bf 83 f2 ba 35 50 9c bd
       0.011026114 0.024561958 -0.0018502398 -0.07632486

fc1.bias f4 [128]
000000 94 07 63 bd f3 7c 19 bc 7b 38 2d bd 51 bf aa bb
       -0.05542715 -0.009368169 -0.042290192 -0.005210795
000010 3d 4e 22 be 13 e8 c3 bc 2f 35 a9 bc 51 70 e1 bc
       -0.15850158 -0.023914373 -0.020655243 -0.027519377
000020 de 1c 23 3e ba 03 1c 39 4a bc 46 3e fe 1a ca bb
       0.1592898 0.00014878708 0.19407764 -0.0061677685
000030 48 bf c2 bc 81 0e fd 3b 67 be 14 3d a8 6a 4c bc
       -0.02377285 0.0077226763 0.036314394 -0.012476601
000040 0b 02 c3 bc c3 3a d8 3e 6d 62 b6 3d e3 c9 4f be
       -0.023804685 0.42232332 0.08905492 -0.20291857
000050 12 d2 ea 3e fe e8 43 bd ab 81 64 be d4 92 ef bb
       0.45863396 -0.04782962 -0.2231509 -0.0073112044
000060 26 83 07 bd 39 fe 1b 3d ec 05 55 bd 5f ff d1 3e
       -0.033084057 0.038084242 -0.0520076 0.41015145
000070 a0 0b 66 3e 1f 1a d5 bc 65 bc f8 3d 10 dc ee bd
       0.22465372 -0.026013432 0.121453084 -0.11663067
000080 14 d4 79 bc 11 18 5a bd ec e7 36 be 90 55 e3 be
       -0.015248317 -0.053245608 -0.17861909 -0.44401217
000090 dd 4a ce 3d 0a 5d 1a bc b4 91 b2 bb 44 e5 16 bd
       0.10072873 -0.009421596 -0.005449498 -0.03683974
0000a0 43 cc 3c bc c3 bf 61 bc 90 2f 73 bc 76 10 28 bd
       -0.011523309 -0.01377863 -0.014842883 -0.041031323
0000b0 c4 95 d4 bb ab ce ad 3e 15 dd ff bb 71 e7 c2 be
       -0.00648758 0.33946738 -0.0078083375 -0.380672
0000c0 04 8e 23 bc f2 dd bf 3e 27 28 0b bc ed 04 4e bc
       -0.00998259 0.37474018 -0.00849346 -0.012574417
0000d0 ae e5 b9 3e 7e 60 da bb 55 c8 9b 3c 29 84 eb 3d
       0.36308044 -0.006664335 0.019016424 0.11499817
0000e0 82 2f 0f bd c8 7d d3 bb 8e 13 f0 bc c1 6c 8b 3c
       -0.034957416 -0.0064542033 -0.0293062 0.017019631
0000f0 03 f1 c0 3d 63 7a ef bb 23 83 5c bd 27 bd 88 bb
       0.09420969 -0.007308291 -0.053836 -0.0041729393
000100 2b 01 d9 bd 3c 97 9d be 1b 16 f2 3e 8a 19 f2 bc
       -0.10595926 -0.30779445 0.4728249 -0.029553194
000110 48 db 0e 3f f6 e6 9a 3d 75 b0 21 bd 3e c0 c7 be
       0.55803347 0.075635836 -0.039474923 -0.39013857
000120 59 94 91 bc aa a2 71 bc 11 56 e8 3e 9b 0f 13 bb
       -0.017770933 -0.014748255 0.45378163 -0.0022439722
000130 cb b4 2a bd b4 2c ef bb 93 11 21 bd 22 cb e6 bb
       -0.041676324 -0.00729903 -0.0393234 -0.0070432583
000140 7f 74 e3 be 9c 3c e5 bc 17 a6 01 bd fd 28 75 be
       -0.44424817 -0.027983002 -0.031652536 -0.23941417
000150 e9 d9 1e bc 27 6a cb bc aa bc e4 3c 46 5d 6b bc
       -0.0096955085 -0.02483089 0.027921993 -0.0143655
000160 d0 49 d0 bc 49 f8 16 3e ab 96 64 bc 1d 07 83 bd
       -0.025425822 0.14743151 -0.013951938 -0.06397841
000170 27 3a 44 be 4f 6e 25 be 6e f6 e1 bc 0d bf 59 be
       -0.19162808 -0.1615536 -0.027583327 -0.21264286
000180 c8 65 72 bc 32 ea 90 bb 0b e9 a4 3c de f8 b8 bc
       -0.014794774 -0.0044224495 0.020130655 -0.022579607
000190 11 c5 1a bd a4 d5 8b bc 48 8e 11 be 2a 13 18 bd
       -0.037785593 -0.017069645 -0.14214432 -0.03712765
0001a0 c2 aa 61 bd 53 76 0d 3d 2b 99 e2 bb 53 ee 1b 3d
       -0.055094488 0.03453667 -0.0069152317 0.03806908
0001b0 08 3c de be 48 22 d4 be 6e 7f be bd 8e 6a 18 bc
       -0.43405175 -0.41432405 -0.09301649 -0.009302748
0001c0 ab 9f b5 3e 7a 88 f8 bb bc 08 17 bd a1 f4 03 bc
       0.3547338 -0.0075846286 -0.036873564 -0.00805393
0001d0 cf db 70 3e 19 43 15 bd 7d 2e fc 3d 94 de 8b bc
       0.2352135 -0.036440942 0.123135544 -0.017073907
0001e0 70 b0 ab 3e ad 6f 4a 3e 59 3b 04 be 07 f7 e8 bb
       0.3353305 0.19769163 -0.12913264 -0.007109526
0001f0 55 2b d8 bc 1a 22 76 be 2a bc e1 bb 63 00 06 bd
       -0.02638785 -0.24036446 -0.006888886 -0.032715213

output.weight f4 [10, 128]
000000 b2 25 32 be c7 b6 f7 3c 49 9d fc bb 3e ea 35 be
       -0.17397192 0.030238522 -0.0077091795 -0.17765138
000010 fd a9 8a 3d a7 10 68 3d 3c de ca 3c 75 63 f1 bd
       0.06770704 0.056656506 0.024764173 -0.11786548
000020 5a 50 7f 3a 8d c2 03 3e 75 fe b4 3c 11 74 ae 3d
       0.00097394513 0.12867184 0.02209399 0.08518232
000030 37 4b 11 3e b6 e6 40 3e ea c4 48 3c d7 ec 3c be
       0.14188848 0.18838009 0.012253979 -0.18449722
000040 5e 8c 4c 3e 97 80 d2 bd 92 e5 2e 3d 33 f0 28 be
       0.19975421 -0.10278433 0.042699404 -0.16497879
000050 48 80 31 3e 76 d4 9b 3d 27 b3 f5 3c c4 84 97 3d
       0.17334092 0.07608883 0.029992653 0.0739837
000060 39 b0 6a 3e c0 e8 b0 3e 23 36 e9 3c b0 e6 c4 3d
       0.22918786 0.34552574 0.028468197 0.09614313
000070 26 b3 17 3e c6 d1 af bd be 80 bf bd 43 73 ad 3d
       0.14814433 -0.08584933 -0.093507275 0.0846925
000080 db e3 56 3d ba 66 98 3d aa 8e a3 bd 63 39 ab 3d
       0.052463394 0.074414685 -0.079861954 0.08360555
000090 3d a4 70 3e 3f 8a 1e 3e 9c fc 65 bd d7 10 07 3e
       0.23500152 0.15482424 -0.05614911 0.13190018
0000a0 f0 b4 19 bd 76 08 31 3d 22 9d 4f 3e 09 a3 20 3e
       -0.03752607 0.04322096 0.20274785 0.15687193
0000b0 cf ee 71 3d 36 2e 0c 3d 87 4d 95 bd 41 69 07 be
       0.059065636 0.034223758 -0.07290178 -0.13223745
0000c0 8b 79 05 3e 20 b3 0f be c8 ad 90 3d 8d 22 04 3e
       0.13034646 -0.14033175 0.07064396 0.12903805
0000d0 4d 55 8b 3e 90 dd ec 3d 87 93 97 3d 2d a3 c9 3d
       0.27213517 0.11565697 0.074011855 0.098455764
0000e0 6b b2 28 3e 7f 1b 78 bd 00 11 bf 3d 9e 08 23 3e
       0.16474311 -0.060573097 0.09329414 0.15921256
0000f0 8c b4 db 3c a0 87 93 3d 52 1e f6 3d 3b 60 90 3d
       0.02681949 0.07203603 0.12017502 0.070496045
000100 bc a1 9b bd 29 d7 a1 3c 14 1d 16 be d6 be 0d 3e
       -0.07599208 0.019755917 -0.1465953 0.1384233
000110 63 f6 38 3d 7c 64 11 bf 38 e6 12 bc 74 c1 8b 3d
       0.045156848 -0.5679395 -0.008966021 0.06824008
000120 e5 51 1c be 09 83 69 3d 61 9a 2c 3e 6b b0 98 3d
       -0.15265615 0.05700973 0.16855766 0.07455524
000130 b3 1a dd bd bc 01 84 3c f7 f5 c4 bc b6 27 9a bc
       -0.10796108 0.016114108 -0.024043066 -0.018817764
000140 89 67 d6 bd 3c 91 4c be 30 28 8f bd 2a 11 b9 be
       -0.104689665 -0.19977278 -0.06990087 -0.36145908
000150 6e 48 4d be cd 32 1f 3e da a2 6e 3e 09 9a ef bd
       -0.20047161 0.15546723 0.2330431 -0.11699302
000160 02 1c 45 be ce d7 0e 3e e5 12 94 3d 17 91 c3 3d
       -0.19248965 0.1394951 0.07230166 0.09549158
000170 df 2a 05 be 4d f4 63 be 56 5e 52 bc d7 54 75 3d
       -0.13004635 -0.22261162 -0.012839874 0.059895363
000180 e4 08 8c 3d f0 5e 34 be db 2b c4 be 6a 58 c5 3c
       0.06837633 -0.17614341 -0.3831471 0.02409001
000190 97 df 87 3d a4 99 64 3c d5 1f e1 bd e3 95 0d 3d
       0.06634443 0.013952646 -0.109923996 0.03456677
0001a0 c4 8d 31 3e bf 6c ac 3e d5 10 45 3e 88 af 00 3e
       0.17339236 0.33676717 0.19244702 0.1256696
0001b0 62 11 82 be a7 ea f5 bd 71 a1 a6 bb 1c b4 30 bc
       -0.25403887 -0.12007647 -0.0050851633 -0.010785129
0001c0 28 a8 d6 bd 42 46 d5 3b 21 4d 13 3d a3 79 1a bd
       -0.10481292 0.0065086195 0.035962228 -0.037713658
0001d0 d0 0d b6 be a4 4e d9 bd a9 d1 81 be d6 7a 21 bd
       -0.35557413 -0.10610703 -0.2535527 -0.039423786
0001e0 05 c4 ff be fe 8d 92 3e 47 28 cf bd d7 0f 8a 3d
       -0.4995424 0.28623956 -0.10115104 0.067413025
0001f0 94 60 4d 3e 81 d6 2e bd bd 9c 3a bc a3 bc e2 bd
       0.20056373 -0.042685036 -0.011389908 -0.11071136
000200 2c 51 d9 bd f3 18 d5 3c 26 10 21 3d 87 94 e5 3d
       -0.106111854 0.026012873 0.03932204 0.1120997
000210 56 30 6b be e8 89 93 3c 46 e4 1f be dc 59 03 3d
       -0.22967657 0.018010095 -0.15614423 0.03206812
000220 f2 d9 f1 3d 16 91 2f 3c 7d fe 3a 3e 73 d4 18 3e
       0.11809148 0.0107157435 0.18261142 0.14924793
000230 d6 ba fe bc 5c 0f 72 bc ee a5 d2 be 4c 48 e7 3d
       -0.03109495 -0.01477417 -0.4114222 0.112930864
000240 60 c7 4f be 5f 94 59 3d 39 ce 11 3d df ae b7 3e
       -0.202909 0.053120013 0.03559706 0.35875604
000250 b0 2f 6f 3d 68 63 9e bd 62 a3 9f bc ca cf 3d 3d
       0.058395088 -0.07733804 -0.019487087 0.04634074
000260 c6 dc d4 be f5 7d f3 3e 5c da ec bc 65 50 08 be
       -0.41574687 0.47557035 -0.028912716 -0.13311918
000270 af 64 1d be b7 75 0c bd 2a f4 77 bd 8c 22 be 3d
       -0.15370439 -0.03429195 -0.060535587 0.09283933
000280 b8 c1 80 be 1b 88 06 3e 98 e5 fa bd b8 03 bc 3e
       -0.25147796 0.13137858 -0.12250823 0.36721587
000290 86 5b db bc 96 d7 3d 3d 30 f6 d9 bd b4 5d 27 3e
       -0.02677704 0.046348177 -0.1064266 0.16344339
0002a0 31 dd ca bd 68 19 08 be a3 21 fc bd a8 18 a1 bd
       -0.0990547 -0.13290942 -0.12311103 -0.07866031
0002b0 b2 87 d7 3a cd 42 13 3e 9f d8 be 3d fc 0b 67 be
       0.0016443639 0.14380951 0.09318661 -0.22563165
0002c0 b2 b4 f3 bc a8 eb 3c bc 80 7f d5 3d a5 48 94 3b
       -0.029749248 -0.011530794 0.10424709 0.0045252615
0002d0 a8 1c 85 bc c1 ca ce 3d 14 7e 29 3e e4 63 c8 3d
       -0.016249016 0.10097266 0.16552001 0.097846776
0002e0 4a d2 b5 bd e5 7b dc 3d ee cb 43 be f6 01 b1 bc
       -0.08878 0.107658185 -0.19120762 -0.02160738
0002f0 84 41 c9 bd fe 2b 3d 3e 18 08 0d be ef 5a c7 3d
       -0.09826949 0.18473813 -0.13772619 0.09734141
000300 dc cc c1 3e 6d e3 03 3e b7 27 16 be 2e d2 db 3d
       0.37851608 0.12879725 -0.14663588 0.10733448
000310 bf fb 5d be 88 09 f7 3d ca 2a 6d 3b 22 34 8b bd
       -0.21678065 0.12062365 0.0036188834 -0.06797053
000320 17 84 29 3d fa 1a 5e 3e 59 57 99 be 59 0b 36 3c
       0.041385736 0.21689978 -0.29949453 0.011111104
000330 aa 09 15 3e cf 1c 08 3e 85 07 80 3d 21 16 20 3e
       0.14554468 0.1329224 0.06251434 0.15633442
000340 f5 fa 7c 3d 68 63 b3 bd e6 51 2f be 0f c4 53 3e
       0.06176277 -0.087591946 -0.17121086 0.20680259
000350 fd 29 a3 bd 79 26 14 3e 67 57 a3 bd 88 5e 34 be
       -0.07966993 0.14467801 -0.07975655 -0.17614186
000360 a4 9d f6 3d 65 74 86 be af 2d 8e bd 44 e5 41 be
       0.12041786 -0.26260677 -0.06942307 -0.18935114
000370 35 c3 54 3d 47 ca d1 bd 77 c9 88 bd 82 bf ea be
       0.051943976 -0.102436595 -0.06679051 -0.45849234
000380 53 41 2f 3e 3f e4 91 3d 96 b3 c7 3d f7 6d f1 bd
       0.17114763 0.071236126 0.0975105 -0.11788552
000390 4c 07 db bc 26 81 03 be 86 00 c8 be b1 5d 9e bd
       -0.026736878 -0.12842235 -0.390629 -0.07732714
0003a0 29 18 b5 bd b6 85 04 3d 37 58 53 be 18 2d 30 3d
       -0.08842499 0.03235408 -0.2063912 0.043011755
0003b0 76 e0 63 3d af ad 6a bd 50 b0 9c 3e 20 d5 fc bd
       0.055633985 -0.057294544 0.30603266 -0.12345338
0003c0 3d 56 c4 bc c5 45 21 be f7 73 11 be 3c 3c 4e 3e
       -0.023966903 -0.15749271 -0.14204393 0.20140165
0003d0 14 45 65 3d 72 94 67 3c 83 cd 16 bd 49 6b 18 bd
       0.05597408 0.014134513 -0.036817085 -0.03721169
0003e0 a7 03 4e be 19 e0 b7 be d9 41 19 3d 5a 8a 0a 3d
       -0.20118581 -0.3591316 0.037416313 0.03382335
0003f0 e7 01 af bd f6 36 ad bd 17 75 92 bd 57 bf 5a 3c
       -0.08545285 -0.084577486 -0.07151239 0.013351283

output.bias f4 [10]
000000 6f fe 59 3e fd 75 6f be 09 40 10 bf af 02 b1 3e
       0.21288465 -0.23384853 -0.5634771 0.3457236
000010 59 cb e6 3d 75 74 4f be d3 10 0b 3d 12 9e fc 3c
       0.11269254 -0.20259269 0.03395159 0.030837093
000020 43 8b f2 3e 7c 3e c1 be
       0.47371873 -0.37742984
