Tomato_cnn/saved_ckpt/best_model_epoch_142.pt (torch, 839150 bytes, 10 tensors)

conv1.weight f4 [32, 3, 3, 3]
0.010759237 0.13211694 0.09038911 -0.00036984828 -0.077560246 -0.070765294 0.06369969 0.26546708
0.26136038 -0.12724768 -0.1346907 -0.063087225 -0.605551 -0.6763614 -0.36773708 -0.18173875
0.09352002 0.00087170774 0.022147046 -0.09451853 -0.016802154 -0.2758076 -0.2790252 -0.060092565
0.11539356 -0.04644306 0.08982388 -0.009892971 -0.21676397 -0.060391396 -0.12317609 0.10379179
-0.0079374695 0.11645843 0.13582028 -0.14558055 0.010953642 -0.09181392 0.02816038 0.19903356
0.20700942 0.0115409335 0.20254682 0.19668935 0.14193037 -0.13241832 -0.07286749 0.07568646
0.12977603 0.10336532 -0.12736192 0.059368063 0.14421742 -0.106009945 0.18457943 0.10585523
0.011474497 0.08222181 0.04710674 0.13470449 0.19078289 -0.03950247 0.01931339 0.019317606
0.109937504 -0.121546455 -0.06172099 0.080913134 -0.20238218 -0.10227552 -0.005554679 -0.2141462
-0.20935135 -0.19966663 -0.13920832 -0.11584652 -0.2604109 -0.17362972 -0.17600094 -0.12517905
-0.3294839 0.16708185 0.2206836 0.1413415 0.053283803 0.23429747 0.19328219 0.044192076
0.10196052 0.13985135 0.13888161 0.115038045 -0.0075519015 0.13580494 0.117638916 0.09517211
-0.0068776524 0.027195688 0.009509743 -0.22722854 -0.099748805 -0.1975758 -0.18668313 -0.23709452
-0.049068283 -0.19929707 -0.10264707 -0.19148621 -0.13097353 -0.17260097 -0.09892682 0.015076342
-0.07167996 -0.11766647 -0.040148333 -0.09378237 0.041587975 0.06908886 0.23200814 0.037813958
0.115646094 0.16336055 0.17056891 0.18577836 0.11292257 0.08123589 -0.109334484 -0.1486827
0.009207603 -0.14026338 -0.10772014 0.0015742352 -0.104125395 -0.001223222 -0.112101436 -0.113405444
0.07577233 0.19990999 0.27791753 -0.13740599 0.043884907 0.14733614 -0.27285233 0.11359609
-0.21709014 0.0510212 -0.0418283 0.15967837 -0.2015724 -0.096641645 0.24444911 -0.284272
0.17570718 -0.13930218 -0.09228723 0.11353776 0.12667008 -0.36173034 0.032270946 0.22447528
-0.16290416 0.1569806 0.030406531 -0.19475241 0.06142386 -0.16333947 -0.090786874 -0.017127464
-0.043324146 0.014658601 -0.01214908 0.07887907 -0.08527962 -0.12204757 0.028961925 -0.12995175
0.027361631 -0.15436131 -0.056579284 0.014855727 0.15693405 -0.014189414 0.23048463 0.20538779
0.1366462 0.17056611 0.1110454 0.21874268 0.22447944 -0.4472349 -0.05878784 -0.016075723
-0.37288487 -0.19627403 0.11494585 -0.08644276 0.06471684 0.0539598 -0.08700697 0.06699956
0.14894192 -0.014072145 -0.09972925 0.12712926 -0.17098643 -0.010947094 0.0051693 -0.28343692
-0.101115786 -0.108736366 -0.09136672 0.041427627 0.2080714 -0.15257767 0.22162151 0.16068646
0.14408171 0.051248927 -0.23288767 0.25419915 0.02456328 -0.17098466 -0.2678813 -0.07307713
-0.007687953 0.07259418 0.16406891 -0.1744834 0.2723774 0.013133794 -0.062174194 -0.106181026
-0.06428674 -0.16881108 0.2052823 -0.019070886 0.0607345 0.32135513 0.14562176 -0.075535245
-0.098092206 -0.15457912 -0.120012425 -0.037263926 -0.0157298 -0.20515479 0.15444602 0.008525907
0.00942917 0.18095256 0.23905496 0.030565498 0.20173512 0.044479508 -0.056059137 0.1779003
00000000: 8347 303c aa49 073e ed1d b93d 32e8 c1b9
00000010: e8d7 9ebd 65ed 90bd fc74 823d 4deb 873e
00000020: 07d1 853e 374d 02be 5cec 09be e033 81bd
00000030: 6405 1bbf 0526 2dbf 0948 bcbe b919 3abe
00000040: 6d87 bf3d 5183 643a b96d b53c ee92 c1bd
00000050: aca4 89bc a736 8dbe 64dc 8ebe 9f23 76bd
00000060: 7553 ec3d 143b 3ebd 95f5 b73d 2116 22bc
00000070: 60f7 5dbe f85c 77bd bf43 fcbd ca90 d43d
00000080: 290c 02bc c281 ee3d 7914 0b3e 1113 15be
00000090: e876 333c f008 bcbd 99b0 e63c 74cf 4b3e
000000a0: 47fa 533e 2f16 3d3c 6f68 4f3e ef68 493e
000000b0: 3256 113e ab98 07be 8d3b 95bd 8101 9b3d
000000c0: 02e4 043e 32b1 d33d 2a6b 02be ed2b 733d
000000d0: bbad 133e be1b d9bd 6402 3d3e a0ca d83d
000000e0: 87ff 3b3c e963 a83d fff2 403d f9ef 093e
000000f0: 975c 433e 58cd 21bd 1d37 9e3c f53f 9e3c
00000100: ea26 e13d 59ed f8bd 26cf 7cbd c9b5 a53d
00000110: 463d 4fbe d475 d1bd 0604 b6bb 2449 5bbe
00000120: 3360 56be 6975 4cbe a08c 0ebe f140 edbd
00000130: 9454 85be fdcb 31be 9739 34be f02e 00be
00000140: 1db2 a8be 8117 2b3e e2fa 613e d4bb 103e
00000150: 1e40 5a3d adeb 6f3e c4eb 453e c002 353d
00000160: add0 d03d 3135 0f3e fb36 0e3e 1199 eb3d
00000170: f175 f7bb 7310 0b3e acec f03d 98e9 c23d
00000180: ee5d e1bb 7ec9 de3c c1ce 1b3c 99ae 68be
00000190: 1a49 ccbd 4f51 4abe dd29 3fbe e8c8 72be
000001a0: d3fb 48bd 8814 4cbe a138 d2bd f614 44be
000001b0: ed1d 06be 4fbe 30be 259a cabd c302 773c
000001c0: f1cc 92bd 1efb f0bd 9472 24bd f910 c0bd
000001d0: 2758 2a3d 767e 8d3d 8b93 6d3e cfe2 1a3d
000001e0: dcd7 ec3d fd47 273e 9ea9 2e3e af3c 3e3e
000001f0: f343 e73d 015f a63d c2ea dfbd 4740 18be
00000200: 7cdb 163c 34a1 0fbe 609c dcbd 9156 ce3a
00000210: b23f d5bd 8554 a0ba 7095 e5bd 1d41 e8bd
00000220: 862e 9b3d 34b5 4c3e 354b 8e3e 28b4 0cbe
00000230: a9c0 333d 49df 163e 4db3 8bbe 11a5 e83d
00000240: e14c 5ebe 9bfb 503d 2754 2bbd ba82 233e
00000250: ff68 4ebe 0eec c5bd de50 7a3e 198c 91be
00000260: 95ec 333e 3ba5 0ebe 1601 bdbd 7c86 e83d
00000270: cdb5 013e b834 b9be 8a2e 043d d9dc 653e
00000280: 59d0 26be 86bf 203e 1e17 f93c 2d6d 47be
00000290: 9697 7b3d 7642 27be 78ee b9bd e54e 8cbc
000002a0: a974 31bd a12a 703c ef0c 47bc 5a8b a13d
000002b0: 15a7 aebd 14f4 f9bd 8f41 ed3c 1212 05be
000002c0: 8025 e03c e410 1ebe aebf 67bd 6f65 733c
000002d0: 52b3 203e b77a 68bc 2a04 6c3e 2d51 523e
000002e0: fbec 0b3e e2a8 2e3e c56b e33d 15fe 5f3e
000002f0: f0dd 653e f9fb e4be 85cb 70bd 3cb1 83bc
00000300: c4ea bebe 0ffc 48be bb68 eb3d e708 b1bd
00000310: 438a 843d f404 5d3d b630 b2bd 1137 893d
00000320: 3b84 183e db8e 66bc d93e ccbd 2c2e 023e
00000330: 1117 2fbe 715b 33bc 3b63 a93b a51e 91be
00000340: cb15 cfbd 2cb1 debd 7a1e bbbd 04b0 293d
00000350: ab10 553e 523d 1cbe c0f0 623e fe8a 243e
00000360: 288a 133e 65ea 513d 1b7a 6ebe 6426 823e
00000370: ef38 c93c 9a16 2fbe bd27 89be 76a9 95bd
00000380: 39eb fbbb 42ac 943d ae01 283e c7ab 32be
00000390: 0d75 8b3e 202f 573c 5eaa 7ebd 7075 d9bd
000003a0: c4a8 83bd d0dc 2cbe 8635 523e 8c3a 9cbc
000003b0: bdc4 783d a988 a43e df1d 153e 39b2 9abd
000003c0: 91e4 c8bd fd49 1ebe 13c9 f5bd 0fa2 18bd
000003d0: c8db 80bc 1914 52be 1927 1e3e 3fb0 0b3c
000003e0: ce7c 1a3c a14b 393e d3ca 743e 7f64 fa3c
000003f0: a793 4e3e 2530 363d 449e 65bd 7f2b 363e

conv1.bias f4 [32]
-0.020159433 -0.5255957 0.08439498 -0.16324544 -0.11129263 -0.0896378 -0.10863283 -0.061685517
-0.058536835 0.0176878 -0.0561453 -0.14379945 0.026654892 -0.09752738 -0.031028934 -0.17673528
0.028111907 -0.00093058037 0.059449952 0.39763322 0.032370187 -0.029702168 0.2370731 -0.24388336
-0.15120628 -0.22105804 -0.1438783 0.06372389 -0.004444514 0.041094486 0.048883058 -0.024433993
00000000: 6525 a5bc 718d 06bf 46d7 ac3d d029 27be
00000010: 64ed e3bd 0694 b7bd e47a debd f4a9 7cbd
00000020: 52c4 6fbd 01e6 903c 9df8 65bd 2a40 13be
00000030: 5c5b da3c 6fbc c7bd 6430 febc 18fa 34be
00000040: f14a e63c 31f2 73ba cb81 733d 9596 cb3e
00000050: 9a96 043d f651 f3bc 4ac3 723e 8fbc 79be
00000060: d2d5 1abe 0a5d 62be d554 13be ac81 823d
00000070: 49a3 91bb b152 283d 9a39 483d cc29 c8bc

conv2.weight f4 [16, 32, 3, 3]
0.0032385655 -0.14450043 0.008952372 0.044968534 -0.13931262 0.100720264 -0.075440064 -0.15663348
-0.30257693 -0.150975 -0.1852204 -0.21277629 -0.14633283 -0.25947124 -0.13018057 0.11771249
-0.14219746 -0.06396149 -0.10174247 -0.0005391488 0.07600678 -0.34294942 -0.15222926 -0.0021051883
-0.30411068 -0.23222993 0.009240889 0.113202006 0.028424166 0.094160564 -0.00510627 0.08631623
-0.008456302 0.14676471 0.16262321 -0.052757397 0.027238721 -0.017664462 -0.14667214 -0.020589683
-0.044553876 -0.13453297 0.023915533 -0.12400857 -0.055730514 0.07972043 -0.12481676 -0.0973702
-0.124298826 -0.0857104 -0.15031655 0.028741116 -0.12934662 -0.15849695 -0.10799049 0.06028377
-0.07206648 -0.057682652 0.0012183381 0.041405685 0.07424645 -0.099806175 -0.030757017 0.030886969
0.11139021 0.15692325 -0.26273537 -0.2447037 -0.1961553 -0.035643127 -0.22170213 -0.24103135
-0.37942323 -0.36379674 -0.2966441 -0.058805745 -0.37810352 0.007426045 -0.019221008 -0.039232578
0.11093141 -0.33675617 -0.3141124 -0.29009807 -0.8317501 -0.8351965 -0.48533788 -0.94398665
-1.246366 -0.62567466 0.07084265 0.1728072 0.020937797 0.045139063 0.20427601 0.07442739
0.07881114 0.2127767 0.071228474 -0.016148929 -0.10330993 -0.25513858 0.034147136 0.088685766
-0.07662504 0.13627067 0.07613448 0.10679278 0.0020224184 -0.101030156 -0.07781486 -0.013460052
0.11524339 0.034838416 0.0922239 -0.012376904 -0.060176343 0.1573045 0.17116357 0.11240689
-0.15274693 0.16237162 0.33134025 -0.20303334 -0.087465964 0.5057993 0.014588319 -0.06895448
-0.08248186 -0.022819486 -0.02364385 0.031612806 0.12858954 0.078686394 -0.076342486 -0.1391291
-0.3056099 -0.18932459 -0.37525818 -0.4500548 -0.29593563 -0.2975763 -0.15790464 -0.18585563
0.24251805 -0.0008733356 0.028674174 0.15021697 -0.03998051 -0.12122679 0.03237687 -0.15726745
-0.21992037 -0.15347916 0.31844622 0.1749194 0.15731607 0.47113156 0.36506826 -0.10485282
0.026755717 -0.036896873 0.28698173 0.3309986 0.232571 0.35113683 0.36508444 0.14552723
0.2775824 0.23640361 0.29772168 -0.036527514 -0.12056176 0.08633657 0.014324163 -0.004656343
0.152656 -0.07925212 -0.11922079 0.08643648 0.007155026 0.0680714 0.035697833 0.07382678
-0.042279758 0.007134555 0.16844684 0.08972002 0.11914103 -0.011344246 0.17448853 0.2603552
0.08939984 0.12778445 0.14544122 -0.06338745 -0.0016389341 0.009181338 -0.0026298808 0.2547699
0.20037569 -0.01738143 0.01656332 0.25443992 -0.10659169 -0.081248716 -0.14030647 -0.0038244692
-0.086470656 -0.0078008776 -0.015089865 0.035238225 0.106344864 -0.094939135 0.087050885 0.005247881
-0.18214361 -0.35164335 0.062189687 -0.026357422 -0.05872469 -0.03358249 0.05980483 0.34973624
0.088142775 -0.041496348 -0.38753903 -0.33597687 -0.28260607 0.04345425 -0.16229896 -0.057533734
-0.11198053 -0.020443728 -0.025977995 -0.13274275 -0.18172123 -0.5179775 0.060982212 -0.079104185
-0.07639851 -0.29399738 -0.25531095 0.00087980815 -0.13806552 -0.20086253 0.0068044118 -0.06471343
-0.13890262 -0.045876276 0.22828811 0.18732329 -0.31867722 -0.3166604 -0.46170235 -0.20800677
00000000: 1d3e 543b ecf7 13be f8ac 123c ed30 383d
00000010: f8a7 0ebe 6d46 ce3d 5280 9abd 8764 20be
00000020: 5deb 9abe 3199 1abe 6baa 3dbe 07e2 59be
00000030: 46d8 15be 6ad9 84be 0e4e 05be 3f13 f13d
00000040: 369c 11be 3efe 82bd 5b5e d0bd aa55 0dba
00000050: 71a9 9b3d 1197 afbe fde1 1bbe 33f7 09bb
00000060: 65b4 9bbe afcd 6dbe 1967 173c 74d6 e73d
00000070: ccd9 e83c 41d7 c03d 7f52 a7bb 90c6 b03d
00000080: 4d8c 0abc 7d49 163e b386 263e 2418 58bd
00000090: bd23 df3c 10b5 90bc 3931 16be b2ab a8bc
000000a0: 207e 36bd 03c3 09be 82ea c33c 35f8 fdbd
000000b0: ae45 64bd 7744 a33d ee9f ffbd 076a c7bd
000000c0: 6290 febd ef88 afbd 95ec 19be 7d72 eb3c
000000d0: 7173 04be 064d 22be 1e2a ddbd 1dec 763d
000000e0: 9797 93bd a544 6cbd a5b0 9f3a 0299 293d
000000f0: 860e 983d 2e67 ccbd 24f6 fbbc ab06 fd3c
00000100: 8d20 e43d 7db0 203e 4085 86be 9b93 7abe
00000110: efdc 48be 87fe 11bd e205 63be ecd0 76be
00000120: c343 c2be 9143 babe bce1 97be 4bde 70bd
00000130: c996 c1be 2e56 f33b 6075 9dbc 57b2 20bd
00000140: 0230 e33d 4e6b acbe 57d3 a0be bc87 94be
00000150: 93ed 54bf 70cf 55bf 357e f8be 1ca9 71bf
00000160: ec88 9fbf 372c 20bf f415 913d 5ff4 303e
00000170: be85 ab3c bde3 383d bb2d 513e 636d 983d
00000180: bc67 a13d 23e2 593e 3ce0 913d c24a 84bc
00000190: 2894 d3bd 86a1 82be dedd 0b3d e2a0 b53d
000001a0: 97ed 9cbd 8a8a 0b3e 65ec 9b3d 2cb6 da3d
000001b0: 8d8a 043b e6e8 cebd 665d 9fbd 8d87 5cbc
000001c0: ba04 ec3d bab2 0e3d e2df bc3d 7fc8 4abc
000001d0: 787b 76bd 6e14 213e 8145 2f3e 9535 e63d
000001e0: b169 1cbe bf44 263e 6ea5 a93e f9e7 4fbe
000001f0: 5b21 b3bd 107c 013f d803 6f3c 0238 8dbd
00000200: 40ec a8bd eeef babc bfb0 c1bc 6e7c 013d
00000210: faac 033e 5526 a13d 7359 9cbd dc77 0ebe
00000220: e778 9cbe 4ede 41be d721 c0be 956d e6be
00000230: e084 97be ec5b 98be c1b1 21be f050 3ebe
00000240: a756 783e 8ff0 64ba 1ae6 ea3c 7ad2 193e
00000250: 9ac2 23bd c045 f8bd 9c9d 043d b80a 21be
00000260: ce32 61be a429 1dbe 620b a33e 121e 333e
00000270: 7717 213e 2838 f13e 3aea ba3e 13bd d6bd
00000280: ce2e db3c 2d21 17bd 45ef 923e a678 a93e
00000290: 1827 6e3e 35c8 b33e 59ec ba3e 1705 153e
000002a0: 481f 8e3e ca13 723e fa6e 983e e09d 15bd
000002b0: 16e9 f6bd 3ad1 b03d e5af 6a3c 3c94 98bb
000002c0: db51 1c3e ef4e a2bd 082a f4bd 9c05 b13d
000002d0: b574 ea3b 0569 8b3d e437 123d 7f32 973d
000002e0: 8a2d 2dbd fcc8 e93b 547d 2c3e 21bf b73d
000002f0: 3600 f43d 37dd 39bc 1fad 323e 474d 853e
00000300: 4317 b73d edd9 023e 8bee 143e 48d1 81bd
00000310: 81d1 d6ba 536d 163c 145a 2cbb 3371 823e
00000320: 492f 4d3e 8063 8ebc cdaf 873c f345 823e
00000330: be4c dabd ba65 a6bd 80ac 0fbe f2a3 7abb
00000340: 8717 b1bd 819e ffbb 7b3b 77bc f555 103d
00000350: 56cb d93d 736f c2bd bc47 b23d 6bf6 ab3b
00000360: db83 3abe 990a b4be 9dba 7e3d 85eb d7bc
00000370: 4d89 70bd cb8d 09bd e9f5 743d a110 b33e
00000380: 3384 b43d 13f8 29bd 846b c6be 2905 acbe
00000390: beb1 90be 15fd 313d b331 26be 7ea8 6bbd
000003a0: 0c56 e5bd 9b79 a7bc cecf d4bc b7ed 07be
000003b0: 2115 3abe 2c9a 04bf 7cc8 793d 6001 a2bd
000003c0: d276 9cbd d386 96be 1eb8 82be eda2 663a
000003d0: 0c61 0dbe e8ae 4dbe 8bf7 de3b 7a88 84bd
000003e0: 7d3c 0ebe c3e8 3bbd 5cc4 693e add1 3f3e
000003f0: a929 a3be 5021 a2be 4064 ecbe baff 54be

conv2.bias f4 [16]
-0.12346402 -0.044720642 0.0015553664 -0.04913788 0.10140879 -0.2373133 -0.47807938 0.23141299
-0.049822155 -0.12868597 0.061800264 -0.057718072 -0.17243898 -0.1060747 -0.08732395 0.0024735956
00000000: b4da fcbd fe2c 37bd 70dd cb3a cd44 49bd
00000010: 69af cf3d 4202 73be d2c6 f4be 87f7 6c3e
00000020: 5112 4cbd 41c6 03be 4622 7d3d c969 6cbd
00000030: d893 30be b13d d9bd e6d6 b2bd 0c1c 223b

conv3.weight f4 [8, 16, 3, 3]
-0.15938263 -0.19848734 -0.39179024 0.07129441 -0.3584266 -0.46110484 -0.012848352 -0.05479975
-0.0113653075 -0.17847683 0.011630275 -0.05731723 0.031991906 0.20022187 0.26125535 -0.11128017
0.083645515 -0.31461307 0.15125197 -0.0660337 0.0026655055 -0.30082324 -0.17500255 -0.010480813
0.14234644 -0.15100315 0.14355417 -0.02174687 0.16630186 -0.056578543 0.19155544 0.116730444
-0.0857516 0.08609852 -0.07030973 -0.12210518 -0.060026053 0.18848746 0.12498633 0.08358416
0.32322285 0.19514783 0.015662493 0.060821295 -0.0693698 -0.067518115 -0.1672147 -0.1687999
-0.15606935 -0.0003143633 -0.038243588 -0.16619532 -0.1469433 -0.006018468 0.09341623 0.27237064
0.27612063 -0.2028619 0.14058621 0.17291868 -0.28498855 -0.23708197 -0.17476453 0.06655131
0.2969585 0.22875464 0.35465047 0.3639412 0.27792248 0.16944598 -0.0050138123 -0.027060011
-0.03900404 0.015923124 0.10870926 -0.108195126 0.011000065 0.044939633 -0.037274133 0.14872949
0.14933525 -0.03179256 0.11388188 -0.059988506 -0.032311108 0.15390438 -0.038101472 -0.04071667
-0.0130818365 -0.13247386 0.113333955 -0.34800568 -0.123223804 0.13675323 -0.3946301 -0.093732595
0.23325081 0.15143916 0.3686841 -0.039381087 -0.055566974 0.10311276 0.13567808 0.022105247
-0.10860897 -0.15004009 -0.01776912 -0.1271414 -0.04142737 -0.109678306 -0.0032784105 -0.058077928
-0.061514404 0.043435752 -0.03367146 -0.11088532 -0.029112816 0.00086113316 -0.41012982 -0.29645914
0.08137915 -0.1405454 0.008725271 0.33082086 0.14963266 0.12069112 -0.02965275 -0.010375446
-0.17030361 -0.1574403 0.0068000504 -0.13177282 0.0006305036 -0.07425037 -0.016784625 0.101388276
-0.081092834 -0.117400914 -0.17081477 0.039951812 0.101576276 0.028912907 0.015241566 0.043220397
-0.103936784 -0.0031502447 0.04666516 0.15203226 0.028154051 0.14440867 -0.13931704 0.093132794
-0.17903116 0.14249626 0.068902194 -0.31038707 0.065438315 -0.12688221 -0.19270654 -0.050435998
-0.17519107 -0.45654628 0.13343766 0.0055306237 0.18470894 0.065472566 0.060643476 0.018362956
0.04015568 0.029607167 0.12072025 -0.60591996 -0.9004266 -0.1482161 -0.5969179 -0.9159288
-0.29408726 -0.2111868 -0.18768093 0.055320736 -0.00028706994 -0.003143646 -0.15824637 0.31420717
0.39683047 0.119048886 -0.058813337 0.20840852 0.024100719 -0.17154509 -0.20757958 -0.067463376
-0.20653185 -0.22993594 -0.1391387 -0.10006326 0.017092396 0.055634327 -0.3127258 -0.32663116
-0.5251553 -0.120459996 -0.22804525 -0.2330613 -0.44888026 -0.54341626 -0.42579624 -0.09308554
-0.24165398 0.08730111 0.108545564 -0.012707843 0.045596313 0.302535 0.22573853 0.21295285
0.06556901 -0.15021318 -0.04410927 0.11003267 -0.0029702492 0.035962697 -0.030350795 0.099980995
-0.11916988 0.06590285 0.102255024 0.05233418 0.0006558336 0.0063008186 0.023360575 0.06996164
-0.0024782487 0.13641116 0.3044036 0.34425586 0.041141465 0.236422 0.2168306 0.26380268
0.053845353 0.13476337 0.072689645 0.055900645 0.010156028 0.0071209515 0.03308276 -0.09910769
0.03581701 -0.034846175 -0.02336544 0.06991131 -0.14449778 -0.20050566 -0.11777772 0.014968154
00000000: 3335 23be 4440 4bbe bb98 c8be ce02 923d
00000010: b183 b7be ef15 ecbe e581 52bc b475 60bd
00000020: 8e35 3abc a1c2 36be e98c 3e3c 79c5 6abd
00000030: f209 033d f606 4d3e 43c3 853e dce6 e3bd
00000040: 574e ab3d f714 a1be cce1 1a3e ad3c 87bd
00000050: c3af 2e3b 8105 9abe de33 33be b7b7 2bbc
00000060: 44c3 113e 92a0 1abe ddff 123e 7e26 b2bc
00000070: 094b 2a3e e7be 67bd 1c27 443e 5f10 ef3d
00000080: 899e afbd 6c54 b03d 8cfe 8fbd 4812 fabd
00000090: e1dd 75bd db02 413e d5f8 ff3d 2c2e ab3d
000000a0: 777d a53e d5d4 473e a14e 803c c01f 793d
000000b0: c111 8ebd f046 8abd 553a 2bbe e2d9 2cbe
000000c0: a5d0 1fbe 21d1 a4b9 4fa5 1cbd 1b2f 2abe
000000d0: 4e78 16be 9236 c5bb 0251 bf3d 2a74 8b3e
000000e0: af5f 8d3e 08bb 4fbe d5f5 0f3e 9811 313e
000000f0: 05ea 91be 9ec5 72be 79f5 32be 0e4c 883d
00000100: f20a 983e a83e 6a3e bf94 b53e 8056 ba3e
00000110: db4b 8e3e 3f83 2d3e e84a a4bb f5ac ddbc
00000120: b3c2 1fbd 3671 823c f6a2 de3d 6895 ddbd
00000130: 9e39 343c 9f12 383d c3ac 18bd 8b4c 183e
00000140: 57eb 183e ea38 02bd e73a e93d 82b6 75bd
00000150: a758 04bd 1c99 1d3e 4a10 1cbd 86c6 26bd
00000160: 3355 56bc 3aa7 07be a21b e83d cd2d b2be
00000170: c35c fcbd 0a09 0c3e f50c cabe e0f6 bfbd
00000180: 4dd9 6e3e de12 1b3e 2ac4 bc3e 104e 21bd
00000190: 329a 63bd c82c d33d 32ef 0a3e 1016 b53c
000001a0: 616e debd 1ca4 19be 8c90 91bc 5b31 02be
000001b0: bfaf 29bd 059f e0bd 9ada 56bb 1fe3 6dbd
000001c0: 87f6 7bbd b0e9 313d 16eb 09bd d817 e3bd
000001d0: 007e eebc abbd 613a 89fc d1be 7ec9 97be
000001e0: 1daa a63d 22eb 0fbe 70f4 0e3c 5a61 a93e
000001f0: 4e39 193e e82c f73d 53ea f2bc c6fd 29bc
00000200: 1264 2ebe 0838 21be f5d2 de3b 74ef 06be
00000210: 6148 253a 9410 98bd e97f 89bc a8a4 cf3d
00000220: 0014 a6bd e46f f0bd 11ea 2ebe 83a4 233d
00000230: 3907 d03d c3da ec3c c3b7 793c df07 313d
00000240: cfdc d4bd 5674 4ebb f823 3f3d 58ae 1b3e
00000250: 53a3 e63c dedf 133e 20a9 0ebe 68bc be3d
00000260: f253 37be 8aea 113e 981c 8d3d 0eeb 9ebe
00000270: 8604 863d 69ed 01be dd54 45be fa95 4ebd
00000280: 4a65 33be 6fc0 e9be e2a3 083e 3c3a b53b
00000290: 5724 3d3e 7b16 863d 4b65 783d e96d 963c
000002a0: 487a 243d bb8a f23c 2e3c f73d 921d 1bbf
000002b0: 5c82 66bf f6c5 17be 9dcf 18bf 4f7a 6abf
000002c0: 9b92 96be 5a41 58be 6e2f 40be ff97 623d
000002d0: e081 96b9 a105 4ebb 560b 22be c3df a03e
000002e0: 5d2d cb3e e7cf f33d 41e6 70bd 0b69 553e
000002f0: df6e c53c 84a9 2fbe be8f 54be 3d2a 8abd
00000300: 167d 53be 5474 6bbe 607a 0ebe f7ed ccbd
00000310: 5a05 8c3c d2e0 633d 991d a0be 333c a7be
00000320: 9470 06bf bbb3 f6bd b284 69be 9fa7 6ebe
00000330: a2d3 e5be 541d 0bbf f701 dabe a2a3 bebd
00000340: 2474 77be edca b23d 234d de3d 8f34 50bc
00000350: 33c3 3a3d dee5 9a3e 0028 673e 5010 5a3e
00000360: 0c49 863d 7cd1 19be ecab 34bd cf58 e13d
00000370: 83a8 42bb 9f4d 133d 3ba2 f8bc d6c2 cc3d
00000380: 570f f4bd 13f8 863d 156b d13d 5d5c 563d
00000390: 3fec 2b3a 1977 ce3b ad5e bf3c 0c48 8f3d
000003a0: 1d6a 22bb 5eaf 0b3e cada 9b3e 4e42 b03e
000003b0: f483 283d 9c18 723e d708 5e3e 2511 873e
000003c0: f28c 5c3d 69ff 093e 4fde 943d 13f8 643d
000003d0: 7865 263c df56 e93b ca81 073d f9f8 cabd
000003e0: dbb4 123d ddba 0ebd e168 bfbc a92d 8f3d
000003f0: 3af7 13be 5b51 4dbe 7235 f1bd fd3c 753c

conv3.bias f4 [8]
-0.009936948 0.28884554 -0.21868011 -0.33362982 0.11363627 -0.19255176 0.029911868 -0.09462958
00000000: 95ce 22bc 90e3 933e aeed 5fbe 87d1 aabe
00000010: 22ba e83d 4a2c 45be bc09 f53c 27cd c1bd

fc1.weight f4 [128, 1568]
0.021854714 -0.05047129 0.0040271664 0.06484791 -0.008422331 0.037486684 -0.007964463 0.05324457
-0.019382948 -0.013294867 0.025531178 -0.06308009 -0.08344563 -0.018271899 -0.019789714 -0.023093523
0.010496351 -0.018954946 -0.015844874 0.010238183 -0.06500338 -0.029506022 -0.05030208 0.017237086
-0.014129922 -0.04842817 0.011268624 -0.059085883 -0.020290332 0.033152495 -0.06761288 -0.07481105
-0.046578687 0.018900776 -0.007863051 -0.0025201296 -0.07235521 -0.07638238 -0.04374386 0.027364088
-0.08441964 -0.0008696014 -0.015892899 -0.036279004 0.03145836 0.033735182 0.03430627 0.018349877
0.026547326 -0.09758635 -0.0783839 -0.026370542 -0.05604456 -0.036820892 -0.02360118 0.015546084
0.033416256 -0.04593461 -0.059277307 0.0075500063 -0.017430222 -0.054047897 0.016605472 -0.0955252
-0.028589938 -0.10913977 -0.10256644 0.020787774 -0.06456444 0.023617849 -0.068276115 0.019371202
-0.044720165 -0.06084142 -0.034862865 -0.0057814326 -0.0091583505 -0.07770414 -0.05483922 -0.00774251
0.0004806579 -0.06353659 -0.042529553 0.016380876 0.02638808 -0.06976204 -0.06994851 -0.03183584
-0.050044898 -0.007331385 -0.07443498 0.003416728 -0.077892765 -0.07978376 -0.093599126 -0.10560189
-0.023132218 -0.07809137 -0.013741301 -0.11532054 -0.05080868 -0.04718592 -0.054797165 -0.0032918975
-0.036077656 0.0014723568 0.031196421 -0.073379405 -0.004136049 -0.054593366 0.027628288 -0.047815297
0.0906109 0.03395787 -0.038854823 -0.02308851 -0.03764279 -0.047890313 -0.03380578 -0.025248835
-0.03444709 -0.062789835 -0.06639169 -0.004431064 0.022148006 -0.011957975 -0.037811656 -0.053022966
-0.02084797 -0.008439518 -0.07638429 0.023295635 0.030437827 -0.028439408 -0.004431093 -0.009806826
-0.06431976 -0.06688641 -0.02663968 -0.0010970334 0.013638118 -0.033405337 0.02432125 0.034105312
-0.12507944 -0.006391224 -0.06841326 -0.054426156 -0.051867053 -0.039919846 -0.121158294 0.004155691
-0.08342988 -0.0802492 -0.008311073 0.016005032 0.026836265 -0.0027539432 -0.07308897 -0.033344816
-0.077198386 -0.1130598 -0.031108849 -0.0907535 -0.035839695 -0.08385816 -0.0055517266 0.018118935
0.06667414 0.039973095 0.072763115 -0.0034413496 0.015373834 -0.06276177 -0.07097393 -0.048262212
-0.053075273 -0.027801216 -0.11197732 -0.11334764 0.08264885 -0.0051940866 0.04088668 -0.00793477
0.008731728 0.05449376 -0.00027958493 0.02478922 -0.058283884 0.010202342 -0.022571431 -0.0070704096
-0.01329033 -0.031275686 0.0047956933 0.0345713 -0.07995324 -0.116622046 -0.055653885 -0.048721693
0.0040517207 -0.044030298 -0.025158849 -0.010389437 -0.07378231 -0.006627568 0.034960512 0.04386991
0.035221566 -0.06490704 -0.037552547 -0.069414884 -0.052471854 0.013536184 -0.08802206 -0.102610804
-0.02440978 -0.07608158 -0.07655973 -0.04090852 -0.00916306 -0.016917216 -0.01357767 -0.046081733
-0.05045869 -0.010944084 0.0329528 -0.08687434 -0.012593152 -0.09299402 -0.012293216 -0.07227194
-0.07864496 -0.034877542 0.011184548 0.031091657 0.021923825 0.008724094 -0.06922322 -0.04281562
0.024383225 -0.09355131 -0.03511769 0.038040813 0.0045266273 -0.00062324724 0.02160478 -0.010436175
-0.0010211228 0.05154751 -0.013180391 0.064806655 0.011026114 0.024561958 -0.0018502398 -0.07632486
00000000: a808 b33c fcba 4ebd 52f6 833b fbce 843d
00000010: d1fd 09bc a38b 193d 617d 02bc fa16 5a3d
00000020: fdc8 9ebc b7d2 59bc c326 d13c 2230 81bd
00000030: 8be5 aabd f3ae 95bc 0a1e a2bc a12e bdbc
00000040: e3f8 2b3c 6747 9bbc 1ccd 81bc 0dbe 273c
00000050: 7e20 85bd 9db6 f1bc 8e09 4ebd ca34 8d3c
00000060: 3081 67bc 9e5c 46bd 09a0 383c 0a04 72bd
00000070: e937 a6bc e9ca 073d 9f78 8abd 8936 99bd
00000080: 4bc9 3ebd cdd5 9a3c 07d4 00bc c228 25bb
00000090: f82e 94bd 5e6e 9cbd c32c 33bd a72a e03c
000000a0: 34e4 acbd f6f5 63ba d331 82bc 4b99 14bd
000000b0: 7bda 003d e72d 0a3d bb84 0c3d 7b52 963c
000000c0: c779 d93c 5adb c7bd bd87 a0bd 0907 d8bc
000000d0: fb8e 65bd 81d1 16bd 4357 c1bc 01b5 7e3c
000000e0: 7cdf 083d ee25 3cbd c3cc 72bd 0b66 f73b
000000f0: d3c9 8ebc 5461 5dbd 3308 883c b7a2 c3bd
00000100: 7235 eabc ac84 dfbd 5b0e d2bd 1f4b aa3c
00000110: 5c3a 84bd 387a c13c 59d4 8bbd 5bb0 9e3c
00000120: 7e2c 37bd da34 79bd 5dcc 0ebd 2c72 bdbb
00000130: e80c 16bc 5923 9fbd 179f 60bd e2b4 fdbb
00000140: d000 fc39 791f 82bd 7833 2ebd 3031 863c
00000150: d12b d83c 67df 8ebd 2a41 8fbd 4c66 02bd
00000160: e1fb 4cbd 1d3c f0bb 5e71 98bd 2feb 5f3b
00000170: 3e86 9fbd ab65 a3bd e6b0 bfbd ce45 d8bd
00000180: c77f bdbc 5eee 9fbd 3223 61bc 2d2d ecbd
00000190: c31c 50bd 0646 41bd fe72 60bd e0bc 57bb
000001a0: 2ac6 13bd 19fc c03a a38f ff3c f147 96bd
000001b0: b287 87bb 4b9d 5fbd b854 e23c f9d9 43bd
000001c0: 3592 b93d 6817 0b3d 3c26 1fbd 1d24 bdbc
000001d0: 532f 1abd a228 44bd ee77 0abd a5d6 cebc
000001e0: 6418 0dbd f597 80bd 5ef8 87bd 7532 91bb
000001f0: bc6f b53c 62eb 43bc 65e0 1abd 9c2e 59bd
00000200: 5dc9 aabc e745 0abc 5e6f 9cbd 7dd6 be3c
00000210: c058 f93c c3f9 e8bc b432 91bb cfac 20bc
00000220: 14ba 83bd befb 88bd 753b dabc 55ca 8fba
00000230: 6a72 5f3c 09d4 08bd 5c3d c73c 03b2 0b3d
00000240: d314 00be 796d d1bb 401c 8cbd f6ed 5ebd
00000250: 8c72 54bd fe82 23bd d721 f8bd 762c 883b
00000260: 49dd aabd b159 a4bd 2b2b 08bc fc1c 833c
00000270: bad7 db3c 807b 34bb abaf 95bd 9394 08bd
00000280: 301a 9ebd e58b e7bd fcd7 febc f9dc b9bd
00000290: a5cc 12bd d4bd abbd 42eb b5bb 296e 943c
000002a0: 748c 883d d4ba 233d d404 953d 4488 61bb
000002b0: 89e2 7b3c 3e89 80bd c85a 91bd 99ae 45bd
000002c0: 7565 59bd 60bf e3bc 5d54 e5bd cf22 e8bd
000002d0: cd43 a93d 2833 aabb cb78 273d d600 02bc
000002e0: 860f 0f3c d934 5f3d 4195 92b9 c312 cb3c
000002f0: 15bb 6ebd b927 273c b9e7 b8bc e5ae e7bb
00000300: afbf 59bc ef1a 00bd 3125 9d3b a39a 0d3d
00000310: 86be a3bd 8ad7 eebd 54f5 63bd 6690 47bd
00000320: 4cc4 843b 1d59 34bd ee19 cebc 7538 2abc
00000330: 2e1b 97bd 122c d9bb c132 0f3d efb0 333d
00000340: 7d44 103d fbed 84bd b3d0 19bd 6429 8ebd
00000350: baec 56bd dfc6 5d3c e944 b4bd 9d25 d2bd
00000360: 05f7 c7bc a9d0 9bbd 59cb 9cbd b18f 27bd
00000370: a920 16bc f995 8abc e074 5ebc 33c0 3cbd
00000380: c5ad 4ebd d14e 33bc 84f9 063d 2deb b1bd
00000390: 8253 4ebc a673 bebd 7c69 49bc 5003 94bd
000003a0: 9c10 a1bd c1db 0ebd 653f 373c eeb3 fe3c
000003b0: 9899 b33c 81ef 0e3c e7c4 8dbd 6e5f 2fbd
000003c0: 54bf c73c d497 bfbd 91d7 0fbd afd0 1b3d
000003d0: 1a54 943b 6a61 23ba 82fc b03c 7efc 2abc
000003e0: 32d7 85ba 7b23 533d 91f2 57bc 5ab9 843d
000003f0: e0a6 343c 2936 c93c bf83 f2ba 3550 9cbd

fc1.bias f4 [128]
-0.05542715 -0.009368169 -0.042290192 -0.005210795 -0.179929 -0.03902354 -0.020655243 -0.027519377
0.16318038 0.00695268 0.32168952 0.025282165 -0.02377285 0.028400566 0.11005673 -0.012476601
-0.023804685 0.66523486 0.16683765 -0.28851512 0.5909454 -0.04782962 -0.38573912 -0.007369795
-0.037226863 0.035293642 -0.07543989 0.5728486 0.33648637 -0.026013432 0.0616777 0.03449907
0.018511573 -0.053245608 -0.2802144 -0.66660553 0.06660199 -0.03681811 -0.005449498 -0.03683974
-0.011523309 -0.01377863 -0.014842883 -0.041031323 -0.00648758 0.46824524 -0.0078083375 -0.53330547
-0.00998259 0.5503752 -0.045862373 -0.012574417 0.5478297 -0.024075063 -0.059016153 0.15049382
-0.034957416 -0.030128324 -0.0293062 0.045458045 0.13618615 -0.007308291 -0.053836 -0.0041729393
-0.15564938 -0.43387344 0.6869973 -0.029553194 0.7071043 0.08415246 -0.039474923 -0.5537359
-0.017770933 -0.060769763 0.7081641 -0.0022439722 -0.041676324 -0.00729903 -0.0393234 -0.0070432583
-0.6460903 -0.027983002 -0.05995683 -0.42355216 -0.0096955085 -0.02483089 0.046357438 -0.0143655
-0.025425822 0.26677582 -0.013951938 -0.06397841 -0.2534554 -0.2320686 -0.027583327 -0.31080866
-0.014794774 -0.0044224495 0.02555938 -0.022579607 -0.037785593 -0.017069645 -0.20589115 -0.03712765
-0.1459889 0.07168009 -0.0069152317 0.044505946 -0.5719466 -0.56667876 -0.14771192 -0.04161938
0.41885605 -0.0075846286 -0.036873564 -0.00805393 0.34480533 -0.064400576 0.1071685 -0.017073907
0.4118987 0.28904992 -0.060395278 -0.007109526 -0.02638785 -0.28831735 -0.006888886 -0.032477126
00000000: 9407 63bd f37c 19bc 7b38 2dbd 51bf aabb
00000010: 4f3f 38be 26d7 1fbd 2f35 a9bc 5170 e1bc
00000020: c218 273e 4fd3 e33b 7db4 a43e 8b1c cf3c
00000030: 48bf c2bc 4ea8 e83c 6c65 e13d a86a 4cbc
00000040: 0b02 c3bc d54c 2a3f 7dd7 2a3e 41b8 93be
00000050: 3348 173f fee8 43bd 997f c5be 527e f1bb
00000060: 327b 18bd 1190 103d 3b80 9abd 35a6 123f
00000070: f147 ac3e 1f1a d5bc c2a1 7c3d e64e 0d3d
00000080: 95a5 973c 1118 5abd 4378 8fbe a9a6 2abf
00000090: a066 883d 96ce 16bd b491 b2bb 44e5 16bd
000000a0: 43cc 3cbc c3bf 61bc 902f 73bc 7610 28bd
000000b0: c495 d4bb d7bd ef3e 15dd ffbb b586 08bf
000000c0: 048e 23bc 64e5 0c3f 2fda 3bbd ed04 4ebc
000000d0: 913e 0c3f 1139 c5bc ecba 71bd 0d1b 1a3e
000000e0: 822f 0fbd adcf f6bc 8e13 f0bc 3732 3a3d
000000f0: 6274 0b3e 637a efbb 2383 5cbd 27bd 88bb
00000100: 8d62 1fbe a924 debe 0edf 2f3f 8a19 f2bc
00000110: ca04 353f 2058 ac3d 75b0 21bd a3c1 0dbf
00000120: 5994 91bc b7e9 78bd 3e4a 353f 9b0f 13bb
00000130: cbb4 2abd b42c efbb 9311 21bd 22cb e6bb
00000140: 2d66 25bf 9c3c e5bc 4b95 75bd d4db d8be
00000150: e9d9 1ebc 276a cbbc 4ce1 3d3d 465d 6bbc
00000160: d049 d0bc d796 883e ab96 64bc 1d07 83bd
00000170: e8c4 81be 64a3 6dbe 6ef6 e1bc 5022 9fbe
00000180: c865 72bc 32ea 90bb e861 d13c def8 b8bc
00000190: 11c5 1abd a4d5 8bbc 21d5 52be 2a13 18bd
000001a0: 1d7e 15be 03cd 923d 2b99 e2bb de4b 363d
000001b0: 186b 12bf dc11 11bf cb41 17be 1579 2abd
000001c0: 4d74 d63e 7a88 f8bb bc08 17bd a1f4 03bc
000001d0: 538a b03e 73e4 83bd 297b db3d 94de 8bbc
000001e0: 63e4 d23e 5afe 933e 0a61 77bd 07f7 e8bb
000001f0: 552b d8bc 559e 93be 2abc e1bb bc06 05bd

output.weight f4 [10, 128]
-0.17397192 0.030238522 -0.0077091795 -0.17765138 0.08091171 0.025076741 0.024764173 -0.11786548
-0.013329436 0.15437886 0.062079392 0.0508026 0.14188848 0.20166205 0.017328842 -0.18449722
0.19975421 -0.06565263 0.039386388 -0.15371355 0.15892379 0.07608883 0.028683707 0.0739837
0.201331 0.30502543 -0.24298431 0.035386104 0.15018912 -0.08584933 -0.064840816 0.072867945
0.033121612 0.074414685 -0.12252355 0.04878878 0.26619837 0.12328678 -0.05614911 0.13190018
-0.03752607 0.04322096 0.20274785 0.15687193 0.059065636 0.05585363 -0.07290178 -0.1472993
0.13034646 -0.115291566 0.09313175 0.12903805 0.25099027 0.08723754 0.08526366 0.09886151
0.16474311 -0.060573097 0.09329414 0.116298445 0.0078090844 0.07203603 0.12017502 0.070496045
-0.06402049 0.010553747 -0.17390002 0.1384233 0.073347986 -0.59170413 -0.008966021 0.08016133
-0.15265615 0.043617055 0.16418831 0.07455524 -0.10796108 0.016114108 -0.024043066 -0.018817764
-0.11416943 -0.19977278 -0.15304722 -0.38853395 -0.20047161 0.15546723 0.29971313 -0.11699302
-0.19248965 0.12725928 0.07230166 0.09549158 -0.1653078 -0.29398265 -0.012839874 0.021843487
0.06837633 -0.17614341 -0.38544127 0.02409001 0.06634443 0.013952646 -0.029736439 0.03456677
0.21595646 0.3799754 0.19244702 0.14762346 -0.2625959 -0.14539693 -0.022511747 -0.0451804
-0.108500995 0.0065086195 0.035962228 -0.037713658 -0.33121523 -0.12029701 -0.37022465 -0.039423786
-0.5246348 0.30854133 -0.101226546 0.067413025 0.20056373 -0.041112058 -0.011389908 -0.11071136
-0.106111854 0.026012873 0.03932204 0.1120997 -0.27435878 0.026980251 -0.15614423 0.03206812
0.12536213 0.009361372 0.16237839 0.15972741 -0.03109495 -0.037453648 -0.4829773 0.112930864
-0.202909 0.04220657 -0.01976924 0.34629738 0.079933316 -0.07733804 -0.019445276 0.046340335
-0.4442444 0.534198 -0.020842047 -0.122264795 -0.19672126 -0.03429195 -0.051285952 0.065875806
-0.28250405 0.13137858 -0.16273753 0.3757633 0.010405164 0.046165235 -0.1064266 0.16344339
-0.0990547 -0.13290942 -0.12311103 -0.07866031 0.0016443639 0.120375685 0.09318661 -0.17545743
-0.029749248 -0.0041390853 0.082004905 0.0045252615 -0.0012375659 0.0630526 0.22457589 0.10633265
-0.08878 0.10758328 -0.19120762 0.023900738 -0.06063449 0.18473813 -0.13772619 0.09734141
0.3856753 0.13325702 -0.12916692 0.10733448 -0.24058041 0.14043583 0.0036188834 -0.053108424
0.041385736 0.24974453 -0.291246 0.011111104 0.14554468 0.1329224 0.06251434 0.15633442
0.08431282 -0.087591946 -0.1709559 0.20572178 -0.07966993 0.14467801 -0.03557761 -0.17614186
0.12041786 -0.27708825 -0.06942307 -0.18935114 0.057711802 -0.09511241 -0.06679051 -0.5590626
0.17114763 0.071236126 0.058237806 -0.11788552 -0.026736878 -0.12842235 -0.3925978 -0.07732714
-0.14496648 0.08075409 -0.2063912 -0.007875628 0.08570446 -0.040734425 0.33280098 -0.070594214
-0.016868137 -0.15749271 -0.14204393 0.20140165 0.06577565 -0.036012426 -0.035691906 -0.03721169
-0.20102195 -0.38601378 -0.028031288 0.03382335 -0.08545285 -0.053955186 -0.07151239 0.013351283
00000000: b225 32be c7b6 f73c 499d fcbb 3eea 35be
00000010: 0ab5 a53d bd6d cd3c 3cde ca3c 7563 f1bd
00000020: b563 5abc 7e15 1e3e f646 7e3d 6316 503d
00000030: 374b 113e 7f80 4e3e 37f5 8d3c d7ec 3cbe
00000040: 5e8c 4c3e e374 86bd 9f53 213d 1667 1dbe
00000050: ebbc 223e 76d4 9b3d 18fa ea3c c484 973d
00000060: b729 4e3e 4b2c 9c3e e1d0 78be 05f1 103d
00000070: 2dcb 193e c6d1 afbd 43cb 84bd ca3b 953d
00000080: 87aa 073d ba66 983d a1ed fabd bed6 473d
00000090: 274b 883e c87d fc3d 9cfc 65bd d710 073e
000000a0: f0b4 19bd 7608 313d 229d 4f3e 09a3 203e
000000b0: cfee 713d c7c6 643d 874d 95bd a1d5 16be
000000c0: 8b79 053e fc1d ecbd dcbb be3d 8d22 043e
000000d0: cc81 803e 98a9 b23d b79e ae3d e777 ca3d
000000e0: 6bb2 283e 7f1b 78bd 0011 bf3d e12d ee3d
000000f0: 59e3 ff3b a087 933d 521e f63d 3b60 903d
00000100: 2d1d 83bd a0e9 2c3c d912 32be d6be 0d3e
00000110: 7837 963d ec79 17bf 38e6 12bc a02b a43d
00000120: e551 1cbe cca7 323d fb20 283e 6bb0 983d
00000130: b31a ddbd bc01 843c f7f5 c4bc b627 9abc
00000140: aad1 e9bd 3c91 4cbe 69b8 1cbe eced c6be
00000150: 6e48 4dbe cd32 1f3e 0074 993e 099a efbd
00000160: 021c 45be 4250 023e e512 943d 1791 c33d
00000170: 7346 29be e584 96be 565e 52bc 1df1 b23c
00000180: e408 8c3d f05e 34be 8f58 c5be 6a58 c53c
00000190: 97df 873d a499 643c d599 f3bc e395 0d3d
000001a0: b123 5d3e 238c c23e d510 453e 9b2a 173e
000001b0: f872 86be efe2 14be 8e6a b8bc 150f 39bd
000001c0: c535 debd 4246 d53b 214d 133d a379 1abd
000001d0: 0b95 a9be 475e f6bd 168e bdbe d67a 21bd
000001e0: 774e 06bf 21f9 9d3e dd4f cfbd d70f 8a3d
000001f0: 9460 4d3e 1e65 28bd bd9c 3abc a3bc e2bd
00000200: 2c51 d9bd f318 d53c 2610 213d 8794 e53d
00000210: c178 8cbe b005 dd3c 46e4 1fbe dc59 033d
00000220: ee5e 003e 7160 193c 8546 263e 958f 233e
00000230: d6ba febc ff68 19bd cd48 f7be 4c48 e73d
00000240: 60c7 4fbe cce0 2c3d 1af3 a1bc e44d b13e
00000250: 14b4 a33d 6863 9ebd b34b 9fbc 5dcf 3d3d
00000260: 0174 e3be 33c1 083f f1bc aabc f765 fabd
00000270: 4c71 49be b775 0cbd 3811 52bd e5e9 863d
00000280: 5fa4 90be 1b88 063e aba4 26be 0c64 c03e
00000290: 6c7a 2a3c c217 3d3d 30f6 d9bd b45d 273e
000002a0: 31dd cabd 6819 08be a321 fcbd a818 a1bd
000002b0: b287 d73a 8787 f63d 9fd8 be3d 1dab 33be
000002c0: b2b4 f3bc 2aa1 87bb 30f2 a73d a548 943b
000002d0: d235 a2ba b921 813d 39f7 653e efc4 d93d
000002e0: 4ad2 b5bd 9f54 dc3d eecb 43be 7bcb c33c
000002f0: df5b 78bd fe2b 3d3e 1808 0dbe ef5a c73d
00000300: 3c77 c53e 8774 083e 5544 04be 2ed2 db3d
00000310: b65a 76be 69ce 0f3e ca2a 6d3b 3888 59bd
00000320: 1784 293d 08bd 7f3e 321e 95be 590b 363c
00000330: aa09 153e cf1c 083e 8507 803d 2116 203e
00000340: 33ac ac3d 6863 b3bd 100f 2fbe bba8 523e
00000350: fd29 a3bd 7926 143e d4b9 11bd 885e 34be
00000360: a49d f63d 83de 8dbe af2d 8ebd 44e5 41be
00000370: 3663 6c3d 4cca c2bd 77c9 88bd ba1e 0fbf
00000380: 5341 2f3e 3fe4 913d c48a 6e3d f76d f1bd
00000390: 4c07 dbbc 2681 03be 9402 c9be b15d 9ebd
000003a0: 1872 14be 6662 a53d 3758 53be c708 01bc
000003b0: d285 af3d 24d9 26bd e464 aa3e b393 90bd
000003c0: 0c2f 8abc c545 21be f773 11be 3c3c 4e3e
000003d0: 62b5 863d c481 13bd ad31 12bd 496b 18bd
000003e0: b3d8 4dbe 99a3 c5be dfa1 e5bc 5a8a 0a3d
000003f0: e701 afbd 1d00 5dbd 1775 92bd 57bf 5a3c

output.bias f4 [10]
0.2774791 -0.37222567 -0.7264414 0.5131769 0.11902293 -0.2992804 0.027054612 0.016520102
0.71031183 -0.48763213
00000000: be11 8e3e 5d94 bebe 10f8 39bf 905f 033f
00000010: 4bc2 f33d 483b 99be a2a1 dd3c 2a55 873c
00000020: ffd6 353f ebaa f9be
