Tomato_cnn/saved_ckpt/best_model_epoch_9.pt (torch, 839122 bytes, 10 tensors)

conv1.weight f4 [32, 3, 3, 3]
00000000: 1560 3dbd 8a09 9a3d b850 2c3c 5a6f 7f3d
00000010: 3976 51bc 7515 a6bd fa23 80bd e2ba 6f3d
00000020: 81ff 273d 494e 523d 889e bd3d bb5e a53d
00000030: eb6b 0cbe c85c 06be 0bbd c0bd fbee e8bc
00000040: b10f 053e d668 bbbc adf1 1c3c fb78 7bbd
00000050: 23a9 0c3d 95b0 c4bd ad1e 5fbd dc25 cf3d
00000060: f587 913d 558b f8bd 92ae 913c a38f 493d
00000070: e1f1 f9bd d9d9 693b ae93 e4bd 1bf8 db3d
00000080: c9b8 8a3d 1862 753d e743 b43d 5230 00be
00000090: db68 17bd 2472 eebd f75f fcbc a6cb e83d
000000a0: 6236 dd3d ef11 05bd 92e7 743d a8c6 743d
000000b0: 8c46 693d 3593 dbbd c055 b1bc 19a1 9e3d
000000c0: 481f ce3d 97a1 733d 943b d3bd f710 45bd
000000d0: 0ed5 413d bb13 04be a42d 0f3e d0b7 073d
000000e0: c9b2 71bc 875d c63c 1f9b d5bc 9ae7 ae3d
000000f0: 4fae 1b3e 1963 08bd 0779 093d e754 143d
00000100: 31b0 0d3e 4a00 ecbc ee1a ccbc 588e 093e
00000110: 9b38 dfbd 6354 38bd a9e3 003e 238f 7ebd
00000120: c352 e2bd 3b17 fbbd cc58 d9bc 1b98 6e3c
00000130: 542c 0cbe 91f0 a2bd 5535 6dbd 5037 ac3d
00000140: 8838 0cbe e934 b53d d080 113e 4d5e 1c3d
00000150: 0cd7 66bc 4c23 223e 538e 063e 9e1d 11bc
00000160: 4d89 1d3d cfdf 823d 7ccc a83d fb44 843d
00000170: a4ef a2bd c051 a93d 2b6a 7f3d 5087 713d
00000180: 8ce7 64bd 3ee9 cbbc 29b5 5bbd b673 06be
00000190: dd47 253a 8ab6 08be 562f 9dbd 6d29 07be
000001a0: f281 823d a958 b8bd b9f6 843b 8acd dfbd
000001b0: 1f83 a9bd f95a 06be 7854 0cbd 2151 b83d
000001c0: aac4 30bc b561 0cbd fb74 0d3d b661 04bd
000001d0: dc73 d73d 2ef8 023c 7713 1f3e 0751 92bc
000001e0: 0430 a03d 0e58 d63d 4707 083e 0f21 1c3e
000001f0: 1338 6d3d 3fec d43c 1c37 b8bd f4d8 05be
00000200: 2a50 363d 9ba8 94bd cc0f 6bbd 6300 933d
00000210: 551a 1bbd 214f 483d 54b6 85bd f529 b8bd
00000220: 19a8 6a3d 9843 b73d 393f 023e ced3 92bc
00000230: e588 2039 b175 63bd 3679 31be 5d7d f93c
00000240: c930 f8bd 921b ec3d 29c8 9dbd 2791 b33d
00000250: d7f3 95bc 8a50 99bd 8c9a e93d d7f3 0bbe
00000260: a3ba 0c3e 61aa 7bbd 400c 47bd 74c4 b83c
00000270: 6c33 313c b264 1abe 66af 803c ec9e 0b3d
00000280: ec0d 4d3b b290 ab3d b07a 733d 19c2 febd
00000290: ba16 b43d aaf3 fabd d0d5 3abd fc48 293c
000002a0: 6fd9 bebb 1378 393d eb7e 8b3c 530d d73d
000002b0: f551 debc f59a d5bd 80c7 5e3d cabc dabd
000002c0: 8def 133d dc76 0dbe 3a2a 51bd 0430 b33c
000002d0: 094a 8b3d ef27 74bd 25be 133e 6c38 f43d
000002e0: fbe0 673d d149 9c3d afd4 5c3c d589 ec3d
000002f0: 0d5a fe3d d081 09be da55 0fbd ca45 86bc
00000300: cdc6 edbd 3dae c0bd 1191 3e3d 9b92 953d
00000310: 2b97 903d a8e5 433c e98d 853d 1941 1a3d
00000320: 3894 ec3d 9f5a 023e 8f02 79bd befe da3c
00000330: 3dac d7bd 042a 8dbd 92c3 98bd 5af6 5dbd
00000340: e309 c8bd 0742 d2bd d3ab 783d e581 7b3d
00000350: 258c e93d 5f01 f1bd b193 053e 30b9 9b3d
00000360: a4cd 8b3d bb67 003d f6f8 07be 7666 ce3d
00000370: 9e13 67bc 8120 b1bd c1d4 27be a816 09b9
00000380: 55c2 523d 8c45 c8ba 88c8 0e3e c6ef c1bd
00000390: eb70 0c3e 65c7 aabc af6a 3a3c 373c 22bc
000003a0: f921 163c af56 d8bd 8bcd e03d cbf6 86bd
000003b0: 2987 0c3e 08c1 093e c54a 8c3d 0c4f acbc
000003c0: 7ece b0bc f747 ecbd 9d17 abbd 962a fbbd
000003d0: 069f 31bd bf32 27be 97bc c53d b885 50bd
000003e0: 05d7 ccbb 09b8 703d 0c3a 0d3e 927f ebbc
000003f0: e096 0e3e af9f 413d 2f5c 483c 7ee7 013e
-0.04623421 0.07521351 0.010517292 0.062362053 -0.012784534 -0.08109561 -0.06256862 0.058527835
0.041015152 0.05134419 0.09258753 0.08074709 -0.13713042 -0.1312133 -0.09411057 -0.028434267
0.12994267 -0.022877138 0.009579104 -0.061394673 0.03434099 -0.09603993 -0.054472614 0.10114643
0.0710601 -0.121359505 0.017783437 0.04920925 -0.12204338 0.0035682826 -0.1116098 0.10740682
0.06773526 0.059908003 0.08802014 -0.12518433 -0.036965232 -0.11642864 -0.030807478 0.11366968
0.10801388 -0.032487806 0.059791155 0.059759766 0.056952044 -0.10721437 -0.021647334 0.07745571
0.1006456 0.059480276 -0.10314098 -0.048111882 0.047322325 -0.12898152 0.13982254 0.03313428
-0.014752098 0.02421452 -0.026074944 0.08540268 0.15203212 -0.033297632 0.033562686 0.03621378
0.13836743 -0.028808732 -0.024915185 0.13433206 -0.108994685 -0.045002352 0.12586845 -0.062148225
-0.11050942 -0.1226029 -0.0265316 0.014562632 -0.13688785 -0.07956041 -0.05791219 0.084089875
-0.1369344 0.088479824 0.14209294 0.03817587 -0.014089357 0.15833777 0.1314023 -0.008857159
0.03846102 0.06390344 0.08242127 0.064584695 -0.07955864 0.08267546 0.06235711 0.058966935
-0.055884883 -0.024891492 -0.053639565 -0.13130078 0.0006304959 -0.13350883 -0.07675044 -0.13199396
0.06372441 -0.090012856 0.004057732 -0.10927875 -0.082769625 -0.13120641 -0.034260243 0.08999849
-0.010789076 -0.03427287 0.03453539 -0.032319747 0.10520145 0.007993741 0.15534769 -0.017860902
0.07821658 0.10466014 0.13284026 0.15246986 0.057914805 0.025991557 -0.08994886 -0.13071042
0.044510044 -0.072587214 -0.057388112 0.07177808 -0.03786691 0.04890359 -0.06528917 -0.08992378
0.057289217 0.08948439 0.1271943 -0.017923262 0.00015309786 -0.05553216 -0.17331395 0.030455286
-0.1211868 0.11528696 -0.07704193 0.0876792 -0.018304748 -0.07486065 0.114064306 -0.13667236
0.13743071 -0.061441783 -0.048595667 0.022554614 0.010815483 -0.15077475 0.015708636 0.034087107
0.0031288816 0.08377208 0.059443176 -0.12439365 0.08793397 -0.122535065 -0.045614064 0.010332342
-0.00582426 0.045280527 0.017028293 0.10500588 -0.02713869 -0.10429946 0.054389477 -0.1068054
0.036117125 -0.13814873 -0.05106566 0.021873482 0.068012305 -0.059608396 0.14428003 0.11924824
0.056611042 0.07631267 0.013478442 0.11549727 0.124195196 -0.13428426 -0.034993984 -0.0163907
-0.11610184 -0.09408233 0.046525065 0.073033534 0.07060083 0.01195661 0.06521208 0.03765974
0.11551708 0.12729882 -0.060793456 0.026732799 -0.10530899 -0.068927795 -0.07459177 -0.054190017
-0.09767511 -0.102665 0.06071074 0.061403174 0.114036836 -0.1176784 0.13044621 0.07603681
0.06826332 0.031348925 -0.13278565 0.100781366 -0.014103798 -0.08648778 -0.16389753 -0.00013073778
0.05145486 -0.0015279516 0.13943684 -0.09469561 0.1371495 -0.020847032 0.011377974 -0.009902052
0.009163373 -0.105634086 0.10976704 -0.06590041 0.13723435 0.13452542 0.06850199 -0.021033786
-0.021582838 -0.11537164 -0.08354113 -0.12263982 -0.043364547 -0.16327952 0.09655111 -0.050908774
-0.0062512183 0.05876926 0.13791674 -0.028747354 0.13924742 0.047271427 0.0122290095 0.12685964

conv1.bias f4 [32]
00000000: ab1c f43c bb7a acbd 52a4 e93c 03d5 04bd
00000010: d882 4a3d 5a00 323b 009c 08bd 2cd5 96bb
00000020: 81e2 33bd 0589 90bc a99a d9bc 6a9a 96bc
00000030: e164 8d3b 43d4 13bd f9bb 15bd c368 443c
00000040: a62a 6e3d 91cb f1ba c46d 263c 2f14 a53c
00000050: 60ca 10bd 0841 883c 259c d53d 22d5 bcbd
00000060: 2609 07bd 2ec5 2ebd 6dfc 5cbd 259d b83c
00000070: db17 983c f9c2 94bc 0402 1bbd 1493 f9bc
0.029798826 -0.084218465 0.028520737 -0.032429706 0.04944119 0.0027160854 -0.0333519 -0.004603049
-0.043917183 -0.017643461 -0.026563006 -0.018384177 0.004315004 -0.0360911 -0.036556218 0.011987868
0.05814614 -0.0018447508 0.010158006 0.020151226 -0.03534925 0.016632572 0.10430173 -0.09220339
-0.03296771 -0.042668514 -0.05395167 0.02253587 0.018566063 -0.018159376 -0.03784372 -0.03046564

conv2.weight f4 [16, 32, 3, 3]
00000000: f65c 8c3d 1b0d e2bb d6ab 713d d142 473d
00000010: 1714 28bd 6e76 37bd 9849 173e 0eb6 25bd
00000020: 6feb 1fbd 7d7b c0bd a5c4 a2bc 1606 9abd
00000030: f8fd 9ebd fe83 9cbd 6282 c43c 6363 f73d
00000040: 90c3 b2bd 0954 8fbd 4597 303c 4e9a b93d
00000050: eeea 2b3d fada febd 292d 9b3d e9c5 0c3c
00000060: d44f f9bd aa75 8ebd 0448 dabb 015d 64bb
00000070: e686 a7bd 2c93 a1ba 1933 f1bd d665 d8ba
00000080: 4cda b9bd 6bf2 5e3d a396 c63d f74c e2bd
00000090: 06a9 b23c f605 603c 9fb5 bfbd e06e 823c
000000a0: 482c 0f3d 518e d8bc 177d c93d 133e 9dbc
000000b0: fd40 ab3d 9d08 e33d b3fe 0fbb 28da a1bd
000000c0: 0b1e 353c 6e61 c03d 8057 2bbd beee ef3d
000000d0: 5d34 443b fa70 043c 3b1a e2bc aad0 103e
000000e0: 9787 e93c f529 98bc 7442 f43c af67 de3d
000000f0: 07fe e43d 7c3f 85bd a0ab 933c 0f40 d53d
00000100: ac7a 8c3d 7c47 d03d 256c 27bd 0d37 303d
00000110: b365 d13d 31f0 233d 2a7b 313d 33f5 4bbd
00000120: 8351 93bc c9d1 32bd 25ec 67bd be6b e33d
00000130: edbd b5bd b555 ad3d 1ce8 ae3c 6a03 763c
00000140: c66a 793d 39c2 9abd 7eee 33bd c5d7 bcbd
00000150: 6209 9abd da62 50bb d232 c0bd 696e ad3c
00000160: 3883 b7bd 3374 01be 8f59 843d af91 233e
00000170: a291 093d 39f1 28bb 1f7f 1d3e 70b1 223d
00000180: 0799 0d3c 5853 223e 841c d73c bb0c 883d
00000190: 88c6 d83d b843 9c3d 8595 bdbd a886 0e3d
000001a0: 33da 433d 26c3 a83c 3592 993c b6cb d93d
000001b0: f446 dd3d 7e05 633b 04f8 d93b 91b9 613c
000001c0: 69e4 103e 23f5 be3d 85ba b83d 5fc9 aebc
000001d0: 219d 8bbd 1903 b43d a3b2 b0bc 4445 31bd
000001e0: c31d eb3d 6c03 053e 997d b63d 6d8e 483c
000001f0: 9e3f 083e 53d1 883d cf0f b5bc 3e1f 9ebd
00000200: 5be0 7dbd b80b 34bd 035e 1cbd 48aa 873d
00000210: 804d fa3c 257d 9f3d bcdb c3bd 05fa 863d
00000220: 924a bebd b193 7a3d 3f01 12bd ab4d bdbd
00000230: 757e b13c 13d4 b13d 6a75 6c3d 72fc a03d
00000240: 1b8b 4b3e f5fd 093c 981c ff3d 13de 3d3e
00000250: 8082 0c3e 5f82 293e cec0 ff3d 0117 863d
00000260: 2e3e b23d c864 4cbe e0d8 e9bd 9ae3 aabd
00000270: 5506 89bc bf59 473d af2c 093d b994 cfbc
00000280: 6fc6 cbbd eace bb3c 7620 1a3e f9b6 333e
00000290: 16e1 393d 8cba 4f3e cbea 793e e380 583c
000002a0: 6abd e93d 3d74 0e3e 94b7 343e 7764 debd
000002b0: d213 72be 3654 2abd 6f6e f5bd 2a8c 2cbe
000002c0: 6451 80be 87c0 d2bd 7fc7 aabc 7eb3 f5bd
000002d0: 868a bbbd 5de9 093d c8fe 69bc 113a a4bc
000002e0: 13db dabd 45c0 87bd d95b 2e3d 128e 82bc
000002f0: b583 ac3c cf02 44bd bbe5 bb3d 24ec fa3d
00000300: 978b 1a3e 0f16 303d 2777 343d c60e 9e3c
00000310: 2220 9e3d 91bf ae3d 9f2c 0fbe 58aa e9bd
00000320: fbb0 cabd 64c2 16be 2f0a a3bd 1235 d0bd
00000330: 025b 43be 7964 9dbd 1344 55be 30b3 8f3d
00000340: 4c5f f9bc 0320 a23d a1f9 9d3d d40b 523d
00000350: 4569 153e 29bf 87bb 60a5 133e b9f2 773c
00000360: 4d09 973d 38d5 5bbd 9fb4 e23d 38e2 853d
00000370: 3757 b73c 4057 2dbd c29c 1f3e be6b 273e
00000380: c98e b33d 07f3 bc3d 3fd6 1c3c 2e1a 413d
00000390: 4673 a9bd aba3 ca3d e1aa 943d 7a75 d13d
000003a0: cb2e ccbc 487d e23b c3aa 65bd b14f fabc
000003b0: 5c8b 37bd 83b6 96bd 930b 923d 2679 243b
000003c0: 1a30 f43d 3e8b 96bd a4e4 41bd 105b e03d
000003d0: d109 db3d 8b6b 99bd 56f8 723d c521 843d
000003e0: d94e dcbd 8d73 b8bd 8b7a 6c3e 6123 f23d
000003f0: 1e65 5a3d d625 d23d c28c 0cbd ceda 233d
0.068536684 -0.006898535 0.059001766 0.048647705 -0.041034784 -0.044790678 0.14774168 -0.040456824
-0.039042886 -0.093985535 -0.019869158 -0.07520692 -0.077632844 -0.07642363 0.023987953 0.120795034
-0.08728707 -0.0699845 0.010778253 0.090626344 0.041972093 -0.1244411 0.07576973 0.008592107
-0.12173429 -0.069560364 -0.006661417 -0.0034845474 -0.08180027 -0.0012327186 -0.11777324 -0.0016509842
-0.0907484 0.054430407 0.096967004 -0.11049836 0.021809112 0.013673296 -0.09360813 0.01592201
0.03495434 -0.02643505 0.09838312 -0.019194638 0.08362005 0.11085627 -0.002197188 -0.07902938
0.011054526 0.09393583 -0.041831493 0.11715458 0.0029938438 0.008083576 -0.027600398 0.14142099
0.028507037 -0.018574694 0.029816844 0.1085962 0.11181264 -0.06506249 0.018026173 0.10412609
0.06859335 0.101698846 -0.04087462 0.04302125 0.10224476 0.040023986 0.04333035 -0.049794387
-0.017983204 -0.043657098 -0.05662169 0.111045346 -0.08874116 0.08463613 0.021350913 0.015015462
0.060892843 -0.07556576 -0.043928616 -0.09220842 -0.07521321 -0.0031797201 -0.09384693 0.021170812
-0.08960575 -0.12641983 0.064623944 0.15973543 0.033586152 -0.0025778546 0.15380524 0.03972
0.008642442 0.15852106 0.026258714 0.06643053 0.10584742 0.07630104 -0.09257034 0.034796387
0.047815513 0.020600867 0.018746475 0.10634558 0.10804549 0.0034640725 0.00665188 0.013777153
0.14149632 0.093241 0.09019951 -0.021336256 -0.06817079 0.08789653 -0.021569556 -0.043278947
0.11480286 0.12989587 0.089106746 0.012240988 0.13305518 0.066805504 -0.022102265 -0.07720803
-0.06198154 -0.04395649 -0.038175594 0.066242754 0.030554533 0.07787541 -0.095633954 0.06590656
-0.09291567 0.061176006 -0.03564572 -0.092433296 0.021666745 0.08683028 0.057729162 0.0786065
0.19877283 0.0084223645 0.12456626 0.18541746 0.13721657 0.16553639 0.124879465 0.065473564
0.08703266 -0.1996032 -0.11418319 -0.08344193 -0.016726652 0.048669573 0.03348988 -0.025339471
-0.099499576 0.022925813 0.15051445 0.17550267 0.045380674 0.20286006 0.24405973 0.013214323
0.11413081 0.13911529 0.17648154 -0.10859006 -0.23640373 -0.041584216 -0.11983954 -0.16850343
-0.25062096 -0.10290628 -0.02084708 -0.11997126 -0.091572806 0.03366982 -0.014281936 -0.02004722
-0.10686316 -0.066284694 0.04256806 -0.015936885 0.021058897 -0.04785424 0.09174677 0.122520715
0.15092312 0.042989787 0.044058945 0.019294154 0.077209726 0.08532632 -0.13981865 -0.114094436
-0.098970376 -0.14722592 -0.07960927 -0.10166372 -0.19077685 -0.07685179 -0.2082675 0.07016599
-0.030440949 0.07916262 0.077136286 0.05128081 0.14590938 -0.004142661 0.14418554 0.015133553
0.07374821 -0.053670138 0.11069607 0.065372884 0.022380454 -0.042319536 0.15587142 0.16349694
0.087674685 0.09226041 0.009572565 0.047144108 -0.0827394 0.098944984 0.07259155 0.10227485
-0.024924656 0.0069119073 -0.056071054 -0.030555578 -0.044810638 -0.0735903 0.07131114 0.0025096624
0.11923237 -0.07350777 -0.04733719 0.10954869 0.10695232 -0.07491215 0.059318863 0.064517535
-0.107572265 -0.090064146 0.23093621 0.11823154 0.05331909 0.10261123 -0.034313925 0.04000359

conv2.bias f4 [16]
00000000: f670 82ba 33d2 013c 84b9 ec3c d640 10bd
00000010: 4d92 6e3d 798c 97bd 7160 d9bd c9c9 033e
00000020: 32c7 95bc 0477 f3bc 4f6c da3d 6236 7dbc
00000030: 3c1e 72bd 4e9b 70bc 3e54 1bbd 9950 b83c
-0.0009951878 0.007923651 0.028897054 -0.035218082 0.058244992 -0.0739984 -0.10614098 0.12869944
-0.01828346 -0.029719837 0.106651895 -0.01545486 -0.059110865 -0.014685465 -0.037922136 0.02249937

conv3.weight f4 [8, 16, 3, 3]
00000000: 27c6 afbd 5479 d43d b0ab 37be 18c4 ae3d
00000010: cebb 17be de7b ccbd b111 29be 522e 4d3d
00000020: be92 843b c914 1fbc 701f 01bc 3323 943c
00000030: 44a9 debc 588e d63d 23ec 743e ab32 92bd
00000040: 3e9c ff3d 7dbb 76bd 7579 be3d 39db ac3d
00000050: 8fff 1abd 80cb 46be 7105 ce3d 838c 3f3d
00000060: e5d5 ec3d 1b4d 08be 5971 54bc 1bae 7a3d
00000070: c213 573e d414 a3b9 5c64 583e 6921 bd3d
00000080: 8a16 2bbd 4477 3e3e 83c4 90bc e3f5 51bd
00000090: 7b72 0ebe 522e 24be 5bcd 9fbc ab72 e03b
000000a0: babe db3d 3911 1e3e 6468 7bbd 58d9 1d3e
000000b0: f5e0 883c c764 1abd 389b 2bbe bffa 14be
000000c0: 8ee3 2ebe 7f6e 4bbb b738 4839 1a0c 11be
000000d0: 754b 17be 92ad 753d d81e d13d 79cb 48be
000000e0: 7b52 cb3c 2be1 4d3d ebd6 b23d 0e00 2d3d
000000f0: dfc6 a63c fd05 7ebd 87c2 a63c 0737 253e
00000100: 7c20 9a3e a9c3 9b3e 5344 b73e 0508 a13e
00000110: 3e6e a83e 163c 7f3e 17d1 8d3d 04ae fb3d
00000120: b3c2 1fbd fe53 733c aa01 dd3d 006d d6bd
00000130: 3b44 343c e68c 363d 9d36 68bd 27be 183e
00000140: 57eb 183e 7f12 d43c 4ec7 a4bd 7567 20be
00000150: f711 6abe 1513 eabd ab72 24be a8d1 e63b
00000160: 9185 93bd a601 173c 4af7 8ebd 0a6a f6bd
00000170: 98df 52bd 6444 d93d 5e3d 1abe 4d74 f0bd
00000180: 125d 403c bb46 183d 3b98 583e 174a 07bd
00000190: 9510 5abd 789b a83d 321c 0d3e 74d8 573c
000001a0: ad02 febd da6e 27be fd17 22bd 39df 0bbe
000001b0: cf91 f13d 64e8 11bd df1a 47bc 3d22 c23d
000001c0: ae98 6a3d dbe3 803d 26a8 0c3e 453e 62bd
000001d0: c9be 253d 51c9 063e 1220 cb3c 694c e53d
000001e0: e625 1fbd 2bed 083d 5f6c 43bd 28a1 e9bd
000001f0: 8d93 c13d 461a c83d c23f 473c 2e00 763d
00000200: fa5a 3dbe 9645 31be 454e 6b3c 6522 afbd
00000210: 73a0 9a3d 0a95 29bd 9eab 9e3c ab29 033e
00000220: 7266 f7bc 1eab 17be 235e 08be 632c fb3d
00000230: 6982 0e3e 3c67 443d 4213 e93b 8e60 aabc
00000240: 9ee5 d6bd 74d2 77bc f45c 473d 8988 c73d
00000250: 7dfd 66bc 2130 2c3e 449e 0abe 2084 e33d
00000260: 974e 07be 06c1 9f3d 0883 a63d 8426 97bd
00000270: 8b3b ce3c 3c11 f3bd 4680 dd3c 600a f93d
00000280: 95ce 4b3d 352e 12be cc3c 5f3d b374 e9bd
00000290: fe5f e23d 9173 cc3b 44d1 e339 80cf 143c
000002a0: b514 eabc bfdd 10bb 7c58 133e 1c98 6fbe
000002b0: 821f 7ebe cb07 c6bc 8f33 02bd bd7e 0abe
000002c0: 2eed c0bd 1d72 3dbe f6c6 92bd 9978 81bd
000002d0: b0ba cd3d d327 ac3d 598d adbc 94c9 983e
000002e0: 776f 773e 4537 f83d 9373 91bc 10c5 d93d
000002f0: e9ec ef3d 2e56 17be bd46 37be 79bc bebc
00000300: bd11 57be ced5 73be 5ba2 e9bd 2e42 4ebd
00000310: eb4a 103d 0828 d83d e9e1 9cbe 2737 bcbe
00000320: 7348 6cbd 7ebc 1ebe 1d50 06be af5b 12be
00000330: 3d4a 85be 4665 92be 0d58 1fbe 0149 32be
00000340: f1ec 16be 2f7c 383c c83f d63d e129 c93d
00000350: e720 633d f57f 3f3e 75dd 453e 2f22 093e
00000360: 5c37 863d 7cd1 19be ecab 34bd 7410 e03d
00000370: 2540 31bb 9f4d 133d 1f62 02bd ccc2 cc3d
00000380: e386 f4bd ec7a eebd 6f5f a33d 12a7 d2bd
00000390: cc4c 853d a4c6 f13d 9f6f 88bd 6a27 f53d
000003a0: 2c74 393c 4a29 a0bd 854b 993e 213a 8e3e
000003b0: b3ac d53d 39e5 7e3e 1585 233e df72 ad3e
000003c0: 1851 833e 9156 763e 28e4 553e 0389 103d
000003d0: ec48 f6bb 85d5 91bb d05c 503c 6c70 00be
000003e0: 4dae cb3c a97f 45bd 24a4 23bd 9a68 833d
000003f0: be99 9bbd 6a99 fbbc cbc5 6dbb 8f92 4f3d
-0.085827164 0.10374704 -0.17936587 0.08533496 -0.14817736 -0.09984563 -0.16510655 0.050093003
0.0040458133 -0.009709545 -0.00788103 0.01808319 -0.027180322 0.10476369 0.23918204 -0.071385704
0.12480973 -0.060237397 0.0930051 0.08440251 -0.037841376 -0.19413567 0.100596316 0.04676486
0.11564235 -0.13310663 -0.012966477 0.061201196 0.21003631 -0.000311053 0.21132034 0.09234888
-0.04176954 0.18600184 -0.01767183 -0.051259886 -0.13910858 -0.16033295 -0.0195071 0.006849607
0.107297376 0.15436257 -0.06137885 0.15414941 0.01670883 -0.037693765 -0.1675843 -0.14548777
-0.17078993 -0.0031041203 0.00019094614 -0.14164773 -0.14774878 0.059979983 0.10210961 -0.19608869
0.024819603 0.050263565 0.087323986 0.04223638 0.020358501 -0.06201743 0.02035643 0.16134273
0.3010291 0.30422714 0.35794315 0.3145143 0.32896608 0.24925265 0.06924646 0.1228905
-0.03900404 0.014851568 0.10791333 -0.10470009 0.011002596 0.044567965 -0.05669271 0.14916287
0.14933525 0.025887726 -0.08045827 -0.15664466 -0.22858416 -0.11429421 -0.16059367 0.007044036
-0.0720321 0.009216702 -0.069807604 -0.12031944 -0.051482767 0.106087476 -0.15062472 -0.117409326
0.01174094 0.03717683 0.21151821 -0.033029642 -0.05323847 0.08232778 0.13780287 0.013174165
-0.12402854 -0.1635088 -0.03957366 -0.13659371 0.11795389 -0.035622016 -0.012152403 0.09479187
0.057274513 0.0629346 0.13736019 -0.055235166 0.04046515 0.13162734 0.024795566 0.11196215
-0.038854502 0.033429306 -0.047710773 -0.11407691 0.09451971 0.09770636 0.012161197 0.060058765
-0.18491736 -0.17311701 0.014361923 -0.08551482 0.075501345 -0.0414019 0.019368943 0.12808864
-0.030200217 -0.1481137 -0.1331716 0.122643255 0.13916935 0.047950014 0.0071128914 -0.020797994
-0.10493015 -0.0151258595 0.04867263 0.09742839 -0.014098522 0.16815235 -0.13536936 0.11109185
-0.13213573 0.07800488 0.08130461 -0.07380393 0.025174877 -0.118685216 0.027038705 0.12160182
0.04975756 -0.14275439 0.05450134 -0.11399212 0.11053465 0.0062393625 0.0004345273 0.009082675
-0.028574327 -0.0022104827 0.14389223 -0.23397869 -0.24816707 -0.024173638 -0.03178745 -0.1352491
-0.094202384 -0.18500562 -0.07166855 -0.0632183 0.100453734 0.08406033 -0.021185564 0.29841292
0.24163614 0.12119917 -0.017755305 0.1063329 0.11715109 -0.14778969 -0.17898078 -0.02328323
-0.2100286 -0.23812029 -0.1140792 -0.050356083 0.035227697 0.1055451 -0.30641106 -0.36760828
-0.05768628 -0.15501592 -0.13116498 -0.14292787 -0.26033202 -0.2859289 -0.15560932 -0.17410661
-0.14738823 0.011260076 0.10461384 0.09822441 0.0554513 0.18701155 0.1932276 0.13391946
0.06553528 -0.15021318 -0.04410927 0.10940638 -0.002704629 0.035962697 -0.031831857 0.09998092
-0.1193979 -0.11644539 0.07977187 -0.102857724 0.065087885 0.11805466 -0.06661915 0.11970408
0.011319201 -0.07820375 0.2994043 0.27778724 0.104333304 0.24892129 0.15968736 0.33876702
0.25647807 0.2405646 0.20887816 0.035286915 -0.007516017 -0.0044505023 0.012717441 -0.12542886
0.024863387 -0.04821745 -0.03995146 0.064164355 -0.07597683 -0.030712802 -0.0036281224 0.05067688

conv3.bias f4 [8]
00000000: 42c7 343d f59e b13d 5897 fbbc 0b3c ddbd
00000010: 1b65 303c bc13 afbc 7d15 0c3d 3a8d 1ebd
0.04413534 0.08672897 -0.030711815 -0.10802468 0.010766293 -0.021371715 0.03420018 -0.038708903

fc1.weight f4 [128, 1568]
00000000: 81b3 6b3c afb7 9cbc 96b1 20bd 63e5 c63c
00000010: ec7f 3bbd 50d3 12ba 21b8 18bd 3c17 423d
00000020: 1c2a 8ebb f91b 2f3c eae6 3d3d f93c 25bd
00000030: 8d65 29bd 6971 0d3d b981 5b3c 8b26 85bd
00000040: a65e ddbc e77f 69bd cb85 ad3b 9ce2 203d
00000050: 204e 83bb 7ebb cf3c e24a 30bd 33b4 303d
00000060: 144c 343c 5b71 d7bc 5db2 fa3c 637d 20bd
00000070: 58d4 4c3c 03b5 8a3c 7c1f 75bd 7fbc 62bd
00000080: 29a4 bbbc d578 353d 477b 953c 63eb 5c3d
00000090: e0cd 3ebd 4ef8 4dbd 0955 94bc 6100 593d
000000a0: 0cf4 68bd b260 cb3c 2e74 a23b 4b38 b1bc
000000b0: e46f 343d ac1a 503d 2914 4b3d 5ae1 283d
000000c0: ce90 583d 6042 1dbd 5fcd a9bc 31c5 ffb9
000000d0: af8c f6bc 7bf7 25bc ce8c 553b a927 303d
000000e0: 6edf 683d cf9b c6bc c7be 35bd a44c a03c
000000f0: baa9 16bc 553b 19bd f886 303d 6646 2ebd
00000100: f63d 26bb d970 55bd 1090 48bd 0451 413d
00000110: 31bc 20bd 0b9b 4e3d ee91 39bd 3dfc 3e3d
00000120: 22da 94bc ba33 fcbb 701f 3d3a 4426 fb3c
00000130: 7e73 803c 0d29 54bd 70c9 e9bc 6436 4b3d
00000140: 8ab9 6a3d b507 1bbd 8783 90bc f663 303d
00000150: 29ed 3d3d 8f35 40bc 4777 05bc 4d66 ca3c
00000160: de20 843b 9b67 593c 61a5 53bd f2e9 e83c
00000170: f829 51bd 5f7e a9bc 1fd0 15bd 4c52 51bd
00000180: 7be6 0d3b 1412 54bd 2ecc 61bc ad5a 6cbd
00000190: 7492 083c c757 203c b1cf 01bd b6a6 843c
000001a0: 39eb 91bc 6617 7f3c 1ae7 5c3d 3313 96bc
000001b0: de97 583d 0f5d e6bc de27 603d 4583 a6bc
000001c0: b3a5 4d3d 46be 053d 8d83 a43c e50c 233d
000001d0: 27bf 8b3c cca6 fbbc 37c6 90bc 77ee 26bc
000001e0: a11b 60bc 8cdc 0ebd 725a d1bb baf5 543d
000001f0: 212d 4f3d 1904 743c ed16 22bd f713 5fbd
00000200: 7cae 183d 6d46 5d3d d044 acbc 3ed4 3d3d
00000210: 4ab6 553d e566 bebb 2579 8c3c 7e00 3b3d
00000220: 8c1f 99bb 80c0 18bd b38c 533a 5e00 d63c
00000230: 9f3f 593c fc31 12bd f7d9 443c c578 573d
00000240: 1c29 80bd 7c43 3d3d 76e2 39bd b997 b8b8
00000250: 1eea e6bc 7dad 6e3c c608 81bd c4c1 ed3c
00000260: 8faf 63bd 6bb7 5bbd ede7 39bd 35dd 9fbc
00000270: 0100 20bc 0385 36bd e598 4cbd e469 da3c
00000280: 39c9 a5bc 6bd7 70bd 58c1 09bc de5d 1ebd
00000290: 539c a13c 8000 06bd 7ad1 a13c 0686 afbc
000002a0: 04f9 e83c e413 5f3b 7527 173d 9c3a 24bd
000002b0: 0cb9 d4bc 4120 6bbb 5b48 29bc 64c4 8d3b
000002c0: a6e5 35bb 3153 da3c 9503 58bd fd70 63bd
000002d0: ee7c 8c3c 1a35 44bd 7834 193d 0b7e 2fbd
000002e0: 9149 d4bc 31fd 943c 0a39 17bd d12b c03c
000002f0: 6d5a 71bd 7ffa 083c 4dc5 c2bc 3c9a eb3c
00000300: cc27 123d c967 14bd 43fd 28bd 9ab3 da3c
00000310: ea51 8ebc 47da 61bd 8746 0b3a 4191 edbc
00000320: eb1e af3c 7c34 c6bc b4f3 d83c 9d47 0f3d
00000330: 79f9 fbbc ab5f c13b e1d5 303d 37ad 4d3d
00000340: 5b9b 153d 4c57 8abc bfd2 c33c 7d07 65bc
00000350: fc04 f6bc 7ab1 1a3d d669 08bd d72e 44bd
00000360: 5104 eb3c 31c3 d0bc 9e02 ddbc 629c b13b
00000370: 28f6 16bc 8b26 d8bc c57f b2bc 6429 72bd
00000380: d4f6 0c3c 183e f73c fc43 dd3c 72f3 10bd
00000390: 6fbf 233d 4fa2 4abd 0172 983c 4ac8 cbbc
000003a0: dd65 e0bc 9130 2b3c e766 663d 1406 023d
000003b0: 3f3e b53c f9a9 a7bb f3e0 72bc 09b3 3ebd
000003c0: 9069 ba3c 55b7 18bd 399b c5bc 99ad 373d
000003d0: 59be 123c 0580 1a3a e39d ba3c ae41 edbb
000003e0: add2 8c3b 6d14 3c3d 8fe5 49bc 9087 4e3d
000003f0: 25b3 d63c cb1f 0d3c 0980 353d 96e7 b3bc
0.014386059 -0.019130556 -0.03923186 0.024279302 -0.045776293 -0.0005600946 -0.037284974 0.04738544
-0.004338516 0.010687822 0.046362795 -0.04034135 -0.041356612 0.034531984 0.0133976275 -0.06501492
-0.027022671 -0.057006743 0.0052954904 0.03927861 -0.004007116 0.025357958 -0.043040164 0.0431406
0.011004467 -0.02629917 0.030602628 -0.039182078 0.012501799 0.016932016 -0.05984448 -0.055355545
-0.022905426 0.044304688 0.01824726 0.05393542 -0.046583056 -0.05028563 -0.018106954 0.052978877
-0.056873366 0.024826381 0.0049576974 -0.021633288 0.04405202 0.050806686 0.049579773 0.041230537
0.05287247 -0.03839338 -0.020727811 -0.0004878431 -0.03009638 -0.010129805 0.0032585147 0.043006573
0.056853704 -0.024244217 -0.044371393 0.019567795 -0.009195739 -0.0374101 0.043097466 -0.042547606
-0.0025366521 -0.052109573 -0.048965514 0.047196403 -0.039241973 0.05044083 -0.045305185 0.046627272
-0.01817042 -0.007696596 0.00072144624 0.030657895 0.015680071 -0.05179696 -0.028538436 0.049612418
0.05730585 -0.037849147 -0.017640842 0.04306408 0.04636875 -0.011731519 -0.008146114 0.024706984
0.0040322384 0.01326933 -0.05167139 0.028431866 -0.051065415 -0.020690141 -0.036575433 -0.051103875
0.002165227 -0.051775053 -0.01378159 -0.057703663 0.008335698 0.009786553 -0.03169221 0.016192775
-0.017812358 0.0155695435 0.053931333 -0.018319702 0.052879207 -0.028120546 0.05472552 -0.020326266
0.05020685 0.032652162 0.02008226 0.03980722 0.017058922 -0.030719183 -0.017672641 -0.01018869
-0.013678462 -0.0348783 -0.0063889557 0.051992156 0.050580148 0.014893555 -0.039572645 -0.0544624
0.037275776 0.05402224 -0.021028906 0.046344988 0.052175798 -0.005810606 0.01714761 0.045654766
-0.00467295 -0.037292957 0.0008069977 0.026123222 0.013259797 -0.0356922 0.0120148575 0.05260541
-0.06257841 0.046206936 -0.045381986 -8.802064e-05 -0.028187808 0.01456773 -0.063005015 0.029023059
-0.055587348 -0.053641718 -0.045387197 -0.01951466 -0.009765626 -0.044560444 -0.0499505 0.02666182
-0.020237552 -0.05879919 -0.008407913 -0.038663737 0.019727862 -0.03271532 0.019753207 -0.021426212
0.028439052 0.0034038955 0.036902864 -0.040094957 -0.025967143 -0.003587738 -0.010332192 0.00432639
-0.002775529 0.026650997 -0.05273779 -0.055527676 0.017149415 -0.047902204 0.037403554 -0.042844813
-0.025913985 0.018187137 -0.03691963 0.023458393 -0.058924127 0.008360504 -0.023775721 0.028760068
0.035682485 -0.03623179 -0.041257154 0.026696969 -0.017373044 -0.055139806 0.00053129386 -0.028999927
0.021377048 -0.024194948 0.026483394 0.034980405 -0.030758606 0.005901297 0.04317272 0.05021402
0.03652511 -0.01688733 0.023904203 -0.013978836 -0.030031674 0.03776691 -0.033304058 -0.047896232
0.028688582 -0.0254837 -0.026978787 0.0054202536 -0.009213962 -0.026385566 -0.02178944 -0.059121504
0.00860377 0.030180976 0.027009957 -0.035388418 0.039977487 -0.049471196 0.018609049 -0.024875779
-0.027392322 0.010448591 0.05625048 0.031744078 0.022124408 -0.005116698 -0.01482414 -0.04655746
0.022755414 -0.037284214 -0.024121867 0.04484329 0.008956515 0.000589371 0.022780364 -0.0072404956
0.0042975754 0.045917917 -0.012322797 0.05042225 0.02620847 0.008613537 0.044311557 -0.021961015

fc1.bias f4 [128]
00000000: f14a 9fbb a8f9 543a 6fc9 c4bb 51bf aabb
00000010: 60aa 8dbd 13e8 c3bc 2f35 a9bc ebc7 c4bb
00000020: 5b02 5d3d 5dd1 83bd 3021 49bc fe1a cabb
00000030: 3dad e9bb 9488 86bc 2608 59bd a86a 4cbc
00000040: 5fa6 c4bb 30c5 203d 73b4 b03d 4f81 8cbb
00000050: 863e 9c3d 64a4 a7bb 066a 08bd d492 efbb
00000060: 47ab b9bc c4d4 3e3d e737 53bb e423 b33d
00000070: 9626 6b3d 3f02 0abc 0544 bb3d f781 943c
00000080: 6add 06bd 95c9 c4bb 93b9 03bd 2716 cbbd
00000090: cb26 b1bc 0a5d 1abc 25ab 96bb 4458 a5bb
000000a0: a5ca a8bb c3bf 61bc 239a e7bb 6cc9 c4bb
000000b0: c495 d4bb bece 463d 15dd ffbb 58d3 9cbd
000000c0: 048e 23bc ebeb 8b3d 2728 0bbc ed04 4ebc
000000d0: e925 133d 7e60 dabb a2ad 3d3d 72aa 5a3d
000000e0: e7fc 6ebb c87d d3bb c1f8 a7bb 73a7 59bc
000000f0: 9c61 84bb 637a efbb 01c9 c4bb f9b4 c5ba
00000100: 2eaa 6ebb 0beb 9cbc b1c8 133d 8a19 f2bc
00000110: 1168 b03d 4c53 dd3c 04ee 0abc 06e6 babd
00000120: 8c3b a63a e241 d93c e009 933c b2c9 c4bb
00000130: 8cc9 c4bb 2a27 b6bb a950 25bc 22cb e6bb
00000140: 1658 05bd 9c3c e5bc f0d6 98bb 6794 873d
00000150: d548 e3bb 276a cbbc b807 88bc 465d 6bbc
00000160: d049 d0bc be70 283b ab96 64bc 05c6 c4bb
00000170: c8c2 2ebd 0179 aebd 589b ad3a 1280 01be
00000180: c1c7 d3bb 32ea 90bb 7899 d0ba 98c9 c4bb
00000190: ff53 c8bb a4d5 8bbc de08 573c 4daa 17bd
000001a0: 1dc9 e63c d83a 0b3d 2b99 e2bb 3914 c13d
000001b0: c56e c4bd 206a a3bd 15d2 7c3c 8e6a 18bc
000001c0: 4930 a33d 7a88 f8bb b026 b6bb 8400 f1bb
000001d0: e80e 4ebd 9dc9 c4bb 07ac 823d 2cc9 c4bb
000001e0: c314 d73d 418a 5a3d f45c 1dbd 5770 e7bb
000001f0: bcc9 c4bb f53e 35bd 6ec9 c4bb 6300 06bd
-0.0048612286 0.000812436 -0.006005458 -0.005210795 -0.06917262 -0.023914373 -0.020655243 -0.0060052774
0.053957324 -0.06436417 -0.012275979 -0.0061677685 -0.0071312473 -0.016422547 -0.052986287 -0.012476601
-0.0060012783 0.039250553 0.08628168 -0.0042878757 0.07629113 -0.0051160324 -0.033304237 -0.0073112044
-0.02266468 0.046589628 -0.0032229365 0.0874708 0.057409845 -0.008423387 0.09143833 0.018128378
-0.032926 -0.0060054758 -0.0321594 -0.099163346 -0.021624943 -0.009421596 -0.0045980387 -0.0050459225
-0.0051511102 -0.01377863 -0.007067935 -0.0060054567 -0.00648758 0.04853701 -0.0078083375 -0.07657498
-0.00998259 0.06832107 -0.00849346 -0.012574417 0.035924826 -0.006664335 0.046308167 0.053385206
-0.003646666 -0.0064542033 -0.0051260893 -0.013284552 -0.0040399563 -0.007308291 -0.006005407 -0.0015083841
-0.0036417353 -0.019155046 0.036080066 -0.029553194 0.08613599 0.027017258 -0.008479599 -0.09125905
0.0012682541 0.026520673 0.017949045 -0.0060054893 -0.0060054716 -0.005558868 -0.010090032 -0.0070432583
-0.03255471 -0.027983002 -0.0046642944 0.066201024 -0.0069361725 -0.02483089 -0.016605243 -0.0143655
-0.025425822 0.0025701965 -0.013951938 -0.006005051 -0.042666227 -0.085191734 0.0013245149 -0.12646511
-0.0064630215 -0.0044224495 -0.0015914878 -0.006005477 -0.0061135287 -0.017069645 0.013124673 -0.037027646
0.02817207 0.033991665 -0.0069152317 0.09427685 -0.0959144 -0.07979226 0.015430947 -0.009302748
0.07968194 -0.0075846286 -0.005558811 -0.007354798 -0.050307184 -0.0060054795 0.06380468 -0.006005427
0.10502007 0.053354505 -0.038418725 -0.0070629525 -0.006005494 -0.044249494 -0.0060054576 -0.032715213

output.weight f4 [10, 128]
00000000: 5cfa 2dbe 6af3 f73c 3db6 d4bc 3eea 35be
00000010: 97be 0e3d a710 683d 3cde ca3c 7563 f1bd
00000020: 1524 f5bb c77a 4ebc 5c04 a6bd 1174 ae3d
00000030: 0fb7 103e caa0 ad3d e296 993d d7ec 3cbe
00000040: 2f8d 4c3e a431 75be 896a 98bd fb33 77be
00000050: fa59 513e 32b2 e73d 1b55 013e c484 973d
00000060: 3aa9 003e 60b2 47be 5a3d 9f3d 00bb 873d
00000070: 0732 1c3e c6d1 afbd b2d4 d63c 5f2c 09bd
00000080: 5f43 973d a234 7d3d 489c 57bd c514 f53d
00000090: bcc6 0b3e 3f8a 1e3e 9609 65bd f910 073e
000000a0: f0b4 19bd 7608 313d 229d 4f3e 8e43 4a3e
000000b0: cfee 713d 8fe8 23bd 874d 95bd be89 71bb
000000c0: 8b79 053e b9a7 12be c8ad 903d 8d22 043e
000000d0: 86b8 653e 90dd ec3d b8d4 1c3e 34a4 e33d
000000e0: 31b4 283e 7f1b 78bd 0c8a c03d 539f 593e
000000f0: 3d68 883d a087 933d 2303 f33d 91c2 933d
00000100: 33fc 8a3d 7d66 833b 8dc7 55bd d6be 0d3e
00000110: b1a6 9e3c cefe f5bd 3030 913c 5c7e 123d
00000120: b440 00be 847c 2d3d 0844 763e 1948 9b3d
00000130: 8baa 0dbe 9f2a 8a3c f7f5 c4bc b627 9abc
00000140: 04f6 b6bc 3c91 4cbe 73db a4bd a2c7 c1bd
00000150: 6e48 4dbe cd32 1f3e 43cf 453e 099a efbd
00000160: 021c 45be 202d 373e e512 943d b4b4 bb3d
00000170: 67e0 2bbd 7218 4bbe 00cd 34bd c2a9 733d
00000180: f308 8c3d f05e 34be e477 5b3d 5d66 663d
00000190: 97df 873d a499 643c 54c4 013d d0aa 0d3d
000001a0: bdf4 823b 15df 283e d510 453e b90c 1f3d
000001b0: 3134 91be 5ee9 e5bd 28b3 0a3d 1cb4 30bc
000001c0: c2a7 e8bd 4246 d53b c973 863d 9877 1abd
000001d0: c671 63be b5c9 d0bd df1a 00be d67a 21bd
000001e0: b073 81be 0ce2 183e 84e6 3bbe d70f 8a3d
000001f0: 9460 4d3e 7317 06be bd9c 3abc a3bc e2bd
00000200: cc89 d5bd 23c7 de3c 7d60 23bb 8794 e53d
00000210: 0316 33be e889 933c 46e4 1fbe fd59 033d
00000220: 77a9 eb3c 520f 74bd 3999 1fbd 73d4 183e
00000230: cfb8 febc 08c5 903d 9d53 4dbe 4c48 e73d
00000240: 11d6 50be f80e 083e bb35 bd3d fc1f 713e
00000250: 78b1 6c3d a1a5 27bd 7062 673d cacf 3d3d
00000260: 6f42 3fbe 7f0c 593e 2fde e4bb 6a87 a8bd
00000270: 1369 91bd f60c 84bd ad15 1bbe 900e 113e
00000280: ae2c 6cbe aec8 233e cdfb cdbd f8c6 883e
00000290: 66e3 acbd 96d7 3d3d 0ac0 bcbd c394 413e
000002a0: b8af 8dbd 6819 08be b507 fcbd a95b e0bd
000002b0: b287 d73a 6fee 2a3e 9fd8 be3d b33d a3be
000002c0: b2b4 f3bc a1f4 c23c 807f d53d a548 943b
000002d0: b718 303d c1ca ce3d 2fcd 233e 4fdd 113e
000002e0: 7bce f6bd e57b dc3d 2469 2abe 7352 303d
000002f0: 7533 6abd fe2b 3d3e df23 28be 3ff5 e33d
00000300: ccd5 623e 0fdf 733e dffa 4cbd 2ed2 db3d
00000310: 057a e6bd 3193 b83d 1f2c 6d3b 3ef8 bdbd
00000320: 241c 403d 117e 273e 3ac6 0dbe ed3d a93c
00000330: 44f1 153e 2d10 203e 9608 803d 2116 203e
00000340: 81f9 653d 6863 b3bd 15eb 42be 15b7 083e
00000350: 9afa a2bd 7926 143e fa00 233d 885e 34be
00000360: a49d f63d e141 51be af2d 8ebd 1373 2ebe
00000370: 35aa 1d3d 5e5a f33c a18a dcbd cc75 03be
00000380: d650 2f3e 3fe4 913d 6579 013e 87e7 aebd
00000390: c27f a43b 2681 03be 7df5 38be dd7c 9ebd
000003a0: 8805 453c e569 9ebd 3758 53be b3a4 af3d
000003b0: d6de 6d3d 6f37 ccbc ae0f 2c3e 20d5 fcbd
000003c0: fae8 20bb c545 21be 98de 31be 214a 4e3e
000003d0: 4cd7 00bc 5bcd 35bc 50f1 f8bc 0391 febc
000003e0: 8616 8ebe d970 87be cbd7 993d ca8c 0a3d
000003f0: 53e1 95bd fa21 7dbd 1775 92bd 57bf 5a3c
-0.16990036 0.030267436 -0.025965804 -0.17765138 0.03484973 0.056656506 0.024764173 -0.11786548
-0.007481108 -0.012602515 -0.081063 0.08518232 0.14132331 0.08477934 0.07499482 -0.18449722
0.19975732 -0.23944718 -0.07442195 -0.24140923 0.2044448 0.11313285 0.12630121 0.0739837
0.12564555 -0.19501638 0.07775374 0.06627464 0.15253459 -0.08584933 0.026224468 -0.03348958
0.07385897 0.061817773 -0.052639276 0.11966852 0.1365003 0.15482424 -0.055917345 0.13190068
-0.03752607 0.04322096 0.20274785 0.19752333 0.059065636 -0.040016707 -0.07290178 -0.0036855782
0.13034646 -0.14321794 0.07064396 0.12903805 0.22433671 0.11565697 0.15315521 0.11115304
0.16474988 -0.060573097 0.0940133 0.21252184 0.06660507 0.07203603 0.11865833 0.07214845
0.067863844 0.0040100203 -0.05219226 0.1384233 0.019366594 -0.12011491 0.017723173 0.035765037
-0.12524682 0.042355075 0.2404939 0.07582111 -0.13834588 0.016866026 -0.024043066 -0.018817764
-0.022334106 -0.19977278 -0.08049669 -0.09461905 -0.20047161 0.15546723 0.19317345 -0.11699302
-0.19248965 0.17888308 0.07230166 0.09165326 -0.041962054 -0.19833544 -0.044140816 0.059488066
0.068376444 -0.17614341 0.053581133 0.056249965 0.06634443 0.013952646 0.031681374 0.034586728
0.0039964602 0.16491349 0.19244702 0.038830493 -0.2836013 -0.11226152 0.033862263 -0.010785129
-0.11360122 0.0065086195 0.06565053 -0.03771171 -0.2221137 -0.101947226 -0.1251025 -0.039423786
-0.25283575 0.1492998 -0.18349653 0.067413025 0.20056373 -0.13094883 -0.011389908 -0.11071136
-0.10426673 0.027194565 -0.0024929338 0.1120997 -0.17488866 0.018010095 -0.15614423 0.03206824
0.02876733 -0.059584923 -0.038964484 0.14924793 -0.031093983 0.07068831 -0.20051427 0.112930864
-0.2039416 0.1328696 0.09238764 0.23547357 0.057786435 -0.04092944 0.05649036 0.04634074
-0.18677686 0.21196173 -0.006984494 -0.08228953 -0.071001194 -0.064477846 -0.15144987 0.14165711
-0.23063919 0.15994522 -0.10057793 0.267143 -0.0844181 0.046348177 -0.09216316 0.18904404
-0.06918281 -0.13290942 -0.123061575 -0.10954983 0.0016443639 0.16692518 0.09318661 -0.3188301
-0.029749248 0.023798289 0.10424709 0.0045252615 0.04299232 0.10097266 0.1599624 0.14244579
-0.12051102 0.107658185 -0.1664167 0.04304738 -0.05717798 0.18473813 -0.16419934 0.11130761
0.2215187 0.23815559 -0.050043937 0.10733448 -0.11253742 0.090124495 0.0036189628 -0.09275864
0.046901837 0.16356684 -0.13845149 0.020659411 0.14642817 0.1563117 0.06251638 0.15633442
0.05614615 -0.087591946 -0.19034989 0.1335109 -0.07957955 0.14467801 0.039795853 -0.17614186
0.12041786 -0.20435287 -0.06942307 -0.17036085 0.0384924 0.029706176 -0.10768629 -0.12837905
0.1712068 0.071236126 0.12643965 -0.08540254 0.0050201127 -0.12842235 -0.18062396 -0.077386595
0.0120252445 -0.077350415 -0.2063912 0.08576336 0.05807384 -0.024928777 0.16802856 -0.12345338
-0.0024552927 -0.15749271 -0.17370069 0.20145465 -0.007863831 -0.011096324 -0.030388504 -0.031075006
-0.2775156 -0.26453283 0.07511862 0.033825673 -0.07318368 -0.06179998 -0.07151239 0.013351283

output.bias f4 [10]
00000000: ec0d 1a3d 7bfe 193d fc31 bdbd 2f60 dcba
00000010: 4ef8 bf3d 86d3 26bd 7070 033d a4ef d5bc
00000020: ed59 453d 450b fbbd
0.037610933 0.037596207 -0.092380494 -0.0016813333 0.09373532 -0.04072907 0.03208965 -0.026115246
0.048181463 -0.12258009
