Tomato_cnn/saved_ckpt/best_model_epoch_3.pt (torch, 839122 bytes, 10 tensors)

conv1.weight f4 [32, 3, 3, 3]
00000000: cd20 33bd 7f68 a03d 689f 803c 83ec 8a3d
00000010: 1f98 c9bb 5d28 95bd b8f3 6fbd 135c 7e3d
00000020: d1a5 483d c2f2 723d 5f38 ce3d df2e b93d
00000030: 8e2c 00be 505c f2bd e1b9 a4bd 743c 92bc
00000040: f406 0f3e d99b 17bc 4bf7 663c a9c6 68bd
00000050: f4f9 263d 14e9 b2bd 8a57 37bd d74a e53d
00000060: d761 a03d 041c ecbd ace1 e93c 7139 523d
00000070: 4228 f2bd 214d 323b 735c e3bd 345b db3d
00000080: 620f 8a3d 1897 7b3d 016a b53d d465 03be
00000090: 7344 35bd 66eb fabd e444 26bd 78b3 d83d
000000a0: 8e71 cb3d 44da 2dbd 3ffd 583d 5aae 543d
000000b0: 3091 333d 0a46 c7bd c6f7 4abc 8121 a13d
000000c0: 8b31 e13d c401 873d c56b c9bd ae08 14bd
000000d0: 4a92 6a3d 2fb3 fcbd 98eb 083e 27d0 dd3c
000000e0: 9388 aebc 4c35 8e3c 470f 0bbd dd7b 9e3d
000000f0: 754c 153e ad99 18bd 9faa c93c 538e 1b3d
00000100: 8117 103e d633 d7bc 1f6a c3bc 1994 0a3e
00000110: 89b5 dcbd 6fcb 32bd 6bc7 043e 5c5d 7dbd
00000120: 7507 cdbd 3e62 e4bd bdd1 80bc 32f3 ca3c
00000130: 320d 02be 5435 8ebd c967 41bd 4aba c73d
00000140: 6117 03be 1297 9d3d 26ef 053e 2676 cd3c
00000150: 5924 d8bc 278d 153e 5ae0 f63d 645a b9bc
00000160: d96e c53c 8590 4f3d c4cc b73d bf86 923d
00000170: 03a3 94bd d3ca b63d ce30 8c3d db05 873d
00000180: 6677 4ebd cd61 aabc 158f 44bd 169f f9bd
00000190: 60d9 2d3c d52f 00be 7730 8abd 0bd8 fabd
000001a0: 1d70 983d 1d1d a9bd 6a3a 3a3c 6000 cfbd
000001b0: ff2d 9dbd cdfc ffbd 9db0 cfbc 3297 c43d
000001c0: bc47 a4bb 0899 d2bc a82d 273d 2a8f d7bc
000001d0: 3b0d e43d e720 6b3a aede 173e aecf b6bc
000001e0: c58b 923d 0b99 c73d 668e 033e 67dd 153e
000001f0: e537 513d e304 9c3c f698 a6bd c431 fbbd
00000200: 35fe 5e3d d080 82bd 5fc7 4abd 868f a73d
00000210: cf44 eabc 8ba7 6a3d be53 6bbd d5b9 9cbd
00000220: b1a1 463d 155d b83d 6cdb e83d 5af9 dbbb
00000230: 8f9a 0d3c 638a 82bd 6244 20be 8784 b03c
00000240: 13d3 d0bd d518 ef3d 383c 8fbd 86d0 b03d
00000250: c1d1 0fba 145e 78bd 937d f03d 3b13 eabd
00000260: b860 0d3e 6137 5abd f98e 8ebd a1e9 393c
00000270: 06e7 3fbc d281 16be 00eb 6e3c f484 9f3c
00000280: 395f 793c b0f2 813d 0d83 853d c0fd ecbd
00000290: f22b c13d b287 f1bd bf3f 1ebd aca3 8e3c
000002a0: 63dc 6239 9982 4e3d 2a66 c73c 61d6 e93d
000002b0: 1cec 6ebc 83ff bebd 912d 7f3d 46e1 c4bd
000002c0: 2fb2 423d e35f 04be ad7c 2dbd e6a1 073d
000002d0: 3e78 783d 4f7b 80bd ba3f 0f3e 303c e13d
000002e0: 456a 513d 9a3e 933d 07c4 9c3b 1240 db3d
000002f0: 4e0f f43d 640a f7bd af4a b3bc 1941 adbb
00000300: e176 ecbd 532b acbd 4c1f 3a3d 0ecc a93d
00000310: 212e 903d a721 a33c f4e0 953d d280 363d
00000320: 6d44 f63d a534 003e c96d 65bd 12dd b73c
00000330: 32f2 ccbd c9dc 92bd 6fd4 91bd e46c 3dbd
00000340: 89b6 b9bd 941b c7bd cbce 523d 322a 7e3d
00000350: c449 d33d 46b5 f2bd 2923 f13d e7d0 953d
00000360: d934 943d c09e 0a3d 8ed2 03be a1cc d33d
00000370: a876 0cbc 475e a0bd c6d9 13be cd92 813c
00000380: 96c8 833d c62a 14bc d308 053e 21d7 d3bd
00000390: d78c 033e faf3 e2bc 5cf6 da3b c38e 86bb
000003a0: 5279 413c 0d69 d8bd 940d d23d 8494 9abd
000003b0: 343c 043e a181 003e c8cc 7c3d fb78 cebc
000003c0: e4fd 50bc 32d2 e3bd 6831 a9bd 9ff1 f4bd
000003d0: 3c41 16bd 02b6 1dbe 464e b23d 0458 64bd
000003e0: 5f3b c8bb 0d36 243d 3a2a ec3d c84a 49bd
000003f0: e9fd 0c3e c2a6 423d 5402 5a3c 5477 ed3d
-0.043732453 0.07832431 0.01570101 0.06783392 -0.0061521675 -0.07283089 -0.058582038 0.062099528
0.04898626 0.059313543 0.10069346 0.09042143 -0.12516996 -0.118340135 -0.08043266 -0.017851092
0.13967496 -0.009253466 0.014097045 -0.056830082 0.040765718 -0.087358624 -0.044761218 0.11195915
0.078311615 -0.11528781 0.028549992 0.05132431 -0.11824085 0.0027206617 -0.11101618 0.10710755
0.06741215 0.06142339 0.08858109 -0.12831813 -0.04425473 -0.1225193 -0.040593043 0.10581106
0.09933768 -0.042444482 0.05297589 0.051924087 0.043839633 -0.09730156 -0.012388175 0.078677185
0.10995778 0.06592134 -0.098350085 -0.03614109 0.05726842 -0.12338864 0.13371122 0.027076794
-0.021305358 0.017359398 -0.033950116 0.07738469 0.14579947 -0.03725593 0.024617491 0.037977528
0.14071466 -0.026269834 -0.023854313 0.13533057 -0.107768126 -0.04365104 0.12966697 -0.061856613
-0.10011188 -0.11151551 -0.015725011 0.024774168 -0.12700346 -0.06943765 -0.047218118 0.09752329
-0.12801887 0.0769483 0.13079509 0.025080752 -0.02638452 0.14604627 0.120545104 -0.02262611
0.024100708 0.050674934 0.08974603 0.07154607 -0.072576545 0.089254044 0.06845246 0.06592914
-0.050406836 -0.020798588 -0.047988016 -0.12188546 0.010610908 -0.12518246 -0.06747525 -0.12248238
0.07443259 -0.08257506 0.011366466 -0.101074934 -0.07674789 -0.1249939 -0.02535277 0.09599151
-0.005013434 -0.025707737 0.040815026 -0.026313383 0.11135336 0.00089694414 0.1483104 -0.022315826
0.07155565 0.097459875 0.1284729 0.1463524 0.051078696 0.019045299 -0.08134644 -0.122653514
0.05444165 -0.06372225 -0.04950654 0.08181672 -0.028597264 0.057288688 -0.05745291 -0.07652632
0.048494045 0.09002129 0.113699764 -0.0067130746 0.008642807 -0.063740514 -0.15651086 0.021547569
-0.10196509 0.11674658 -0.06993908 0.08633523 -0.0005486273 -0.060636595 0.117427014 -0.11429449
0.13806427 -0.05327547 -0.069608636 0.011347205 -0.011712795 -0.1469796 0.014582396 0.019472577
0.015220457 0.06345117 0.065191366 -0.115718365 0.0943221 -0.1179346 -0.03863501 0.01741203
0.0002163514 0.050417516 0.024340708 0.11417843 -0.01458266 -0.09326079 0.062299315 -0.0961328
0.04753321 -0.12927203 -0.04235523 0.033113383 0.060661547 -0.06273519 0.13989154 0.10997808
0.051126737 0.07189675 0.0047841105 0.1070558 0.11916982 -0.12062529 -0.021886198 -0.0052873013
-0.11546112 -0.08406701 0.045440003 0.082908735 0.070400484 0.019913508 0.07318297 0.044556446
0.1202477 0.12520082 -0.056012902 0.022444282 -0.100071326 -0.07171018 -0.071205966 -0.046246424
-0.09068019 -0.09722057 0.051466744 0.06205196 0.10316804 -0.118509814 0.117742844 0.073152356
0.072366424 0.033842802 -0.12873289 0.10341764 -0.008573212 -0.07830482 -0.14438543 0.01581707
0.06434743 -0.009043401 0.12991647 -0.10343767 0.12846695 -0.027704228 0.0066822004 -0.004106374
0.01180871 -0.10566912 0.10256496 -0.07547858 0.1291359 0.1254945 0.061718732 -0.025204172
-0.012755845 -0.11124076 -0.082613766 -0.11960148 -0.036683306 -0.15401462 0.08706336 -0.055748
-0.006110593 0.04009061 0.115314916 -0.049143583 0.13768734 0.047522314 0.013306219 0.11595026

conv1.bias f4 [32]
00000000: 9930 033d 505f 3cbd 0bf9 ee3c facd 91bc
00000010: f516 303d f36a 793a 965e dbbc 8769 1bbc
00000020: 78d3 10bd d295 5ebc e5cf 32bd 61a0 3fbc
00000030: 5292 35bc bd62 06bd d8f1 b5bc 4e35 303c
00000040: 20fb dc3c 9bf9 0f3a 973d 03bb 9c37 86bb
00000050: f4a6 84bc 7c14 afbb f3ea 9a3d cf25 82bd
00000060: 3a28 d3bc d256 ecbc f30e 66bc 4e1a 10bd
00000070: 0cb4 843b e3ea a0bc 23ef b2bc 3d70 f3bc
0.03202877 -0.045989335 0.029171487 -0.017798413 0.042990644 0.0009514533 -0.0267785 -0.009485609
-0.035357922 -0.013585525 -0.043655295 -0.011695952 -0.011082249 -0.032809008 -0.022210047 0.010754896
0.026975214 0.0005492211 -0.0020025724 -0.0040959846 -0.01619289 -0.005343018 0.07564344 -0.06354868
-0.025776017 -0.028849993 -0.01404165 -0.035181336 0.0040497836 -0.019643253 -0.021842545 -0.029716605

conv2.weight f4 [16, 32, 3, 3]
00000000: 1a97 863d 83f5 03bc 2a41 6e3d 08af 3c3d
00000010: 391b 31bd af66 3abd 12f4 143e 4511 2fbd
00000020: 52c4 25bd b854 cabd f960 b4bc 9df2 b4bd
00000030: 3682 aabd 0ac1 a4bd 1db2 7f3c d823 eb3d
00000040: 80a9 b9bd 60ba 91bd 2869 9a3b 8408 ac3d
00000050: 57ec 013d 194b 00be ab75 973d d570 943b
00000060: efd8 ecbd 2d6a 80bd bbef 97bb 28f6 23bc
00000070: 080e b9bd d904 25bc 1f9d f0bd 3d66 2abb
00000080: 110e bfbd 0fa7 763d 7d7b cc3d aa37 dfbd
00000090: facc 7d3c 24be d23b 9e63 d0bd 632b 2d3c
000000a0: ea70 ee3c 2b5b 06bd a86f c53d 00d6 aebc
000000b0: dda3 a83d eaca ab3d f59e c23b cc35 a3bd
000000c0: 9008 dcbb f3f4 913d 3172 36bd dcf9 d83d
000000d0: 99e4 ffba 49b4 303c f7db 13bd d0a4 073e
000000e0: 26cc 903c aae1 ecbc e3dd 903c 7e4d c83d
000000f0: da1c cc3d 9619 9fbd 8490 b03b 665f 883d
00000100: b7c9 413d 3bdd a93d 83e9 9abd 4876 d63b
00000110: b62f a13d 3b0d 6c3c 63a6 aa3c c3b3 84bd
00000120: eb83 f3bb 2d13 53bd cc4d 85bd cbd1 ea3d
00000130: 4117 b0bd 2191 a63d 2a64 2a3c 1120 463b
00000140: 0575 e03c 2849 26bd 3fa1 43bc 22cb 89bd
00000150: 52bc 3cbd b2e2 0f3d 5f6a 58bd 98b6 6f3d
00000160: 3bba 3dbd 4bb4 b2bd c681 5f3d 10d4 163e
00000170: e625 a33c 35f5 2fbc ddc1 113e da5d e43c
00000180: fb53 90bb 1b8e 123e ce7d 033c f331 813d
00000190: 3ddd d03d 8e1e 953d 3a48 bfbd af4e 003d
000001a0: a890 343d 6ec7 8a3c 4f2a 683c 5a5d d03d
000001b0: 3482 ef3d 23a0 803c c8a3 8c3c 9197 8b3c
000001c0: 70e7 123e e68d cc3d fae7 ba3d c7a6 a9bc
000001d0: 1679 81bd 764c ab3d 2fb3 d3bc 784f 4cbd
000001e0: 011d dd3d faa6 fa3d a18f a63d c421 d13b
000001f0: 269e 033e 2241 813d 250e f6bc 5c47 b2bd
00000200: 5057 95bd 1a52 46bd 40ea 37bd 7ee2 713d
00000210: ba97 f23c 4a4a 9c3d 756f c9bd 5341 703d
00000220: 4532 bebd 1648 693d efb0 28bd 27f1 c7bd
00000230: 360d b83c a9ee b23d 962c 7b3d f1a2 b03d
00000240: 3dda 1d3e 42fd 72bc 0599 c73d faf9 0c3e
00000250: f02c b33d 6122 113e a781 a43d f063 b33c
00000260: 0779 7a3d d8d0 c8bd 8a4a 4ebd df8c 18bd
00000270: 6fe2 5f3c 9fb9 9f3d 79fa 943d 72ad 953c
00000280: a5ff 9ebd 33a5 663d 5768 ee3d 3c22 193e
00000290: 53f6 843b ecca 0c3e 1813 553e cdf2 38bc
000002a0: 74e9 0f3d 76f3 bd3d a86f 193e e5ed 98bd
000002b0: 7ca3 50be 0d5d aa3c 4164 15bd c129 b6bd
000002c0: cf9b 3ebe 4d44 13bd 3ac8 513c f056 90bd
000002d0: 4bda d1bd 3f56 ce3c 5aca aebc 3df6 b1bc
000002e0: 5ffe d8bd cf4f 8ebd dc88 3c3d 5e0b 84bc
000002f0: 5f2c 983c 12cf 4cbd ddb4 c33d b5db e03d
00000300: 7e7b 0b3e e2ce fe3c 6c93 033d 22ac 863b
00000310: 561f 863d f891 a73d b5ad 8fbd e2de 32bd
00000320: 3ada 2dbc 9f1a 73bd 0679 6b3c 6412 a5bc
00000330: 8bc3 dbbd 6447 4bbc a2c1 02be a4c9 853d
00000340: a93f 17bd 7242 903d 9cfc 8f3d 073d 303d
00000350: 2019 0c3e b88a 1abc 3eae 0d3e a89f 2b3c
00000360: cc88 783d 41ad 8bbd 10d0 c93d 1f9a 543d
00000370: 6c33 283c f8e5 6abd 0f33 0a3e ac72 0e3e
00000380: 130f 5c3d 9c9f bc3d ff08 6b3c 7763 423d
00000390: 6cbb a8bd ae32 cd3d 0366 9d3d 5a81 d63d
000003a0: 816b a5bc b2e2 533c 2861 83bd ae2e 1dbd
000003b0: a178 63bd fd34 9ebd f0f3 8c3d 1faf aabb
000003c0: 2ae4 f13d eb2b 9dbd 30cf 56bd 47bc f73d
000003d0: dc2c 013e 6816 12bc cb77 d33d 5b3e fe3d
000003e0: 7cf5 aabd 12b2 02bd 2844 5a3e 4c7b dd3d
000003f0: a366 463d 5bcf da3d c026 c1bc a2d3 0b3d
0.06571789 -0.00805414 0.058167614 0.04606536 -0.043238852 -0.045508083 0.1454623 -0.04274108
-0.04047043 -0.0987944 -0.022018896 -0.08835337 -0.08325617 -0.08044632 0.01560643 0.11481446
-0.09065533 -0.07115626 0.0047122426 0.08400062 0.031719532 -0.12528647 0.0739549 0.004530052
-0.11564814 -0.062702514 -0.0046367324 -0.010007419 -0.090358794 -0.010071957 -0.117487185 -0.002600088
-0.09328855 0.060217913 0.09984491 -0.10899289 0.015490765 0.006431358 -0.101752505 0.010569426
0.029106576 -0.03280179 0.09640437 -0.021342278 0.082343794 0.08388312 0.0059393593 -0.07969245
-0.006714888 0.071267985 -0.044542495 0.10594532 -0.0019523083 0.010785171 -0.036098447 0.13246465
0.01767547 -0.028916199 0.017683929 0.097804055 0.099664405 -0.07768552 0.0053883214 0.06658821
0.04731151 0.082941495 -0.0756407 0.006544862 0.07870428 0.014407451 0.020831292 -0.06479599
-0.0074314973 -0.05153196 -0.06508979 0.11465796 -0.08598185 0.0813315 0.010399858 0.0030231515
0.02739955 -0.04059711 -0.0119402995 -0.06728198 -0.046078034 0.035128303 -0.05283582 0.058523744
-0.04632018 -0.087257944 0.05456712 0.14729333 0.019915532 -0.010739614 0.14234109 0.027876783
-0.0044045425 0.14312021 0.0080256 0.06308355 0.10198448 0.072812185 -0.09339948 0.03132504
0.044083267 0.016940799 0.014170243 0.101740554 0.11694756 0.01570136 0.01716794 0.017040046
0.14346099 0.099880025 0.09126277 -0.020709408 -0.063219234 0.08364193 -0.025842277 -0.049880475
0.10796548 0.122388795 0.08132864 0.006382199 0.12853298 0.06311251 -0.030036042 -0.08705017
-0.07292044 -0.048418142 -0.044901133 0.05905389 0.029613364 0.07631357 -0.09835712 0.058656048
-0.09286932 0.056953512 -0.041184362 -0.09762793 0.022467237 0.08736927 0.061321817 0.086248286
0.15415283 -0.014830889 0.09745983 0.13767233 0.087488055 0.14173271 0.08032542 0.02189824
0.061150577 -0.09805459 -0.050364055 -0.03724372 0.013664826 0.07799076 0.07274336 0.018271182
-0.07763604 0.05630989 0.11640995 0.14954466 0.0040576844 0.13749284 0.20808065 -0.011288357
0.035134748 0.09274952 0.14984 -0.0746725 -0.20374864 0.020796323 -0.036472563 -0.08894683
-0.18614124 -0.03595381 0.012804085 -0.07047832 -0.10246714 0.02518761 -0.021336723 -0.02172386
-0.105953924 -0.06948816 0.046028957 -0.016118702 0.018575845 -0.050002165 0.09555981 0.10979406
0.13621327 0.031104509 0.032123014 0.0041098753 0.065489456 0.08182138 -0.07015554 -0.04366959
-0.010611111 -0.05935156 0.014372116 -0.02015037 -0.10730656 -0.012407158 -0.12769178 0.065326005
-0.036925945 0.070439234 0.07030603 0.04302695 0.1368146 -0.009432487 0.13836 0.010475077
0.060677335 -0.06820155 0.09854138 0.051904794 0.010266166 -0.05734822 0.1349604 0.13910931
0.053725313 0.092101306 0.014345407 0.04745814 -0.08238873 0.10019432 0.07685473 0.104738906
-0.020192863 0.012932466 -0.064150155 -0.038374595 -0.055534963 -0.077249505 0.06882465 -0.0052088643
0.11811097 -0.07674392 -0.052443683 0.12096458 0.12614769 -0.008916475 0.10325583 0.12414237
-0.08347604 -0.031908102 0.21315062 0.10814533 0.048437726 0.10684081 -0.023578048 0.034137376

conv2.bias f4 [16]
00000000: 48ef 8c3a 7cd1 1a3c cdda c03c e35b 81bc
00000010: 0b7b 873d f5d5 58bd 0525 00bd ecf5 c53d
00000020: 94b6 7ebc a018 5c3b b3ca bf3d 6236 7dbc
00000030: eb94 01bd f473 83bc 7e6e f5bc f503 433c
0.0010752464 0.009449359 0.023541832 -0.015790885 0.066152655 -0.05293842 -0.031285305 0.096660465
-0.01554646 0.0033584014 0.09364834 -0.01545486 -0.03163616 -0.016046502 -0.029959913 0.011902799

conv3.weight f4 [8, 16, 3, 3]
00000000: 0af4 86bd ce49 f93d 2316 28be a079 d73d
00000010: 3de7 05be 0cd3 acbd 129b 16be e4cd 863d
00000020: 1bea 933c b03f 5f3c 458f 3abc 3c55 d8bb
00000030: 8f7a c1bc 3fec be3d 6c3b 5a3e 54fc b6bd
00000040: 828d dd3d 6569 9cbd 4cea e33d 4ee2 e33d
00000050: 52f3 76bc 40f4 28be c1fa 023e eb93 8a3d
00000060: ab4f 0f3e b822 dfbd 4596 113c 56d6 833d
00000070: d1a2 593e 056a 2c3b 70e0 583e 6a5d c83d
00000080: be9f 19bd 8444 423e f756 27bc be96 23bd
00000090: 465e 15be 1cb1 28be 6d73 febc 13d5 5c3b
000000a0: 50b7 dc3d 4bf5 003e 1d1c b6bd ed1d 1a3e
000000b0: f47a a73b c167 fabb d4bf 16be 31fd 08be
000000c0: fc04 16be 9417 8a3c 87dc 893c a6a3 f9bd
000000d0: 4dd3 febd 29f4 9c3d 35ce 153e bab4 63bd
000000e0: 5b68 963d b389 a03c 4a06 9f3d 3adf 823d
000000f0: a33a bdbc e898 10be c3b8 e83c 7491 c43d
00000100: 8463 693e 515f 723e 7199 953e d76e 783e
00000110: b405 893e 016d 4b3e 9423 6f3c 943f 9e3d
00000120: 48c4 1fbd b78d 733c cc30 de3d 5c6d d6bd
00000130: 638e 3b3c 8d31 373d 9d36 68bd 0a83 1a3e
00000140: 4fb0 183e d399 d63d 0ea7 5abd 3467 13be
00000150: 88f8 24be 9e5f aabd 4e8a 1abe e18c ea3c
00000160: 7c96 44bd 1eb2 d83c e1c6 e6bd 43c6 0fbe
00000170: 0467 b4bd e923 893d 6d03 21be 96c0 01be
00000180: 8508 0dbd 1648 51ba c898 3b3e 174a 07bd
00000190: 9510 5abd 789b a83d 321c 0d3e 74d8 573c
000001a0: ad02 febd da6e 27be fd17 22bd 39df 0bbe
000001b0: 0508 083e 2fa4 20bd 7eb6 debc 0e63 e03d
000001c0: cd39 913d a8c7 813d d570 193e c045 35bd
000001d0: 5498 3d3d c7d6 f23d 2d99 89bb 4253 aa3d
000001e0: 620e 75bd eb9c ad3c 6dcc d9bd 859e 07be
000001f0: 45e4 bd3d bd91 8e3d 92e3 063d 8013 9a3d
00000200: b252 31be d7c9 1dbe 4674 033d 7c34 8cbd
00000210: d1f3 ca3d aaa2 88bc 7d34 203d fbc1 0b3e
00000220: 708f 79bc 8eee 08be 3bae ebbd 3ee7 103e
00000230: 51af 1b3e 72e1 873d 5420 bd3c ee69 91bb
00000240: 1839 c1bd 3271 0abc 7243 543d 50ee d23d
00000250: 8019 5dbc 091b 2c3e 7cc4 06be 9ab9 e43d
00000260: e8f1 07be 399f be3d 8469 c83d e59b 57bd
00000270: abc7 1f3d a4c0 c9bd 6404 793d 079e 133e
00000280: 64d9 8e3d 3140 f3bd 5df7 5e3d a501 f3bd
00000290: 9207 dc3d 09b9 d23b f192 f1ba 6e48 0a3c
000002a0: 5c24 bfbc 0d80 203b 29e1 1a3e 60a3 36be
000002b0: 03cd 41be bc21 4f3c de38 ec3c c70e 90bd
000002c0: abe7 81bd 5a03 12be 2091 0ebd b572 51bd
000002d0: 7b12 b63d 703b b43d 97b1 76bc ccf2 943e
000002e0: 64d5 7f3e 3aa9 193e 2f60 183a fba2 023e
000002f0: 8e3f 1a3e 84ec fdbd 0f5d 18be d808 2cba
00000300: c129 41be f1d4 5abe bf1d cabd 32f7 e7bc
00000310: a0de 563d a126 e03d 19ff 58be e0f2 82be
00000320: 9141 303d ff24 bebd d18e 5fbd 958e 00bc
00000330: 7acd 1bbe 3814 3ebe c663 22bd 305e 2dbe
00000340: bea7 14be fccf 6ebc 2423 d83d 4e4c c23d
00000350: 6978 e03c 8b0b 223e 0a74 2a3e 7b53 b53d
00000360: cd36 863d 7cd1 19be ecab 34bd c66e df3d
00000370: e5c6 32bb ed58 133d 7f97 04bd ccc2 cc3d
00000380: e614 f6bd 0541 c6bd 2738 d13d 9eac 8dbd
00000390: 7a5c b63d b0df 0a3e fdf0 c9bc 3e25 223e
000003a0: bb7b 1d3d 2c7a 51bd bc7a 813e e465 733e
000003b0: bbf5 b63d d764 5d3e 8d8b 003e 0d04 a13e
000003c0: f385 793e b899 593e 70b3 3e3e 0389 103d
000003d0: ec48 f6bb 85d5 91bb d05c 503c 6c70 00be
000003e0: 4dae cb3c a97f 45bd 24a4 23bd 9a68 833d
000003f0: 1e1b 7dbd b5ee a5bc 2b34 5abb 85e5 4c3d
-0.065895155 0.1217228 -0.16414694 0.10521245 -0.13076492 -0.084386915 -0.14707592 0.06582239
0.018055966 0.013626024 -0.011386697 -0.0066019576 -0.02361801 0.09322404 0.2131173 -0.089348465
0.10818006 -0.0763729 0.11128673 0.111271486 -0.0150726605 -0.16499424 0.12790968 0.06766494
0.13995235 -0.10895294 0.008885925 0.06437366 0.21253516 0.002630831 0.21179366 0.09783442
-0.037505858 0.18971449 -0.010213605 -0.03993868 -0.14586744 -0.16473812 -0.031060899 0.0033696338
0.107771516 0.12593572 -0.08892081 0.15050478 0.0051110927 -0.007641763 -0.14721614 -0.13377835
-0.14650339 0.016856946 0.016828788 -0.121894166 -0.12442646 0.07663757 0.14629443 -0.055592276
0.07344123 0.01959691 0.077648714 0.06390233 -0.02309925 -0.14120829 0.028408414 0.095980555
0.22791868 0.23669173 0.2921863 0.24261032 0.26762164 0.198658 0.014595885 0.0772697
-0.039005548 0.01486533 0.10849151 -0.104700774 0.011447522 0.04472499 -0.05669271 0.1508905
0.14911006 0.104785584 -0.053381972 -0.14394838 -0.16110432 -0.08319019 -0.15091822 0.02863163
-0.047995076 0.02645212 -0.11268402 -0.14040475 -0.08808711 0.066963024 -0.15723963 -0.12671122
-0.034431953 -0.0007983459 0.1832 -0.033029642 -0.05323847 0.08232778 0.13780287 0.013174165
-0.12402854 -0.1635088 -0.03957366 -0.13659371 0.13284309 -0.039219078 -0.027186628 0.10956393
0.07091103 0.063369095 0.14984448 -0.044255972 0.04628785 0.11857372 -0.004199168 0.083166614
-0.05982817 0.021192988 -0.10634694 -0.13244064 0.092720546 0.06961391 0.03293187 0.075232506
-0.17316702 -0.15409027 0.03209331 -0.06845948 0.099097855 -0.016679127 0.039112557 0.13648216
-0.015231952 -0.13372251 -0.11507841 0.14150712 0.15203597 0.06634797 0.023086704 -0.0044376766
-0.09434718 -0.008449839 0.051822133 0.10299361 -0.013494849 0.16807188 -0.1316089 0.11168213
-0.13275874 0.09307713 0.097857505 -0.052638907 0.039008778 -0.098511964 0.060795203 0.14415751
0.06975058 -0.11877478 0.054435123 -0.11865548 0.107436314 0.0064307493 -0.0018430633 0.00844012
-0.023332767 0.0024490387 0.15124954 -0.1783576 -0.18925862 0.01264232 0.02883571 -0.070340686
-0.06343015 -0.14259091 -0.03480637 -0.051134784 0.088902436 0.08800399 -0.015056989 0.2909149
0.24983746 0.15005961 0.00058126723 0.12757485 0.15063307 -0.123986274 -0.14879249 -0.0006562597
-0.18863584 -0.21370293 -0.09868955 -0.028316114 0.052458405 0.10944868 -0.21191062 -0.25575924
0.04303128 -0.092844 -0.05457956 -0.007846494 -0.15215102 -0.185624 -0.039645933 -0.16930461
-0.14517114 -0.0145759545 0.105535775 0.0948721 0.027401166 0.15824716 0.16645828 0.08853813
0.06553421 -0.15021318 -0.04410927 0.109098 -0.0027279195 0.035973478 -0.03237104 0.09998092
-0.12015705 -0.0968037 0.10215788 -0.0691769 0.08904357 0.13561893 -0.024651045 0.1583452
0.038448077 -0.051141903 0.2528895 0.23769337 0.08933588 0.21620499 0.12553234 0.31448403
0.24367504 0.21250045 0.18623137 0.035286915 -0.007516017 -0.0044505023 0.012717441 -0.12542886
0.024863387 -0.04821745 -0.03995146 0.064164355 -0.06179344 -0.020255426 -0.0033295255 0.050023574

conv3.bias f4 [8]
00000000: 8223 fc3c 9f15 863d d600 d9bb dba0 a3bd
00000010: 69be afbb 22ae 853b 9e09 ed3c 8bc1 36bd
0.03077865 0.06547093 -0.006622414 -0.07989665 -0.005363275 0.004079596 0.02893525 -0.04461817

fc1.weight f4 [128, 1568]
00000000: 81b3 6b3c afb7 9cbc 96b1 20bd 63e5 c63c
00000010: ec7f 3bbd 50d3 12ba 21b8 18bd 3c17 423d
00000020: 1c2a 8ebb f91b 2f3c eae6 3d3d f93c 25bd
00000030: 8d65 29bd 6971 0d3d b981 5b3c 8b26 85bd
00000040: a65e ddbc e77f 69bd cb85 ad3b 9ce2 203d
00000050: 204e 83bb 7ebb cf3c e24a 30bd 33b4 303d
00000060: 144c 343c 5b71 d7bc 5db2 fa3c 637d 20bd
00000070: 58d4 4c3c 03b5 8a3c 7c1f 75bd 7fbc 62bd
00000080: 29a4 bbbc d578 353d 477b 953c 63eb 5c3d
00000090: e0cd 3ebd 4ef8 4dbd 0955 94bc 6100 593d
000000a0: 0cf4 68bd b260 cb3c 2e74 a23b 4b38 b1bc
000000b0: e46f 343d ac1a 503d 2914 4b3d 5ae1 283d
000000c0: ce90 583d 6042 1dbd 5fcd a9bc 31c5 ffb9
000000d0: af8c f6bc 7bf7 25bc ce8c 553b a927 303d
000000e0: 6edf 683d cf9b c6bc c7be 35bd a44c a03c
000000f0: baa9 16bc 553b 19bd f886 303d 6646 2ebd
00000100: f63d 26bb d970 55bd 1090 48bd 0451 413d
00000110: 31bc 20bd 0b9b 4e3d ee91 39bd 3dfc 3e3d
00000120: 22da 94bc ba33 fcbb 701f 3d3a 4426 fb3c
00000130: 7e73 803c 0d29 54bd 70c9 e9bc 6436 4b3d
00000140: 8ab9 6a3d b507 1bbd 8783 90bc f663 303d
00000150: 29ed 3d3d 8f35 40bc 4777 05bc 4d66 ca3c
00000160: de20 843b 9b67 593c 61a5 53bd f2e9 e83c
00000170: f829 51bd 5f7e a9bc 1fd0 15bd 4c52 51bd
00000180: 7be6 0d3b 1412 54bd 2ecc 61bc ad5a 6cbd
00000190: 7492 083c c757 203c b1cf 01bd b6a6 843c
000001a0: 39eb 91bc 6617 7f3c 1ae7 5c3d 3313 96bc
000001b0: de97 583d 0f5d e6bc de27 603d 4583 a6bc
000001c0: b3a5 4d3d 46be 053d 8d83 a43c e50c 233d
000001d0: 27bf 8b3c cca6 fbbc 37c6 90bc 77ee 26bc
000001e0: a11b 60bc 8cdc 0ebd 725a d1bb baf5 543d
000001f0: 212d 4f3d 1904 743c ed16 22bd f713 5fbd
00000200: 7cae 183d 6d46 5d3d d044 acbc 3ed4 3d3d
00000210: 4ab6 553d e566 bebb 2579 8c3c 7e00 3b3d
00000220: 8c1f 99bb 80c0 18bd b38c 533a 5e00 d63c
00000230: 9f3f 593c fc31 12bd f7d9 443c c578 573d
00000240: 1c29 80bd 7c43 3d3d 76e2 39bd b997 b8b8
00000250: 1eea e6bc 7dad 6e3c c608 81bd c4c1 ed3c
00000260: 8faf 63bd 6bb7 5bbd ede7 39bd 35dd 9fbc
00000270: 0100 20bc 0385 36bd e598 4cbd e469 da3c
00000280: 39c9 a5bc 6bd7 70bd 58c1 09bc de5d 1ebd
00000290: 539c a13c 8000 06bd 7ad1 a13c 0686 afbc
000002a0: 04f9 e83c e413 5f3b 7527 173d 9c3a 24bd
000002b0: 0cb9 d4bc 4120 6bbb 5b48 29bc 64c4 8d3b
000002c0: a6e5 35bb 3153 da3c 9503 58bd fd70 63bd
000002d0: ee7c 8c3c 1a35 44bd 7834 193d 0b7e 2fbd
000002e0: 9149 d4bc 31fd 943c 0a39 17bd d12b c03c
000002f0: 6d5a 71bd 7ffa 083c 4dc5 c2bc 3c9a eb3c
00000300: cc27 123d c967 14bd 43fd 28bd 9ab3 da3c
00000310: ea51 8ebc 47da 61bd 8746 0b3a 4191 edbc
00000320: eb1e af3c 7c34 c6bc b4f3 d83c 9d47 0f3d
00000330: 79f9 fbbc ab5f c13b e1d5 303d 37ad 4d3d
00000340: 5b9b 153d 4c57 8abc bfd2 c33c 7d07 65bc
00000350: fc04 f6bc 7ab1 1a3d d669 08bd d72e 44bd
00000360: 5104 eb3c 31c3 d0bc 9e02 ddbc 629c b13b
00000370: 28f6 16bc 8b26 d8bc c57f b2bc 6429 72bd
00000380: d4f6 0c3c 183e f73c fc43 dd3c 72f3 10bd
00000390: 6fbf 233d 4fa2 4abd 0172 983c 4ac8 cbbc
000003a0: dd65 e0bc 9130 2b3c e766 663d 1406 023d
000003b0: 3f3e b53c f9a9 a7bb f3e0 72bc 09b3 3ebd
000003c0: 9069 ba3c 55b7 18bd 399b c5bc 99ad 373d
000003d0: 59be 123c 0580 1a3a e39d ba3c ae41 edbb
000003e0: add2 8c3b 6d14 3c3d 8fe5 49bc 9087 4e3d
000003f0: 25b3 d63c cb1f 0d3c 0980 353d 96e7 b3bc
0.014386059 -0.019130556 -0.03923186 0.024279302 -0.045776293 -0.0005600946 -0.037284974 0.04738544
-0.004338516 0.010687822 0.046362795 -0.04034135 -0.041356612 0.034531984 0.0133976275 -0.06501492
-0.027022671 -0.057006743 0.0052954904 0.03927861 -0.004007116 0.025357958 -0.043040164 0.0431406
0.011004467 -0.02629917 0.030602628 -0.039182078 0.012501799 0.016932016 -0.05984448 -0.055355545
-0.022905426 0.044304688 0.01824726 0.05393542 -0.046583056 -0.05028563 -0.018106954 0.052978877
-0.056873366 0.024826381 0.0049576974 -0.021633288 0.04405202 0.050806686 0.049579773 0.041230537
0.05287247 -0.03839338 -0.020727811 -0.0004878431 -0.03009638 -0.010129805 0.0032585147 0.043006573
0.056853704 -0.024244217 -0.044371393 0.019567795 -0.009195739 -0.0374101 0.043097466 -0.042547606
-0.0025366521 -0.052109573 -0.048965514 0.047196403 -0.039241973 0.05044083 -0.045305185 0.046627272
-0.01817042 -0.007696596 0.00072144624 0.030657895 0.015680071 -0.05179696 -0.028538436 0.049612418
0.05730585 -0.037849147 -0.017640842 0.04306408 0.04636875 -0.011731519 -0.008146114 0.024706984
0.0040322384 0.01326933 -0.05167139 0.028431866 -0.051065415 -0.020690141 -0.036575433 -0.051103875
0.002165227 -0.051775053 -0.01378159 -0.057703663 0.008335698 0.009786553 -0.03169221 0.016192775
-0.017812358 0.0155695435 0.053931333 -0.018319702 0.052879207 -0.028120546 0.05472552 -0.020326266
0.05020685 0.032652162 0.02008226 0.03980722 0.017058922 -0.030719183 -0.017672641 -0.01018869
-0.013678462 -0.0348783 -0.0063889557 0.051992156 0.050580148 0.014893555 -0.039572645 -0.0544624
0.037275776 0.05402224 -0.021028906 0.046344988 0.052175798 -0.005810606 0.01714761 0.045654766
-0.00467295 -0.037292957 0.0008069977 0.026123222 0.013259797 -0.0356922 0.0120148575 0.05260541
-0.06257841 0.046206936 -0.045381986 -8.802064e-05 -0.028187808 0.01456773 -0.063005015 0.029023059
-0.055587348 -0.053641718 -0.045387197 -0.01951466 -0.009765626 -0.044560444 -0.0499505 0.02666182
-0.020237552 -0.05879919 -0.008407913 -0.038663737 0.019727862 -0.03271532 0.019753207 -0.021426212
0.028439052 0.0034038955 0.036902864 -0.040094957 -0.025967143 -0.003587738 -0.010332192 0.00432639
-0.002775529 0.026650997 -0.05273779 -0.055527676 0.017149415 -0.047902204 0.037403554 -0.042844813
-0.025913985 0.018187137 -0.03691963 0.023458393 -0.058924127 0.008360504 -0.023775721 0.028760068
0.035682485 -0.03623179 -0.041257154 0.026696969 -0.017373044 -0.055139806 0.00053129386 -0.028999927
0.021377048 -0.024194948 0.026483394 0.034980405 -0.030758606 0.005901297 0.04317272 0.05021402
0.03652511 -0.01688733 0.023904203 -0.013978836 -0.030031674 0.03776691 -0.033304058 -0.047896232
0.028688582 -0.0254837 -0.026978787 0.0054202536 -0.009213962 -0.026385566 -0.02178944 -0.059121504
0.00860377 0.030180976 0.027009957 -0.035388418 0.039977487 -0.049471196 0.018609049 -0.024875779
-0.027392322 0.010448591 0.05625048 0.031744078 0.022124408 -0.005116698 -0.01482414 -0.04655746
0.022755414 -0.037284214 -0.024121867 0.04484329 0.008956515 0.000589371 0.022780364 -0.0072404956
0.0042975754 0.045917917 -0.012322797 0.05042225 0.02620847 0.008613537 0.044311557 -0.021961015

fc1.bias f4 [128]
00000000: f14a 9fbb 00da 513a 6fc9 c4bb 42c5 a3bb
00000010: 8c35 1dbd 0d0c 55bb 2f35 a9bc ebc7 c4bb
00000020: 10ef ae3c 71da 49bd 7276 01bd 9300 26bb
00000030: cf57 963b ac78 edbc ce8b 11bd a86a 4cbc
00000040: 5fa6 c4bb 0828 9fbb 2bb9 823d cce3 42bc
00000050: 5976 133d 64a4 a7bb d55c dabc d492 efbb
00000060: e8aa 9abc cdf3 8ebb e737 53bb a8c1 723d
00000070: 355b 3a3d 3f02 0abc c67d 873d a90a b33b
00000080: 48da e4bc 95c9 c4bb a005 7bbc 681e 38bd
00000090: c6d4 67bc 0a5d 1abc 25ab 96bb 4458 a5bb
000000a0: 4495 15b9 c3bf 61bc 239a e7bb 6cc9 c4bb
000000b0: c416 a6bb 2aa8 2f3c 15dd ffbb 936b debc
000000c0: 048e 23bc 683b 1e3d 2728 0bbc ed04 4ebc
000000d0: 36f1 5f3c 7e60 dabb f185 b73c 0243 753c
000000e0: e7fc 6ebb c87d d3bb c1f8 a7bb 5931 89bc
000000f0: acc4 483c 637a efbb 01c9 c4bb f9b4 c5ba
00000100: 045a 17bc 09bc 983b 36c7 d33c 6a37 b4bb
00000110: ba15 aa3c 21ea 0a3d 04ee 0abc bbbd 37bd
00000120: 4eaf b23a e983 e63c b562 333c b2c9 c4bb
00000130: 8cc9 c4bb 2a27 b6bb a950 25bc 22cb e6bb
00000140: f1d8 45bc 772a e5bc f0d6 98bb fb49 823d
00000150: d548 e3bb 276a cbbc e850 cabc cca0 8bbb
00000160: 9345 d0bc 5796 8ebc 1e13 3cbc 05c6 c4bb
00000170: c438 bbbc 0a60 72bd 4e6c c03a a2b7 bbbd
00000180: c1c7 d3bb 32ea 90bb 8896 b83a 98c9 c4bb
00000190: ff53 c8bb a4d5 8bbc ed0f 693c 64ac 11bc
000001a0: 3a9f 503c 9bcc 643b bb56 98bb 3b7d 9b3d
000001b0: 86d1 3bbd 6d50 4cbd d4e7 cb3b 8e6a 18bc
000001c0: b2da 513d 7a88 f8bb b026 b6bb 8400 f1bb
000001d0: cff2 36bd 9dc9 c4bb 9b3c 493d 2cc9 c4bb
000001e0: 2ce5 a03d af50 9d3c 0392 5dbc 5770 e7bb
000001f0: bcc9 c4bb ad8d 70bc 6ec9 c4bb d158 50bc
-0.0048612286 0.0008005202 -0.006005458 -0.00499788 -0.038381144 -0.0032508404 -0.020655243 -0.0060052774
0.021354228 -0.049280588 -0.0316071 -0.0025329932 0.0045881043 -0.028988205 -0.03553372 -0.012476601
-0.0060012783 -0.004857067 0.06382974 -0.011895131 0.036001537 -0.0051160324 -0.026655594 -0.0073112044
-0.018880323 -0.0043625594 -0.0032229365 0.059266716 0.045497138 -0.008423387 0.06615786 0.0054639173
-0.027936116 -0.0060054758 -0.015321165 -0.044950873 -0.01414985 -0.009421596 -0.0045980387 -0.0050459225
-0.00014265353 -0.01377863 -0.007067935 -0.0060054567 -0.005068632 0.010721246 -0.0078083375 -0.027150905
-0.00998259 0.038630873 -0.00849346 -0.012574417 0.013668349 -0.006664335 0.022402735 0.014969589
-0.003646666 -0.0064542033 -0.0051260893 -0.016747164 0.0122539215 -0.007308291 -0.006005407 -0.0015083841
-0.00923777 0.0046610874 0.025851827 -0.00549977 0.020762313 0.03391469 -0.008479599 -0.044858675
0.0013632567 0.028139072 0.010948827 -0.0060054893 -0.0060054716 -0.005558868 -0.010090032 -0.0070432583
-0.012075649 -0.02797435 -0.0046642944 0.06361767 -0.0069361725 -0.02483089 -0.024696782 -0.004261112
-0.0254238 -0.017405672 -0.011479167 -0.006005051 -0.022854216 -0.05917362 0.0014680715 -0.091658846
-0.0064630215 -0.0044224495 0.0014082948 -0.006005477 -0.0061135287 -0.017069645 0.014224988 -0.008891199
0.012733275 0.0034911993 -0.004649011 0.07592245 -0.045854114 -0.049881388 0.0062227044 -0.009302748
0.051233955 -0.0075846286 -0.005558811 -0.007354798 -0.044665154 -0.0060054795 0.049130064 -0.006005427
0.07856211 0.019203512 -0.013523581 -0.0070629525 -0.006005494 -0.014682216 -0.0060054576 -0.012716488

output.weight f4 [10, 128]
00000000: 5cfa 2dbe 74f3 f73c 3db6 d4bc 58e9 35be
00000010: 94a0 133c a971 833d 3cde ca3c 7563 f1bd
00000020: 0c4b 78bd 0ea6 423c 75f7 05be 6a2b 7c3d
00000030: 2e1f fe3d 90ba 253d d78c 9a3d d7ec 3cbe
00000040: 2f8d 4c3e 8323 6bbe f94e e8bd c2b2 70be
00000050: 4acf 523e 32b2 e73d 4674 913d c484 973d
00000060: 880a cd3d aad2 83be 5a3d 9f3d 8395 d0bb
00000070: 58bf 163e c6d1 afbd a1eb b53b 29a8 98bd
00000080: ce16 a13d a234 7d3d c71c 43bd d1cb 033e
00000090: 1177 2d3e 3f8a 1e3e 9609 65bd f910 073e
000000a0: 8a85 c3bc 7608 313d 229d 4f3e 8e43 4a3e
000000b0: 09f7 723d 3ef1 63bd 874d 95bd 8577 a7bc
000000c0: 8b79 053e 46a3 12be c8ad 903d 8d22 043e
000000d0: 382d 433e 90dd ec3d ae7d 113e e04c ab3d
000000e0: 31b4 283e 7f1b 78bd 0c8a c03d 49a0 463e
000000f0: 78fa af3d a087 933d 2303 f33d 91c2 933d
00000100: 9d64 7f3d 966b 12ba 19f1 88bd c34b 2c3e
00000110: 5f64 c13c a4b3 b13b 3030 913c d454 1b3d
00000120: b440 00be 3395 b33c 2e65 7e3e 1948 9b3d
00000130: 8baa 0dbe 9f2a 8a3c f7f5 c4bc b627 9abc
00000140: 8204 d5bc ba90 4cbe 73db a4bd 32aa babd
00000150: 6e48 4dbe cd32 1f3e 56a4 293c b699 efbd
00000160: 871b 45be 0845 353e e512 943d b4b4 bb3d
00000170: 0a76 c8bd bfce 4bbe 5157 35bd 3c8b b0bc
00000180: f308 8c3d f05e 34be b831 1f3c 5d66 663d
00000190: 97df 873d a499 643c cb4e 063d b4ab ce3c
000001a0: 67e6 c3bc f39c b93d e610 453e 5301 f23c
000001b0: f559 8ebe 9cf6 cebd 2fe4 583c 1cb4 30bc
000001c0: 6e55 febd 4246 d53b c973 863d 9877 1abd
000001d0: 7352 76be b5c9 d0bd e251 0ebe d67a 21bd
000001e0: 6702 44be 2f38 8dbc 969e 44be d70f 8a3d
000001f0: 9460 4d3e 74a8 15be bd9c 3abc a341 26bd
00000200: cc89 d5bd 93d6 de3c 7d60 23bb f497 e53d
00000210: 7e2b 20be bb18 493c 46e4 1fbe fd59 033d
00000220: b293 b13c 8cae 98bd 200b 22be 9ea2 033e
00000230: 8ae6 623c 0e4d 093c a581 3cbe 4c48 e73d
00000240: 11d6 50be cd5b c93d 597b f83d 4e4e 3f3e
00000250: 3762 8c3d a1a5 27bd 5426 363d cacf 3d3d
00000260: 3240 2dbe 3ddf 363e 2fde e4bb c486 75bd
00000270: 55b5 64bd f60c 84bd 8aee 19be 189e 153e
00000280: 12e5 55be aec8 233e 118e c9bd 377f 143e
00000290: 6074 b8bd 96d7 3d3d 0ac0 bcbd c394 413e
000002a0: b0a2 50bd 6819 08be b507 fcbd a95b e0bd
000002b0: d0d4 d73a 5a7c aa3d 9fd8 be3d 6e22 65be
000002c0: b2b4 f3bc 24ee 693d 807f d53d a548 943b
000002d0: 8601 823d c1ca ce3d 907b 323e 09a8 433d
000002e0: 7bce f6bd e57b dc3d 2469 2abe 4ca5 df3c
000002f0: 5146 7ebd fe2b 3d3e df23 28be 3ff5 e33d
00000300: eb0b 353e 5933 3c3e bff7 85bd c804 6e3d
00000310: b9e0 ecbd 60d3 19bc 1f2c 6d3b ba97 a0bd
00000320: f81d 403d ad07 443e db41 01be ed3d a93c
00000330: 44f1 153e 2d10 203e 9608 803d 2116 203e
00000340: a88f b13d 7a66 b3bd 15eb 42be def5 163e
00000350: 9afa a2bd 7926 143e 5987 f4bc 0ad6 50be
00000360: 939c f63d 5b5a 27be 5f2d 8ebd 1373 2ebe
00000370: fb6d 063d 0442 4e3d d289 dcbd 3f5b f5bd
00000380: d650 2f3e 3fe4 913d 619a 1f3e 87e7 aebd
00000390: c27f a43b 2681 03be 5ad6 33be c5b1 d0bd
000003a0: 758e 52bc 61d5 01bd 57be 52be 4f01 c83d
000003b0: 2dd2 be3d a3e2 34bb 20dd 1e3e 20d5 fcbd
000003c0: 1beb a73c c545 21be 98de 31be 214a 4e3e
000003d0: d193 083b 5bcd 35bc 74e7 d7bb 0391 febc
000003e0: b4fa 7bbe b184 1dbe b848 e73d ca8c 0a3d
000003f0: 53e1 95bd 0054 81bd 1775 92bd d578 853b
-0.16990036 0.030267455 -0.025965804 -0.17764795 0.009010453 0.06418163 0.024764173 -0.11786548
-0.060618445 0.011880411 -0.13082679 0.06156484 0.12408291 0.040461123 0.07546394 -0.18449722
0.19975732 -0.22962765 -0.11343188 -0.2350569 0.20586887 0.11313285 0.071022555 0.0739837
0.10011774 -0.2574666 0.07775374 -0.0063654794 0.1472143 -0.08584933 0.005551771 -0.07453949
0.07865678 0.061817773 -0.047634866 0.12870719 0.16939951 0.15482424 -0.055917345 0.13190068
-0.023867387 0.04322096 0.20274785 0.19752333 0.059317622 -0.05564999 -0.07290178 -0.020442734
0.13034646 -0.14320096 0.07064396 0.12903805 0.19060218 0.11565697 0.14208099 0.08364272
0.16474988 -0.060573097 0.0940133 0.19397081 0.08592695 0.07203603 0.11865833 0.07214845
0.06235181 -0.00055854896 -0.06686611 0.16825776 0.023607431 0.005423026 0.017723173 0.037922695
-0.12524682 0.02192173 0.24843284 0.07582111 -0.13834588 0.016866026 -0.024043066 -0.018817764
-0.026003126 -0.19977084 -0.08049669 -0.091144934 -0.20047161 0.15546723 0.010354122 -0.1169924
-0.19248782 0.17702115 0.07230166 0.09165326 -0.09788139 -0.19903086 -0.044272725 -0.021550767
0.068376444 -0.17614341 0.009716444 0.056249965 0.06634443 0.013952646 0.032789987 0.025228359
-0.023913575 0.09063139 0.19244727 0.029541647 -0.27803007 -0.10105631 0.013237997 -0.010785129
-0.12418638 0.0065086195 0.06565053 -0.03771171 -0.2405489 -0.101947226 -0.13898423 -0.039423786
-0.19141541 -0.017238704 -0.1920112 0.067413025 0.20056373 -0.14615041 -0.011389908 -0.04058994
-0.10426673 0.027201926 -0.0024929338 0.112106234 -0.15641591 0.012273963 -0.15614423 0.03206824
0.021676872 -0.07455167 -0.15824556 0.12855002 0.01384891 0.008380188 -0.1840883 0.112930864
-0.2039416 0.09831963 0.12132902 0.18682215 0.068546705 -0.04092944 0.044470146 0.04634074
-0.1691902 0.17858596 -0.006984494 -0.059942976 -0.055836994 -0.064477846 -0.15032402 0.14611089
-0.20888165 0.15994522 -0.0984155 0.14501654 -0.09006572 0.046348177 -0.09216316 0.18904404
-0.0509364 -0.13290942 -0.123061575 -0.10954983 0.0016466621 0.083244994 0.09318661 -0.22376415
-0.029749248 0.057111874 0.10424709 0.0045252615 0.06347947 0.10097266 0.17429948 0.047767673
-0.12051102 0.107658185 -0.1664167 0.0273005 -0.062078778 0.18473813 -0.16419934 0.11130761
0.17680328 0.18378963 -0.065413944 0.05811003 -0.115663 -0.009388775 0.0036189628 -0.078414395
0.04690358 0.19143553 -0.12622778 0.020659411 0.14642817 0.1563117 0.06251638 0.15633442
0.086699784 -0.0875978 -0.19034989 0.14742228 -0.07957955 0.14467801 -0.029849695 -0.2039415
0.12041583 -0.16343062 -0.069422476 -0.17036085 0.03281973 0.050355926 -0.10768475 -0.119802944
0.1712068 0.071236126 0.15586235 -0.08540254 0.0050201127 -0.12842235 -0.17562237 -0.10190157
-0.012851347 -0.031697635 -0.20580421 0.097658746 0.093174316 -0.0027600906 0.1551404 -0.12345338
0.02049785 -0.15749271 -0.17370069 0.20145465 0.0020840059 -0.011096324 -0.0065888707 -0.031075006
-0.24607354 -0.15382649 0.11293167 0.033825673 -0.07318368 -0.0631485 -0.07151239 0.004073242

output.bias f4 [10]
00000000: bf8b 933c e1be 223d e560 2cbd 0de3 bdbc
00000010: ccd8 973d 9e4c 9abc 04a8 8c3c cbf4 25bc
00000020: e3cb 363c e8d9 bdbd
0.018010972 0.039732818 -0.042084593 -0.023179555 0.074143976 -0.018835362 0.01716996 -0.010129164
0.011157009 -0.09270078
