Pretrained_cnn/main/saved_feature/feature_extractor_best_epoch_13.pth (torch, 29688 bytes, 6 tensors)

0.weight f4 [32, 3, 3, 3]
0.07357022 -0.015126818 0.09569619 0.13905016 -0.0885997 -0.2729492 0.04027159 -0.08123954
-0.24254656 0.11932638 0.15867004 0.11513398 0.11040595 -0.041807808 -0.21354279 -0.07071469
-0.17569694 -0.19533908 0.22665164 0.22444573 -0.027067527 0.13512407 0.1370359 -0.20380165
0.034379046 -0.069751956 -0.22146028 0.10884364 -0.13472581 -0.14427565 -0.08235351 0.040711038
0.07996941 0.12587872 0.02147547 -0.07967662 -0.09861877 0.0059450357 -0.07331 -0.027131887
-0.051979996 -0.18810257 0.08614343 -0.13299702 0.075639054 -0.15451902 -0.2595174 -0.22735342
-0.19654736 -0.06628363 -0.1333645 0.089298874 -0.14334507 -0.050126247 0.12815137 0.077627525
-0.058491413 -0.05780519 0.013945446 0.03453419 0.022784704 -0.099342 -0.030243427 0.08256952
-0.07315102 -0.10523398 0.024554968 -0.15087394 0.034660134 -0.09706223 0.079935014 -0.037886564
-0.1702222 -0.17426142 -0.11699189 0.0316167 -0.084333725 -0.027812675 -0.022441497 -0.106339335
0.0047916025 -0.12597087 -0.13936964 -0.15759549 -0.15259098 -0.091089144 -0.17207475 -0.17342155
0.003533865 0.0021239386 0.069432296 0.13995829 0.24148357 0.20164467 0.15729535 0.24881211
0.20121324 0.16895199 0.068529986 -0.021382563 -0.12691827 -0.051522184 -0.11420602 -0.0287822
-0.110698104 -0.13548034 -0.025138222 0.0071052853 0.106049776 0.140711 0.1570433 0.083307885
0.23822735 0.06620877 0.13224961 0.007890978 -0.017560832 0.17734869 -0.0129299015 0.21341063
-0.070516996 -0.059416223 0.015648073 -0.034384143 -0.12530665 -0.09918052 -0.1839458 -0.17637745
-0.09599769 -0.07921807 -0.082610674 -0.005377766 -0.020257402 -0.198475 -0.20536874 -0.27902806
-0.10923283 0.1348046 -0.07901696 -0.0012872209 0.11460885 -0.04019412 0.09229349 0.22492802
-0.20121554 -0.0052241106 -0.056471847 -0.07467066 -0.112215236 0.17772081 -0.01557446 0.12636374
0.20364654 -0.2180829 -0.07001307 -0.038617276 -0.27625397 -0.014786491 0.104088254 0.075400606
0.13015392 0.19503134 0.032473907 -0.1567188 -0.051491898 -0.036269505 -0.19653492 0.12064241
-0.0008363094 -0.0735652 -0.1119894 -0.029013261 -0.0022211415 0.10912857 -0.019930823 0.024149228
0.17714459 0.032382537 -0.11943589 0.13355407 0.09586719 0.03685714 -0.1246424 0.13737601
-0.04103911 0.120903164 -0.06335216 -0.033091664 -0.011928302 -0.13292857 0.08494152 0.023811955
-0.15887305 -0.1060105 -0.24033265 0.08284445 -0.084848806 0.07293741 0.15466614 0.18107046
-0.03378544 -0.004518836 -0.056726106 -0.16166322 -0.04966301 0.09804548 0.16335937 0.115604535
0.14620835 -0.009951197 0.11701527 -0.06593665 -0.2572721 0.1452893 0.01864866 -0.09265788
0.14328624 0.09463286 0.050771292 0.14339474 0.054695044 0.065061964 0.029734256 0.03292656
-0.03396227 0.015784152 0.080896184 -0.11182007 -0.10550855 -0.2200889 -0.13953066 -0.10972587
-0.014987255 0.061800312 0.003377475 -0.09228543 -0.10341888 -0.057556774 -0.17082247 0.0065008313
0.13132812 0.029221214 -0.13476717 -0.5324127 0.095466375 0.019687852 -0.58638036 -0.43898943
0.11231954 -0.69745463 -0.82752734 0.08801672 -0.48084438 0.05480199 -0.00637001 -0.4793242
00000000: fcab 963d 79d6 77bc 5dfc c33d 2a63 0e3e
00000010: c273 b5bd ffbf 8bbe d3f3 243d ea60 a6bd
00000020: 205e 78be 6461 f43d 667a 223e 5dcb eb3d
00000030: 841c e23d aa3e 2bbd f6aa 5abe ddd2 90bd
00000040: e6e9 33be f806 48be 5e17 683e 1ad5 653e
00000050: b8bc ddbc f75d 0a3e 2453 0c3e 61b1 50be
00000060: 0bd1 0c3d 1dda 8ebd 7cc6 62be 6ae9 de3d
00000070: 90f5 09be ffbc 13be f5a8 a8bd 9ec0 263d
00000080: 01c7 a33d 5ae6 003e 53ed af3c 7f2d a3bd
00000090: a3f8 c9bd 93ce c23b 8e23 96bd b143 debc
000000a0: fae8 54bd f69d 40be f76b b03d 5f30 08be
000000b0: a6e8 9a3d 3c3a 1ebe 77df 84be 56cf 68be
000000c0: b643 49be b6bf 87bd b490 08be 54e2 b63d
000000d0: 0dc9 12be 2e51 4dbd 1d3a 033e 2efb 9e3d
000000e0: b194 6fbd 23c5 6cbd 717b 643c b973 0d3d
000000f0: fda6 ba3c d273 cbbd 10c1 f7bc 351a a93d
00000100: 34d0 95bd ea84 d7bd 8027 c93c b37e 1abe
00000110: c9f7 0d3d 90c8 c6bd f8b4 a33d f12e 1bbd
00000120: ba4e 2ebe 9671 32be 7299 efbd 8380 013d
00000130: 29b7 acbd 68d7 e3bc 3bd7 b7bc 70c8 d9bd
00000140: e002 9d3b 82fe 00be eab6 0ebe b660 21be
00000150: cf40 1cbe f28c babd 5d34 30be 6b95 31be
00000160: 6b98 673b c731 0b3b 8532 8e3d 3a51 0f3e
00000170: 7847 773e f17b 4e3e 0812 213e 9ac8 7e3e
00000180: d80a 4e3e c001 2d3e 7359 8c3d 7c2a afbc
00000190: ddf6 01be ed08 53bd d9e4 e9bd a6c8 ebbc
000001a0: b0b5 e2bd 5cbb 0abe acee cdbc 74d3 e83b
000001b0: a030 d93d 8b16 103e f5cf 203e 539d aa3d
000001c0: dff1 733e 7798 873d 716c 073e 2949 013c
000001d0: bcdb 8fbc e59a 353e f0d7 53bc 5188 5a3e
000001e0: 376b 90bd 6d5e 73bd 6330 803c 63d6 0cbd
000001f0: 6350 00be 281f cbbd 4a5c 3cbe 4a9c 34be
00000200: 709a c4bd 153d a2bd c92f a9bd f937 b0bb
00000210: daf2 a5bc 083d 4bbe 2f4c 52be c4dc 8ebe
00000220: 76b5 dfbd 380a 0a3e a5d3 a1bd f7b7 a8ba
00000230: 0bb8 ea3d 97a2 24bd 5f04 bd3d 8853 663e
00000240: 720b 4ebe 042f abbb 064f 67bd eeec 98bd
00000250: 1ad1 e5bd 72fc 353e 052c 7fbc 7f65 013e
00000260: b888 503e 2051 5fbe 0363 8fbd 262d 1ebd
00000270: 2971 8dbe 0a43 72bc 392c d53d a26b 9a3d
00000280: 1247 053e 4cb6 473e 5c03 053d e57a 20be
00000290: 2be9 52bd 558f 14bd 7340 49be 5e13 f73d
000002a0: c63b 5bba 5aa9 96bd b35a e5bd 38ad edbc
000002b0: 9290 11bb cd7e df3d f745 a3bc 9ad4 c53c
000002c0: 6465 353e 8da3 043d ce9a f4bd 66c2 083e
000002d0: 0456 c43d 83f7 163d 8444 ffbd 4cac 0c3e
000002e0: a018 28bd 149c f73d c7be 81bd 208b 07bd
000002f0: ed6e 43bc 6d1e 08be d2f5 ad3d 4a11 c33c
00000300: 9eaf 22be 081c d9bd c319 76be 5aaa a93d
00000310: 36c5 adbd 3560 953d cd60 1e3e 896a 393e
00000320: 9a62 0abd be12 94bb a259 68bd 0b8b 25be
00000330: 716b 4bbd 12cc c83d ae47 273e 12c2 ec3d
00000340: a4b7 153e 580a 23bc b4a5 ef3d cb09 87bd
00000350: 2bb9 83be b8c6 143e 13c5 983c 6ac3 bdbd
00000360: a1b9 123e dfce c13d 8ff5 4f3d 12d6 123e
00000370: e907 603d 353f 853d 4195 f33c 00de 063d
00000380: 051c 0bbd c44d 813c e6ac a53d ec01 e5bd
00000390: de14 d8bd fc5e 61be 20e1 0ebe f5b7 e0bd
000003a0: 1b8d 75bc 5322 7d3d a158 5d3b 2500 bdbd
000003b0: 47cd d3bd a7c0 6bbd 16ec 2ebe ed04 d53b
000003c0: e17a 063e 5461 ef3c 6800 0abe 334c 08bf
000003d0: e083 c33d 6b48 a13c 061d 16bf 39c3 e0be
000003e0: c907 e63d 638c 32bf d5d8 53bf 1c42 b43d
000003f0: 3c31 f6be 0d78 603d 84bb d0bb fb69 f5be

0.bias f4 [32]
-0.0039018814 -0.058204707 -0.010021992 -0.062421806 -0.01450421 -0.06198052 -0.005605108 -0.011972974
0.039389253 0.13865359 0.02470166 -0.14915824 -0.15830626 -0.122562855 -0.004208343 -0.0845661
0.22515957 -0.026168587 -0.0658493 -0.1436509 -0.011137376 -0.24570532 -0.11182716 -0.020221246
0.06312871 -0.009555926 -0.068332784 0.020225126 -0.11393618 -0.05188212 -0.0019866088 -0.117767796
00000000: b5b6 7fbb 0f68 6ebd 4833 24bc 02ae 7fbd
00000010: 11a3 6dbc 49df 7dbd 0eab b7bb 4b2a 44bc
00000020: a056 213d 35fb 0d3e 235b ca3c f0bc 18be
00000030: 091b 22be 3c02 fbbd 24e6 89bb fe30 adbd
00000040: 3b90 663e 815f d6bc ffdb 86bd 3919 13be
00000050: 8a79 36bc 2d9a 7bbe a305 e5bd 07a7 a5bc
00000060: a049 813d 7590 1cbc 0ff2 8bbd 2aaf a53c
00000070: 5f57 e9bd 5982 54bd c431 02bb 3e30 f1bd

3.weight f4 [16, 32, 3, 3]
-0.04297381 -0.037810806 0.09010342 -0.17785032 -0.080600716 -0.15952036 -0.033943776 0.025283141
-0.36367562 0.01820967 0.054679498 -0.15653172 -0.11570075 -0.14110382 0.01933966 -0.031170867
-0.06985658 -0.05432172 -0.073794454 0.06690601 -0.025007538 -0.04384618 -0.074053526 -0.034617245
-0.060476642 -0.06306621 0.028538212 0.43970096 0.24423347 -0.066036604 0.3374226 0.07385583
-0.20234685 0.21820717 -0.023647252 -0.41047442 -0.49559718 -0.3115475 0.109089695 -0.32818654
-0.011170938 0.2974337 -0.04294444 0.30686966 0.47261405 -0.04609835 -0.058027845 0.008663842
-0.25459108 -0.33912334 -0.094497696 -0.23658474 -0.18838912 -0.24179366 0.21360233 0.09489241
-0.16764146 0.13253546 -0.10273383 -0.100641005 0.15684818 -0.005873574 -0.22164263 0.24498786
0.12694843 0.0601727 0.1559049 -0.06495801 -0.18397602 0.07813767 -0.036251847 -0.22157331
-0.11796176 -0.15990303 0.06438144 -0.28446713 -0.10073039 -0.0065993457 -0.19643173 0.14318897
0.26455563 0.069089055 -0.50193304 -0.020010918 -0.10439581 -0.11962949 -0.04591634 0.055165175
-0.013991852 0.03401454 0.25338927 0.0684828 0.112842664 0.18061689 -0.057010535 -0.06365354
0.17841575 -0.09835583 -0.19387324 -0.22493151 -0.077163786 0.16420138 0.11645052 0.08943177
-0.05906167 0.24273069 0.05225241 0.17536086 -0.2234999 -0.040472485 -0.07328235 0.034299713
0.02610171 0.119221896 0.028425949 -0.046753503 0.05996965 0.10746417 0.0034480237 -0.08076142
0.010743022 0.007387114 0.089943625 0.076900505 0.022502758 0.040665448 0.2679609 0.09928586
-0.043731026 0.29990613 0.048302427 -0.17538296 0.113383435 0.07733946 -0.31337073 0.09758452
-0.095422566 -0.07149012 -0.018008757 -0.0029597336 -0.24627382 0.1555008 0.0022351684 -0.306985
-0.31153435 -0.17498669 0.008438588 -0.012899342 0.064249024 0.07862121 0.13133593 0.01835698
0.023467802 -0.4317019 -0.103610456 0.0046042344 -0.18222621 -0.004279905 0.2658055 -0.017849686
0.22185075 0.33925512 0.06427962 0.031414054 -0.041738376 0.09098068 -0.04600727 -0.0952601
-0.11402099 -0.14177442 -0.31314835 -0.07848979 -0.086105645 -0.11078564 -0.025907015 0.0643931
-0.03617929 -0.012613417 0.0460653 0.0008091128 -0.45962337 -0.4881063 -0.3524095 -0.24063736
-0.10392546 -0.11645102 0.0027745469 0.06836753 0.30794668 -0.087130696 -0.07504374 0.046599165
0.1260507 -0.07220059 0.023881674 0.13379599 -0.03769354 0.01426579 -0.14303325 0.01267617
-0.057088032 0.029284187 -0.021030845 -0.30495116 -0.04032649 -0.14086048 -0.19941802 0.3298584
0.1382863 -0.0547121 0.2284573 0.0050423406 -0.09337363 0.017243138 -0.0991926 -0.177495
0.007232898 -0.032661267 -0.116019264 -0.08951643 -0.021444669 -0.0865904 -0.022466242 -0.1023805
0.010198288 -0.36820108 0.015751291 0.31432205 -0.1893511 0.20400803 0.5035794 -0.09082456
0.5483107 0.54105574 -0.28959402 0.14427668 -0.22348526 -0.05748805 0.15852043 -0.08687979
-0.079679035 -0.057330005 -0.12948956 -0.0050504976 -0.14782336 -0.1047845 -0.05433449 0.04980495
-0.12962636 0.05403687 0.10170346 -0.011687011 -0.17808439 -0.000982897 0.20742932 -0.11807683
00000000: 4e05 30bd 81df 1abd 2488 b83d 651e 36be
00000010: fd11 a5bd 4e59 23be a108 0bbd 971e cf3c
00000020: b133 babe 722c 953c 9cf7 5f3d da49 20be
00000030: 84f4 ecbd 857d 10be 356e 9e3c 0c5a ffbc
00000040: f710 8fbd 7480 5ebd 8c21 97bd 0506 893d
00000050: 9cdc ccbc 0d98 33bd 60a9 97bd d0ca 0dbd
00000060: 5bb6 77bd db28 81bd f8c8 e93c 7c20 e13e
00000070: 5718 7a3e 333e 87bd a8c2 ac3e ba41 973d
00000080: 0334 4fbe b371 5f3e e2b7 c1bc b429 d2be
00000090: eabe fdbe 2783 9fbe 6b6a df3d 1108 a8be
000000a0: 4f06 37bc 3b49 983e 82e6 2fbd 051e 9d3e
000000b0: 78fa f13e a0d1 3cbd 9bae 6dbd caf2 0d3c
000000c0: c359 82be 93a1 adbe 0288 c1bd 4543 72be
000000d0: 14e9 40be c298 77be 92ba 5a3e f456 c23d
000000e0: 34aa 2bbe 60b7 073e 1d66 d2bd df1c cebd
000000f0: cf9c 203e 1c77 c0bb 49f6 62be 19de 7a3e
00000100: c5fe 013e a677 763d 89a5 1f3e b508 85bd
00000110: 3664 3cbe a506 a03d d17c 14bd 1de4 62be
00000120: ef95 f1bd 9fbd 23be 6bda 833d ada5 91be
00000130: bc4b cebd 533f d8bb 6625 49be 21a0 123e
00000140: d673 873e 907e 8d3d af7e 00bf f0ed a3bc
00000150: 78cd d5bd 4e00 f5bd c612 3cbd e1f4 613d
00000160: 153e 65bc d552 0b3d 3dbc 813e b640 8c3d
00000170: 0e1a e73d a2f3 383e e183 69bd ca5c 82bd
00000180: 9eb2 363e c86e c9bd b586 46be 7254 66be
00000190: 0c08 9ebd 6824 283e 9c7d ee3d 0128 b73d
000001a0: a6ea 71bd 658e 783e a006 563d cc91 333e
000001b0: 28dd 64be 7ac6 25bd 0f15 96bd db7d 0c3d
000001c0: 41d3 d53c 9c2a f43d 89dd e83c 9a80 3fbd
000001d0: bca2 753d 2d16 dc3d 3df8 613b 3e66 a5bd
000001e0: 8003 303c 9b0f f23b 5d34 b83d 037e 9d3d
000001f0: b457 b83c d090 263d 2c32 893e 6356 cb3d
00000200: 4e1f 33bd 4c8d 993e c4d8 453d 9797 33be
00000210: 9335 e83d 2764 9e3d 2172 a0be 65da c73d
00000220: e86c c3bd 6969 92bd 1a87 93bc 17f8 41bb
00000230: 342f 7cbe 9a3b 1f3e e77b 123b 232d 9dbe
00000240: 6e81 9fbe b62f 33be 0142 0a3c c357 53bc
00000250: fe94 833d 2804 a13d ed7c 063e 6161 963c
00000260: 8c3f c03c 0808 ddbe b831 d4bd 1edf 963b
00000270: 8299 3abe 723e 8cbb a917 883e 8139 92bc
00000280: d82c 633e d9b2 ad3e 09a5 833d 06ac 003d
00000290: dcf5 2abd 1454 ba3d 1f72 3cbd ba17 c3bd
000002a0: d683 e9bd 502d 11be fb54 a0be 41bf a0bd
000002b0: 2858 b0bd 95e3 e2bd f33a d4bc 88e0 833d
000002c0: bc30 14bd 81a8 4ebc f8ae 3c3d a41a 543a
000002d0: c153 ebbe 12e9 f9be 056f b4be a469 76be
000002e0: dfd6 d4bd df7d eebd 2cd5 353b 4704 8c3d
000002f0: 30ab 9d3e 9471 b2bd 88b0 99bd c4de 3e3d
00000300: 6f13 013e e7dd 93bd 80a3 c33c d101 093e
00000310: 8b64 1abd 0fbb 693c 4f77 12be b6af 4f3c
00000320: 24d5 69bd 64e5 ef3c e148 acbc 8f22 9cbe
00000330: 642d 25bd bb3d 10be 3d34 4cbe 33e3 a83e
00000340: ec9a 0d3e cc19 60bd b6f0 693e 383a a53b
00000350: ac3a bfbd 7b41 8d3c 7d25 cbbd 40c1 35be
00000360: f201 ed3b d2c7 05bd 829b edbd 6454 b7bd
00000370: bbac afbc 4f56 b1bd 200b b8bc deac d1bd
00000380: b816 273c da84 bcbe da08 813c d2ee a03e
00000390: 41e5 41be 7be7 503e 94ea 003f 3a02 babd
000003a0: 175e 0c3f a182 0a3f ab45 94be 44bd 133e
000003b0: 52d9 64be 9778 6bbd 2e53 223e 08ee b1bd
000003c0: c32e a3bd ded2 6abd e998 04be a57e a5bb
000003d0: 025f 17be 4299 d6bd d88d 5ebd 4600 4c3d
000003e0: c6bc 04be c455 5d3d e749 d03d e17a 3fbc
000003f0: c15b 36be 8dd4 80ba 5a68 543e 44d2 f1bd

3.bias f4 [16]
-0.10536893 0.10670316 -0.059720907 0.16361892 0.085642025 -0.07333403 0.06242594 0.027462207
-0.019951737 -0.117885046 -0.006913032 -0.088798806 0.0782111 -0.12332512 0.038420316 0.009478685
00000000: aacb d7bd 3087 da3d e99d 74bd b88b 273e
00000010: 1665 af3d 2730 96bd 58b2 7f3d 6cf8 e03c
00000020: d371 a3bc b76d f1bd b786 e2bb 26dc b5bd
00000030: 242d a03d e191 fcbd 9f5e 1d3d 7d4c 1b3c

6.weight f4 [8, 16, 3, 3]
-0.009194366 0.14432552 -0.0067188814 0.11781464 0.05515615 -0.002698532 -0.0117210075 -0.12150866
0.039676093 0.11516455 -0.00025930876 0.009368578 0.056287367 0.22571276 0.124814376 0.063632
0.22875105 0.197357 -0.036696646 0.0003659395 -0.017664712 0.064494886 -0.16701657 0.12966503
0.10328737 0.033212747 -0.040073175 -0.07153953 -0.1854428 0.051680073 -0.10880136 0.059803452
0.13763961 0.033674404 0.097777195 0.13427949 -0.11084057 0.023922034 0.1655713 -0.1266525
0.08776934 0.13512883 -0.12778208 -0.060132485 0.15359855 -0.12662141 0.014126007 -0.09112038
-0.1562182 -0.20913409 -0.19480455 0.018546846 -0.05422478 -0.2989376 0.13292176 -0.079651244
0.24555929 -0.17445542 -0.09460741 0.08392885 -0.096273184 -0.08697811 0.09537186 -0.14215247
-0.018132687 -0.135713 0.07478085 0.0033665325 -0.051101364 -0.19404642 -0.01487427 -0.108035766
-0.11917951 -0.036510922 -0.13841546 -0.017566955 -0.09331887 0.12772046 -0.04510848 0.08749069
0.06577723 -0.02111673 0.11631129 -0.21441951 -0.07440267 -0.13974325 -0.18006669 -0.19281073
-0.19940841 0.03025983 0.019159796 -0.099142395 -0.080162585 0.054636303 0.029277386 -0.088703
0.03395267 -0.22515965 0.03961944 -0.24788167 -0.18494868 -0.024487427 -0.19911645 -0.16177519
-0.19494796 -0.21962933 -0.24584627 0.17542435 0.016078522 0.16415167 0.17641082 -0.12763241
0.038603283 0.0789521 -0.12369692 0.15998493 -0.052627258 0.080130346 -0.117514156 0.06555136
-0.11528428 0.12595992 -0.0033552037 -0.005719573 -0.19520786 0.07671393 -0.021898817 0.1548512
-0.09309449 0.006981027 -0.08959754 0.1385313 -0.07318917 0.043642018 0.121873535 -0.03586084
0.26015413 0.1016923 0.20434274 0.28207657 -0.041379135 0.11454138 -0.0498486 -0.043907065
-0.10652541 0.057857774 0.25738183 -0.16157612 -0.036770962 0.10126252 -0.20941882 0.14411613
0.02265061 0.23657867 0.06317907 -0.16319756 -0.002161933 -0.11484218 0.045471072 0.07675867
-0.14206988 0.114585005 0.026181556 0.027552268 0.034239847 -0.16864626 -0.15052769 -0.0018496928
0.051470242 0.11772738 0.16746625 -0.098849505 -0.035230506 0.038888566 -0.21226484 -0.046344902
0.20310773 0.04089122 -0.118245706 0.14113584 -0.07391869 -0.08103225 0.12796545 -0.11812626
-0.054551985 0.11820011 0.05729686 0.07497609 -0.047114283 -0.047774676 -0.150998 -0.060385138
-0.03339662 0.075829834 0.13638502 -0.15067887 0.0307925 0.24286929 -0.029559955 -0.05811151
0.030292178 0.0043232976 -0.081621125 0.11109994 -0.0906176 0.13659617 -0.079897925 -0.19455141
-0.03858012 0.1421564 -0.1279223 -0.10554053 0.051313594 -0.10575158 0.063950785 0.21433277
0.012015786 0.11089781 -0.051875863 0.06310807 0.04649546 0.04252359 0.11637642 -0.097630695
-0.13105431 0.019907352 -0.048478637 0.35225564 -0.07563031 0.149527 0.222675 0.09720303
-0.004733231 0.2690455 -0.119188234 0.010272269 0.1325007 0.108107075 0.089511946 0.009446721
-0.10155018 0.07067779 -0.061289992 -0.016666787 0.13016441 0.15448518 0.15252943 0.14686303
-0.0794932 0.12286822 -0.078224584 0.1231484 -0.29179054 0.14518015 0.1381067 -0.01072542
00000000: f7a3 16bc 12ca 133e 102a dcbb cd48 f13d
00000010: 6aeb 613d dbd9 30bb 7809 40bc 88d9 f8bd
00000020: 6683 223d 64db eb3d d5f3 87b9 aa7e 193c
00000030: 958d 663d 3f21 673e ae9e ff3d 7e51 823d
00000040: b73d 6a3e f417 4a3e 394f 16bd 91db bf39
00000050: 96b5 90bc e515 843d 6406 2bbe e9c6 043e
00000060: 5488 d33d 170a 083d c523 24bd 5183 92bd
00000070: b8e4 3dbe 7cae 533d 3fd3 debd 77f4 743d
00000080: 66f1 0c3e 2cee 093d 693f c83d 9080 093e
00000090: 6100 e3bd 24f8 c33c 868b 293e 31b1 01be
000000a0: 69c0 b33d 365f 0a3e 4ed9 02be 7b4d 76bd
000000b0: f048 1d3e 0ba9 01be c570 673c 529d babd
000000c0: aaf7 1fbe 3f27 56be d87a 47be 8eef 973c
000000d0: ce1a 5ebd 590e 99be a41c 083e 3120 a3bd
000000e0: e573 7b3e 71a4 32be 88c1 c1bd e4e2 ab3d
000000f0: e02a c5bd 9421 b2bd 5252 c33d 6b90 11be
00000100: 008b 94bc 59f8 0abe b426 993d 0ba1 5c3b
00000110: aa4f 51bd 1bb4 46be 36b3 73bc db41 ddbd
00000120: 6314 f4bd 7a8c 15bd c8bc 0dbe 93e8 8fbc
00000130: f71d bfbd 27c9 023e abc3 38bd 522e b33d
00000140: 36b6 863d fefc acbc 9d34 ee3d ca90 5bbe
00000150: 6d60 98bd db18 0fbe 6763 38be 2d70 45be
00000160: b831 4cbe 77e3 f73c 01f5 9c3c 2b0b cbbd
00000170: 482c a4bd 51ca 5f3d 21d7 ef3c eba9 b5bd
00000180: f411 0b3d 4090 66be fe47 223d b1d4 7dbe
00000190: 3063 3dbe db99 c8bc 2fe5 4bbe 65a8 25be
000001a0: 70a0 47be 83e6 60be 20bf 7bbe 71a2 333e
000001b0: 1bb7 833c 6017 283e 0aa5 343e 12b2 02be
000001c0: 7a1e 1e3d a3b1 a13d d054 fdbd 17d3 233e
000001d0: ae8f 57bd 611b a43d 43ab f0bd cb3f 863d
000001e0: 2a1a ecbd a3fb 003e fae2 5bbb 416b bbbb
000001f0: 92e4 47be 311c 9d3d 2665 b3bc 5091 1e3e
00000200: 53a8 bebd 19c1 e43b ea7e b7bd 26db 0d3e
00000210: 34e4 95bd f9c1 323d d598 f93d d1e2 12bd
00000220: ec32 853e 0d44 d03d 393f 513e 576c 903e
00000230: 2b7d 29bd ac94 ea3d 0c2e 4cbd e5d7 33bd
00000240: ff29 dabd 46fc 6c3d 8dc7 833e 3674 25be
00000250: 269d 16bd b962 cf3d e371 56be 2e93 133e
00000260: c68d b93c ae41 723e 0764 813d 431d 27be
00000270: 38af 0dbb 6032 ebbd e03f 3a3d a633 9d3d
00000280: c47a 11be 8bab ea3d b47a d63c 4bb5 e13c
00000290: 153f 0c3d 9bb1 2cbe ee23 1abe 6471 f2ba
000002a0: 76d2 523d 0d1b f13d 467c 2b3e 9c71 cabd
000002b0: dd4d 10bd 9e49 1f3d f45b 59be 27d4 3dbd
000002c0: 79fb 4f3e 8d7d 273d ce2a f2bd ea85 103e
000002d0: af62 97bd 3cf4 a5bd 6009 033e 2eec f1bd
000002e0: e771 5fbd e612 f23d 1db0 6a3d 108d 993d
000002f0: e8fa 40bd 61af 43bd 389f 1abe 6856 77bd
00000300: e5ca 08bd ac4c 9b3d 84a8 0b3e 904b 1abe
00000310: 8e40 fc3c bab2 783e b827 f2bc 5606 6ebd
00000320: 4d27 f83c 73aa 8d3b fa28 a7bd 5e88 e33d
00000330: b895 b9bd dedf 0b3e 86a1 a3bd 7c38 47be
00000340: 3006 1ebd 7391 113e 10fe 02be a225 d8bd
00000350: 342e 523d 4994 d8bd a1f8 823d 0d7a 5b3e
00000360: dcdd 443c 641e e33d c97b 54bd ce3e 813d
00000370: 0672 3e3d 372d 2e3d c356 ee3d 9af2 c7bd
00000380: 1a33 06be be14 a33c 8991 46bd da5a b43e
00000390: 10e4 9abd 9b1d 193e ea04 643e 6212 c73d
000003a0: 3819 9bbb 55c0 893e f618 f4bd 054d 283c
000003b0: 43ae 073e 3e67 dd3d 0a52 b73d 6bc6 1a3c
000003c0: 8af9 cfbd 84bf 903d 370b 7bbd c988 88bc
000003d0: d249 053e 5d31 1e3e ad30 1c3e 4363 163e
000003e0: 55cd a2bd 55a2 fb3d 3634 a0bd 3a35 fc3d
000003f0: 9265 95be 1baa 143e d86b 0d3e acb9 2fbc

6.bias f4 [8]
-0.043470137 -0.07704553 0.0155217685 0.033632103 0.049953617 -0.16008033 -0.006271274 -0.05994049
00000000: be0d 32bd 0cca 9dbd 044f 7e3c d1c1 093d
00000010: 2a9c 4c3d 19ec 23be 427f cdbb 2984 75bd
