Pretrained_cnn/main/saved_feature/feature_extractor_best_epoch_12.pth (torch, 29688 bytes, 6 tensors)

0.weight f4 [32, 3, 3, 3]
0	0x3d8874dd	0.06662915
1	0xbcb96606	-0.022631656
2	0x3da417f3	0.080123805
3	0x3e097f76	0.13427529
4	0xbdba82e3	-0.09106996
5	0xbe8d528b	-0.27602038
6	0x3d2c41a0	0.042054772
7	0xbd9adee7	-0.075620465
8	0xbe6808ec	-0.22659653
9	0x3df1721e	0.11789344
10	0x3e1f6fab	0.15569942
11	0x3dd5b286	0.10434441
12	0x3de51761	0.111861
13	0xbd2071f8	-0.03917119
14	0xbe591ab9	-0.212016
15	0xbd7fb4f7	-0.06242844
16	0xbe290a9d	-0.16507955
17	0xbe367de4	-0.17821461
18	0x3e5eae20	0.21746111
19	0x3e5c330f	0.21503852
20	0xbd38401e	-0.044983022
21	0x3e026c48	0.12736619
22	0x3e0777d7	0.13229309
23	0xbe5662eb	-0.20936172
24	0x3d07aabb	0.033121806
25	0xbd895d7d	-0.067072846
26	0xbe56330b	-0.20917909
27	0x3df668d6	0.120317146
28	0xbe00fb44	-0.1259585
29	0xbe0f0974	-0.1396845
30	0xbd8c2158	-0.06842297
31	0x3d43fc13	0.04784782
32	0x3da465f3	0.08027258
33	0x3dfe78fb	0.12425419
34	0x3cd1ca3f	0.025609134
35	0xbd9eba46	-0.077503726
36	0xbdb82061	-0.08990551
37	0x3c5d451b	0.013505246
38	0xbd8bf98d	-0.068347074
39	0xbc7235ec	-0.014783364
40	0xbd36827d	-0.044558037
41	0xbe3f3e37	-0.18676077
42	0x3dad6e3b	0.084682904
43	0xbe03fd6e	-0.12889645
44	0x3d9f77c6	0.07786517
45	0xbe12a414	-0.14320403
46	0xbe81faa4	-0.25386536
47	0xbe6a5a88	-0.22886097
48	0xbe3b15ce	-0.18270037
49	0xbd743e85	-0.059629936
50	0xbe07c22e	-0.13257667
51	0x3db3886f	0.08766257
52	0xbe0c488e	-0.13699552
53	0xbd369c5e	-0.044582717
54	0x3e0f021f	0.13965653
55	0x3dbce7cd	0.092239
56	0xbd2f4d85	-0.042798538
57	0xbd353196	-0.044236742
58	0x3cea3628	0.028590277
59	0x3d43247c	0.047642216
60	0x3d0ef12b	0.034897964
61	0xbdb0e758	-0.08637875
62	0xbc99a831	-0.018756958
63	0x3dba82fe	0.09107016
64	0xbd778e66	-0.060438536
65	0xbdbafd40	-0.09130335
66	0x3d1459a9	0.03621832
67	0xbe0d6443	-0.13807778
68	0x3d3ca06a	0.04605142
69	0xbdb19195	-0.08670346
70	0x3dbb9c45	0.091606654
71	0xbce44a72	-0.02786753
72	0xbe2d32be	-0.16913888
73	0xbe2f5339	-0.1712159
74	0xbde9139a	-0.11380692
75	0x3d133e87	0.035948303
76	0xbda68948	-0.08131653
77	0xbcd76f92	-0.026298318
78	0xbca7c4ef	-0.020479647
79	0xbdd3f80f	-0.10350048
80	0x3ba89863	0.005145119
81	0xbdf2b89e	-0.11851619
82	0xbe08d6a0	-0.13363123
83	0xbe1a123b	-0.15046017
84	0xbe136d7f	-0.14397238
85	0xbda8ca44	-0.08241704
86	0xbe2cc342	-0.1687136
87	0xbe2e8862	-0.17044213
88	0x3c43e748	0.011956997
89	0x3bc26cbf	0.0059333737
90	0x3d8a2091	0.06744493
91	0x3e0bb594	0.13643485
92	0x3e767934	0.24069673
93	0x3e4c6111	0.19958903
94	0x3e1f5708	0.15560544
95	0x3e7a4d5e	0.24443576
96	0x3e47e834	0.19522172
97	0x3e2bcdfd	0.16777797
98	0x3d85a5b2	0.065257445
99	0xbca53a3b	-0.020169368
100	0xbe01dfb2	-0.12682989
101	0xbd44d27b	-0.048052292
102	0xbde393d6	-0.11112182
103	0xbcc7a641	-0.024371268
104	0xbde3b9c2	-0.11119415
105	0xbe0d800e	-0.1381838
106	0xbca4ffca	-0.020141501
107	0x3c045c94	0.008078713
108	0x3dd9bb1f	0.10631394
109	0x3e136c8e	0.14396879
110	0x3e1feaea	0.15616956
111	0x3db40c18	0.08791369
112	0x3e70c498	0.23512495
113	0x3d85dd60	0.065363646
114	0x3e08f6f8	0.13375461
115	0x3c423f81	0.011855961
116	0xbc2efd79	-0.01068055
117	0x3e32ca36	0.1745995
118	0xbc408993	-0.01175155
119	0x3e5663e1	0.20936538
120	0xbd86ba29	-0.06578476
121	0xbd776851	-0.06040222
122	0x3c79b571	0.015241013
123	0xbcfe1521	-0.031015934
124	0xbdf0df06	-0.11761288
125	0xbdb98b2d	-0.09059749
126	0xbe364796	-0.17800745
127	0xbe2a7351	-0.16645552
128	0xbdbc75f8	-0.09202188
129	0xbd88cd86	-0.066798255
130	0xbda1e420	-0.079048395
131	0xb993a05b	-0.000281575
132	0xbc3c2955	-0.011484464
133	0xbe3f05bd	-0.18654533
134	0xbe439889	-0.19101156
135	0xbe8a1318	-0.26967692
136	0xbdcdd9a5	-0.10051278
137	0x3e0a4fc3	0.13506989
138	0xbd9f94e5	-0.07792071
139	0xbad63cf0	-0.0016345065
140	0x3ddef9bc	0.10887477
141	0xbd5a818c	-0.0533462
142	0x3da2578e	0.07926856
143	0x3e5f1e6f	0.21788953
144	0xbe45c8b0	-0.19314837
145	0x3ac013a6	0.0014654293
146	0xbd6d86d4	-0.05798991
147	0xbd93ddad	-0.07220016
148	0xbde5d420	-0.112221
149	0x3e2ffc8c	0.17186183
150	0xbcc880fa	-0.024475563
151	0x3ded90c8	0.115998805
152	0x3e498fe5	0.19683798
153	0xbe51241c	-0.20423931
154	0xbd6dd497	-0.05806407
155	0xbd188599	-0.037236784
156	0xbe8b48a5	-0.2720386
157	0xbc604479	-0.0136882
158	0x3dc8fa76	0.09813397
159	0x3d80b8ba	0.06285234
160	0x3dee5343	0.11636975
161	0x3e3f4f25	0.18682535
162	0x3d00298e	0.03128963
163	0xbe1eba2b	-0.15500705
164	0xbd536935	-0.051614005
165	0xbd196bf7	-0.03745648
166	0xbe43e587	-0.19130526
167	0x3df69457	0.12040012
168	0x3a626746	0.0008636605
169	0xbd87988f	-0.06620895
170	0xbde256c7	-0.11051708
171	0xbcf6ed96	-0.030142587
172	0xbb010de2	-0.0019692113
173	0x3ddc85fd	0.10767744
174	0xbcb37d3d	-0.021910304
175	0x3cd7f6ab	0.026362738
176	0x3e327f17	0.17431293
177	0x3d055c3e	0.032558672
178	0xbdecca3b	-0.1156201
179	0x3e070ae1	0.13187744
180	0x3dbf3ee5	0.09338168
181	0x3d1ab341	0.037768606
182	0xbe00059e	-0.12502143
183	0x3e0a85b5	0.13527568
184	0xbd124a31	-0.035715286
185	0x3df72a5c	0.12068626
186	0xbd7cdfdf	-0.061736938
187	0xbcc97fad	-0.024597013
188	0xbc13fd10	-0.009032503
189	0xbe065a43	-0.1312037
190	0x3dacdfea	0.08441146
191	0x3d01bc97	0.031673994
192	0xbe211475	-0.1573046
193	0xbdce28a5	-0.10066346
194	0xbe688397	-0.22706448
195	0x3dae281e	0.085037455
196	0xbda687e9	-0.081313916
197	0x3d9fd938	0.07805103
198	0x3e1cd32d	0.15314932
199	0x3e35fa5d	0.17771287
200	0xbcf5fae2	-0.030026857
201	0xbbfe1798	-0.0077542774
202	0xbd6a9500	-0.057271004
203	0xbe1f4ffb	-0.15557854
204	0xbd59d3e9	-0.05318061
205	0x3dc2e6f8	0.0951671
206	0x3e264a35	0.16239245
207	0x3debfc2d	0.11522708
208	0x3e13d2c1	0.14435865
209	0xba9d87c0	-0.0012018606
210	0x3ded9b8d	0.116019346
211	0xbd7cdc18	-0.061733335
212	0xbe78b9cb	-0.24289624
213	0x3e145af5	0.14487822
214	0x3caa7265	0.0208065
215	0xbdb2fa5c	-0.087391585
216	0x3e13fd2b	0.14452045
217	0x3dbc936d	0.09207807
218	0x3d52ff9b	0.051513296
219	0x3e1582ea	0.14600721
220	0x3d730faf	0.05934113
221	0x3d838728	0.064222634
222	0x3cf6ad5c	0.030111961
223	0x3d0b2ee7	0.033980276
224	0xbd18103e	-0.037124865
225	0x3ca47074	0.020073153
226	0x3da8a936	0.082353994
227	0xbddc8bda	-0.10768862
228	0xbdcb6c9e	-0.099328265
229	0xbe5868fe	-0.21133801
230	0xbe0b920f	-0.13629936
231	0xbdd8b373	-0.10581102
232	0xbc20c111	-0.009811656
233	0x3d80ac8c	0.06282911
234	0x3b7e29a1	0.0038782137
235	0xbdc685e9	-0.0969351
236	0xbdd715eb	-0.105022274
237	0xbd647a91	-0.05578095
238	0xbe2b4b52	-0.16727951
239	0x3b47af35	0.0030469422
240	0x3e05f083	0.13080029
241	0x3ceea58e	0.029131677
242	0xbe0f920b	-0.14020555
243	0xbf0073d1	-0.5017672
244	0x3dbe8eed	0.09304605
245	0x3c49955a	0.012303675
246	0xbf103e1c	-0.5634477
247	0xbed8cec8	-0.42345262
248	0x3dd85f97	0.10565107
249	0xbf2ead7c	-0.68233466
250	0xbf4da1b3	-0.8032486
251	0x3db31dd9	0.08745927
252	0xbeecaa61	-0.4622374
253	0x3d583911	0.052788798
254	0xbc5190a1	-0.01279083
255	0xbef3a758	-0.4758861

0.bias f4 [32]
0	0x3b7e3d05	0.0038793695
1	0xbd626d67	-0.055280115
2	0xbbe37afd	-0.0069421516
3	0xbd614168	-0.054994017
4	0xbc655bbd	-0.013998923
5	0xbd78c8f7	-0.06073853
6	0xbbb727c6	-0.005589458
7	0xbc1bce40	-0.009509623
8	0x3d0c3f80	0.034240246
9	0x3e0caf9a	0.13738862
10	0x3d093717	0.033499803
11	0xbe05515d	-0.13019319
12	0xbe18be59	-0.14916362
13	0xbde6799e	-0.112536654
14	0x3acaff6f	0.0015487502
15	0xbd8cb70a	-0.068708494
16	0x3e6254bb	0.22102635
17	0xbce97c48	-0.028501645
18	0xbd6ecc2b	-0.05830018
19	0xbe1ae4ad	-0.15126295
20	0xbca26bf6	-0.01982687
21	0xbe7014d2	-0.23445442
22	0xbdd739fe	-0.10509108
23	0xbca6c69d	-0.020358378
24	0x3d6e42aa	0.058169045
25	0xbb9d4453	-0.0047994046
26	0xbd76928e	-0.06019836
27	0x3ca39cc6	0.019972216
28	0xbdeeb3af	-0.11655366
29	0xbd8656fd	-0.065595604
30	0x3b13dbdc	0.0022561466
31	0xbddc24a0	-0.10749173

3.weight f4 [16, 32, 3, 3]
0	0xbd3c3468	-0.045948416
1	0xbd47f64d	-0.048818875
2	0x3da41ee1	0.08013702
3	0xbe25fde5	-0.16210134
4	0xbdac7729	-0.084211655
5	0xbe40b96b	-0.18820731
6	0xbd45f80c	-0.04833226
7	0x3c51deb9	0.012809449
8	0xbeb53bce	-0.3539719
9	0x3d56adb1	0.05241174
10	0x3d920d43	0.07131436
11	0xbe0d6025	-0.13806207
12	0xbdb568b8	-0.08857864
13	0xbddb0f9a	-0.10696335
14	0xbb12c506	-0.0022395267
15	0xbccb34d7	-0.02480547
16	0xbd150696	-0.036383234
17	0xbd537abc	-0.05163072
18	0xbd9f88f9	-0.07789797
19	0x3d893be9	0.0670088
20	0xbca3b2da	-0.019982744
21	0xbd4b6155	-0.04965337
22	0xbd9d9f13	-0.076963566
23	0xbd0f6dc4	-0.03501679
24	0xbd809e82	-0.06280233
25	0xbd84c637	-0.06483119
26	0x3cd29e3c	0.025710218
27	0x3ed3de6e	0.41380638
28	0x3e681662	0.22664788
29	0xbd89cfa9	-0.06729061
30	0x3e9e84c9	0.30960682
31	0x3d822b0d	0.063558675
32	0xbe44910b	-0.19195955
33	0x3e429a8c	0.19004267
34	0xbceb046f	-0.028688638
35	0xbec8eb29	-0.39241913
36	0xbeeec620	-0.46635532
37	0xbe91f0ce	-0.28504032
38	0x3dbf1b19	0.0933134
39	0xbe9ecfad	-0.3101782
40	0xbcb8ce78	-0.02255939
41	0x3e917a35	0.2841355
42	0xbcb4d519	-0.02207427
43	0x3e92f2f2	0.28700978
44	0x3ee1d768	0.44109654
45	0xbd43c836	-0.047798358
46	0xbd81e682	-0.06342794
47	0x3bac2a18	0.0052540414
48	0xbe7cd297	-0.24689709
49	0xbea58018	-0.3232429
50	0xbdb8c27c	-0.0902147
51	0xbe596586	-0.21230134
52	0xbe1e7106	-0.15472803
53	0xbe6546f4	-0.22390348
54	0x3e54e842	0.20791724
55	0x3db7f8f3	0.0898303
56	0xbe269982	-0.16269496
57	0x3e068011	0.13134791
58	0xbde2a6d0	-0.11066973
59	0xbdc3f367	-0.0956791
60	0x3e1cb574	0.15303594
61	0xbadc44da	-0.0016805187
62	0xbe603829	-0.21896423
63	0x3e74067f	0.23830603
64	0x3e17f6c1	0.14840223
65	0x3d8401c6	0.06445651
66	0x3e1a3fce	0.15063402
67	0xbd433525	-0.047658104
68	0xbe3da088	-0.18518269
69	0x3d9a31c6	0.07529025
70	0xbd1f6695	-0.03891619
71	0xbe561dbd	-0.20909782
72	0xbdea67f6	-0.1144561
73	0xbe1d20fe	-0.15344617
74	0x3d953fc1	0.07287551
75	0xbe8fbede	-0.28075308
76	0xbdb80f6b	-0.08987316
77	0x3ab3d324	0.0013719541
78	0xbe451cec	-0.19249314
79	0x3e1e234b	0.1544315
80	0x3e8af1d2	0.2713762
81	0x3d4078e7	0.0469903
82	0xbef541fa	-0.479019
83	0xbc1d35c1	-0.009595335
84	0xbe02132f	-0.1270263
85	0xbde9dd32	-0.11419143
86	0xbd0edb28	-0.034876972
87	0x3d04d334	0.03242798
88	0xbcebe427	-0.028795315
89	0x3d2ce947	0.042214658
90	0x3e7661ee	0.24060795
91	0x3d9352b4	0.07193509
92	0x3dcd937d	0.10037897
93	0x3e31a2ca	0.17347255
94	0xbd880bc1	-0.06642867
95	0xbd83b80e	-0.0643159
96	0x3e3531fb	0.17694847
97	0xbde490ca	-0.11160429
98	0xbe4ad5e1	-0.19808151
99	0xbe3631dd	-0.17792459
100	0xbdac67a7	-0.084182076
101	0x3e18f02c	0.14935368
102	0x3dfcf091	0.12350572
103	0x3dfdc8b2	0.12391795
104	0xbdbe5038	-0.09292644
105	0x3e97416a	0.29542094
106	0x3dabdcd3	0.08391728
107	0x3e1f62e8	0.15565073
108	0xbe585835	-0.21127398
109	0xbce17668	-0.02752228
110	0xbd87a499	-0.066231914
111	0x3d342592	0.043981142
112	0x3d0c3a45	0.034235258
113	0x3df2fd32	0.118646994
114	0x3d211e9d	0.039335836
115	0xbd1e5359	-0.038653705
116	0x3d7647ce	0.060127072
117	0x3dd4b5e5	0.10386256
118	0xbaeae4a0	-0.0017920919
119	0xbda99813	-0.08280959
120	0x3b922ee3	0.0044611557
121	0x39febf61	0.00048589244
122	0x3dad8364	0.084723264
123	0x3d94615d	0.07245133
124	0x3cca21f1	0.024674388
125	0x3d3316cf	0.043722924
126	0x3e80bc1f	0.25143525
127	0x3dbfb7ee	0.09361254
128	0xbd4286f1	-0.04749197
129	0x3e930bb4	0.28719866
130	0x3cf7e58c	0.030260824
131	0xbe244f9f	-0.16045998
132	0x3ddbfc5c	0.10741493
133	0x3d927663	0.07151487
134	0xbe9ed95f	-0.31025216
135	0x3d7f0ab5	0.06226607
136	0xbdde1743	-0.108442806
137	0xbda9402d	-0.08264194
138	0xbce33a3d	-0.027737731
139	0xbc3ef929	-0.011656084
140	0xbe8ea9f6	-0.27864045
141	0x3e0692df	0.13141964
142	0xbca00cfd	-0.019537443
143	0xbe9ccd7d	-0.30625525
144	0xbe964951	-0.2935281
145	0xbe1ea20d	-0.15491505
146	0x3c92bad2	0.017911348
147	0x3adbf405	0.0016781098
148	0x3db2e29d	0.08734629
149	0x3dba6de2	0.0910299
150	0x3e0427b2	0.12905768
151	0x3ce6a2b9	0.028153764
152	0x3ce5692e	0.028004255
153	0xbed18a72	-0.40925938
154	0xbdc638dc	-0.09678814
155	0x3ba2fa90	0.004973717
156	0xbe30b1eb	-0.1725537
157	0xbc94fb25	-0.018186161
158	0x3e81bcf0	0.2533946
159	0xbc9b4732	-0.018954847
160	0x3e586645	0.21132763
161	0x3e9ccf3b	0.30626854
162	0x3d673ed4	0.056456402
163	0x3cd06c13	0.025442159
164	0xbd0fe91f	-0.03513443
165	0x3d783e93	0.06060655
166	0xbd7c0f40	-0.06153798
167	0xbdc5cda6	-0.09658365
168	0xbe0524fa	-0.13002387
169	0xbe16a850	-0.14712644
170	0xbea1020f	-0.31446883
171	0xbd8c6bd2	-0.068565026
172	0xbda17d3e	-0.07885216
173	0xbdc3132f	-0.09525143
174	0xbd2ae06b	-0.041717928
175	0x3d973c21	0.073845156
176	0xbd0317e5	-0.03200521
177	0xbb2f4cb7	-0.0026748606
178	0x3d61cac3	0.05512501
179	0x3c4c574f	0.012471988
180	0xbefa69eb	-0.48908934
181	0xbee86fb4	-0.45397723
182	0xbea4bb47	-0.3217413
183	0xbe5da8ac	-0.21646374
184	0xbdd5e3e2	-0.10443856
185	0xbdcd8ffe	-0.1003723
186	0x3d1d35df	0.038381454
187	0x3d8caaf8	0.06868547
188	0x3e8e5286	0.27797335
189	0xbd98c487	-0.074593596
190	0xbd6febd7	-0.058574524
191	0x3d8e0874	0.06935206
192	0x3e0a4f00	0.13506699
193	0xbd6917fd	-0.056907643
194	0x3d21eaa6	0.03953042
195	0x3e0fa51b	0.14027826
196	0xbcb64e0e	-0.022254016
197	0x3d0fbbf6	0.035091363
198	0xbe05361b	-0.13008921
199	0x3cf1e500	0.029528141
200	0xbd011fa2	-0.031524308
201	0x3c342183	0.010994318
202	0x3b66959a	0.0035184384
203	0xbe8ee83f	-0.27911565
204	0xbd839624	-0.064251214
205	0xbe1e230c	-0.15443057
206	0xbe3410bc	-0.17584509
207	0x3ea58a6d	0.32332173
208	0x3e121b80	0.14268303
209	0xbd53545f	-0.051594134
210	0x3e5814dd	0.21101709
211	0x3c7bb191	0.015362159
212	0xbdaba875	-0.0838174
213	0x3c2d7c58	0.010588728
214	0xbdc42e49	-0.09579141
215	0xbe223faa	-0.15844598
216	0x3caca639	0.021075355
217	0xbbe06ad8	-0.0068486743
218	0xbdb2e173	-0.08734407
219	0xbdb07e42	-0.08617832
220	0xba600b07	-0.0008546565
221	0xbd7bce00	-0.061475754
222	0xbbf3e5da	-0.007443172
223	0xbda16bbc	-0.07881877
224	0x3ca1c07a	0.0197451
225	0xbeaadb6e	-0.33370537
226	0x3d0020b7	0.0312812
227	0x3e9e424b	0.30909953
228	0xbe243d71	-0.16039063
229	0x3e54fe05	0.20800026
230	0x3ef59678	0.4796636
231	0xbd993bae	-0.07482086
232	0x3f0833a7	0.53203815
233	0x3f0533f9	0.5203243
234	0xbe892e4e	-0.2679314
235	0x3e162560	0.14662695
236	0xbe635164	-0.22199017
237	0xbd24a2af	-0.04019421
238	0x3e24e796	0.16103968
239	0xbde7417e	-0.112917885
240	0xbd818da7	-0.06325846
241	0xbd71d2ef	-0.059039053
242	0xbe063e17	-0.13109623
243	0xbcb7254a	-0.022356648
244	0xbe0edb0f	-0.13950752
245	0xbddf4de4	-0.10903528
246	0xbd8aa950	-0.06770575
247	0x3d598119	0.053101633
248	0xbe0234cb	-0.12715451
249	0x3d6a50f9	0.057206128
250	0x3dc0faf8	0.094228685
251	0xbc00f5cc	-0.007871103
252	0xbe307f9b	-0.17236178
253	0x3c92382a	0.017849047
254	0x3e3dcabd	0.1853437
255	0xbdb32e07	-0.087490134

3.bias f4 [16]
0	0xbdc42070	-0.095764995
1	0x3dc4a858	0.096024215
2	0xbd0b2b8c	-0.033977076
3	0x3e254908	0.1614114
4	0x3daf5855	0.0856177
5	0xbd9c977d	-0.076460816
6	0x3d9b80ff	0.075929634
7	0x3d0df79d	0.03465997
8	0xbca371d3	-0.019951737
9	0xbde0796c	-0.109606594
10	0xbc29f23f	-0.010372697
11	0xbdb1911b	-0.08670255
12	0x3d8754ea	0.06607993
13	0xbdea7235	-0.114475645
14	0x3d31db73	0.043422174
15	0x3c3e3ba0	0.011610895

6.weight f4 [8, 16, 3, 3]
0	0xbc1835ce	-0.009290172
1	0x3e0e8cff	0.13920973
2	0xbc2a9881	-0.010412336
3	0x3df45548	0.119303286
4	0x3d4a0461	0.049320582
5	0xbbfd398f	-0.007727809
6	0xbc560875	-0.01306354
7	0xbe0084f4	-0.12550718
8	0x3d1e68dc	0.03867422
9	0x3dd0cda4	0.10195473
10	0xbb913b50	-0.0044321194
11	0x3b9838ae	0.0046454286
12	0x3d296ae9	0.041361723
13	0x3e66143d	0.22468658
14	0x3de8e288	0.113713324
15	0x3d5d7602	0.05406762
16	0x3e657239	0.22406854
17	0x3e341f66	0.17590103
18	0xbd164f39	-0.036696646
19	0x3aaac3aa	0.0013028283
20	0xbc8eeda3	-0.017447298
21	0x3d891be7	0.06694775
22	0xbe2b0664	-0.16701657
23	0x3e09bd12	0.13451031
24	0x3df0101a	0.11721821
25	0x3d080a17	0.033212747
26	0xbd2423c5	-0.040073175
27	0xbd9bf495	-0.0761501
28	0xbe449807	-0.19198619
29	0x3d3b4c97	0.04572734
30	0xbde2357d	-0.11045358
31	0x3d5ca34a	0.053866662
32	0x3e06d77c	0.13168138
33	0x3cff5143	0.031166678
34	0x3dbd567d	0.09245012
35	0x3e061078	0.1309222
36	0xbdcde1e9	-0.100528546
37	0x3cf05f05	0.029342184
38	0x3e27e9ce	0.16397783
39	0xbe016555	-0.12636311
40	0x3dbe4d2f	0.09292065
41	0x3e0a6b2a	0.13517442
42	0xbe01efc8	-0.12689126
43	0xbd88431d	-0.06653426
44	0x3e17943d	0.14802642
45	0xbdd705e6	-0.10499172
46	0x3d15098e	0.036386065
47	0xbd98a62f	-0.07453572
48	0xbe052d30	-0.13005519
49	0xbe30bdf2	-0.17259958
50	0xbe342ea8	-0.17595923
51	0x3d3443a5	0.044009823
52	0xbd0369b3	-0.032083225
53	0xbe90f541	-0.28312114
54	0x3e053354	0.13007861
55	0xbdac5b49	-0.08415849
56	0x3e6fe344	0.23426539
57	0xbe32d130	-0.17462611
58	0xbdc93d65	-0.09826163
59	0x3d9f4eac	0.07778677
60	0xbdc67c6b	-0.096916996
61	0xbdba84c8	-0.09107357
62	0x3dbef8eb	0.09324821
63	0xbe0eb075	-0.139345
64	0xbc058db3	-0.0081514595
65	0xbe0d1b01	-0.13779832
66	0x3dbc31b7	0.0918917
67	0x3cb1bc90	0.021696359
68	0xbd204f60	-0.039138198
69	0xbe35679d	-0.17715307
70	0x3bf6062a	0.007508059
71	0xbdc7dcc5	-0.09758905
72	0xbdf41463	-0.11917951
73	0xbd158c7a	-0.036510922
74	0xbe0dbcc8	-0.13841546
75	0xbc8fe893	-0.017566955
76	0xbdbf1df7	-0.09331887
77	0x3e02c927	0.12772046
78	0xbd38c3ab	-0.04510848
79	0x3db32e52	0.08749069
80	0x3d86b636	0.06577723
81	0x3bab3968	0.005225349
82	0x3df73328	0.12070304
83	0xbe3beb45	-0.18351467
84	0xbd56deaa	-0.052458443
85	0xbe205571	-0.15657593
86	0xbe1db9d3	-0.15402918
87	0xbe3e4da4	-0.18584305
88	0xbe4c0ed6	-0.19927534
89	0x3d6a7ce8	0.057248026
90	0x3d096490	0.03354317
91	0xbdad9a1f	-0.08476662
92	0xbd966b06	-0.07344632
93	0x3d8f395a	0.06993361
94	0x3d2b090b	0.04175667
95	0xbdb24aad	-0.087056495
96	0x3d3f9745	0.04677512
97	0xbe5f708b	-0.21820275
98	0x3d31b88f	0.0433889
99	0xbe6c7870	-0.23092818
100	0xbe220711	-0.15823008
101	0xbc07c382	-0.008286359
102	0xbe434ff3	-0.19073467
103	0xbe143634	-0.14473802
104	0xbe433120	-0.19061708
105	0xbe6db147	-0.23212157
106	0xbe79a562	-0.24379495
107	0x3e3850a3	0.1799951
108	0x3d391a11	0.045190874
109	0x3e2e9994	0.17050773
110	0x3e365f50	0.17809796
111	0xbdec9562	-0.1155193
112	0x3d020ed4	0.031752422
113	0x3da527e8	0.08064252
114	0xbdfb152b	-0.12259897
115	0x3e202f04	0.15642935
116	0xbd58a535	-0.05289193
117	0x3d93822d	0.072025634
118	0xbdd44038	-0.10363811
119	0x3d44da68	0.04805985
120	0xbdfd6535	-0.12372819
121	0x3dec304f	0.11532652
122	0xbc363d26	-0.011122977
123	0x3bd36be4	0.0064520705
124	0xbe3ec726	-0.18630657
125	0x3d82aab6	0.06380217
126	0xbcc1a969	-0.023640351
127	0x3e1caebd	0.15301032
128	0xbdbc8acc	-0.09206161
129	0x3ab58371	0.0013848377
130	0xbdc19c1c	-0.094536036
131	0x3e0fbf10	0.14037728
132	0xbd9712f6	-0.073766634
133	0x3d336a00	0.04380226
134	0x3dfdf615	0.12400452
135	0xbd0a8473	-0.03381772
136	0x3e88ba6a	0.26704723
137	0x3deb2a20	0.11482644
138	0x3e4ebe3d	0.20189758
139	0x3e907001	0.28210452
140	0xbd11bec3	-0.035582315
141	0x3df1afab	0.11801084
142	0xbd3c0329	-0.04590145
143	0xbd1d1503	-0.038350116
144	0xbdccc679	-0.09998793
145	0x3d509f83	0.050933372
146	0x3e7459e0	0.2386241
147	0xbe17e7cc	-0.14834517
148	0xbd398421	-0.045292024
149	0x3da30edc	0.079618186
150	0xbe4c87fa	-0.19973746
151	0x3e0ea582	0.13930324
152	0x3c8182f7	0.01580952
153	0x3e6089c0	0.21927547
154	0x3d7489c8	0.05970171
155	0xbe1789fc	-0.1479873
156	0xbcb27cec	-0.021788083
157	0xbe056cd9	-0.13029803
158	0x3d62bbc7	0.05535486
159	0x3d9078ca	0.07054289
160	0xbe0dd5ec	-0.13851136
161	0x3e00ba42	0.12571052
162	0x3cd67ab4	0.026181556
163	0x3ce1b54b	0.027552268
164	0x3d0c3f15	0.034239847
165	0xbe2cb19b	-0.16864626
166	0xbe1a23ee	-0.15052769
167	0xbaf27164	-0.0018496928
168	0x3d52d276	0.051470242
169	0x3df11b0d	0.11772738
170	0x3e2b7c46	0.16746625
171	0xbdc63b3b	-0.09679266
172	0xbd2eb6a5	-0.042654652
173	0x3ce2b958	0.02767627
174	0xbe5a95f1	-0.2134626
175	0xbd467754	-0.048453644
176	0x3e484bf6	0.19560227
177	0x3d229c47	0.03969982
178	0xbdfe0e42	-0.12405063
179	0x3e06c905	0.1316262
180	0xbd954b6f	-0.072897784
181	0xbda3db36	-0.080007955
182	0x3e087485	0.13325699
183	0xbde51f1a	-0.11187573
184	0xbd64b98e	-0.05584102
185	0x3df50a71	0.11964882
186	0x3d7d7608	0.06188014
187	0x3daa7193	0.08322444
188	0xbd348d39	-0.044079993
189	0xbd3182cb	-0.043337625
190	0xbe0c1206	-0.1367875
191	0xbd58a9dd	-0.05289637
192	0xbce6d62a	-0.028178293
193	0x3d9a9fec	0.07550034
194	0x3e0a77a6	0.13522205
195	0xbe14054e	-0.14455149
196	0x3d0f2fc1	0.03495765
197	0x3e77631c	0.24158901
198	0xbc8a7993	-0.016903674
199	0xbd3f3c3c	-0.046688303
200	0x3cf3ce31	0.029761406
201	0x3ca3678b	0.019946834
202	0xbd9ec50c	-0.077524275
203	0x3ddead3d	0.10872886
204	0xbd9ca60b	-0.07648858
205	0x3e117982	0.14206508
206	0xbd9bedaa	-0.0761369
207	0xbe4594eb	-0.19295089
208	0xbd09fb20	-0.033686757
209	0x3e1903e9	0.14942898
210	0xbe00fe39	-0.12596978
211	0xbdc83b15	-0.09776894
212	0x3d6c8edb	0.057753425
213	0xbdd150e0	-0.10220504
214	0x3d87f83f	0.06639146
215	0x3e5bb1ba	0.21454516
216	0x3c44dddc	0.012015786
217	0x3de31e64	0.11089781
218	0xbd547bc9	-0.051875863
219	0x3d813ece	0.06310807
220	0x3d3e7206	0.04649546
221	0x3d2e2d37	0.04252359
222	0x3dee56c3	0.11637642
223	0xbdc7f29a	-0.097630695
224	0xbe06331a	-0.13105431
225	0x3cb7311f	0.02236229
226	0xbca58d7b	-0.020209065
227	0x3eb0b0fa	0.34510022
228	0xbd9ee703	-0.07758906
229	0x3e311b07	0.17295466
230	0x3e709517	0.23494373
231	0x3dc5f5ec	0.096660465
232	0xbbed7f32	-0.007247829
233	0x3e8c4057	0.27392837
234	0xbe04d0b8	-0.12970245
235	0x3c0b2e4e	0.008494927
236	0x3e049822	0.12948659
237	0x3dc9ba80	0.09850025
238	0x3db24fcb	0.087066256
239	0x3c0b211a	0.008491779
240	0xbdc7ee74	-0.09762278
241	0x3d94da62	0.07268216
242	0xbd7ed0ba	-0.062210776
243	0xbb1f9f8a	-0.0024356567
244	0x3e1af895	0.15133889
245	0x3e2c73fb	0.16841118
246	0x3e2de952	0.16983536
247	0x3e3304fb	0.17482369
248	0xbd720365	-0.05908527
249	0x3e1588b0	0.14602923
250	0xbd25c831	-0.04047412
251	0x3e24e857	0.16104256
252	0xbe9e8360	-0.30959606
253	0x3e1ecd79	0.15508069
254	0x3e0f92d6	0.14020857
255	0xbc6c909d	-0.014438775

6.bias f4 [8]
0	0xbd37d007	-0.044876125
1	0xbda6080d	-0.08107004
2	0x3c853634	0.016261198
3	0x3d03fa0e	0.032220893
4	0x3d4d8ecb	0.050185006
5	0xbe19b7a6	-0.15011463
6	0xbb05302d	-0.0020322904
7	0xbd830932	-0.06398238
