Pretrained_cnn/main/saved_feature/feature_extractor_best_epoch_1.pth (torch, 29678 bytes, 6 tensors)

0.weight f4 [32, 3, 3, 3]
0	0xbd109792	-0.0353008
1	0xbd9ab5ca	-0.07554205
2	0x3d6846c1	0.0567081
3	0x3d7f73a4	0.062366143
4	0xbd8b03bb	-0.06787821
5	0xbdfb3f08	-0.12267882
6	0x3ca6d1d6	0.02036373
7	0x3cdcef8e	0.026969697
8	0xbb871ba4	-0.004123168
9	0x3caf0a7a	0.0213673
10	0x3dbfb534	0.09360734
11	0x3d62f1f6	0.055406533
12	0x3d5f040b	0.054447215
13	0xbcb64f7f	-0.022254704
14	0xbdcde971	-0.10054291
15	0xbd748809	-0.059700046
16	0xbd88bd83	-0.066767715
17	0x3c3b6fa2	0.01144019
18	0x3da4a472	0.08039178
19	0x3e01416d	0.12622614
20	0xbddff820	-0.10935998
21	0x3cc18ef0	0.023627728
22	0x3dfb5bf3	0.12273397
23	0xbdbbd663	-0.091717504
24	0xbc793fe6	-0.0152129885
25	0x3be0575c	0.0068463515
26	0xbc441c07	-0.011969573
27	0x3e04dbef	0.12974523
28	0xbdcb133b	-0.09915777
29	0xbde70c29	-0.11281616
30	0xbd759397	-0.059955206
31	0x3d189f76	0.03726145
32	0x3e051d06	0.12999353
33	0x3d974a58	0.07387227
34	0x3d89fda0	0.06737828
35	0xbdd3b5ca	-0.10337408
36	0xbdc7d316	-0.09757058
37	0x3cce6853	0.02519623
38	0xbd4ff86e	-0.05077403
39	0xbbe4266f	-0.0069625895
40	0xbd9c844c	-0.07642421
41	0xbe108691	-0.14113833
42	0x3d27446c	0.040836737
43	0xbd9896ca	-0.07450636
44	0x3d41b10d	0.04728799
45	0xbdb734ab	-0.089455925
46	0xbdde740b	-0.10861977
47	0xbdf5429e	-0.11975597
48	0xbddc918e	-0.1076995
49	0xbdac4261	-0.08411098
50	0x3d537261	0.051622752
51	0xbb62ad27	-0.003458807
52	0xbd7509dd	-0.05982386
53	0xbda92444	-0.0825887
54	0x3e07441d	0.13209577
55	0x3dbc0d4d	0.091822244
56	0xbd42e562	-0.047582038
57	0xbd5058d7	-0.050865974
58	0x3cc9a926	0.02461679
59	0x3d36d0ed	0.04463284
60	0x3c9e8842	0.019352082
61	0xbda5b901	-0.08091927
62	0xbc78b52f	-0.015179916
63	0x3e016325	0.12635477
64	0xbbc8921e	-0.006120934
65	0xbd1b4366	-0.037906073
66	0x3d8b3d28	0.06798774
67	0xbdbdc919	-0.09266872
68	0x3dba8a08	0.091083586
69	0xbd98c400	-0.07459259
70	0x3e051690	0.12996888
71	0x3c0d380e	0.0086193215
72	0xbe0df798	-0.13863981
73	0xbe09234f	-0.13392375
74	0xbdb4f7ce	-0.088363275
75	0x3d890d4f	0.066919915
76	0xbd4c162c	-0.049825832
77	0xb9f3cfbc	-0.00046503346
78	0xbba98d8e	-0.0051743453
79	0xbd88e5ba	-0.06684442
80	0x3d0e90c9	0.034806047
81	0xbdd19db5	-0.10235158
82	0xbdbf265e	-0.0933349
83	0xbddad449	-0.106850214
84	0xbdc68961	-0.09694172
85	0xbc52c985	-0.012865429
86	0xbe0b7775	-0.13619788
87	0xbe1c7e50	-0.1528256
88	0x3d90d593	0.07071986
89	0x3cfb464a	0.030673165
90	0xbd18e53b	-0.037327986
91	0x3d34718f	0.04405361
92	0x3e2995fc	0.16561121
93	0x3ddf17c9	0.108932085
94	0x3daaa21a	0.083317
95	0x3e1a051a	0.15041009
96	0x3db10347	0.08643203
97	0x3dc79d8f	0.09746849
98	0xbcc57c9f	-0.024107276
99	0xbd142fd8	-0.03617844
100	0xbde0d790	-0.10978615
101	0xbc782918	-0.015146516
102	0xbdb33177	-0.08749669
103	0x3cf3310f	0.029686479
104	0xbdbabaab	-0.09117635
105	0xbe0de01d	-0.13855024
106	0x3cfd8de4	0.030951448
107	0x3ce31256	0.027718704
108	0x3d39c653	0.045355152
109	0x3d95ff70	0.073241115
110	0x3de9816d	0.11401639
111	0x3d12c2ae	0.035830192
112	0x3e394f9a	0.18096772
113	0xbc0100f6	-0.007873764
114	0x3dc52338	0.09625858
115	0xbcc62150	-0.024185807
116	0xbd18d8b4	-0.03731604
117	0x3dcbc274	0.09949198
118	0xbda322f4	-0.07965651
119	0x3e1e869b	0.15481035
120	0xbdc78b18	-0.09743327
121	0xbd9d8690	-0.076916814
122	0xbd05c3fa	-0.0326576
123	0xbd3039ff	-0.04302406
124	0xbddab235	-0.106785215
125	0xbdb2b5d0	-0.08726084
126	0xbdf4e16b	-0.119570576
127	0xbde6be01	-0.11266709
128	0xbcb9c25b	-0.022675684
129	0x3c14d481	0.009083868
130	0x3b8139ad	0.003943643
131	0x3d49e901	0.049294475
132	0x3d99705a	0.074921325
133	0xbd9e6279	-0.07733626
134	0xbda483c5	-0.080329455
135	0xbe0d8282	-0.13819316
136	0xbcea2f7c	-0.028587095
137	0x3e015581	0.12630273
138	0x3c47a9d8	0.01218649
139	0x3a1a6f00	0.0005891174
140	0x3d2caefa	0.04215906
141	0xbde9f8f3	-0.114244364
142	0xbc419920	-0.011816293
143	0x3e0d2f57	0.1378759
144	0xbdbb11e1	-0.091342695
145	0x3d315c26	0.04330077
146	0xbdd0dd9a	-0.10198517
147	0x3b7d64c6	0.0038664802
148	0xbdf70a6e	-0.12062536
149	0x3db4f3d0	0.08835566
150	0xbd99c9b8	-0.07509178
151	0x3cec92a9	0.028878527
152	0x3ddb31a1	0.10702825
153	0xbccf1322	-0.025277678
154	0x3d48fecb	0.049071115
155	0xbcb887d2	-0.022525702
156	0xbe0dd6db	-0.13851492
157	0x3cad9143	0.02118743
158	0x3d47c9f0	0.048776567
159	0x3ced26d9	0.028949188
160	0x3d393df9	0.045225117
161	0x3df6c007	0.12048345
162	0x3d47a988	0.048745662
163	0xbde5199f	-0.111865275
164	0xbcbc7310	-0.023004085
165	0xbc2657a6	-0.010152733
166	0xbe0d382d	-0.1379096
167	0x3dd0e4dd	0.10199902
168	0x3d2668e4	0.040627375
169	0xbc4134be	-0.01179236
170	0xbdcfcb30	-0.10146177
171	0xbd3b96a6	-0.045797966
172	0xbad449d1	-0.0016196315
173	0x3dc9b5f8	0.09849161
174	0xbd0900b2	-0.03344793
175	0x3ce83a40	0.028348088
176	0x3df5e896	0.12007253
177	0x3d0a96d5	0.03383525
178	0xbde52ae2	-0.1118982
179	0x3dced736	0.10099642
180	0x3d99ba98	0.07506293
181	0x3d540b69	0.051768694
182	0xbdf6e9f0	-0.12056339
183	0x3e078003	0.13232426
184	0xbc0fbddd	-0.008773294
185	0x3d99a594	0.07502285
186	0xbd317315	-0.04332264
187	0x3c48a4ef	0.0122463545
188	0xbc7a4944	-0.015276257
189	0xbdf3ae34	-0.11898461
190	0x3d8d1333	0.068884276
191	0x3da0460f	0.078258626
192	0xbe08b116	-0.13348803
193	0xbd34fcc4	-0.04418637
194	0xbdde5f4a	-0.10858019
195	0x3db745a7	0.08948832
196	0xbd4ed1e4	-0.050493136
197	0x3ddeafcb	0.108733736
198	0x3e00cefa	0.12578955
199	0x3e020149	0.12695803
200	0xbceeeadb	-0.029164722
201	0xbd2f323d	-0.04277252
202	0xbd9115b0	-0.07084215
203	0xbdf45649	-0.1193052
204	0xbde14f4c	-0.11001453
205	0x3d66d6b8	0.056357116
206	0x3e0354ed	0.12825365
207	0x3dc56d75	0.09640018
208	0x3dc58d5e	0.09646104
209	0x3d050726	0.03247752
210	0x3dd594f4	0.10428801
211	0xbd04b051	-0.03239471
212	0xbe04b730	-0.12960505
213	0x3de65b15	0.11247841
214	0x3cc0b4cc	0.02352371
215	0xbd965a7d	-0.07341478
216	0x3e034af8	0.12821567
217	0x3d831c18	0.06401843
218	0x3d4cc6bc	0.049994215
219	0x3de007be	0.10938977
220	0x3d8afd2f	0.06786572
221	0x3dad9549	0.084757395
222	0x3b855632	0.004069113
223	0x3d3d77ea	0.046256937
224	0xbd101255	-0.035173733
225	0x3d750559	0.059819553
226	0x3e041c9f	0.12901543
227	0xbd3cc76b	-0.046088617
228	0xbd9bf8c8	-0.07615811
229	0xbe06a296	-0.13147959
230	0xbd7c0f6b	-0.06153814
231	0xbdd0eb39	-0.10201115
232	0x3d1dc119	0.03851423
233	0x3db5b597	0.08872526
234	0x3d13a4bc	0.036045775
235	0xbda2b593	-0.07944789
236	0xbd9906d9	-0.07472009
237	0xbd5416e6	-0.05177965
238	0xbdefc3d8	-0.11707276
239	0x3d466bbe	0.048442595
240	0x3e01d23f	0.12677859
241	0x3d864528	0.06556159
242	0xbe084356	-0.13306937
243	0xbbfb90cb	-0.007677173
244	0x3d9c80e4	0.076417714
245	0x3d521c14	0.05129631
246	0xbdb1615a	-0.086611465
247	0xbd193034	-0.037399486
248	0x3db0c081	0.08630467
249	0xbe3efeb7	-0.18651854
250	0xbe6fba51	-0.23410918
251	0xbca11b35	-0.019666294
252	0xbe4f037c	-0.20216173
253	0x3d6669b9	0.05625317
254	0x3d4a56d8	0.049399227
255	0xbe276640	-0.16347599

0.bias f4 [32]
0	0xb9a637c4	-0.00031703536
1	0xbcbe53b5	-0.023233274
2	0x3ce00cf3	0.027349925
3	0x3c8e3562	0.01735944
4	0xbbaa614d	-0.0051995874
5	0xbcd17bb2	-0.025571678
6	0xbcee4e40	-0.029090047
7	0xbc9e2ab7	-0.019307477
8	0x3c6c7083	0.014431122
9	0x3c7cc883	0.015428665
10	0x3d4d7b55	0.050166447
11	0xbd90d7b2	-0.070723906
12	0xbd2d5ca3	-0.042324673
13	0xbd42b576	-0.047536336
14	0xbc2e0ec4	-0.010623638
15	0xbbbd3d6f	-0.0057751457
16	0x3dd68f70	0.10476577
17	0xbcef7079	-0.029228436
18	0xbaf3484c	-0.0018560975
19	0xbd8eb50f	-0.06968128
20	0xbc1d9d0b	-0.0096199615
21	0xbda1816d	-0.07886014
22	0xbd82b3b7	-0.06381934
23	0xbc97a699	-0.018512057
24	0x3d4fd775	0.050742585
25	0x3bb15f25	0.0054129534
26	0xbd317baa	-0.043330826
27	0x3c7e9f41	0.015540899
28	0xbd80cf06	-0.062894866
29	0xbd359329	-0.044329796
30	0x3cb30c20	0.021856368
31	0xbbee20a8	-0.0072670765

3.weight f4 [16, 32, 3, 3]
0	0x3c743877	0.01490604
1	0x3d599304	0.05311872
2	0xbbe54bd2	-0.006997564
3	0xbb9360ac	-0.004497608
4	0x3c877f03	0.016540056
5	0xbd156484	-0.036472812
6	0xbd38145f	-0.044941302
7	0x3d8426ae	0.0645269
8	0xbdb28ce0	-0.08718276
9	0x3d85fe92	0.06542696
10	0x3cd69bdd	0.026197368
11	0xbe08dc60	-0.13365316
12	0xbde565cb	-0.11201056
13	0xbb94f9f8	-0.0045464
14	0x3d107616	0.035268866
15	0xbd4783d2	-0.048709698
16	0xbcb58ea2	-0.02216274
17	0xbcd35e89	-0.025801914
18	0xbd844cc4	-0.064599544
19	0x3d6af238	0.057359904
20	0xbd2cfe31	-0.042234603
21	0xbd428c22	-0.047496922
22	0xbdd8aa35	-0.105793394
23	0xbda73363	-0.08164098
24	0xbd4dfe42	-0.050291307
25	0xbdbd3b44	-0.0923982
26	0xbc9d05e4	-0.019167848
27	0x3ddd312d	0.10800395
28	0x3d299de8	0.041410357
29	0xbd245556	-0.040120445
30	0x3d3476bc	0.044058546
31	0x3c47eac9	0.012201973
32	0x3c8b4b3e	0.017003652
33	0x3cab9eb6	0.020949703
34	0x3daf3cb4	0.085565
35	0xbc24a1b5	-0.01004832
36	0xbdeb908f	-0.11502182
37	0xbe1f34e0	-0.15547514
38	0xbe1849c0	-0.14871883
39	0xbd19bd44	-0.037534013
40	0xbdfda71e	-0.12385391
41	0x3c633fde	0.013870208
42	0x3d88b61e	0.06675361
43	0x3d9c30c7	0.07626491
44	0x3c11f493	0.008908409
45	0xbd51d5a8	-0.05122915
46	0xbd51b368	-0.051196486
47	0xbcd44914	-0.025913753
48	0xbd6a91fb	-0.057268124
49	0xbe24743d	-0.16059966
50	0x3b6bfc51	0.0036008547
51	0xbbf60f6d	-0.007509163
52	0xbcdd36ec	-0.027003728
53	0xbdbbc58a	-0.09168537
54	0x3d751a54	0.05983956
55	0x3dcfc2d2	0.10144581
56	0xbd82f216	-0.063938305
57	0x3cd2eb99	0.025747107
58	0xbda39a2a	-0.07988389
59	0x3dc05d01	0.09392739
60	0x3d9bc67b	0.076062165
61	0x3dd16ad2	0.102254525
62	0x3cb9e689	0.022692936
63	0x3c1ace89	0.009448656
64	0x3d46d254	0.04854043
65	0x3d6b8ad8	0.05750546
66	0x3dd4f90c	0.103990644
67	0xbdbb13fd	-0.09134672
68	0xbdd98cd6	-0.106225654
69	0x3d396854	0.04526551
70	0xbcaca7f2	-0.021076176
71	0xbd6461cf	-0.05575734
72	0x3da31d8c	0.0796462
73	0xbd7f3c2e	-0.06231325
74	0x3dc62429	0.09674866
75	0xbdc7dc3d	-0.09758804
76	0xbd99b9a0	-0.07506108
77	0xbdc9bb8f	-0.09850227
78	0xbd790f0b	-0.06080536
79	0x3da75d6d	0.081721164
80	0x3dd556a2	0.104169145
81	0x3dc73140	0.097261906
82	0xbdda495f	-0.10658526
83	0xbcb51967	-0.02210684
84	0xbe069bb1	-0.13145329
85	0xbdc39658	-0.0955016
86	0x3d554338	0.052066058
87	0x3daba1a5	0.083804406
88	0x3c3f2268	0.011665918
89	0x3c62a618	0.013833545
90	0x3d6b386c	0.057426855
91	0x3cbfce4d	0.023413802
92	0x3d0b0674	0.0339417
93	0x3dc7c50a	0.09754379
94	0xbd8ca754	-0.06867853
95	0x3d445b97	0.04793891
96	0x3da18fc8	0.07888752
97	0xbda6ee49	-0.08150918
98	0xbdb9049b	-0.090340815
99	0xbe2c939a	-0.1685318
100	0xbd170811	-0.036872927
101	0x3db989b0	0.09059465
102	0x3c5fa511	0.013650195
103	0x3cb33e72	0.021880362
104	0xbe1440b4	-0.14477807
105	0x3e0e2528	0.13881361
106	0xbd3a65f0	-0.04550737
107	0x3d7f73d4	0.06236632
108	0xbdddfea2	-0.10839583
109	0x3d780cb0	0.060558975
110	0xbca678c3	-0.020321256
111	0x3dd6919c	0.104769915
112	0x3d61f20c	0.055162475
113	0x3dd05a72	0.10173501
114	0x3db10492	0.0864345
115	0xbd544145	-0.05182006
116	0x3b72a996	0.003702735
117	0x3d6d697d	0.05796193
118	0xbd0c4a0d	-0.034250308
119	0xbdcbb051	-0.09945739
120	0xbd62a83f	-0.055336233
121	0xbd2e3450	-0.042530358
122	0x3d810e5f	0.06301569
123	0x3d0dea92	0.03464753
124	0xbc7834da	-0.01514932
125	0x3d3df315	0.0463744
126	0x3baaaff0	0.0052089617
127	0xbba9da21	-0.0051834737
128	0xbd073c90	-0.03301674
129	0x3da04d58	0.07827252
130	0xbcda6532	-0.026659582
131	0xbc0788e4	-0.008272383
132	0xbdcde8f9	-0.10054202
133	0x3daad5b2	0.083415404
134	0xbdcfa86d	-0.101395465
135	0xbe2ab6ad	-0.16671248
136	0xbe2eaa4d	-0.17057152
137	0xbd0b6b7e	-0.03403806
138	0xbe0270f0	-0.12738395
139	0xbdf95101	-0.121736534
140	0xbe0f6975	-0.14005072
141	0xbe1952d8	-0.14973009
142	0xbe14bc7d	-0.14525028
143	0xbd8fae19	-0.07015628
144	0xbdda5d6a	-0.106623486
145	0xbdebc217	-0.11511629
146	0xbe1718bd	-0.1475553
147	0xbc789c0b	-0.015173922
148	0x3d0e7928	0.034783512
149	0xbd9607c5	-0.07325701
150	0x3defb6b6	0.11704771
151	0xbd348e98	-0.0440813
152	0xbd87fd10	-0.06640065
153	0xbcdfd89d	-0.027324969
154	0x3d6fc5dd	0.058538307
155	0xbd515343	-0.051104795
156	0x3de80684	0.11329368
157	0x3c8ae9cb	0.016957184
158	0x3dfac9f8	0.12245554
159	0x3da97110	0.08273518
160	0x3ddee59e	0.1088364
161	0x3d4875e7	0.048940565
162	0xbd7a50ca	-0.061112203
163	0xbd88f7e7	-0.066879086
164	0xbd4df470	-0.050281942
165	0xbbc37fb8	-0.005966153
166	0xbd1d76a8	-0.038443238
167	0x3d590179	0.05297992
168	0xbcc3186b	-0.023815354
169	0x3d9fd9fd	0.0780525
170	0x3cda9688	0.026683107
171	0x3d562db4	0.05228968
172	0xbc5ee469	-0.013604262
173	0xbd7b257b	-0.06131504
174	0xbd5e221d	-0.05423175
175	0x3d5c8a37	0.05384275
176	0x3d4e3cbd	0.050350893
177	0x3d3c2ea3	0.045942914
178	0x3db06e5a	0.08614798
179	0x3dad6da3	0.08468177
180	0xbe19bb85	-0.1501294
181	0xbe02c8f7	-0.12771975
182	0xbdf8f836	-0.121567175
183	0xbc7eeab2	-0.015558885
184	0x3e026f3d	0.12737747
185	0xbd86e06f	-0.06585776
186	0x3d0b9f1d	0.03408729
187	0xbc88dbc7	-0.01670636
188	0x3b1d1ff2	0.002397534
189	0xbd6e0754	-0.058112457
190	0xbcba171f	-0.022716103
191	0x3dec9708	0.115522444
192	0x3db1740d	0.08664713
193	0xbd9dda3e	-0.07707642
194	0x3d3c2528	0.045933872
195	0x3da0d26b	0.07852634
196	0xbd768202	-0.06018258
197	0x3d01504d	0.03157072
198	0xbddeaef0	-0.108732104
199	0x3d8e12c5	0.06937174
200	0x3d11633e	0.035495035
201	0x3d88b47a	0.06675048
202	0x3d8f2f36	0.06991427
203	0xbe0c25e3	-0.13686328
204	0xbd7b1e7b	-0.061308365
205	0xbdca4c4d	-0.098778345
206	0xbd0fc429	-0.035099182
207	0x3dc53973	0.09630098
208	0x3dad24c0	0.08454275
209	0xbcf29941	-0.029614093
210	0x3d6cf5db	0.057851654
211	0x3d484752	0.04889614
212	0x3d45fa86	0.04833462
213	0xbd603843	-0.054741155
214	0x3cac7fd5	0.021057049
215	0x3da3adc8	0.079921305
216	0x3e03256f	0.12807249
217	0x3d7ac3f1	0.06122202
218	0xbd86c573	-0.06580629
219	0x3caac5b8	0.020846233
220	0x3d433f93	0.04766805
221	0xbdc3e05f	-0.0956428
222	0x3e1224d3	0.1427186
223	0x3ce38f22	0.027778212
224	0x3bf2e74d	0.007412827
225	0xbc9edf96	-0.019393723
226	0xbd32a906	-0.043618225
227	0x3d35c478	0.04437682
228	0x3ddb5c1e	0.10710929
229	0xbd18b3f1	-0.03728098
230	0x3c20f1c2	0.009823265
231	0x3c84c51f	0.016207276
232	0x3df7b097	0.12094229
233	0xbc9e3456	-0.019312065
234	0xbd9b587e	-0.07585238
235	0x3d8c0eb5	0.06838743
236	0xbe080710	-0.13283944
237	0xbd3f3355	-0.046679813
238	0x3dcb5321	0.09927965
239	0xbdd26e4c	-0.10274944
240	0xbddd038a	-0.10791691
241	0xbdc22a3b	-0.09480711
242	0xbc82a134	-0.015946008
243	0x3cbc8de4	0.023016877
244	0xbddd51c2	-0.1080661
245	0xbd8989d6	-0.06715743
246	0xbd07afcd	-0.03312664
247	0x3dc11dcd	0.09429512
248	0xbdeec61c	-0.1165888
249	0x3d2e2b0a	0.042521514
250	0x3dbdfeda	0.09277125
251	0xbc08bd08	-0.00834585
252	0xbdd5a549	-0.10431916
253	0x3d494d46	0.04914596
254	0x3cad5fe0	0.02116388
255	0xbda45f78	-0.08026022

3.bias f4 [16]
0	0xbcc28799	-0.023746299
1	0x3c416d17	0.011805794
2	0xbbe461b1	-0.0069696535
3	0x3cdb5b53	0.026776945
4	0x3cd3b27a	0.02584194
5	0xbd3a1059	-0.045425747
6	0x3d0fc919	0.03510389
7	0xbc4ebbe2	-0.012618037
8	0xbc3830b2	-0.011242079
9	0xbca4b1c9	-0.020104306
10	0xbce023d6	-0.027360838
11	0x3ba52c06	0.0050406484
12	0x3b9f8132	0.004867696
13	0xbc6a2d9a	-0.014293099
14	0x3cdc8432	0.026918504
15	0x3d5e4289	0.05426267

6.weight f4 [8, 16, 3, 3]
0	0x3c19fc3f	0.009398519
1	0x3de2b3c5	0.110694446
2	0xbcb94c48	-0.022619382
3	0x3e031b95	0.1280349
4	0x3ca18025	0.019714424
5	0x3a71dfd0	0.0009226771
6	0x3cc7df66	0.024398517
7	0xbde20c98	-0.11037558
8	0x3dfbe316	0.122991726
9	0x3ddca612	0.10773863
10	0xbdf91207	-0.121616416
11	0xbdc4a787	-0.09602266
12	0xbd36602e	-0.044525318
13	0x3d85bace	0.06529771
14	0x3c0e78e9	0.008695819
15	0xbc5f849e	-0.013642458
16	0x3dfaf1b9	0.12253136
17	0x3cb24ec7	0.02176608
18	0xbd164f39	-0.036696646
19	0x3aaac3aa	0.0013028283
20	0xbd41967e	-0.04726266
21	0x3d891be7	0.06694775
22	0xbe2b0664	-0.16701657
23	0x3e09bd12	0.13451031
24	0x3df0101a	0.11721821
25	0x3bfa02db	0.007629735
26	0xbd31b94c	-0.043389603
27	0xbbbd9619	-0.0057857153
28	0xbe10109a	-0.14068833
29	0x3d78f881	0.060783867
30	0xbcec0c73	-0.02881453
31	0x3d881d3d	0.06646202
32	0x3dbd9fe0	0.09259009
33	0x3dee1353	0.116247796
34	0x3de00c79	0.10939879
35	0x3dd72261	0.10504604
36	0xbd296af7	-0.041361775
37	0x3c87caed	0.016576255
38	0x3e10e945	0.14151485
39	0xbdd49d18	-0.10381526
40	0x3d6e02a5	0.05810799
41	0x3d88d99c	0.06682131
42	0xbdeecb78	-0.11659902
43	0xbde569ed	-0.11201844
44	0x3d98534a	0.07437761
45	0xbd1ce9d8	-0.03830895
46	0x3def8b6f	0.11696517
47	0x3d969902	0.07353403
48	0xbd21ce4a	-0.039503373
49	0xbd66ae45	-0.05631854
50	0xbc430d9b	-0.011905099
51	0x3ddfacf3	0.10921659
52	0x3d7eb67b	0.062185746
53	0xbe2ee9ae	-0.17081329
54	0x3e0c1292	0.13678959
55	0xbe056acf	-0.13029025
56	0x3e1505f7	0.14553057
57	0xbdfa112c	-0.122103065
58	0xbe0262ff	-0.12733077
59	0xbd02e752	-0.031958885
60	0xbc166e73	-0.009181607
61	0xbdb7c9c0	-0.08974028
62	0x3c8c76d6	0.01714651
63	0xbde89845	-0.11357168
64	0x3d3daa82	0.046305187
65	0xbde04bfd	-0.109519936
66	0x3e26a812	0.16275051
67	0x3daf8c3e	0.08571671
68	0xbc82ed44	-0.015982278
69	0xbddcb957	-0.10777538
70	0x3db50712	0.08839239
71	0xbd6a9f33	-0.05728073
72	0xbdf387b9	-0.118911214
73	0xbd265d17	-0.04061612
74	0xbe112537	-0.14174353
75	0xbc8aa650	-0.016925007
76	0xbdb55246	-0.08853583
77	0x3dffbd67	0.124872975
78	0xbd3c13e5	-0.04591741
79	0x3db3d531	0.087808974
80	0x3d92b74c	0.07163867
81	0xbe1c080d	-0.15237446
82	0xbd827e54	-0.063717514
83	0xbe200336	-0.15626225
84	0xbded1d9f	-0.115779154
85	0xbe27cca8	-0.16386664
86	0xbe1282c6	-0.14307699
87	0xbdfcc48e	-0.12342177
88	0xbc8f0290	-0.017457277
89	0xbc58984b	-0.013219903
90	0x3deeb88c	0.11656293
91	0xbd3000a5	-0.042969365
92	0x3b385a6c	0.0028130068
93	0x3e175de4	0.1478191
94	0x3d8c961d	0.06864569
95	0xbd607d18	-0.0548068
96	0x3e08b2dd	0.13349481
97	0xbe2be875	-0.16787894
98	0x3d9f40d6	0.07776038
99	0x3d306524	0.043065205
100	0xbd0053a6	-0.031329773
101	0xbd03a939	-0.032143805
102	0x3d9d68ed	0.07686029
103	0xbdfb1e20	-0.12261605
104	0xbe43932f	-0.19099115
105	0xbe0da52f	-0.13832544
106	0xbe279806	-0.16366586
107	0x3e025ad0	0.12729955
108	0x3de3f754	0.111311585
109	0x3e04fb5b	0.1298651
110	0x3e01d85a	0.12680188
111	0xbc0f9a29	-0.008764782
112	0x3bb0ea16	0.005398999
113	0xbcc800d9	-0.024414467
114	0xbe381ffb	-0.1798095
115	0x3e0cd255	0.1375211
116	0xbe211d91	-0.15733935
117	0x3d13de3d	0.036100615
118	0xbdbf29a8	-0.09334117
119	0x3d249815	0.0401841
120	0xbe073192	-0.13202503
121	0x3d8dbaa8	0.069203675
122	0xbc99b6d2	-0.018763933
123	0x3d3d3c88	0.046200305
124	0xbe22b1cf	-0.15888141
125	0x3dd5b780	0.104353905
126	0x3ca4aa36	0.020100694
127	0x3e36a41b	0.17836039
128	0xbdb8c955	-0.09022776
129	0x3d182ae5	0.037150282
130	0xbdc6e525	-0.097116746
131	0x3e203003	0.15643315
132	0xbd2d57a3	-0.042319905
133	0x3d8370f8	0.064180315
134	0x3e241d7f	0.16026877
135	0xbd2cb7cf	-0.04216748
136	0x3e67a74a	0.2262241
137	0x3dc88fd6	0.097930595
138	0x3e3b584d	0.18295403
139	0x3e5dcd1b	0.21660273
140	0xbdaa47d9	-0.08314485
141	0x3e0c24dd	0.13685937
142	0xbd88a2ab	-0.066716515
143	0xbd585b7e	-0.05282163
144	0xbd855ff7	-0.065124445
145	0x3b346a3f	0.0027529148
146	0x3dc6ff2f	0.09716641
147	0xbd66eaa1	-0.056376103
148	0xbdf33e10	-0.11877072
149	0xbddccb84	-0.10781005
150	0xbe3886f6	-0.18020234
151	0x3dabaccb	0.08382567
152	0xbd8dbb6c	-0.069205135
153	0x3e263074	0.16229421
154	0x3dc1c2b7	0.09460967
155	0xbd0e3652	-0.034719773
156	0xbdd7a819	-0.10530109
157	0xbd801b7f	-0.062552445
158	0x3dc9842e	0.098396644
159	0x3da9bee3	0.08288362
160	0xbd83be84	-0.06432822
161	0x3e2b696d	0.16739435
162	0x3cd67ab4	0.026181556
163	0x3ce1b54b	0.027552268
164	0x3d0c3f15	0.034239847
165	0xbe2f1cb3	-0.17100792
166	0xbe1c4fc2	-0.152648
167	0xbaf27164	-0.0018496928
168	0x3d52d276	0.051470242
169	0x3df11b0d	0.11772738
170	0x3e2b7c46	0.16746625
171	0xbda452c7	-0.08023601
172	0xbd670cc5	-0.056408662
173	0xbdbccd87	-0.09218889
174	0xbe18cccf	-0.14921878
175	0xbcd95a42	-0.026532296
176	0x3db9a6dc	0.09065029
177	0x3e074b66	0.13212356
178	0xbdb555d7	-0.08854263
179	0x3dd33e2b	0.10314592
180	0xbd141f2b	-0.036162537
181	0xbd9929ce	-0.07478677
182	0x3dde35ef	0.10850131
183	0xbdf23edb	-0.11828395
184	0xbd9871ee	-0.07443605
185	0x3d6a9d8f	0.057279166
186	0x3dbdde52	0.0927092
187	0x3dcabe9f	0.09899639
188	0xbd6d2a6a	-0.057901777
189	0x3d28b256	0.0411857
190	0xbdd12e05	-0.10213856
191	0xbd7beb48	-0.06150368
192	0x3d35ab46	0.044352792
193	0x3d35819b	0.044313055
194	0x3cedd045	0.029029975
195	0xbde80356	-0.11328761
196	0xbbd2363c	-0.0064151566
197	0x3e177239	0.14789666
198	0xbad6d55c	-0.001639049
199	0xbd72af06	-0.059248947
200	0xbdf10617	-0.1176874
201	0x3da7f5af	0.08201157
202	0xbd87a8a6	-0.06623964
203	0xbc9857f2	-0.018596623
204	0x3b7a5fa2	0.0038203974
205	0x3e29dffc	0.1658935
206	0xbdc692ee	-0.09695993
207	0xbe2062b5	-0.15662654
208	0xbb5e4b56	-0.0033919415
209	0x3df69592	0.12040247
210	0xbd853b35	-0.065054335
211	0xbdaaea30	-0.08345449
212	0xbc9fe410	-0.019517928
213	0xbd7dfc6c	-0.062008306
214	0x3d3af6ae	0.04564541
215	0x3e09066d	0.13381357
216	0x3c1d0414	0.009583492
217	0x3de1e6ce	0.110303506
218	0xbd54c787	-0.051948097
219	0x3d80e58f	0.06293785
220	0x3d36db31	0.04464263
221	0x3d26d615	0.04073151
222	0x3dedf34b	0.1161867
223	0xbdd701ca	-0.10498388
224	0xbe0ca25a	-0.13733807
225	0x3da4c91d	0.08046172
226	0x3d9b5ea8	0.075864136
227	0x3e758d38	0.23979652
228	0xbe00402b	-0.12524478
229	0x3dd7b582	0.10532667
230	0x3e10f9dd	0.14157815
231	0x3e02cea2	0.12774137
232	0xbdec9b1e	-0.11553024
233	0x3e7373af	0.23774599
234	0xbdd7a3d3	-0.10529294
235	0x3d0a86e8	0.033820063
236	0x3e018455	0.12648137
237	0x3df14c8f	0.117821805
238	0x3d5e1bcf	0.05422574
239	0xbd4d5a7e	-0.05013513
240	0xbd86db05	-0.065847434
241	0x3db6d9e0	0.08928275
242	0xbda34059	-0.07971258
243	0xbd17848d	-0.036991645
244	0x3e091fb0	0.13390994
245	0x3e36dee0	0.17858458
246	0x3db1d041	0.086822994
247	0x3e4e18c5	0.20126636
248	0xbd91de9f	-0.0712254
249	0x3e094e11	0.13408686
250	0xbd25aacf	-0.0404461
251	0x3e308da9	0.17241539
252	0xbdcfe748	-0.10151535
253	0x3e5213b2	0.20515326
254	0x3ddf7b5a	0.10912199
255	0x3d382e6e	0.044966154

6.bias f4 [8]
0	0xbd241051	-0.040054623
1	0xbd6616eb	-0.0561742
2	0x3bdea67d	0.0067947493
3	0xbbcbaef7	-0.006215926
4	0x3d5879ad	0.052850414
5	0xbd812ac6	-0.063069865
6	0xbc2442a0	-0.01002565
7	0xbc57086c	-0.0131245665
