Pretrained_cnn/main/saved_feature/feature_extractor_best_epoch_24.pth (torch, 29688 bytes, 6 tensors)

0.weight f4 [32, 3, 3, 3]
0	0x3dd05265	0.101719655
1	0x3ce3a885	0.027790317
2	0x3e1563a0	0.14588785
3	0x3e1dbf54	0.15405017
4	0xbdde0bcc	-0.10842094
5	0xbeb1a472	-0.34695774
6	0x3d56eaf8	0.052470177
7	0xbe256bbb	-0.16154377
8	0xbeb311fe	-0.34974664
9	0x3e215268	0.15754092
10	0x3e5f20af	0.21789812
11	0x3e449559	0.19197597
12	0x3e04e8c5	0.1297942
13	0xbd2a9b26	-0.041651867
14	0xbe7989c3	-0.24368958
15	0xbd68c339	-0.056826804
16	0xbe6ad9f0	-0.22934699
17	0xbe8641b3	-0.26222
18	0x3e869ce6	0.2629158
19	0x3e8c710e	0.27430004
20	0x3cea351f	0.028589783
21	0x3e1e0a48	0.1543361
22	0x3df2cdb8	0.11855644
23	0xbe8b6d7e	-0.27231973
24	0x3d50478a	0.050849475
25	0xbe16e93c	-0.1473741
26	0xbea64893	-0.32477245
27	0x3d3c5c7a	0.04598663
28	0xbe6b461e	-0.22975966
29	0xbe703397	-0.2345718
30	0xbe1626bf	-0.14663218
31	0xbd052aa4	-0.03251137
32	0xbcdc4416	-0.026887935
33	0x3e323d57	0.17406212
34	0xbccc4e85	-0.024939785
35	0xbdd9afd8	-0.10629243
36	0xbe438503	-0.19093709
37	0xbdd60c49	-0.10451562
38	0xbe4df88f	-0.20114349
39	0xbde7942d	-0.11307559
40	0xbe0ee576	-0.1395472
41	0xbe9f2997	-0.31086418
42	0x3df9ebcb	0.12203177
43	0xbe4f144e	-0.2022259
44	0x3cdbed10	0.026846439
45	0xbe80090d	-0.25006905
46	0xbecb7fd7	-0.39745972
47	0xbed7a5fd	-0.42118827
48	0xbea01533	-0.31266174
49	0xbe5b7267	-0.2143036
50	0xbea81206	-0.3282625
51	0x3e190dc2	0.14946654
52	0xbe45c901	-0.19314958
53	0xbdc4d7cf	-0.09611475
54	0x3e546d31	0.20744778
55	0x3daf24b5	0.08551923
56	0xbcad3ba5	-0.021146605
57	0xbd2823d3	-0.04104979
58	0x3d217ad8	0.039423794
59	0x3d0fd27c	0.035112843
60	0x3d2065af	0.039159473
61	0xbdc43158	-0.09579724
62	0xbc93a663	-0.018023675
63	0x3e28b78d	0.16476269
64	0xbe181338	-0.14851081
65	0xbe33da6f	-0.17563795
66	0xbb63b960	-0.0034747943
67	0xbe559a32	-0.20859602
68	0xbd745719	-0.059653375
69	0xbe074a60	-0.13211966
70	0x3ca1dbaf	0.019758074
71	0xbdc453cf	-0.09586298
72	0xbe144d9b	-0.14482729
73	0xbe8fcfab	-0.28088126
74	0xbe0d7863	-0.13815455
75	0xbd0a1b55	-0.033717472
76	0xbdf37347	-0.11887222
77	0xbdf238ab	-0.11827215
78	0xbddbb5af	-0.10728013
79	0xbe4f14c2	-0.20222762
80	0xbcc2d4f8	-0.023783192
81	0xbe158fea	-0.1460568
82	0xbe162d8f	-0.14665817
83	0xbe2e769f	-0.17037438
84	0xbe4489dd	-0.19193216
85	0xbdfee818	-0.12446612
86	0xbe2c1757	-0.16805778
87	0xbe48816e	-0.19580624
88	0xbd341dfc	-0.043973908
89	0xbc29e66c	-0.010369878
90	0x3e03f774	0.12887365
91	0x3e549590	0.20760179
92	0x3e928254	0.28615057
93	0x3e8274c3	0.25479707
94	0x3e550007	0.20800792
95	0x3e9fedd0	0.31236124
96	0x3e861ec3	0.26195344
97	0x3e4e5090	0.2014792
98	0x3de4d495	0.11173359
99	0xbcc29ddc	-0.023756914
100	0xbe0810e7	-0.13287698
101	0xbda957e1	-0.08268715
102	0xbe0b9496	-0.136309
103	0xbd74edb7	-0.059797015
104	0xbdebae62	-0.1150787
105	0xbe0c74e0	-0.1371646
106	0xbd8ec4e3	-0.06971147
107	0xbc60fe65	-0.013732527
108	0x3e156f22	0.14593175
109	0x3e2e65cc	0.1703102
110	0x3e4d6d7e	0.20061299
111	0x3e00dce7	0.12584268
112	0x3e941c61	0.289279
113	0x3e00886a	0.12552038
114	0x3e384563	0.17995219
115	0x3d438510	0.04773432
116	0xbc133d88	-0.008986838
117	0x3e54b852	0.20773438
118	0x3b2f9f48	0.002679782
119	0x3e838992	0.25690895
120	0xbd7d0e9d	-0.061781514
121	0xbd4b2a4d	-0.049600888
122	0x3d42a883	0.047523987
123	0xbce5603e	-0.027999993
124	0xbe0ec0b2	-0.13940695
125	0xbe03f43b	-0.12886135
126	0xbe549d3b	-0.20763104
127	0xbe528566	-0.205587
128	0xbdc5f55c	-0.09665939
129	0xbdda9113	-0.10672202
130	0xbdc80528	-0.097666085
131	0x3aacf90f	0.0013196784
132	0xbd3aae1d	-0.045576204
133	0xbe714e8d	-0.23565121
134	0xbe885363	-0.2662612
135	0xbeb60319	-0.35549238
136	0xbe157b3f	-0.14597796
137	0x3e1a1add	0.1504931
138	0xbe105d3e	-0.14098069
139	0xbd135559	-0.035970066
140	0x3e0f0475	0.13966544
141	0xbc825ad7	-0.015912456
142	0x3df3eb9b	0.119101726
143	0x3e6ceee9	0.23138012
144	0xbe829fb3	-0.25512466
145	0xbc98b29a	-0.018639851
146	0xbc67a212	-0.014137762
147	0xbdf126a4	-0.11774948
148	0xbe01616d	-0.12634821
149	0x3e64134b	0.22272985
150	0x3c3187d2	0.010835605
151	0x3e25aa20	0.16178179
152	0x3e6d78ff	0.23190688
153	0xbe9e84a3	-0.3096057
154	0xbdd66171	-0.10467804
155	0xbb81f4c3	-0.0039659454
156	0xbeb32995	-0.34992662
157	0xbd3703a0	-0.04468119
158	0x3e1ba44e	0.15199396
159	0x3dd3d663	0.103436254
160	0x3e3191a3	0.17340712
161	0x3e689c8e	0.22715971
162	0xba88edd9	-0.0010446861
163	0xbe436215	-0.19080384
164	0xbda64869	-0.0811928
165	0xbd77b88d	-0.060478736
166	0xbe644676	-0.22292504
167	0x3da621c3	0.08111908
168	0xbd081daf	-0.033231433
169	0xbddd686f	-0.10810935
170	0xbe0e5589	-0.13899817
171	0xbd7acd21	-0.061230782
172	0xbd0099c9	-0.03139666
173	0x3daec6ff	0.08534049
174	0xbd3179c9	-0.043329034
175	0x3b18f115	0.0023337055
176	0x3e18495d	0.14871736
177	0x3af31173	0.0018544629
178	0xbe17b76d	-0.14816065
179	0x3de99e65	0.114071645
180	0x3d821ee8	0.06353551
181	0xbb37e158	-0.00280579
182	0xbe26e786	-0.16299257
183	0x3df22f18	0.11825389
184	0xbd89aa2a	-0.06721909
185	0x3d96494c	0.07338199
186	0xbdbc4ec6	-0.09194712
187	0xbd886f2e	-0.06661831
188	0xbd297ef6	-0.041380845
189	0xbe1813cd	-0.14851303
190	0x3dd9172c	0.10600123
191	0xbc07c9b2	-0.008287834
192	0xbe308a98	-0.1724037
193	0xbe108396	-0.14112696
194	0xbea4815f	-0.32129952
195	0x3d9f57b1	0.07780398
196	0xbdbfc033	-0.09362831
197	0x3dbd4652	0.09241928
198	0x3e28a8e6	0.1647068
199	0x3e6039f9	0.21897115
200	0xbd3dfd17	-0.046383943
201	0x3c9d5e76	0.019210082
202	0xbd50a2e7	-0.050936606
203	0xbe4a9a36	-0.1978539
204	0xbc39fc12	-0.011351602
205	0x3e0a4c2d	0.13505621
206	0x3e61c578	0.22047985
207	0x3dffdbf8	0.124931276
208	0x3e3fc287	0.1872655
209	0xbd0c139f	-0.0341984
210	0x3e08c18f	0.13355087
211	0xbda06e30	-0.078335166
212	0xbea86d7c	-0.3289603
213	0x3e30fb3d	0.1728334
214	0x3d17f98c	0.03710322
215	0xbd57bf3f	-0.05267262
216	0x3e1bd921	0.15219547
217	0x3ded0432	0.11573066
218	0x3da5ae80	0.08089924
219	0x3e28a359	0.16468562
220	0x3d87c23f	0.066288464
221	0x3dcac1b8	0.0990023
222	0x3d58cabe	0.052927725
223	0x3d379211	0.044817034
224	0xbb94484f	-0.0045252214
225	0xbd075372	-0.033038564
226	0x3d1099e6	0.03530302
227	0xbe1c1978	-0.1524409
228	0xbe15042b	-0.14552371
229	0xbe8ea380	-0.27859116
230	0xbe2fcca7	-0.17167912
231	0xbe0efee0	-0.13964415
232	0xbd7b826a	-0.06140367
233	0x3cfec329	0.031098919
234	0xbd577c32	-0.052608676
235	0xbe14f7f7	-0.14547716
236	0xbe117646	-0.14205274
237	0xbde58c7e	-0.112084374
238	0xbe760ca6	-0.24028262
239	0xbc45e959	-0.01207956
240	0x3daab924	0.08336094
241	0xbcffa12a	-0.031204779
242	0xbe2f8768	-0.17141497
243	0xbf371906	-0.7152256
244	0x3df128f8	0.11775392
245	0xbd4d0677	-0.050054993
246	0xbf4306bf	-0.7618217
247	0xbf3a711d	-0.7282885
248	0x3dcf5421	0.10123468
249	0xbf6585c5	-0.8965724
250	0xbf7f73a1	-0.9978581
251	0x3dab1b0a	0.08354767
252	0xbf27031d	-0.65239125
253	0x3d68bb1c	0.056819066
254	0xbda93954	-0.082628876
255	0xbf20c8d4	-0.6280644

0.bias f4 [32]
0	0xbc7a3945	-0.015272443
1	0xbd72892f	-0.05921286
2	0xbc4dd919	-0.012563967
3	0xbdecdb39	-0.11565251
4	0xbd341b1b	-0.043971162
5	0xbdcfe843	-0.10151722
6	0xbd161629	-0.036642227
7	0xbc5db59f	-0.013532071
8	0x3cc20998	0.023686215
9	0x3e1b67ec	0.15176362
10	0x3b48ea21	0.003065713
11	0xbe556c1b	-0.2084202
12	0xbe69f9e7	-0.22849236
13	0xbe356d23	-0.17717414
14	0x3c631742	0.013860526
15	0xbdecf637	-0.11570399
16	0x3e86bb87	0.26314947
17	0xbd57ba48	-0.052667886
18	0xbd8cff3f	-0.06884622
19	0xbe4373a5	-0.19087084
20	0xbc0b48ab	-0.008501212
21	0xbec2ce87	-0.38048193
22	0xbe29b1cf	-0.16571735
23	0xbd1ad3cf	-0.037799653
24	0x3d9062a9	0.07050068
25	0xbd034e4d	-0.032057095
26	0xb712dfd4	-8.754392e-06
27	0x3aa70bb4	0.0012744577
28	0xbdf4347b	-0.11924072
29	0xbd8feaa8	-0.07027179
30	0xbc455d06	-0.012046104
31	0xbe362a96	-0.17789683

3.weight f4 [16, 32, 3, 3]
0	0xbda5a2e4	-0.080877095
1	0xbceea20b	-0.029130002
2	0x3e0e1c47	0.13877974
3	0xbe4f6e2f	-0.20256875
4	0xbe1dd69c	-0.15413898
5	0xbe2f7936	-0.17136082
6	0xbccc409e	-0.024933156
7	0x3daa6ab6	0.08321135
8	0xbe9fa140	-0.3117771
9	0x3ad7a20f	0.0016451495
10	0xbd3a2e58	-0.045454353
11	0xbe4bf2ad	-0.19916792
12	0xbe18d57c	-0.14925188
13	0xbdcb5a87	-0.09929376
14	0x3d7d269c	0.0618044
15	0xbc966dbc	-0.018362872
16	0xbe123db9	-0.14281358
17	0xbd6228ff	-0.05521488
18	0xbe05e641	-0.13076116
19	0x3de3c83f	0.11122178
20	0xbd5c6c26	-0.053814076
21	0xba84af99	-0.0010123133
22	0xbc67c91f	-0.014147072
23	0x3d89d3ba	0.06729837
24	0xbc847d97	-0.016173167
25	0xbd68e1d4	-0.05685599
26	0x3d956b59	0.072958656
27	0x3f09f4f6	0.53889406
28	0x3e963e40	0.29344368
29	0xbd9f46e1	-0.07777191
30	0x3ed73feb	0.42040953
31	0x3d757fbc	0.05993627
32	0xbe9cc993	-0.3062254
33	0x3e8b6847	0.27227995
34	0xbdb4ead5	-0.08833853
35	0xbf143761	-0.57897
36	0xbf186dbd	-0.5954245
37	0xbeab99df	-0.33515832
38	0x3e3239ca	0.17404857
39	0xbed8babb	-0.42329964
40	0x3c7fdab1	0.015616105
41	0x3ec082eb	0.37599882
42	0xbe704064	-0.23462063
43	0x3eb5d10b	0.3551105
44	0x3f1ae618	0.60507345
45	0xbccb59d2	-0.024823103
46	0xbdc94720	-0.09828019
47	0xbd9acc81	-0.07558537
48	0xbebf5848	-0.3737204
49	0xbeb02cb0	-0.34409094
50	0xbdcb5ebc	-0.099301785
51	0xbeb13dcd	-0.34617463
52	0xbe68aca3	-0.22722106
53	0xbe441aa0	-0.19150782
54	0x3e76fb9d	0.2411942
55	0x3db12ab3	0.08650722
56	0xbe373d3c	-0.17894453
57	0x3e31522c	0.17316502
58	0xbdc3d51d	-0.095621325
59	0xbde42f8f	-0.111418836
60	0x3e3cb467	0.18428193
61	0xbc80a197	-0.015702052
62	0xbe5a1258	-0.2129606
63	0x3e8a2478	0.26980948
64	0x3db7c1b2	0.08972491
65	0x3be84217	0.0070879566
66	0x3dae0b48	0.084982455
67	0xbe180156	-0.1484426
68	0xbe7a8a4d	-0.2446682
69	0x3b7a7b11	0.0038220326
70	0xbdc29f39	-0.095030256
71	0xbe7c3041	-0.24627782
72	0xbe1a42f4	-0.15064603
73	0xbe525105	-0.20538719
74	0x3d01b988	0.031671077
75	0xbe8d9344	-0.27651417
76	0xbdfc0215	-0.123050846
77	0xbb1d4562	-0.0023997654
78	0xbe7df2a2	-0.24799588
79	0x3e02c303	0.12769704
80	0x3e8be299	0.27321318
81	0x3d128822	0.035774358
82	0xbf23b18a	-0.6394278
83	0xbe6b2119	-0.22961845
84	0xbe78be8b	-0.24291436
85	0xbdc98a93	-0.09840884
86	0xbe00d380	-0.12580681
87	0x3d18e797	0.037330236
88	0xbe878bbe	-0.26473802
89	0xbbd3da80	-0.006465256
90	0x3e6a0c27	0.22856198
91	0x3caa1268	0.02076073
92	0x3da38977	0.07985204
93	0x3e06c914	0.13162643
94	0xbdab617d	-0.08368204
95	0xbdfc482c	-0.12318453
96	0x3de62ac3	0.11238625
97	0xbdb59c8e	-0.08867751
98	0xbe5745f0	-0.21022773
99	0xbe4e2028	-0.20129454
100	0xbd9f63c3	-0.077827
101	0x3e0738f5	0.13205321
102	0x3e027f56	0.12743887
103	0x3d42d467	0.047565844
104	0xbdbf7185	-0.09347824
105	0x3e8887bd	0.2666606
106	0x3d4af68c	0.04955153
107	0x3e34ecb9	0.17668428
108	0xbea6358b	-0.32462725
109	0xbe1bbbbc	-0.15208334
110	0xbe2833c6	-0.16426
111	0x3bedbef3	0.007255429
112	0x3d1ed03b	0.038772803
113	0x3e1b1522	0.1514478
114	0x3cf44f99	0.029823111
115	0xbb39e843	-0.0028367199
116	0x3e0946ea	0.13405958
117	0x3d9012f1	0.07034863
118	0xbcf752cd	-0.03019085
119	0xbdd1a04d	-0.10235653
120	0x3c90545c	0.01761835
121	0x3d52a37a	0.051425435
122	0x3e21f1fc	0.15814966
123	0x3da87fae	0.08227478
124	0x3b892fee	0.004186622
125	0x3d5a88bb	0.053353053
126	0x3ea8335e	0.3285169
127	0x3db6ea9d	0.08931468
128	0xbd082dd0	-0.033246815
129	0x3ec5c01f	0.3862314
130	0x3d1b5f47	0.03793266
131	0xbe80c743	-0.25152025
132	0x3e30e0d3	0.17273264
133	0x3dae554f	0.08512365
134	0xbebc9896	-0.36835164
135	0x3e469dc0	0.19396114
136	0x3d32c665	0.043646235
137	0xbe1e2a50	-0.15445828
138	0xbd762905	-0.060097713
139	0xbc3d33dd	-0.01154801
140	0xbe21d1eb	-0.15802734
141	0x3e938c24	0.28817856
142	0x3dbfef1d	0.09371779
143	0xbe1c2ec9	-0.15252222
144	0xbeb1a45e	-0.34695715
145	0xbe92295c	-0.2854718
146	0xbcb78cff	-0.0224061
147	0x3db907e2	0.09034707
148	0x3d0118e7	0.03151789
149	0x3dcd6bea	0.100303486
150	0x3e5aba3b	0.21360104
151	0xbd7e5f3e	-0.06210255
152	0xbd3f1c32	-0.04665775
153	0xbf11a46e	-0.56891525
154	0xbe340f19	-0.17583884
155	0x3c89a8df	0.016804157
156	0xbe8e3acd	-0.27779236
157	0xbcd0f291	-0.02550629
158	0x3e921644	0.28532612
159	0xbe5608e6	-0.20901832
160	0x3e51de60	0.20494986
161	0x3ed60248	0.41798615
162	0x3d2bf35d	0.041980136
163	0x3d900b59	0.070334144
164	0xbca061ee	-0.019577947
165	0x3e0a6ca3	0.13518004
166	0xbccc216c	-0.02491828
167	0xbd26533e	-0.04060673
168	0xbca29975	-0.019848565
169	0xbdd9f5dd	-0.10642598
170	0xbe6aad96	-0.2291778
171	0xbd2c46b2	-0.042059608
172	0xbdee4e95	-0.11636082
173	0xbda9f795	-0.08299176
174	0x3dfd7780	0.123763084
175	0x3e561e53	0.20910005
176	0xbd1d9d7d	-0.03848027
177	0xbd7380dd	-0.059449065
178	0x3dceeb16	0.10103433
179	0x3df596ef	0.11991679
180	0xbec2439d	-0.3794221
181	0xbefa22e1	-0.48854735
182	0xbeaa7cb4	-0.33298266
183	0xbd6b59bd	-0.057458628
184	0x3bd305a7	0.006439883
185	0xbd8b3fd6	-0.06799285
186	0x3d813e96	0.063107654
187	0x3e3c0db9	0.1836461
188	0x3ef17be7	0.47164842
189	0xbe1270c8	-0.14300835
190	0xbe3043df	-0.17213391
191	0xbd3e4159	-0.04644904
192	0x3e217bf2	0.15769938
193	0xbdbfeea0	-0.09371686
194	0xbd7e1627	-0.062032845
195	0x3e1eece8	0.1552006
196	0xbc656675	-0.014001478
197	0x3c831fd6	0.016006391
198	0xbe677e3d	-0.2260675
199	0xbe607e30	-0.21923137
200	0xbda4f904	-0.080553085
201	0xbcd640ba	-0.02615391
202	0xbdf41234	-0.119175345
203	0xbec83c8d	-0.39108697
204	0xbe62b14d	-0.22137947
205	0xbec7a805	-0.38995376
206	0xbe755588	-0.23958409
207	0x3ea749fb	0.3267363
208	0x3e081c9b	0.13292162
209	0xbd846c21	-0.064659365
210	0x3e741aa8	0.23838294
211	0xbdb0aab2	-0.086263075
212	0xbe044df6	-0.12920365
213	0xbc132719	-0.00898149
214	0xbe52b838	-0.20578086
215	0xbe81737c	-0.2528342
216	0xbdb4bcd4	-0.088250786
217	0xbdef2c06	-0.11678319
218	0xbe40b89b	-0.18820421
219	0xbdc48643	-0.09595921
220	0xbd555096	-0.052078806
221	0xbde936d6	-0.11387412
222	0xbbcc92f0	-0.0062431023
223	0xbe351726	-0.17684612
224	0xbcfe1d11	-0.03101972
225	0xbf0aaeb4	-0.54172826
226	0x3baf7db3	0.0053555607
227	0x3eb397e5	0.35076824
228	0xbed9a901	-0.42511752
229	0x3e6ddfc7	0.23229896
230	0x3f22c687	0.6358418
231	0xbea0f3b4	-0.3143593
232	0x3f1352fc	0.575485
233	0x3f2c3340	0.672657
234	0xbe73155b	-0.23738615
235	0x3cf48781	0.02984977
236	0xbe968fd9	-0.29406622
237	0xbd844b19	-0.06459636
238	0x3e01cedc	0.12676567
239	0x3b6c1df7	0.0036028603
240	0xbdd58099	-0.10424919
241	0xbe5ad97d	-0.21372028
242	0xbe1c0a56	-0.15238318
243	0x3dd6abb2	0.10481967
244	0xbdfc6126	-0.12323217
245	0xbe30e085	-0.17273147
246	0x3dbad8c5	0.09123377
247	0x3e1682c6	0.14698324
248	0xbe49943e	-0.19685456
249	0x3e246e73	0.16057758
250	0x3e15cc8b	0.14628808
251	0xbd866e4b	-0.065640055
252	0xbe4dd17f	-0.20099448
253	0xbdba70c3	-0.09103539
254	0x3e04f84e	0.12985346
255	0xbbea7457	-0.007154982

3.bias f4 [16]
0	0xbd48eec1	-0.04905582
1	0x3df18c3d	0.117943265
2	0xbda76a44	-0.081745654
3	0x3df601e3	0.120120786
4	0x3d656dc9	0.056012902
5	0xbcda38fb	-0.026638499
6	0x3c911152	0.017708454
7	0x3cd3ca71	0.025853368
8	0xbcb1535d	-0.021646196
9	0xbde0fbfe	-0.10985564
10	0xbaaa33f1	-0.001298545
11	0xbe0cf358	-0.13764703
12	0x3d99237d	0.07477472
13	0xbe201b45	-0.15635403
14	0x3d5ca83f	0.05387139
15	0xbd6c13ba	-0.057636

6.weight f4 [8, 16, 3, 3]
0	0xbd13422a	-0.03595177
1	0x3e2da5ce	0.1695778
2	0xba9d5fb1	-0.0012006668
3	0x3db1e283	0.08685782
4	0x3d9b90bd	0.07595966
5	0xbaf60e4d	-0.0018772573
6	0xbcf08992	-0.029362474
7	0xbdd438e0	-0.103624105
8	0x3c896080	0.016769648
9	0x3dcad52d	0.09903941
10	0x3c9e0faf	0.019294588
11	0x3d6926e9	0.056921873
12	0x3db31668	0.08744508
13	0x3e93344f	0.28750846
14	0x3e2dc6bf	0.16970347
15	0x3d962325	0.07330922
16	0x3e85209e	0.26001447
17	0x3e8f9a64	0.28047478
18	0xbd164f39	-0.036696646
19	0x3c358e4d	0.01108129
20	0xbc90b596	-0.017664712
21	0x3d8415e5	0.064494886
22	0xbe2b0664	-0.16701657
23	0x3e04c6e9	0.12966503
24	0x3dd38854	0.10328737
25	0x3cdeacf7	0.027182085
26	0xbd2423c5	-0.040073175
27	0xbdb26eb4	-0.08712521
28	0xbe4f9e89	-0.2027532
29	0x3c058c57	0.008151135
30	0xbe06d2f0	-0.13166404
31	0x3d6e7ba2	0.058223374
32	0x3e045f3f	0.12926959
33	0x3c7aed11	0.01531531
34	0x3df051c2	0.11734344
35	0x3e11b842	0.14230445
36	0xbe2f5b1c	-0.17124599
37	0x3b7dd499	0.0038731454
38	0x3e25fe5f	0.16210316
39	0xbe1d6273	-0.15369587
40	0x3d87955d	0.06620286
41	0x3e324038	0.1740731
42	0xbe0e5e72	-0.13903216
43	0xbd5c21c7	-0.05374315
44	0x3e3c11bb	0.18366139
45	0xbdaf5ddd	-0.08562825
46	0xbb99d322	-0.0046943584
47	0xbdc05e5f	-0.09393
48	0xbe57fcb3	-0.21092491
49	0xbebfcab5	-0.3745934
50	0xbe997c5b	-0.29977688
51	0x3d3afd88	0.045651942
52	0xbdc7d847	-0.097580485
53	0xbec303cc	-0.38088834
54	0x3dd8cb44	0.10585645
55	0xbdbf6ab1	-0.09346522
56	0x3e60148a	0.21882835
57	0xbe73f95e	-0.23825595
58	0xbde4c78c	-0.11170873
59	0x3da86829	0.08222992
60	0xbe2470fe	-0.16058728
61	0xbde90971	-0.11378754
62	0x3daa7c5e	0.083245024
63	0xbe0ba23e	-0.13636109
64	0xbdb71497	-0.08939474
65	0xbe49e82e	-0.19717476
66	0xbd6eba93	-0.0582834
67	0xbde8efaf	-0.11373841
68	0xbdd94616	-0.10609071
69	0xbe85181c	-0.25994956
70	0xbdf94236	-0.12170832
71	0xbe0e52c3	-0.13898759
72	0xbdf413ea	-0.11917861
73	0xbd158976	-0.036508046
74	0xbe0c1afc	-0.13682169
75	0xbc8fe7ef	-0.01756665
76	0xbdbf1df7	-0.09331887
77	0x3e02c990	0.12772202
78	0xbd38c3ab	-0.04510848
79	0x3db32e52	0.08749069
80	0x3d86b7c0	0.06578016
81	0x3d281f6c	0.04104559
82	0x3e08a1ff	0.13343047
83	0xbe33775c	-0.17526
84	0xbd9d91a4	-0.07693794
85	0xbdaf0928	-0.08546668
86	0xbddd0749	-0.10792405
87	0xbe0a661d	-0.13515516
88	0xbe71538b	-0.23567025
89	0x3cfa4a2d	0.030552948
90	0xbcc9c315	-0.024629155
91	0xbde38a31	-0.11110342
92	0xbd65d544	-0.05611159
93	0x3c54a813	0.012979525
94	0x3d0c6c3e	0.034282915
95	0xbd8ea7e5	-0.06965617
96	0x3ca48acb	0.020085713
97	0xbe4d524c	-0.20050925
98	0x3d5d7c1a	0.05407343
99	0xbe6603e4	-0.22462422
100	0xbd7e28b5	-0.06205054
101	0x3e6ad644	0.22933298
102	0xbe48987e	-0.19589421
103	0xbd774c8e	-0.060375743
104	0xbddc6a47	-0.10762458
105	0xbe12554c	-0.1429035
106	0xbe66a282	-0.2252293
107	0x3e276adc	0.16349357
108	0xbdedcc22	-0.11611201
109	0x3e0d23fb	0.13783257
110	0x3e776936	0.24161229
111	0xbe26c07f	-0.16284369
112	0x3d1c0a95	0.03809603
113	0x3dcc71a7	0.09982615
114	0xbda22072	-0.07916345
115	0x3dfe8af0	0.12428844
116	0xbdd55c31	-0.10417975
117	0x3e299163	0.16559367
118	0xbd9ff17c	-0.07809731
119	0x3e10c3d6	0.14137205
120	0xbe07b523	-0.13252692
121	0x3e3b214c	0.1827442
122	0x3cd8dea0	0.026473343
123	0xbded605b	-0.11590644
124	0xbe1f0961	-0.15530922
125	0x3dd4c633	0.10389366
126	0xbd1e9646	-0.03871753
127	0x3e1049eb	0.14090697
128	0xbdae3faf	-0.085082404
129	0xbb2b1e1a	-0.0026110471
130	0xbd7c2cbd	-0.061566103
131	0x3e303e11	0.17211176
132	0xbda9767b	-0.082745515
133	0x3d553b19	0.052058313
134	0x3e063a4d	0.13108177
135	0xbd9bbaa6	-0.0760396
136	0x3e62cd2e	0.22148582
137	0x3d81c812	0.063369885
138	0x3e3a107b	0.1817035
139	0x3e9737ba	0.29534703
140	0xbd6d0cc0	-0.057873487
141	0x3d69dd55	0.057095844
142	0xbd82e833	-0.06391945
143	0xbd7cfd23	-0.061764847
144	0xbe4a62d4	-0.19764262
145	0x3cd60869	0.026127057
146	0x3e9b867e	0.30376047
147	0xbe66e20e	-0.2254717
148	0x3b4f4bd4	0.003163089
149	0x3e2c4cb4	0.16826135
150	0xbe6d3a00	-0.23166656
151	0x3e23b7e9	0.15988125
152	0x3cbbf04e	0.022941735
153	0x3e72b493	0.23701696
154	0x3da97527	0.08274298
155	0xbe413b2b	-0.18870227
156	0x3c2e8dff	0.010653972
157	0xbdf2d996	-0.118579075
158	0xbc87b8fc	-0.0165677
159	0xb96c54f1	-0.00022538357
160	0xbe186bb9	-0.14884843
161	0x3dfbef79	0.12301535
162	0x3cd67ab4	0.026181556
163	0x3cbbf395	0.022943297
164	0x3d0c3f15	0.034239847
165	0xbe2cb19b	-0.16864626
166	0xbe1a23ee	-0.15052769
167	0xbaf27164	-0.0018496928
168	0x3d52d276	0.051470242
169	0x3df11b0d	0.11772738
170	0x3e2b7c46	0.16746625
171	0xbd8eb413	-0.0696794
172	0xbcf840e4	-0.03030438
173	0x3d0e0271	0.034670297
174	0xbe444398	-0.1916641
175	0xbd796773	-0.060889672
176	0x3e53b756	0.20675406
177	0x3d29e179	0.041474793
178	0xbe0bf797	-0.13668667
179	0x3e08aaa8	0.1334635
180	0xbdfb74a2	-0.12278105
181	0xbdac42ad	-0.08411155
182	0x3e10efd8	0.14153993
183	0xbe0ee801	-0.1395569
184	0xbd07d80e	-0.03316503
185	0x3dcdaefb	0.100431405
186	0x3d067600	0.032827377
187	0x3d8df82a	0.06932099
188	0xbd11f33f	-0.03563237
189	0xbd8b9872	-0.06816186
190	0xbe2a4861	-0.16629173
191	0xbd972390	-0.0737983
192	0xbd494d60	-0.049146056
193	0x3dcd1dc1	0.10015441
194	0x3e0c6cff	0.13713454
195	0xbe1fa3eb	-0.15589873
196	0x3caad337	0.020852668
197	0x3e791d03	0.24327473
198	0xbdcb15c4	-0.09916261
199	0xbdc053b5	-0.09390966
200	0x3d7a5390	0.061114848
201	0xbd3a7cce	-0.04552918
202	0xbddf7ba2	-0.10912253
203	0x3e36e8fe	0.17862317
204	0xbdbd1cd6	-0.09234016
205	0x3e47b7c0	0.19503689
206	0x3c415a13	0.0118012605
207	0xbe3d59ca	-0.18491283
208	0xbd803076	-0.06259243
209	0x3d9eb3dd	0.0774915
210	0xbdecf015	-0.115692295
211	0xbe0f3205	-0.13983925
212	0x3d36b9e2	0.044610865
213	0xbdd7ea7b	-0.105427705
214	0x3cf5c8dc	0.030003004
215	0x3e422b58	0.18961847
216	0x3c44d876	0.012014499
217	0x3de31e64	0.11089781
218	0xbd547bac	-0.051875755
219	0x3d813ece	0.06310807
220	0x3d3e71a6	0.046495102
221	0x3d2f66db	0.0428227
222	0x3dee56c3	0.11637642
223	0xbdc7f29a	-0.097630695
224	0xbe0630a1	-0.13104488
225	0xbdbeaeae	-0.09310661
226	0xbddcd42b	-0.10782655
227	0x3ebc2dda	0.36753732
228	0xbe094625	-0.13405664
229	0x3e49b629	0.19698395
230	0x3e5532b1	0.20820118
231	0x3d441b2a	0.04787747
232	0x3dc24372	0.094855204
233	0x3ea9384e	0.3305077
234	0xbdd62263	-0.104557775
235	0x3bde5905	0.0067855143
236	0x3e308e53	0.17241792
237	0x3de16d10	0.1100713
238	0x3df33ffd	0.11877439
239	0x3c961485	0.018320331
240	0xbdfdde86	-0.123959586
241	0x3d422f0d	0.047408152
242	0xbd1a2b5c	-0.037639007
243	0xbc86fac0	-0.016476989
244	0x3e12098c	0.14261454
245	0x3e00d4ba	0.12581149
246	0x3e12c3ed	0.14332552
247	0x3e404cd9	0.18779315
248	0xbdb9d06f	-0.09072959
249	0x3e15729e	0.14594504
250	0xbd15226b	-0.036409777
251	0x3e393176	0.18085274
252	0xbeac3333	-0.33632812
253	0x3e131a40	0.14365482
254	0x3db31aac	0.08745322
255	0xbc3beba1	-0.0114697525

6.bias f4 [8]
0	0xbbf23147	-0.007391128
1	0xbe0312f8	-0.12800205
2	0x3c575c49	0.013144561
3	0x3d8cf038	0.068817556
4	0x3d75c5ce	0.060003094
5	0xbe59ca54	-0.21268588
6	0xbd43ce88	-0.047804385
7	0xbdb86453	-0.0900351
