Pretrained_cnn/main/saved_feature/feature_extractor_best_epoch_20.pth (torch, 29688 bytes, 6 tensors)

0.weight f4 [32, 3, 3, 3]
000000 9d 06 da 3d a8 82 b2 3c c3 42 09 3e c8 1d 2b 3e
       0.10645793 0.021790817 0.13404374 0.1671058
000010 a4 19 ba bd 49 8a a7 be 0e 64 83 3d d8 43 fc bd
       -0.09086922 -0.3272269 0.06415568 -0.12317628
000020 2c 76 9a be ce cb 20 3e 3b 30 51 3e 75 57 2d 3e
       -0.30168283 0.15702745 0.20428555 0.16927893
000030 ea 5f 0c 3e 8b 6f 0d bd f4 aa 73 be b8 cb 4f bd
       0.13708463 -0.034530204 -0.23795682 -0.05073139
000040 70 cb 4f be 8e f9 6b be 95 0a 84 3e 0a bb 84 3e
       -0.20292449 -0.23044416 0.25789323 0.2592395
000050 47 bd 00 3c d4 5f 21 3e cc d1 02 3e 2c 18 87 be
       0.007857627 0.15759212 0.12775344 -0.2638563
000060 60 19 53 3d 81 59 f6 bd 9a 5e 93 be 75 50 63 3d
       0.05153787 -0.1202879 -0.28783113 0.05549665
000070 e0 b1 69 be bb cf 68 be 51 94 16 be a2 d2 9a ba
       -0.2282176 -0.22735493 -0.14705016 -0.0011812041
000080 90 86 6c bb 98 ae 23 3e f8 40 f0 3c 4c d6 b1 bd
       -0.0036090948 0.15984571 0.029327855 -0.08683452
000090 e4 27 30 be 42 d4 a3 bd 48 9d 2e be 8a 7e d5 bd
       -0.17202717 -0.07999469 -0.17052186 -0.10424526
0000a0 f7 7f ea bd db 6a 93 be a0 2b df 3d e1 17 16 be
       -0.114501886 -0.28792462 0.10896993 -0.14657547
0000b0 f9 f4 51 3d cb 9d 84 be 2c 25 db be 4a ac ca be
       0.051259015 -0.25901636 -0.42801797 -0.3958457
0000c0 52 6e 9a be 88 c7 1a be 68 59 8c be c9 61 07 3e
       -0.30162293 -0.15115178 -0.27411962 0.13220896
0000d0 61 a0 09 be 07 d5 88 bd 57 55 44 3e 0d 92 ef 3d
       -0.13440086 -0.06681257 0.1917318 0.11697779
0000e0 7e be 2d bc 09 44 8e bd 7f 39 28 3d 86 98 6d 3d
       -0.010604499 -0.069465704 0.041070458 0.058006786
0000f0 59 61 44 3d dc 8f b3 bd 07 fd 69 bb 6f be 0d 3e
       0.0479444 -0.087676734 -0.0035703795 0.13842176
000100 d1 f3 dd bd 57 13 17 be 42 20 11 bd d0 2c 49 be
       -0.1083752 -0.14753471 -0.035431154 -0.19646001
000110 05 dc 67 bc 2c 05 e7 bd 6f 71 2d 3d 85 07 76 bd
       -0.014151578 -0.11280283 0.042344507 -0.060065765
000120 ea 34 13 be 82 98 46 be 6b e4 f1 bd 36 8a 84 bd
       -0.14375654 -0.19394115 -0.118111454 -0.06471674
000130 75 ec f7 bd f1 78 88 bd 9b 5a 88 bd e3 c7 32 be
       -0.121056475 -0.06663693 -0.066579066 -0.17459063
000140 ed 89 8d bc e2 4b 11 be 48 7f 16 be 2c f7 29 be
       -0.017277682 -0.14189103 -0.14696991 -0.16598195
000150 6e b1 3f be 14 bc f1 bd d4 b8 2e be ed 80 45 be
       -0.18720028 -0.11803451 -0.17062694 -0.19287463
000160 e3 83 f1 bc f0 94 66 bb cf 3e da 3d d5 be 3a 3e
       -0.029481834 -0.0035183989 0.10656511 0.18236859
000170 31 87 8a 3e 74 12 6c 3e 69 e1 3f 3e ac af 94 3e
       0.27056268 0.23053914 0.18738331 0.29040277
000180 95 68 74 3e f5 09 42 3e 32 18 cd 3d 71 60 e4 bc
       0.2386802 0.18949111 0.100143805 -0.027878018
000190 15 c3 09 be 04 06 92 bd 79 10 10 be df 35 63 bd
       -0.13453324 -0.07130054 -0.14068784 -0.055471297
0001a0 af 8a e9 bd 94 c3 12 be 4b c1 69 bd 44 41 38 bb
       -0.11403405 -0.1433242 -0.057069104 -0.0028115073
0001b0 83 2c 0b 3e 7d 5e 25 3e 1e 48 3e 3e 3c f7 eb 3d
       0.13591199 0.16149326 0.18582198 0.115217656
0001c0 37 1f 8f 3e 43 d0 e3 3d 89 5a 30 3e ef 1d 1d 3d
       0.27953503 0.11123707 0.17222036 0.038358625
0001d0 98 9e 49 bb 98 0f 4b 3e 35 b5 8b bb ea 54 75 3e
       -0.0030764695 0.19830167 -0.004263545 0.23958173
0001e0 02 58 84 bd 4d 6f 4c bd a6 4d 1e 3d de 8d d0 bc
       -0.06462099 -0.049910832 0.03864827 -0.025458273
0001f0 e2 75 0a be f0 39 ea bd 6c f0 49 be d4 08 4a be
       -0.13521531 -0.11436832 -0.1972062 -0.1972993
000200 23 2d cb bd 86 49 c6 bd 04 c3 b5 bd 09 c6 ba 3a
       -0.099207185 -0.09681992 -0.08875087 0.0014249693
000210 54 4b 05 bd d4 7b 66 be 7d fa 77 be 90 ad a8 be
       -0.03254254 -0.22508174 -0.24216647 -0.32944918
000220 0c d1 0b be d9 e4 1b 3e 48 2f fb bd f1 bf bd bc
       -0.13653964 0.15224017 -0.122648776 -0.023162814
000230 ea 58 0e 3e 4d ae 92 bc 0e 9d f0 3d 87 52 6c 3e
       0.13901106 -0.017905379 0.11748706 0.23078357
000240 df 0a 72 be 83 b4 83 bc 13 e6 b6 bc 62 99 da bd
       -0.2363696 -0.016077286 -0.022326505 -0.10673787
000250 17 16 fa bd bf 3c 5a 3e 01 35 81 3b 2c 03 1d 3e
       -0.122112446 0.21312235 0.003943086 0.15333241
000260 16 de 62 3e dd db 8f be 05 a4 ca bd 91 b7 2a bc
       0.22155032 -0.2809743 -0.098945655 -0.010419742
000270 b7 83 a9 be 39 96 16 bd 46 8b 11 3e d9 63 c7 3d
       -0.33108303 -0.036764357 0.14213285 0.09735841
000280 58 95 27 3e c7 37 5c 3e ec 94 a0 3c 85 53 36 be
       0.16365564 0.21505652 0.019602261 -0.17805298
000290 53 33 96 bd 7d 77 67 bd fe b9 62 be 7b 84 bf 3d
       -0.07334008 -0.056510437 -0.22141263 0.093514405
0002a0 3a e7 06 bd 96 c9 dc bd 32 0b 01 be 4d 4d 25 bd
       -0.03293536 -0.10780637 -0.12601927 -0.040356923
0002b0 dc 1d 9d bc 10 d1 b8 3d 4a 8b 10 bd b6 70 fc 3b
       -0.019179277 0.090242505 -0.035289086 0.007703866
0002c0 db f8 21 3e 1e 54 cd 3b 3c c9 12 be 6c e8 02 3e
       0.15817587 0.006266131 -0.14334577 0.12783974
0002d0 a5 0a b0 3d 50 0b 51 3c e7 a2 1e be 8f 83 f8 3d
       0.0859578 0.012759045 -0.1549183 0.12134468
0002e0 42 50 87 bd 16 1d b1 3d fd 72 bd bd 75 f5 8c bd
       -0.06607105 0.08648126 -0.09250448 -0.06882755
0002f0 34 1e f5 bc 8d d4 16 be 32 6b c8 3d 2d c0 00 bb
       -0.029921629 -0.14729519 0.09786071 -0.0019645796
000300 f8 27 2f be ad f8 03 be 07 56 97 be e0 9e a9 3d
       -0.1710509 -0.12887831 -0.2955782 0.08282256
000310 da ac b8 bd fe 4c af 3d d1 76 20 3e 74 90 50 3e
       -0.09017344 0.08559607 0.15670325 0.20367604
000320 3f 1b 45 bd 3c e7 06 3c c0 1f 5a bd 44 f3 40 be
       -0.048121687 0.0082338415 -0.053252935 -0.18842798
000330 5d 84 ac bc b2 06 fc 3d 62 f6 4c 3e 1b e1 f2 3d
       -0.02105921 0.123059645 0.20015863 0.11859342
000340 15 ee 30 3e aa 23 01 bd eb 3e 01 3e 23 91 95 bd
       0.17278321 -0.031528153 0.12621658 -0.07303073
000350 02 00 9d be dc 2c 2d 3e d9 c5 06 3d 05 32 86 bd
       -0.30664068 0.16911644 0.032903526 -0.06552509
000360 07 f4 06 3e d7 9e c9 3d df 5b 87 3d b5 44 19 3e
       0.13179027 0.098447494 0.0660932 0.14967616
000370 44 68 44 3d 88 eb a3 3d 5c 13 1c 3d ef 09 07 3d
       0.047950998 0.080039084 0.0381044 0.032968458
000380 42 1d 9b bc 64 27 e4 bc 62 4e 3d 3d 71 00 0c be
       -0.01893485 -0.027850814 0.04621733 -0.13672043
000390 9c 6f 07 be 9b 5d 89 be 70 10 27 be bc 6e 03 be
       -0.1322617 -0.26829228 -0.16314864 -0.1283521
0003a0 bd 73 3e bd 0e 66 2e 3d eb 42 1e bd 9b 3f f3 bd
       -0.046497095 0.042577796 -0.038638037 -0.11877366
0003b0 48 62 e8 bd 4a 49 a1 bd 74 30 5a be 75 d1 02 bb
       -0.11346871 -0.07875307 -0.21307546 -0.0019961272
0003c0 ec 59 ee 3d 9d 1d 4c 3b 48 91 13 be 0a ff 25 bf
       0.11638245 0.003114558 -0.14410889 -0.64842284
0003d0 34 45 c7 3d b6 be 30 bd 07 dd 34 bf bf 76 26 bf
       0.09729996 -0.043150626 -0.7064976 -0.6502494
0003e0 33 25 dc 3d 2b 2a 52 bf 84 e6 70 bf ff 0f 94 3d
       0.10749283 -0.82095593 -0.9410174 0.072296135
0003f0 c5 3e 20 bf d6 92 02 3d 9b 86 a8 bd e0 fc 1b bf
       -0.6259578 0.031878315 -0.08228799 -0.6093273

0.bias f4 [32]
000000 3a db ae bc 33 93 74 bd f7 1a b1 ba 3f 95 cd bd
       -0.02134477 -0.059710693 -0.0013512064 -0.10038232
000010 56 69 04 bd 8b 67 b9 bd 72 d6 de bc 98 3f 12 bc
       -0.03232702 -0.090529524 -0.027201865 -0.008926295
000020 0c c1 0b 3d bb 53 1a 3e 60 51 83 3b 88 ec 42 be
       0.03411965 0.15071003 0.0040075034 -0.19035542
000030 2f 8c 50 be 3a 1e 22 be 36 f9 23 3c 06 14 d6 bd
       -0.20365976 -0.15831843 0.010008147 -0.10453038
000040 5d 12 81 3e 64 11 3e bd 7e 53 57 bd d0 ed 3e be
       0.25209323 -0.046403304 -0.05256986 -0.18645406
000050 3d c9 bb bb e5 82 a9 be 52 0a 1f be d4 54 03 bd
       -0.0057307766 -0.33107677 -0.1553128 -0.03206332
000060 ac c1 80 3d a8 ec f0 bc 68 d1 2d bd 9f f2 a7 bc
       0.0628694 -0.029409721 -0.042436033 -0.020501433
000070 3c 36 0a be 10 24 af bd 97 f7 9a bb 58 48 1b be
       -0.13497251 -0.085518 -0.004729222 -0.15164316

3.weight f4 [16, 32, 3, 3]
000000 6b f1 89 bd 7b d1 84 bd 4e 91 eb 3d e3 00 31 be
       -0.067355 -0.06485268 0.11502324 -0.17285495
000010 6a 56 18 be dc 32 19 be 9c d1 5f 3a 89 99 9a 3d
       -0.14876714 -0.14960808 0.0008538009 0.07548816
000020 df 24 9b be eb e5 5c 3c f2 dd 2e bd 2f 2e 95 be
       -0.30301568 0.013482551 -0.042692132 -0.29136798
000030 36 54 2f be 3a 77 3a be 1d 5b a9 3d d6 4b ef bb
       -0.17121968 -0.18209544 0.082693316 -0.0073027415
000040 93 db c1 bd 7e 9b 5d bd 1a dd ec bd ca ff 8f 3d
       -0.094657086 -0.054103367 -0.11565609 0.0703121
000050 2d 85 77 bd f0 c7 a8 bd 5a 9b b0 bc 82 1b 57 bc
       -0.06042974 -0.0824126 -0.021558452 -0.013129117
000060 1c da 18 bd 03 b8 c8 bd 1d f8 21 3d 4f 56 03 3f
       -0.03731738 -0.098007225 0.03954326 0.5130357
000070 b0 a3 8a 3e 5a e6 aa bd 25 1a cf 3e c7 17 79 3d
       0.2707801 -0.08344717 0.40449634 0.06081369
000080 ce cd 8f be 5c 0c 8b 3e 19 c3 86 bd e4 a6 07 bf
       -0.28086704 0.27157867 -0.06580181 -0.5298903
000090 d7 8b 16 bf 58 6b ba be 95 2a 05 3e 87 0f d1 be
       -0.5880713 -0.36410022 0.13004525 -0.4083216
0000a0 4a ff 24 bc 75 7a b0 3e 85 c3 1f be 7f 86 ae 3e
       -0.010070631 0.34468427 -0.15601929 0.34086987
0000b0 25 42 0f 3f 77 d3 27 bc 34 29 6f bd 39 62 81 bb
       0.55960304 -0.010243288 -0.058388904 -0.0039484766
0000c0 98 89 a8 be f2 52 be be 82 31 e9 bd 18 21 c4 be
       -0.32917476 -0.37172657 -0.11386396 -0.383065
0000d0 3d 38 7e be 2c fb 62 be 12 b5 70 3e 77 4a a7 3d
       -0.2482614 -0.22166127 0.23506573 0.081685
0000e0 eb 1d 37 be ac f3 1c 3e d3 82 c9 bd e7 21 eb bd
       -0.17882507 0.15327328 -0.09839406 -0.11481076
0000f0 dd a5 2a 3e 8b d2 cc bc e6 92 5b be 11 4b 8b 3e
       0.16664834 -0.025002738 -0.21442756 0.2720571
000100 11 40 d1 3d b8 00 e1 3c 20 b6 03 3e c4 2d e2 bd
       0.10217298 0.027466163 0.12862444 -0.11043885
000110 2b 5d 51 be 37 f3 31 3d 54 2d 7c bd d5 a2 51 be
       -0.20445697 0.04344484 -0.061566666 -0.20472272
000120 22 f7 0a be 39 03 48 be af a1 2d 3d 21 5b 8f be
       -0.13570836 -0.1953248 0.04239052 -0.27999213
000130 99 3d fe bd 0c b9 5b 3c cb 43 6d be c7 2f 09 3e
       -0.124140926 0.013410818 -0.23170392 0.13397132
000140 1d a7 90 3e 23 a2 04 3d e8 a2 20 bf af b9 3e be
       0.28252497 0.032381188 -0.62748575 -0.1862552
000150 fb 61 6b be cc 7f 8f bd d3 8c 7b bd 45 27 47 3d
       -0.22986595 -0.07006797 -0.061413597 0.048621435
000160 f5 49 10 be f7 51 b8 3b d8 ca 6c 3e 81 a8 9a 3c
       -0.14090712 0.0056250053 0.23124254 0.018879177
000170 cb 45 a4 3d ad 87 20 3e bf 7a 9d bd 0b 30 b4 bd
       0.080211245 0.15676756 -0.076894276 -0.08798226
000180 0c 74 2b 3e a5 d4 98 bd 02 27 55 be 67 ed 6b be
       0.16743487 -0.07462434 -0.20815662 -0.2303978
000190 e5 62 cb bd d9 07 0c 3e 86 9f 06 3e a5 0f 8b 3d
       -0.09930972 0.13674869 0.13146791 0.06790093
0001a0 38 34 d6 bd c9 a1 6d 3e 53 9d 35 3d b8 ee 0d 3e
       -0.10459179 0.23206247 0.04433949 0.13860595
0001b0 77 d5 9c be cb 63 fd bd 55 0e 0d be 16 1a 18 3c
       -0.3063161 -0.123725496 -0.13774998 0.009283563
0001c0 86 d4 dd 3c 0a 6a 12 3e ca 90 c7 3c e0 82 84 bc
       0.027078878 0.14298263 0.024361033 -0.016175687
0001d0 e3 a2 d9 3d bc d5 b7 3d 31 da 10 bc a3 c9 ae bd
       0.10626771 0.089763135 -0.008841083 -0.08534553
0001e0 b1 ed db 3c 58 b1 31 3d b6 46 02 3e f0 49 a0 3d
       0.026846739 0.04338202 0.12722287 0.078266025
0001f0 9a f5 b1 3c 5f 87 4c 3d 8a cf 9f 3e 75 b1 ae 3d
       0.021723557 0.049933787 0.31213027 0.08529941
000200 7a fa 3d bd 21 e5 b8 3e e0 34 23 3d fd 5b 6c be
       -0.04638145 0.3611231 0.039845347 -0.23081966
000210 0e 92 31 3e 0b 83 af 3d 0c 35 b6 be 32 f8 2e 3e
       0.17340872 0.08569916 -0.35587347 0.17086866
000220 25 01 70 bc e4 db ed bd 4c 5b 77 bd e8 c8 30 bc
       -0.01464871 -0.116142064 -0.0603898 -0.010790087
000230 ca 26 23 be 6b 62 75 3e 9a e4 89 3d 54 b7 44 be
       -0.15932766 0.23963325 0.067330554 -0.19210559
000240 32 c7 a1 be 19 57 7e be fe bf e0 bc 78 7c 55 3b
       -0.31597286 -0.24837913 -0.027435299 0.003257541
000250 28 bc fc 3c 21 d8 ce 3d 85 ee 1e 3e 7c de fe bc
       0.030851439 0.10099817 0.15520675 -0.031111948
000260 c7 79 5b bb 40 c3 0e bf 6c 8c 37 be 6e 94 a3 bc
       -0.0033489333 -0.5576668 -0.1792466 -0.019968238
000270 02 63 89 be 8f e5 ea bc 17 7c 95 3e a6 95 ea bd
       -0.2683335 -0.028673915 0.29196236 -0.114543244
000280 1c 11 6f 3e a5 a7 d1 3e 71 22 3e 3d 1c 3e 88 3d
       0.2334637 0.40948215 0.046419565 0.066524714
000290 56 8e 28 bd 5c ec 05 3e 48 64 43 bc 16 24 98 bd
       -0.041151367 0.13078445 -0.011925764 -0.07428758
0002a0 f7 1e 7a bd 9a bd dc bd 7e ec 88 be 5d a5 04 be
       -0.061064687 -0.10778351 -0.2674293 -0.12953706
0002b0 2c 55 49 be 5a 0b 1a be 89 fb 02 3d 2f f8 bf 3d
       -0.19661397 -0.15043393 0.031978164 0.09373509
0002c0 23 39 f3 bc c0 3d 14 bd e9 9a c2 3d 44 a6 ae 3d
       -0.02969033 -0.036191702 0.09502203 0.085278064
0002d0 6d 13 e0 be 37 e2 f9 be 47 48 cb be 97 f4 01 be
       -0.4376482 -0.488054 -0.3970358 -0.1269096
0002e0 b6 fe 6f bd 7d 4c d8 bd e5 99 d2 3c e0 e4 25 3e
       -0.05859252 -0.10561464 0.025708148 0.1620059
0002f0 44 9b da 3e de f7 14 be 46 0a 09 be d0 ec 37 ba
       0.42696583 -0.14547679 -0.13382825 -0.0007016184
000300 e2 91 1c 3e aa f8 96 bd 22 1e e4 bb 36 00 33 3e
       0.15290025 -0.07371648 -0.0069616 0.17480549
000310 a7 95 e0 ba 4e 76 e8 3c 90 f1 42 be 75 05 46 be
       -0.0017134444 0.028376725 -0.19037461 -0.19338019
000320 7c 53 3b be 8a ae c8 3d ea 21 0d be f2 10 c6 be
       -0.18293566 0.09798916 -0.13782468 -0.38684803
000330 cc 69 44 be ed 67 92 be d1 64 67 be 03 bd ac 3e
       -0.19180983 -0.28594914 -0.22597052 0.33737954
000340 19 8b 05 3e e6 56 4c bd 3b cb 7b 3e 50 17 38 bd
       0.13041343 -0.04988756 0.24589245 -0.044944108
000350 2c 93 04 be 4d 24 d3 bc 47 20 40 be 8e b9 71 be
       -0.12946767 -0.025774145 -0.18762313 -0.2360594
000360 ff 94 43 bd 20 07 a4 bd 9d 06 4c be 28 bf d9 bd
       -0.047749516 -0.080091715 -0.19924398 -0.10632163
000370 f3 02 3a bd 17 aa 0b be 2e 1f 58 bc 4c f5 1c be
       -0.04541297 -0.13639103 -0.013191028 -0.15327948
000380 7a 64 6a bd 7c d3 00 bf 84 91 83 bc 74 78 a2 3e
       -0.05722473 -0.503227 -0.016060598 0.31732523
000390 26 af ba be a7 7c 51 3e eb 1a 13 3f f9 56 8a be
       -0.36461753 0.20457707 0.5746295 -0.2701948
0003a0 98 44 0d 3f 72 5f 1e 3f bf e2 8f be 4e f5 1b 3d
       0.5518279 0.6186439 -0.2810268 0.038075738
0003b0 68 01 a6 be e8 ce a6 bd f2 0c bc 3d c3 11 a5 bc
       -0.32422948 -0.08144933 0.091821566 -0.020150071
0003c0 05 53 18 be 0a 01 4d be f9 5c 16 be 46 da 70 3d
       -0.1487542 -0.20019928 -0.14683904 0.05880191
0003d0 a1 aa 4f be ab 6b 5a be c1 d5 35 bc 60 ad 53 3c
       -0.20279934 -0.21330135 -0.011098326 0.012919754
0003e0 6e 22 43 be 6b 3c 78 3d 75 83 6f 3d 26 26 ce bc
       -0.19056103 0.060604494 0.058474977 -0.025164675
0003f0 ce 00 7e be 13 0f c6 bd f8 3a 10 3e f3 ed 49 3d
       -0.24804994 -0.09670844 0.14084995 0.04929919

3.bias f4 [16]
000000 e0 fc bc bd 52 54 fd 3d e9 9d 74 bd 65 ae 0f 3e
       -0.092279196 0.123695984 -0.059720907 0.1403137
000010 9e 18 96 3d ce a7 23 bd 8d 25 09 3d 23 97 30 3c
       0.07328914 -0.039954953 0.033483077 0.010778221
000020 5d 53 b1 bc 03 b2 04 be 04 ec 96 bb 9c b7 ed bd
       -0.021646196 -0.12958531 -0.004605772 -0.11607286
000030 ae 48 9e 3d e6 07 11 be 7d d6 57 3d 4a ab 4b bd
       0.07728706 -0.1416317 0.052694786 -0.0497239

6.weight f4 [8, 16, 3, 3]
000000 7c 05 9e bc 48 ab 29 3e be cb 10 bb 47 54 c6 3d
       -0.019289725 0.16569245 -0.0022094096 0.096840434
000010 b6 e2 85 3d e2 e7 f9 bb 95 aa cd bc 91 bc ef bd
       0.06537382 -0.0076265195 -0.025105754 -0.11705888
000020 a5 ac d7 3c 56 5f cf 3d 15 5c 30 3c 87 35 15 3d
       0.02632744 0.10125606 0.010764142 0.036428
000030 0a 6b b6 3d a7 cb 85 3e e4 65 1c 3e 53 b6 aa 3d
       0.08907135 0.26131937 0.15273243 0.08335557
000040 fe 8e 8a 3e 0d a7 86 3e 39 4f 16 bd 91 db bf 39
       0.2706222 0.26299325 -0.036696646 0.0003659395
000050 96 b5 90 bc e5 15 84 3d 64 06 2b be e9 c6 04 3e
       -0.017664712 0.064494886 -0.16701657 0.12966503
000060 54 88 d3 3d 17 0a 08 3d c5 23 24 bd a5 37 a8 bd
       0.10328737 0.033212747 -0.040073175 -0.08213738
000070 5d 4c 49 be f2 f4 d6 3c 36 79 f7 bd 37 4b 84 3d
       -0.19658037 0.026239846 -0.12083666 0.064596586
000080 1b 16 0f 3e b7 fa cc 3c aa 64 e4 3d 2a cb 13 3e
       0.13973276 0.025021894 0.11152013 0.1443297
000090 44 0b 11 be 64 0e 88 3c 27 1d 29 3e 83 08 0f be
       -0.14164454 0.016608424 0.16515027 -0.1396809
0000a0 6c a2 ad 3d 6d a1 26 3e 16 13 06 be 6f 81 3a bd
       0.08478245 0.16272517 -0.13093218 -0.045533594
0000b0 c4 11 34 3e 93 fa 13 be b7 61 03 bd a4 82 e1 bd
       0.17584902 -0.14451055 -0.03207561 -0.11011246
0000c0 e6 34 50 be 16 9b b0 be 95 59 86 be 94 01 08 3d
       -0.20332679 -0.3449332 -0.2624022 0.03320463
0000d0 60 d2 96 bd 7a af a9 be 06 87 fc 3d 79 78 9d bd
       -0.073643446 -0.3314169 0.12330441 -0.07688994
0000e0 4f 2a 6d 3e a2 92 4a be eb 01 b5 bd 2a a0 c0 3d
       0.2316067 -0.19782498 -0.088382564 0.09405549
0000f0 8d 29 f9 bd 05 2e bb bd d1 7e d7 3d 75 d9 1b be
       -0.12166128 -0.09139637 0.10522235 -0.15219672
000100 e1 ca 9e bd 35 02 30 be 00 e3 ea bb 07 bc dc bd
       -0.0775354 -0.17188342 -0.007168174 -0.10778051
000110 4a 7e ea bd 8c aa 72 be a6 71 cb bd b2 45 1a be
       -0.11449869 -0.23697871 -0.09933786 -0.15065649
000120 ea 13 f4 bd 76 89 15 bd fc 1a 0c be ef e7 8f bc
       -0.11917861 -0.036508046 -0.13682169 -0.01756665
000130 f7 1d bf bd 90 c9 02 3e ab c3 38 bd 52 2e b3 3d
       -0.09331887 0.12772202 -0.04510848 0.08749069
000140 c0 b7 86 3d e7 07 8d 3d df 5f 02 3e 26 a8 50 be
       0.06578016 0.06886273 0.12731884 -0.20376644
000150 94 4e 8b bd a7 26 db bd a6 bf 1c be 5e 06 24 be
       -0.06802097 -0.10700732 -0.15307483 -0.16018054
000160 09 9f 5d be ae 9a dc 3c 7c d0 9d 3b 1c 98 d7 bd
       -0.21642698 0.026929226 0.004816113 -0.105270594
000170 50 10 a4 bd fa 49 d3 3c 28 89 01 3d 60 3f 8c bd
       -0.08010924 0.02579211 0.031624943 -0.06848025
000180 0d 33 ec 3c 3d 3f 4a be b4 b4 8c 3d 88 f8 48 be
       0.028832937 -0.19750686 0.06870404 -0.19626057
000190 ee 55 af bd 22 8f 0f 3e a1 6f 18 be 20 b6 c5 bd
       -0.08561312 0.14019445 -0.14886333 -0.09653878
0001a0 df 34 2e be 38 5b 34 be 10 8d 6e be 7c 5d 1e 3e
       -0.17012356 -0.17612922 -0.23295999 0.15465349
0001b0 57 68 96 bd f9 6f 12 3e 13 ab 5e 3e 3c da 1a be
       -0.0734412 0.14300527 0.21744947 -0.15122312
0001c0 d6 4d 5c 3d 2a 17 ee 3d 02 30 98 bd 9c 6a 25 3e
       0.053785168 0.11625512 -0.07431032 0.1615395
0001d0 2d d3 89 bd ec cd ca 3d 7d 72 31 be b0 00 01 3e
       -0.06729732 0.09902558 -0.1732883 0.12597919
0001e0 16 c6 5d be 7d 0d cd 3d 7e cf 2c bd c1 ab fc bd
       -0.21657595 0.10012338 -0.042190067 -0.12337447
0001f0 4b d8 82 be c6 09 6a 3d bd cc 10 bd ac e0 12 3e
       -0.25555643 0.057138227 -0.035351504 0.14343518
000200 a2 76 af bd b2 2e fe 3b ef 81 86 bd e5 0c 22 3e
       -0.08567549 0.0077570314 -0.065677516 0.15825231
000210 a7 00 98 bd 6c 7c 49 3d 31 96 00 3e 1e 0c 89 bd
       -0.074219994 0.049190924 0.12557293 -0.06691764
000220 20 09 73 3e 57 cb a0 3d 31 4f 3f 3e 73 ad 96 3e
       0.2373395 0.07851284 0.18682553 0.29429206
000230 b7 7c 4e bd 12 d7 97 3d 1e d0 88 bd bc 7e 7c bd
       -0.050411906 0.07414068 -0.0668032 -0.0616443
000240 d4 69 24 be 49 42 25 3d 75 0e 92 3e ff e3 5d be
       -0.16055995 0.040346418 0.28526655 -0.21669005
000250 83 f4 53 bc c9 d3 15 3e 01 f6 81 be 11 38 06 3e
       -0.012936714 0.14631571 -0.25383 0.13107325
000260 fe 90 34 3c 59 d3 79 3e 20 56 86 3d 23 36 54 be
       0.011020897 0.24397029 0.06559396 -0.20723777
000270 51 55 2f 3c 03 62 ff bd 80 57 26 ba d8 18 d0 3c
       0.010701493 -0.12469866 -0.0006345436 0.025402471
000280 9f ce 26 be 52 4f 08 3e b4 7a d6 3c 4b b5 e1 3c
       -0.16289757 0.13311508 0.026181556 0.027552268
000290 15 3f 0c 3d 9b b1 2c be ee 23 1a be 64 71 f2 ba
       0.034239847 -0.16864626 -0.15052769 -0.0018496928
0002a0 76 d2 52 3d 0d 1b f1 3d 46 7c 2b 3e 89 93 98 bd
       0.051470242 0.11772738 0.16746625 -0.07450015
0002b0 76 23 b4 bc b2 28 47 3d 00 61 43 be 6e 72 38 bd
       -0.021989565 0.048622794 -0.19079971 -0.045031004
0002c0 57 10 5e 3e f8 6f 27 3d c3 88 f9 bd 89 14 19 3e
       0.2168592 0.040878266 -0.12184288 0.1494924
0002d0 8b f2 bc bd c1 af 84 bd 89 b9 0f 3e c9 cc e9 bd
       -0.09225949 -0.06478835 0.1403562 -0.11416013
0002e0 07 12 23 bd 7a 36 eb 3d ee 37 37 3d a2 ed 95 3d
       -0.039812114 0.11485 0.044731073 0.073207155
0002f0 b4 09 f8 bc d6 29 51 bd b4 9e 0b be 69 29 37 bd
       -0.030278064 -0.05106529 -0.13634759 -0.044717226
000300 b5 83 25 bd 37 1a cf 3d 99 c4 1e 3e 05 2f 37 be
       -0.04040881 0.10112422 0.15504684 -0.1788903
000310 5f 13 a8 3c 63 a4 7f 3e ef 77 78 bd 0c 8b 86 bd
       0.02051705 0.24965052 -0.060661253 -0.0656949
000320 5c 39 86 3d d1 73 bc bc 75 5e d1 bd c3 65 28 3e
       0.06553909 -0.023004444 -0.102230944 0.16445069
000330 15 49 ba bd 4e c2 24 3e f1 6a f7 bc 40 8d 31 be
       -0.090959705 0.16089746 -0.03020236 -0.17339039
000340 2f 97 13 bd 0f e0 03 3e 96 cc e9 bd 39 79 ee bd
       -0.03603285 0.1287844 -0.11415975 -0.11644215
000350 05 1d 45 3d 9d 37 fa bd 5c 27 2c 3d cd bb 3e 3e
       0.04812338 -0.12217639 0.042029724 0.18626328
000360 76 d8 44 3c 64 1e e3 3d ac 7b 54 bd ce 3e 81 3d
       0.012014499 0.11089781 -0.051875755 0.06310807
000370 a6 71 3e 3d db 66 2f 3d c3 56 ee 3d 9a f2 c7 bd
       0.046495102 0.0428227 0.11637642 -0.097630695
000380 a1 30 06 be c5 a0 ab bd aa de 9a bd 23 27 bc 3e
       -0.13104488 -0.08380274 -0.07562001 0.3674861
000390 f2 d2 aa bd b6 0a 49 3e 8b fd 6e 3e 9e af 54 3d
       -0.08341016 0.19632992 0.23338906 0.051925294
0003a0 17 e1 90 3d a2 dd 9f 3e ad 06 d5 bd c5 56 86 3c
       0.070741825 0.3122378 -0.10401664 0.016398797
0003b0 33 a1 1a 3e e9 ea e9 3d f2 85 d9 3d 5f 84 e1 3b
       0.15100555 0.11421759 0.10621251 0.006882235
0003c0 92 86 01 be a5 1c 20 3d 0f c6 58 bd 00 9c 4c 3c
       -0.12648991 0.039089818 -0.05292326 0.012488365
0003d0 df ef 25 3e 55 bf 28 3e 84 b6 1b 3e 23 b8 35 3e
       0.16204785 0.16479237 0.15206343 0.17746024
0003e0 b6 53 75 bd d2 fc 1c 3e df 59 ff bc c3 c9 0e 3e
       -0.059894286 0.15330818 -0.031170784 0.13944153
0003f0 2d a7 a9 be 71 29 0e 3e 24 1c e6 3d 25 d3 06 bd
       -0.33135357 0.13882996 0.11235836 -0.032916207

6.bias f4 [8]
000000 76 1a c1 bb 25 4e de bd 0c 9c 62 3c bf 10 76 3d
       -0.005893047 -0.10854749 0.01383115 0.060074564
000010 39 1c 64 3d 12 c5 44 be ac 25 16 bd a4 ac 92 bd
       0.055690978 -0.19215801 -0.03665702 -0.07161835
