Pretrained_cnn/main/saved_feature/feature_extractor_best_epoch_145.pth (torch, 29698 bytes, 6 tensors)

0.weight f4 [32, 3, 3, 3]
0.20253709 0.02559777 0.15818514 0.18383497 -0.18851633 -0.54815006 0.1099522 -0.43581262
-0.95585513 0.32910946 0.2955483 0.2891619 0.2510511 -0.010517426 -0.3101251 0.11509216
-0.3460411 -0.6867182 0.4290815 0.37903887 0.21597032 0.28152815 0.20336927 -0.19943088
0.24749108 -0.16786017 -0.5625187 -0.13264938 -0.066317394 -0.27367455 0.07716859 -0.20107616
0.14065139 0.413073 0.040927496 -0.43274483 -0.41797358 -0.13197972 -0.24136372 0.06976703
-0.19246948 -0.07535597 0.4000046 -0.1839381 -0.11517722 -0.58646876 -0.821117 -0.8394825
-0.38564786 -0.8573647 -0.9563985 0.3493996 -0.5544551 -0.9214088 0.54078585 0.2957691
0.09138064 0.1830236 0.16337644 0.15094495 0.1977488 -0.0070479866 0.07464286 0.42687374
-0.24845211 -0.43442038 -0.035882775 -0.40913987 -0.23010845 -0.24282253 -0.17934176 -0.26088077
-0.326893 -1.052336 -1.0566113 -0.3610306 -1.118775 -0.98983455 -0.3439059 -1.3305852
-1.0104753 -0.36011264 -0.3027151 -0.25099894 -0.4249353 -0.3485239 -0.242064 -0.38339034
-0.22772934 -0.09416203 0.44040924 0.5190587 0.5291073 0.5660781 0.46776086 0.54556876
0.54473084 0.41709697 0.26346353 -0.11087228 -0.30397373 -0.22859938 -0.16830698 -0.23486277
-0.17721973 -0.015927093 -0.07997591 0.002549327 0.26997092 0.36316454 0.4050293 0.34281963
0.4732788 0.28536746 0.28529713 0.22847326 0.04215716 0.30297992 0.10726728 0.4127309
0.008529573 -0.06787488 0.04303591 -0.10592797 -0.21790472 -0.28564808 -0.39511496 -0.28756773
-0.15254794 -0.20694855 -0.2012844 -0.12490815 -0.30628628 -0.37216476 -0.5312783 -0.7434264
-0.2511246 0.2874247 -0.22654249 -0.12267833 0.29255328 0.037099004 0.18678868 0.34072894
-0.62201035 -0.13149182 0.13552475 -0.18141988 -0.17389715 0.41629255 0.13001475 0.30305126
0.43723515 -0.8161749 -0.26562837 0.12865685 -0.47629663 -0.14302148 0.35393977 0.15957421
0.29422775 0.4421281 -0.18364447 -0.25311953 -0.11446754 -0.2609761 -0.37840515 0.051927973
-0.2276844 -0.29007185 -0.21277776 -0.19357659 -0.07238014 0.049931053 -0.18986648 -0.100581914
0.0951286 -0.12955455 -0.26978788 -0.0062637045 -0.107919924 -0.047874767 -0.23401015 -0.028863832
-0.16966327 0.019292613 -0.19924572 -0.19068019 -0.12589023 -0.10638504 0.15175986 -0.22830759
-0.1308184 -0.2851955 -0.8133847 0.07365301 -0.08556712 0.2610701 0.23002528 0.28282672
-0.22571602 0.1316675 -0.10454622 -0.5585017 0.09848259 0.2628574 0.48851413 0.26484284
0.30488124 -0.20987338 0.28038305 -0.15141402 -0.7868975 0.28056335 0.13923424 0.20099172
0.21963716 0.19118774 0.17262429 0.27133006 0.1629363 0.20779644 0.17973556 0.18338676
0.15469423 -0.30465424 -0.2641115 -0.42763627 -0.36289406 -0.5542297 -0.4024308 -0.29537126
-0.21839744 -0.07088278 0.024281425 -0.14595154 -0.18369697 -0.13239962 -0.39202005 -0.117821716
0.012856826 -0.14714314 -0.19044262 -1.4482656 0.05736753 -0.1871042 -1.0550297 -1.5164682
-0.18275923 -2.0912178 -1.716542 0.15962435 -1.985113 -0.30519322 -0.38419202 -1.3762108
00000000: e265 4f3e 6ab2 d13c 49fb 213e 3c3f 3c3e
00000010: 6d0a 41be 9053 0cbf 9e2e e13d d522 dfbe
00000020: ecb2 74bf 0981 a83e 1b52 973e 070d 943e
00000030: c589 803e 4851 2cbc b8c8 9ebe 70b5 eb3d
00000040: 4d2c b1be c4cc 2fbf 92b0 db3e 6211 c23e
00000050: 5327 5d3e 7524 903e 0940 503e 9c37 4cbe
00000060: 4d6e 7d3e 89e3 2bbe 3a01 10bf 3dd5 07be
00000070: 6ad1 87bd 121f 8cbe 910a 9e3d e9e6 4dbe
00000080: eb06 103e 4e7e d33e 97a3 273d bb90 ddbe
00000090: a200 d6be b125 07be 0d28 77be 04e2 8e3d
000000a0: b816 45be 3b54 9abd 67cd cc3e 455a 3cbe
000000b0: 09e2 ebbd d122 16bf b934 52bf 53e8 56bf
000000c0: a373 c5be 417c 5bbf 88d6 74bf 81e4 b23e
000000d0: c5f0 0dbf 72e1 6bbf f170 0a3f 0c6f 973e
000000e0: c625 bb3d 8a6a 3b3e 274c 273e 5091 1a3e
000000f0: a97e 4a3e ccf2 e6bb 5bde 983d 328f da3e
00000100: 3b6a 7ebe 596c debe d1f9 12bd c87a d1be
00000110: 8da1 6bbe 78a6 78be 5ea5 37be 2a92 85be
00000120: 855e a7be f2b2 86bf 0a3f 87bf 01d9 b8be
00000130: 0534 8fbf cc65 7dbf 6f14 b0be 9e50 aabf
00000140: 4157 81bf af60 b8be 79fd 9abe ef82 80be
00000150: 1f91 d9be ba71 b2be a0df 77be bd4b c4be
00000160: e131 69be 06d8 c0bd 527d e13e 08e1 043f
00000170: 9373 073f 7fea 103f 5a7e ef3e 65aa 0b3f
00000180: 7b73 0b3f bc8d d53e b1e4 863e 0211 e3bd
00000190: 72a2 9bbe f515 6abe aa58 2cbe de7f 70be
000001a0: 1779 35be 8979 82bc 69ca a3bd 9c12 273b
000001b0: a139 8a3e b4f0 b93e 0060 cf3e 0e86 af3e
000001c0: 9951 f23e af1b 923e 7712 923e e5f4 693e
000001d0: fcac 2c3d 2f20 9b3e f3ae db3d 7751 d33e
000001e0: 9fbf 0b3c fc01 8bbd 6c46 303d c3f0 d8bd
000001f0: 6a22 5fbe 7740 92be 824c cabe 143c 93be
00000200: 8735 1cbe 52ea 53be 7f1d 4ebe d8cf ffbd
00000210: 8ed1 9cbe 618c bebe db01 08bf 3151 3ebf
00000220: 6793 80be 5529 933e c1fa 67be c73e fbbd
00000230: 8bc9 953e 20f5 173d 8845 3f3e 0674 ae3e
00000240: 123c 1fbf cba5 06be 00c7 0a3e 22c6 39be
00000250: 1812 32be 4c24 d53e 9622 053e 8929 9b3e
00000260: 49dd df3e d7f0 50bf 7100 88be 9fbe 033e
00000270: 27dd f3be 3974 12be 9837 b53e 6c67 233e
00000280: 05a5 963e 9d5e e23e 4c0d 3cbe e298 81be
00000290: f56d eabd a99e 85be 52be c1be 6db2 543d
000002a0: 1926 69be 4c84 94be 6ae2 59be f138 46be
000002b0: 0a3c 94bd 8184 4c3d 5c6c 42be e4fd cdbd
000002c0: c9d2 c23d f3a9 04be a321 8abe c33f cdbb
000002d0: 1f05 ddbd 5518 44bd 5ba0 6fbe d873 ecbc
000002e0: 35bc 2dbe 8b0b 9e3c 1207 4cbe ab41 43be
000002f0: 5ee9 00be 66e0 d9bd f066 1b3e 77c9 69be
00000300: 42f5 05be 2505 92be fb39 50bf 64d7 963d
00000310: d03d afbd fbaa 853e bf8b 6b3e aace 903e
00000320: 1a22 67be d8d3 063e 541c d6bd f8f9 0ebf
00000330: 3db1 c93d 3f95 863e 861e fa3e 7b99 873e
00000340: 6519 9c3e 0ce9 56be 5e8e 8f3e 470c 1bbe
00000350: 1d72 49bf 00a6 8f3e 6c93 0e3e c6d0 4d3e
00000360: 90e8 603e b8c6 433e 6cc4 303e c6eb 8a3e
00000370: c6d8 263e 97c8 543e 990c 383e bdc9 3b3e
00000380: 2a68 1e3e a4fb 9bbe 9f39 87be 24f3 dabe
00000390: 40cd b9be ffe1 0dbf 690b cebe e73a 97be
000003a0: 94a3 5fbe fe2a 91bd d7e9 c63c 5274 15be
000003b0: 0f1b 3cbe c493 07be dab6 c8be 834c f1bd
000003c0: 70a5 523c b1ac 16be 6403 43be c460 b9bf
000003d0: 37fa 6a3d 3e98 3fbe 370b 87bf a11b c2bf
000003e0: 3c25 3bbe 83d6 05c0 a6b7 dbbf 9174 233e
000003f0: 2f18 febf 4942 9cbe d1b4 c4be ad27 b0bf

0.bias f4 [32]
-0.08357999 -0.1650848 -0.05387351 -0.3690776 -0.10678657 -0.20319526 -0.1628197 -0.007427129
-0.044121698 0.2956848 -0.012696798 -0.53267825 -0.45515996 -0.37102276 -0.0029351716 -0.29958203
0.47167274 -0.18813899 -0.06688767 -0.43409085 -0.080820434 -0.99943966 -0.5506183 -0.24358393
0.05044367 -0.13777177 -0.019666515 -0.116442546 -0.010781644 -0.079859465 -0.017376235 -0.43672186
00000000: fc2b abbd fd0b 29be 78aa 5cbd bdf7 bcbe
00000010: ebb2 dabd 6b12 50be 35ba 26be 465f f3bb
00000020: f4b8 34bd 0064 973e 3b06 50bc 9a5d 08bf
00000030: ba0a e9be b2f6 bdbe 025c 40bb d162 99be
00000040: 177f f13e 82a7 40be 67fc 88bd 2841 debe
00000050: 2f85 a5bd 47db 7fbf 52f5 0cbf 116e 79be
00000060: 069e 4e3d 0b14 0dbe ac1b a1bc 6e79 eebd
00000070: 7ea5 30bc 5c8d a3bd 9b58 8ebc 029a dfbe

3.weight f4 [16, 32, 3, 3]
-0.27128574 -0.4489315 -0.2863283 -0.49163586 -0.4371833 -0.13513874 -0.21655394 0.006612064
-0.13632776 0.6342131 -0.05352045 -0.34745124 -0.11533544 0.5227987 0.40309536 0.04882474
0.29442886 0.40572497 -0.042145405 0.29288048 -0.4030181 -0.12128367 -0.051485904 -0.55491376
-0.3232618 -0.43461695 -0.088925265 0.61201715 0.5045619 0.250332 0.57053834 -0.010942142
-0.44822067 0.5641811 -0.17394568 -0.9375628 -0.9371175 -0.58153874 -0.035176657 -0.46001408
0.2670797 0.523205 -0.42149085 0.610678 1.0609299 -0.03422116 -0.16576171 -0.3329996
-0.19965258 -0.16739093 -0.1442819 -0.5558587 -0.43708858 -0.4115736 0.13385318 -0.007150388
-0.043329358 0.28128943 -0.11712238 -0.12826215 0.0930359 -0.042217057 -0.1421846 0.4820056
-0.035235703 0.10807291 -0.020079521 -0.31732363 -0.034839004 -0.10118715 -0.22682616 -0.25494558
-0.58661306 -0.59628785 -0.19934343 -0.64037204 -0.39690152 -0.21981245 -0.75043094 -0.19613849
0.16966006 -1.5271286 -1.0729624 -0.3265151 -1.5411898 -0.46215463 0.0050372165 -0.51930225
-0.54075754 -0.14114437 0.05283022 -0.16401812 0.17795512 -0.027904816 -0.06462776 -0.27243927
0.08446872 -0.023277512 -0.07760654 -0.11470002 -0.018629368 -0.018553985 0.08316493 0.0525982
-0.033660013 0.25921682 0.07539569 0.87601984 -0.492834 -0.52121633 -0.5773668 0.25204518
0.17210773 0.18442479 -0.035712145 -0.004081559 0.26640996 -0.10951191 -0.034242235 0.04940011
0.10140728 0.11184761 0.3571476 -0.23734426 -0.42745906 -0.2403071 0.1874973 0.046003953
0.036926173 0.44978583 -0.07311553 -0.26853624 0.34415406 0.022314819 -0.39152488 0.18258579
0.20496073 -0.36564234 -0.003087783 0.21032074 -0.07552822 0.2353574 0.19908357 0.015686268
-0.07436267 -0.031664737 -0.10793348 0.7178427 0.49608424 0.2688504 0.24786764 -0.0015485891
0.007439357 -0.338858 -0.23819956 -0.19173056 -0.3386722 -0.015457273 0.089557655 -0.4035977
-0.11334356 0.27809027 -0.050804634 0.17709543 0.11269022 0.076540105 -0.06213266 0.14776519
-0.043181725 -0.37065226 -0.13573371 0.4734312 0.05772305 0.08556983 0.3318031 0.04093807
0.15951662 -0.20701618 -0.13010365 -0.04211911 -0.14422885 -0.42370683 -0.38056418 0.046744343
-0.13976233 0.17760482 0.19275185 0.12213572 0.3741819 0.41600496 -0.110037245 -0.12468975
0.680496 0.037949786 -0.34110668 0.24091803 -0.10950028 -0.3759012 -0.29654008 -0.18548825
-0.5058049 -0.28316948 -0.115366325 -0.18569127 -0.2412217 -0.7421229 0.20844848 0.23675525
0.16373834 -0.23635428 0.23657228 -0.21028472 -0.0826808 -0.15351748 -0.3284079 -0.25667486
-0.024803773 -0.09689034 0.113239005 -0.04837486 -0.30367494 -0.23850217 0.10316855 -0.4414016
-0.2054114 -0.9775449 -0.30266425 0.12417669 -0.78978175 0.36093366 1.0476389 -0.7583585
0.6577774 1.0819482 -0.9988647 -0.39464173 -1.5029182 -0.54215723 -0.054081183 -0.098610066
-1.239208 -0.65797824 -0.1426255 -0.1886608 -0.15086849 0.35217303 -0.21887785 -0.032833613
0.4819834 -0.018381344 -0.4308796 -0.17311735 -0.332814 -0.28451675 -0.4173684 -0.36738467
00000000: f7e5 8abe 59da e5be 9f99 92be b2b7 fbbe
00000010: 7dd6 dfbe cf61 0abe 51c0 5dbe 03aa d83b
00000020: 8199 0bbe ca5b 223f 4238 5bbd 21e5 b1be
00000030: fd34 ecbd 23d6 053f 8462 ce3e 73fc 473d
00000040: 61bf 963e 2fbb cf3e a9a0 2cbd 6ef4 953e
00000050: 6358 cebe 9363 f8bd e2e2 52bd d40e 0ebf
00000060: 9282 a5be 1d86 debe 731e b6bd 28ad 1c3f
00000070: f82a 013f 842b 803e cd0e 123f ac46 33bc
00000080: 2e7d e5be 2c6e 103f d11e 32be 1e04 70bf
00000090: efe6 6fbf b9df 14bf 6615 10bd f786 ebbe
000000a0: acbe 883e c3f0 053f a6cd d7be 6555 1c3f
000000b0: 8dcc 873f 7d2b 0cbd 70bd 29be ec7e aabe
000000c0: ba71 4cbe 8768 2bbe a2be 13be c14c 0ebf
000000d0: 13ca dfbe c6b9 d2be cf10 093e cd4d eabb
000000e0: 207a 31bd 2b05 903e dcdd efbd 2757 03be
000000f0: 9b89 be3d cbeb 2cbd d798 11be 70c9 f63e
00000100: 5053 10bd 5455 dd3d cf7d a4bc 3e78 a2be
00000110: 58b3 0ebd 353b cfbd 1e45 68be 3a88 82be
00000120: 462c 16bf 52a6 18bf af20 4cbe 6cef 23bf
00000130: ad36 cbbe 8416 61be 3e1c 40bf 87d8 48be
00000140: 5ebb 2d3e f378 c3bf d556 89bf fd2c a7be
00000150: b545 c5bf 889f ecbe 3c0f a53b fef0 04bf
00000160: 166f 0abf 2688 10be 8064 583d 5ef4 27be
00000170: de39 363e a498 e4bc 8f5b 84bd 297d 8bbe
00000180: f0fd ac3d 7bb0 bebc 2df0 9ebd d8e7 eabd
00000190: 9e9c 98bc 87fe 97bc 6052 aa3d 3671 573d
000001a0: 15df 09bd 11b8 843e 0e69 9a3d d642 603f
000001b0: bd54 fcbe 6f6e 05bf 50ce 13bf 110c 813e
000001c0: 023d 303e dad9 3c3e e646 12bd 99be 85bb
000001d0: e366 883e c847 e0bd 9641 0cbd c557 4a3d
000001e0: 9fae cf3d 5c10 e53d 0ddc b63e 600a 73be
000001f0: eadb dabe 1013 76be 4bff 3f3e a46e 3c3d
00000200: e63f 173d 544a e63e 98bd 95bd 957d 89be
00000210: f634 b03e 91cd b63c f375 c8be c5f7 3a3e
00000220: 3ae1 513e 7935 bbbe 675c 4abb 525e 573e
00000230: 8aae 9abd 8801 713e 90dc 4b3e 7d80 803c
00000240: 754b 98bd e2b2 01bd 3a0c ddbd 8ac4 373f
00000250: c1fe fd3e c2a6 893e 04d1 7d3e 07fa caba
00000260: dac5 f33b cc7e adbe 96ea 73be 0455 44be
00000270: 7166 adbe 8140 7dbc 016a b73d 5ca4 cebe
00000280: ab20 e8bd d961 8e3e 8518 50bd 8158 353e
00000290: 21ca e63d 0fc1 9c3d d17e 7ebd c24f 173e
000002a0: 52df 30bd 22c6 bdbe c7fd 0abe 9365 f23e
000002b0: 016f 6c3d 3c3f af3d 19e2 a93e adae 273d
000002c0: 5358 233e 0dfc 53be e439 05be 1685 2cbd
000002d0: bab0 13be 1af0 d8be 4fd9 c2be ff76 3f3d
000002e0: db1d 0fbe 0ade 353e be60 453e 4b22 fa3d
000002f0: c594 bf3e 9afe d43e 355b e1bd 575d ffbd
00000300: fc34 2e3f 3c71 1b3d 89a5 aebe 37b3 763e
00000310: af41 e0bd 1f76 c0be 1ad4 97be a2f0 3dbe
00000320: 6e7c 01bf 97fb 90be 2e45 ecbd da25 3ebe
00000330: d202 77be c4fb 3dbf 8573 553e f86f 723e
00000340: 06ab 273e db06 72be 0140 723e e154 57be
00000350: 8d54 a9bd b033 1dbe 1525 a8be e36a 83be
00000360: 4831 cbbc 716e c6bd dae9 e73d b824 46bd
00000370: 487b 9bbe ea39 74be 084a d33d 64ff e1be
00000380: 5e57 52be 6240 7abf cff6 9abe 5950 fe3d
00000390: 232f 4abf 4ccc b83e 0819 863f c823 42bf
000003a0: 1a64 283f 477d 8a3f 99b5 7fbf 7b0e cabe
000003b0: a05f c0bf d1ca 0abf 3b84 5dbd 13f4 c9bd
000003c0: 5e9e 9ebf 4371 28bf 6b0c 12be 4c30 41be
000003d0: 457d 1abe 0650 b43e 8421 60be 8a7c 06bd
000003e0: 87c6 f63e 7994 96bc 409c dcbe ad45 31be
000003f0: 9966 aabe 2eac 91be 50b1 d5be d819 bcbe

3.bias f4 [16]
0.022894233 0.13808346 -0.1007578 0.013224069 -0.042144828 -0.017360477 -0.17556068 0.0075657624
-0.05295914 -0.049577497 -0.08628898 -0.3868578 0.03161333 -0.5204743 0.07256353 -0.11833148
00000000: b08c bb3c c065 0d3e 1b5a cebd c4a9 583c
00000010: 0ea0 2cbd 8f37 8ebc 2ec6 33be 37ea f73b
00000020: afeb 58bd c611 4bbd 47b8 b0bd 3a12 c6be
00000030: fb7c 013d ce3d 05bf 309c 943d c657 f2bd

6.weight f4 [8, 16, 3, 3]
-0.23759578 -0.05221827 -0.052511357 -0.115380235 0.10015487 0.067082904 -0.15754148 0.03164004
0.095909044 0.013530118 -0.013034989 0.07192707 0.040072348 0.5236215 0.34485787 -0.07333139
0.2929957 0.39429805 -0.036752228 -0.019047726 0.011970095 0.086950764 -0.19227971 0.0992117
0.120093375 0.027681137 -0.026988663 0.022432948 -0.19569229 -0.1744102 -0.054463696 0.024223099
-0.041377448 0.012006638 0.11111241 0.20659369 -0.21304002 -0.17817758 -0.10100031 -0.094205014
0.09304304 0.19204985 -0.050007027 0.17363688 0.30161962 0.07613099 -0.11280612 -0.06668502
-0.34558553 -0.9066321 -1.2078599 0.03550188 -0.42278856 -0.74152243 0.25917464 -0.20471665
0.17846584 -0.4225363 -0.58552164 -0.37300178 0.21620479 -0.108354196 0.08341377 0.26840284
-0.06502621 -0.017558383 -0.04496136 -0.46513534 -0.2189202 0.047370613 -0.23054433 -0.52386737
-0.11917861 -0.036508046 -0.13682169 -0.01756665 -0.09332027 0.12772202 -0.04510848 0.08749069
0.06577929 0.43233237 0.22692697 0.026036102 -0.30812022 -0.22514087 -0.028217474 0.06039614
-0.45033902 -0.015305324 -0.07322133 -0.18546426 -0.22003932 0.004964963 0.029237635 -0.18995678
0.009742443 -0.069054864 0.012872206 -0.5424155 -0.34724858 0.3767163 -0.55495334 0.3364195
0.06034222 -0.33435532 0.08394608 -0.035209786 -0.19852313 0.37315637 0.18576711 -0.23891598
0.2041072 0.32343966 -0.06233595 0.031208191 -0.20884709 -0.07917173 -0.2631473 0.035080515
-0.19744815 0.087074034 0.16977955 0.182722 0.04577491 0.098551996 -0.096339814 0.06837905
-0.14511202 -0.029874219 0.0049637966 0.20076637 -0.037067723 0.11211482 0.27431384 -0.12954696
0.18765871 0.071855344 0.16025259 0.39191037 -0.12209803 -0.086489215 -0.1368145 -0.046714082
-0.18514505 -0.23097967 0.25687942 -0.2003541 0.13028613 0.24524376 -0.17690973 0.17621171
0.049140587 0.23460889 0.12501635 -0.278706 0.1117329 -0.0065513183 -0.15312 -0.07025127
-0.057605952 0.15777387 0.026181556 0.022623466 0.034239847 -0.16864626 -0.15052769 -0.0018496928
0.051470242 0.14114378 0.16746625 0.0077721174 0.034450784 0.024340263 -0.16267201 0.06477028
0.12864366 0.15419817 0.017731305 0.077114135 -0.13198867 -0.04593166 0.18614991 -0.1867941
0.020312462 -0.06565288 -0.043808937 -0.108593345 -0.0011522499 -0.03517723 -0.2487201 -0.047505267
-0.24361776 0.26931208 0.2494748 -0.15798773 0.048752137 0.088653244 -0.3203514 -0.21776696
0.30920735 -0.26994583 -0.17153904 0.34598392 -0.15789601 0.3182702 0.20673437 0.03680598
0.15410686 -0.38691774 0.047250062 -0.18454242 0.0048540616 -0.120188564 0.12069337 0.12590179
0.012014572 0.11089781 -0.051875755 0.06310807 0.046495102 0.042822856 0.11637642 -0.09756888
-0.131044 0.11455107 0.12425629 0.19457401 0.06521098 0.2391383 0.015129911 0.25525716
-0.057414617 0.46002138 -0.24237399 0.01573768 0.3674264 -0.086385615 0.1410533 0.13146126
-0.08153384 -0.026308717 0.04586165 -0.13201027 -0.12304295 -0.00039451037 0.008664603 0.19562717
0.02931998 0.02269617 0.05660974 0.10413218 -0.094617546 0.06920647 0.12178684 0.047112785
00000000: 4f4c 73be d3e2 55bd 2616 57bd 794c ecbd
00000010: ff1d cd3d c362 893d 8e52 21be fd98 013d
00000020: f66b c43d 6ead 5d3c b590 55bc 804e 933d
00000030: e722 243d 0f0c 063f 3691 b03e c52e 96bd
00000040: 8803 963e 6fe1 c93e 8189 16bd fa09 9cbc
00000050: 381e 443c 3e13 b23d f9e4 44be 812f cb3d
00000060: 84f3 f53d 8dc3 e23c 5417 ddbc 4dc5 b73c
00000070: 8f63 48be 9698 32be 5315 5fbd 856f c63c
00000080: 667b 29bd 7db7 443c e78e e33d 4c8d 533e
00000090: 2a27 5abe 2f74 36be 40d9 cebd 8fee c0bd
000000a0: 598d be3d b7a8 443e 2bd4 4cbd decd 313e
000000b0: e36d 9a3e 91ea 9b3d e506 e7bd 2892 88bd
000000c0: 96f0 b0be 0b19 68bf 279b 9abf 6b6a 113d
000000d0: be77 d8be 6ad4 3dbf 8ab2 843e 3ea1 51be
000000e0: c0bf 363e ae56 d8be bfe4 15bf 17fa bebe
000000f0: ca64 5d3e cee8 ddbd d7d4 aa3d 196c 893e
00000100: 762c 85bd 99d6 8fbc 6729 38bd 3826 eebe
00000110: 9e2c 60be b007 423d d013 6cbe 2c1c 06bf
00000120: ea13 f4bd 7689 15bd fc1a 0cbe efe7 8fbc
00000130: b31e bfbd 90c9 023e abc3 38bd 522e b33d
00000140: 4bb7 863d ab5a dd3e 8b5f 683e aa49 d53c
00000150: efc1 9dbe 548b 66be 5528 e7bc f161 773d
00000160: d692 e6be 2fc3 7abc 11f5 95bd 58ea 3dbe
00000170: fd51 61be 21b1 a23b c483 ef3c 0884 42be
00000180: c59e 1f3c a36c 8dbd f2e5 523c bedb 0abf
00000190: 91ca b1be f5e0 c03e 6c11 0ebf 2d3f ac3e
000001a0: 6729 773d 9f30 abbe eceb ab3d 2338 10bd
000001b0: a649 4bbe 5a0e bf3e bc39 3e3e 64a6 74be
000001c0: 7a01 513e e299 a53e fb53 7fbd 52a8 ff3c
000001d0: 03dc 55be ca24 a2bd 3ebb 86be 96b0 0f3d
000001e0: d92f 4abe df53 b23d b1da 2d3e 7a1b 3b3e
000001f0: 797e 3b3d a1d5 c93d cf4d c5bd 510a 8c3d
00000200: 3f98 14be c7ba f4bc 58a7 a23b b395 4d3e
00000210: 53d4 17bd 749c e53d dd72 8c3e f5a7 04be
00000220: 9b29 403e e528 933d 4119 243e 7aa8 c83e
00000230: 880e fabd 4221 b1bd 1a19 0cbe 4457 3fbd
00000240: aa96 3dbe ef85 6cbe b385 833e a029 4dbe
00000250: ba69 053e 2e21 7b3e d327 35be d870 343e
00000260: a447 493d 503d 703e 4904 003e 8eb2 8ebe
00000270: 38d4 e43d 71ac d6bb 7dcb 1cbe e6df 8fbd
00000280: 38f4 6bbd 798f 213e b47a d63c d954 b93c
00000290: 153f 0c3d 9bb1 2cbe ee23 1abe 6471 f2ba
000002a0: 76d2 523d ff87 103e 467c 2b3e 3fad fe3b
000002b0: 441c 0d3d 3b65 c73c 7e93 26be 48a6 843d
000002c0: 2abb 033e 20e6 1d3e 3e41 913c 04ee 9d3d
000002d0: 0a28 07be d622 3cbd 159e 3e3e f446 3fbe
000002e0: 5266 a63c 0475 86bd 0071 33bd 3066 debd
000002f0: 1707 97ba 0016 10bd 7bb0 7ebe e294 42bd
00000300: ef76 79be 46e3 893e 5276 7f3e 89c7 21be
00000310: 52b0 473d d58f b53d 1905 a4be 4dfe 5ebe
00000320: 6d50 9e3e 5736 8abe eea7 2fbe ce24 b13e
00000330: 7eaf 21be 50f4 a23e 2db2 533e dec1 163d
00000340: 30ce 1d3e 151a c6be 4889 413d b0f8 3cbe
00000350: d20e 9f3b 6c25 f6bd 162e f73d 66ec 003e
00000360: c4d8 443c 641e e33d ac7b 54bd ce3e 813d
00000370: a671 3e3d 0567 2f3d c356 ee3d 31d2 c7bd
00000380: 6630 06be c099 ea3d 157a fe3d 693e 473e
00000390: 568d 853d ace0 743e 72e3 773c 11b1 823e
000003a0: 972b 6bbd ec87 eb3e e330 78be 4fec 803c
000003b0: 501f bc3e f1ea b0bd 4770 103e c89d 063e
000003c0: 37fb a6bd 6185 d7bc 6dd9 3b3d b32d 07be
000003d0: f1fd fbbd 49d6 ceb9 fbf5 0d3c 7d52 483e
000003e0: 7430 f03c 51ed b93c 9ddf 673d 4143 d53d
000003f0: d8c6 c1bd 1fbc 8d3d 616b f93d 56f9 403d

6.bias f4 [8]
0.39392924 -0.5577767 0.09500903 0.24179004 0.12561962 -0.39791173 -0.31675825 -0.4217577
00000000: 18b1 c93e 74ca 0ebf 1894 c23d cf97 773e
00000010: 6ea2 003e 16bb cbbe 232e a2be a0f0 d7be
