Pretrained_cnn/main/saved_feature/feature_extractor_best_epoch_142.pth (torch, 29698 bytes, 6 tensors)

0.weight f4 [32, 3, 3, 3]
0	0x3e534e02	0.20635226
1	0x3d0e6fb1	0.034774486
2	0x3e2c9e00	0.16857147
3	0x3e479d2c	0.1949355
4	0xbe324ca9	-0.17412056
5	0xbf0bb66f	-0.54575247
6	0x3ddfb3cf	0.10922968
7	0xbeda573c	-0.4264468
8	0xbf746222	-0.9546224
9	0x3ea2a884	0.31769192
10	0x3e93059b	0.28715214
11	0x3e8ffd09	0.28122738
12	0x3e7c4dae	0.24639007
13	0xbc7840c2	-0.015152158
14	0xbea814a7	-0.32828256
15	0x3dcb1be0	0.09917426
16	0xbeb5eb7d	-0.35531226
17	0xbf349b9d	-0.7054995
18	0x3edc7571	0.4305835
19	0x3ec4f962	0.38471514
20	0x3e642b96	0.22282252
21	0x3e94aac5	0.29036537
22	0x3e5b160b	0.21395127
23	0xbe4f10bb	-0.20221226
24	0x3e79a464	0.24379116
25	0xbe263e00	-0.16234589
26	0xbf10ae6b	-0.5651614
27	0xbd6fc674	-0.05853887
28	0xbb8c76da	-0.004286629
29	0xbe85a6ee	-0.2610392
30	0x3db68701	0.08912469
31	0xbde11eee	-0.109922275
32	0x3e3b2a29	0.18277802
33	0x3edbd028	0.42932248
34	0x3d912605	0.0708733
35	0xbec224fe	-0.37918848
36	0xbebd6093	-0.36987743
37	0xbdc38af5	-0.09547988
38	0xbe5c5139	-0.21515359
39	0x3d8fffca	0.0703121
40	0xbe0fdb3c	-0.14048475
41	0xbd231e38	-0.03982374
42	0x3ed236bc	0.41057384
43	0xbe2dc3fc	-0.16969293
44	0xbdbf7ebc	-0.093503445
45	0xbf04c8ef	-0.518691
46	0xbf46fe0a	-0.7773138
47	0xbf602875	-0.8756173
48	0xbec0c39a	-0.37649232
49	0xbf482041	-0.78174216
50	0xbf7547b4	-0.95812535
51	0x3eb93a75	0.36177412
52	0xbf07c141	-0.5302926
53	0xbf648d6e	-0.89278305
54	0x3f08f94a	0.53505385
55	0x3e96e6dc	0.29473007
56	0x3dc5c2bf	0.096562855
57	0x3e35ab59	0.17741145
58	0x3e2bd4a6	0.16780338
59	0x3e1d0193	0.15332632
60	0x3e4bfc76	0.19920525
61	0xbb8cd21c	-0.004297508
62	0x3d9d0ed0	0.07668841
63	0x3ed639a9	0.41840866
64	0xbe826a28	-0.25471616
65	0xbedbf5e8	-0.4296105
66	0xbd444789	-0.047919784
67	0xbecf7a6e	-0.40523094
68	0xbe6a5fc7	-0.22888099
69	0xbe791325	-0.2432371
70	0xbe34da2a	-0.17661348
71	0xbe848cc2	-0.2588864
72	0xbeac68b9	-0.33673647
73	0xbf8a5ad9	-1.0808975
74	0xbf85dba7	-1.0457658
75	0xbecc6b78	-0.39925742
76	0xbf8c6c94	-1.0970635
77	0xbf7dcf28	-0.9914422
78	0xbebd97f8	-0.37030005
79	0xbfad1bef	-1.352415
80	0xbf8527c5	-1.0402762
81	0xbebb5ec4	-0.36595738
82	0xbe9a0e79	-0.30089167
83	0xbe809b69	-0.2511857
84	0xbed812c7	-0.42201826
85	0xbeadc085	-0.33935943
86	0xbe6bcbf1	-0.23027016
87	0xbec38088	-0.38184
88	0xbe6559b7	-0.22397505
89	0xbdd8964e	-0.10575543
90	0x3ed85f5c	0.42260253
91	0x3f024111	0.50880533
92	0x3f050b22	0.5197011
93	0x3f0e6be2	0.55633366
94	0x3eee1d0b	0.46506533
95	0x3f0c015f	0.5468959
96	0x3f0993f1	0.53741366
97	0x3ed342b9	0.41261843
98	0x3e7edb1c	0.24888271
99	0xbdec3dbe	-0.11535214
100	0xbe97ff90	-0.29687166
101	0xbe65cfb4	-0.22442514
102	0xbe278434	-0.16359025
103	0xbe625b40	-0.22105122
104	0xbe2666a6	-0.16250095
105	0xbc8da866	-0.017292213
106	0xbd9e6938	-0.07734913
107	0xbc554ddc	-0.013019051
108	0x3e83fff4	0.25781214
109	0x3eb12fe9	0.34606865
110	0x3eca12a9	0.39467362
111	0x3eab20c8	0.33423448
112	0x3eeebbb4	0.4662758
113	0x3e91bdf5	0.28465238
114	0x3e8e0602	0.2773896
115	0x3e5d67fc	0.21621698
116	0x3d22d9e8	0.039758593
117	0x3e9b3075	0.30310407
118	0x3dd29cdf	0.10283827
119	0x3ed3fcce	0.41403812
120	0x3c67ff7b	0.014160032
121	0xbd76bfc2	-0.06024147
122	0x3d66f056	0.056381546
123	0xbdcb8b1a	-0.09938641
124	0xbe5ab1b4	-0.21356851
125	0xbe8b7c21	-0.2724314
126	0xbecf57dd	-0.40496722
127	0xbe9b204e	-0.30298084
128	0xbe2400b2	-0.1601589
129	0xbe5a79f8	-0.2133559
130	0xbe51d042	-0.204896
131	0xbdf72be5	-0.12068919
132	0xbe9f38a8	-0.31097913
133	0xbec2feea	-0.3808511
134	0xbf06f15d	-0.5271204
135	0xbf3a6679	-0.7281261
136	0xbe7f2d87	-0.24919711
137	0x3e9410a1	0.28918937
138	0xbe5aa2d8	-0.21351182
139	0xbdea963a	-0.11454435
140	0x3e94d062	0.29065233
141	0x3d2e9fa0	0.0426327
142	0x3e4531b9	0.19257249
143	0x3eb0a026	0.34497184
144	0xbf1909d3	-0.59780616
145	0xbdf76e29	-0.12081558
146	0x3e12357e	0.14278218
147	0xbe25788a	-0.16159263
148	0xbe234ae5	-0.15946539
149	0x3ed69aa2	0.4191485
150	0x3e1106d6	0.14162764
151	0x3ea0634e	0.31325763
152	0x3ee334a0	0.44376087
153	0xbf4de47f	-0.8042678
154	0xbe888c61	-0.266696
155	0x3e0371a1	0.12836315
156	0xbeeec0d1	-0.46631482
157	0xbe0d3f46	-0.13793668
158	0x3eb280af	0.34863803
159	0x3e259f00	0.16173935
160	0x3e97b6a1	0.29631522
161	0x3ee2b750	0.4428048
162	0xbe3c0d4c	-0.18364447
163	0xbe8198e2	-0.25311953
164	0xbdea6df5	-0.11446754
165	0xbe859ea9	-0.2609761
166	0xbec1be52	-0.37840515
167	0x3d54b26d	0.051927973
168	0xbe692619	-0.2276844
169	0xbe94844c	-0.29007185
170	0xbe59e26a	-0.21277776
171	0xbe4638f1	-0.19357659
172	0xbd943c0a	-0.07238014
173	0x3d4c8481	0.049931053
174	0xbe426c5c	-0.18986648
175	0xbdcdfde4	-0.100581914
176	0x3dc2d2c9	0.0951286
177	0xbe04a9f3	-0.12955455
178	0xbe8a21a3	-0.26978788
179	0xbbcd3fc3	-0.0062637045
180	0xbddd051f	-0.107919924
181	0xbd441855	-0.047874767
182	0xbe6fa05b	-0.23401015
183	0xbcec73d8	-0.028863832
184	0xbe2dbc35	-0.16966327
185	0x3c9e0b8b	0.019292613
186	0xbe4c0712	-0.19924572
187	0xbe4341ab	-0.19068019
188	0xbe00e95e	-0.12589023
189	0xbdc97550	-0.09836829
190	0x3e2b48ab	0.1672694
191	0xbe59595d	-0.21225496
192	0xbdf76687	-0.120801024
193	0xbe87762e	-0.2645735
194	0xbf4a30a8	-0.78980494
195	0x3da28677	0.079358034
196	0xbd9ec8c4	-0.07753137
197	0x3e8e5df1	0.27806047
198	0x3e7542b2	0.23951223
199	0x3e990f3c	0.29894435
200	0xbe56fb1a	-0.20994225
201	0x3e11b11c	0.14227718
202	0xbdab74c6	-0.08371882
203	0xbf0937f4	-0.53601
204	0x3dd78a89	0.1052447
205	0x3e8aefa9	0.2713597
206	0x3f0154a0	0.5051975
207	0x3e891991	0.26777318
208	0x3ea1cc9d	0.3160142
209	0xbe4b0af6	-0.198284
210	0x3e92d600	0.28678894
211	0xbe09d1ed	-0.13458987
212	0xbf44a9ef	-0.768218
213	0x3e90369b	0.2816666
214	0x3e11cc0f	0.14237998
215	0x3e5a8d79	0.2134303
216	0x3e60280b	0.21890275
217	0x3e427184	0.18988615
218	0x3e2fce70	0.17168593
219	0x3e8ab1f5	0.27088895
220	0x3e25c7ea	0.16189542
221	0x3e53e29b	0.20691912
222	0x3e36b6ee	0.1784322
223	0x3e3aed39	0.18254556
224	0x3e1d4762	0.15359262
225	0xbe9c6e61	-0.30552962
226	0xbe881f43	-0.2658635
227	0xbedb6f53	-0.4285837
228	0xbeb9b188	-0.36268258
229	0xbf0dff96	-0.5546812
230	0xbece518f	-0.402966
231	0xbe980731	-0.29692987
232	0xbe5fc29f	-0.21851586
233	0xbd92ee5f	-0.07174372
234	0x3cbac0ad	0.022796953
235	0xbe19c649	-0.15017046
236	0xbe3ea7fa	-0.18618765
237	0xbe0761be	-0.1322088
238	0xbec91933	-0.39277038
239	0xbdf088af	-0.1174482
240	0x3bb14221	0.0054094945
241	0xbe1703df	-0.1474757
242	0xbe450e53	-0.19243746
243	0xbfb6148b	-1.4225019
244	0x3dc29354	0.09500757
245	0xbe3a907c	-0.18219179
246	0xbf83de78	-1.0302267
247	0xbfba7dec	-1.4569678
248	0xbe296cb6	-0.16545376
249	0xc003d439	-2.059828
250	0xbfdaa3a8	-1.7081194
251	0x3e447477	0.19185053
252	0xbffe16e3	-1.9850734
253	0xbe8a4a01	-0.27009585
254	0xbec4992f	-0.3839812
255	0xbfb16172	-1.3857863

0.bias f4 [32]
0	0xbd82c20a	-0.06384666
1	0xbe19d6eb	-0.15023391
2	0xbd72841c	-0.05920802
3	0xbeb9f7e5	-0.3632194
4	0xbdd2568c	-0.10270414
5	0xbe49e9c3	-0.1971808
6	0xbe26ba35	-0.1628197
7	0xbc89d417	-0.016824765
8	0xbd45e53c	-0.048314318
9	0x3e99c782	0.30035025
10	0xbcbb905f	-0.02289599
11	0xbf05b782	-0.52233136
12	0xbeeab5ac	-0.4584173
13	0xbec110b7	-0.37708065
14	0x3a9e95ee	0.0012099126
15	0xbe9a5103	-0.30139932
16	0x3eed09f6	0.46296662
17	0xbe40a782	-0.18813899
18	0xbd905973	-0.07048311
19	0xbedfd7c1	-0.43719295
20	0xbd9669eb	-0.07344421
21	0xbf7e62a7	-0.9936928
22	0xbf0bff77	-0.54686683
23	0xbe796e11	-0.24358393
24	0x3da1bb30	0.07897031
25	0xbe0909bc	-0.1338262
26	0xbcc9d5e7	-0.02463813
27	0xbdf87dfa	-0.12133403
28	0xbc1aefe9	-0.009456613
29	0xbdb78e02	-0.08962633
30	0xbc21cccc	-0.009875488
31	0xbed6fce8	-0.41989827

3.weight f4 [16, 32, 3, 3]
0	0xbe5d025a	-0.21582928
1	0xbeda36f0	-0.4262004
2	0xbe81f274	-0.2538029
3	0xbef5b3d6	-0.47988766
4	0xbecc56c2	-0.3990994
5	0xbdd2019f	-0.102542154
6	0xbe0d96d0	-0.13827062
7	0x3bf034c8	0.0073305108
8	0xbe04cba9	-0.12968315
9	0x3f1d457d	0.61434156
10	0xbde0de72	-0.10979928
11	0xbe98c703	-0.29839334
12	0xbd96d34e	-0.07364522
13	0x3f0dcb57	0.55388397
14	0x3ea3f832	0.32025295
15	0x3dbfe3e1	0.09369636
16	0x3e9fbc50	0.3119836
17	0x3edab7b2	0.42718273
18	0xbd34fd79	-0.044187043
19	0x3e95536e	0.29165214
20	0xbecc05c9	-0.39848164
21	0xbdff90b2	-0.1247877
22	0xbd5d6a58	-0.054056495
23	0xbf0eab90	-0.55730534
24	0xbe9f51fe	-0.31117243
25	0xbedb4db8	-0.42832732
26	0xbd930d41	-0.07180262
27	0x3f17d8ec	0.5931537
28	0x3ef97af7	0.48726627
29	0x3e744783	0.23855405
30	0x3f0f7625	0.5603965
31	0xbc87c697	-0.016574187
32	0xbee3ab56	-0.44466656
33	0x3f0e018a	0.554711
34	0xbe32ede8	-0.17473567
35	0xbf6d2099	-0.92627865
36	0xbf77e4f2	-0.9683372
37	0xbf17b101	-0.5925446
38	0xbcfc0e73	-0.030768609
39	0xbef43634	-0.47697604
40	0x3e88b7d5	0.26702753
41	0x3f051ccb	0.5199706
42	0xbeda84c0	-0.42679405
43	0x3f19ef87	0.60131115
44	0x3f87a448	1.059701
45	0xbc8d39d2	-0.017239485
46	0xbdd1b8af	-0.10240304
47	0xbe89f72d	-0.26946393
48	0xbe4a9ead	-0.19787093
49	0xbe0d7106	-0.13812646
50	0xbdc95902	-0.0983143
51	0xbf10b095	-0.5651944
52	0xbedde6a1	-0.43340018
53	0xbeba7ffa	-0.36425763
54	0x3e0910cf	0.13385318
55	0xbbea4dcd	-0.007150388
56	0xbd317a20	-0.043329358
57	0x3e90052b	0.28128943
58	0xbdefdddc	-0.11712238
59	0xbe035727	-0.12826215
60	0x3dbe899b	0.0930359
61	0xbd2cebcb	-0.042217057
62	0xbe1198d7	-0.1421846
63	0x3efc089f	0.49225327
64	0xbcc0f5ed	-0.023554767
65	0x3e164d1e	0.14677855
66	0xbc8aec50	-0.016958386
67	0xbeac6699	-0.33672026
68	0xbce22879	-0.02760719
69	0xbd86a1c9	-0.06573827
70	0xbe4cacbf	-0.19987772
71	0xbe7d3d69	-0.24730457
72	0xbf18b0e3	-0.5964491
73	0xbf1c5660	-0.610693
74	0xbe5bdc85	-0.2147084
75	0xbf24d54c	-0.64387965
76	0xbed05dd8	-0.40696597
77	0xbe78ff47	-0.2431613
78	0xbf404fbd	-0.7512167
79	0xbe4c3e7c	-0.19945711
80	0x3e21b604	0.1579209
81	0xbfbb3607	-1.4625863
82	0xbf8ee2f8	-1.1163015
83	0xbeafee42	-0.34361464
84	0xbfb650c1	-1.4243394
85	0xbeca929a	-0.39564973
86	0xbca9a7bf	-0.02070987
87	0xbef7c32b	-0.4839109
88	0xbef1a43f	-0.47195622
89	0xbdff314e	-0.12460576
90	0x3d7b4b28	0.06135097
91	0xbe1fed40	-0.15617847
92	0x3e3e86ae	0.18606064
93	0xbcce279d	-0.025165373
94	0xbd47bb3c	-0.048762545
95	0xbe92235b	-0.285426
96	0x3dbd68c8	0.09248501
97	0xbcfcd3c4	-0.030862696
98	0xbdb2373f	-0.087019436
99	0xbdeae7d8	-0.11470002
100	0xbc989c9e	-0.018629368
101	0xbc97fe87	-0.018553985
102	0x3daa5260	0.08316493
103	0x3d577136	0.0525982
104	0xbd09df15	-0.033660013
105	0x3e84b811	0.25921682
106	0x3d9a690e	0.07539569
107	0x3f59829c	0.8496492
108	0xbeffb2dc	-0.49941146
109	0xbf078bc0	-0.52947617
110	0xbf161cd6	-0.5863775
111	0x3e75dc43	0.24009804
112	0x3e2fa5c5	0.1715308
113	0x3e3bb6f9	0.18331517
114	0xbd5628df	-0.05228507
115	0xbcb9247c	-0.022600405
116	0x3e7f8ad8	0.24955308
117	0xbdd734ad	-0.10508094
118	0x3b9c05db	0.00476144
119	0x3de68f43	0.11257794
120	0x3dd2800f	0.102783315
121	0x3e1a8169	0.15088429
122	0x3ecd089b	0.40045628
123	0xbe60b5b7	-0.21944319
124	0xbed7b30e	-0.42128795
125	0xbe3a417d	-0.18189044
126	0x3e188b36	0.14896855
127	0x3d22bd52	0.03973133
128	0x3d05c325	0.032656807
129	0x3ed86f11	0.42272237
130	0xbd97b957	-0.07408398
131	0xbe8d289f	-0.27570054
132	0x3ea8c4e6	0.32962722
133	0x3c9f4633	0.019442653
134	0xbeccc48d	-0.39993706
135	0x3e2a7d17	0.1664928
136	0x3e2808bc	0.16409582
137	0xbea04b5d	-0.31307498
138	0xbca9cf0d	-0.020728612
139	0x3e3eb3f3	0.18623333
140	0xbd75c5a8	-0.060002953
141	0x3e9917c5	0.29900947
142	0x3e3dcd0e	0.18535253
143	0x3adb5392	0.001673328
144	0xbd70fd4f	-0.058835324
145	0xbc9308b0	-0.017948478
146	0xbd7c7eae	-0.06164425
147	0x3f41eb5e	0.75749767
148	0x3f078fd1	0.5295382
149	0x3e8bcc19	0.27304152
150	0x3e9a7660	0.30168438
151	0x3d781572	0.060567327
152	0x3d43aa15	0.047769625
153	0xbead7ecc	-0.338858
154	0xbe73ea96	-0.23819956
155	0xbe445504	-0.19173056
156	0xbead6671	-0.3386722
157	0xbc7d4081	-0.015457273
158	0x3db76a01	0.089557655
159	0xbecea45c	-0.4035977
160	0xbde820ab	-0.11334356
161	0x3e8e61d9	0.27809027
162	0xbd179872	-0.037010618
163	0x3e3837e4	0.1799007
164	0x3e2dabb2	0.16960028
165	0x3db408c3	0.08790734
166	0xbd726bcf	-0.059184846
167	0x3e3467ff	0.17617796
168	0xbd37f1f7	-0.04490849
169	0xbeb32963	-0.34992513
170	0xbdf51469	-0.119667836
171	0x3ede77ae	0.43450683
172	0x3d5ed589	0.05440286
173	0x3df62697	0.12019079
174	0x3ea02021	0.31274512
175	0x3db36342	0.08759166
176	0x3e5b19a6	0.21396503
177	0xbe27469a	-0.16335526
178	0xbde3e5f9	-0.11127848
179	0xbd16a991	-0.036782805
180	0xbe4b17e0	-0.19833326
181	0xbecc582e	-0.39911026
182	0xbeb1e533	-0.34745178
183	0x3b387195	0.0028143872
184	0xbe05074a	-0.12991062
185	0x3e6e5379	0.2327403
186	0x3e3d30ef	0.18475698
187	0x3e0dd714	0.13851577
188	0x3ecbce51	0.39805844
189	0x3ec9e483	0.39432153
190	0xbdedaee7	-0.116056256
191	0xbdd31156	-0.10306041
192	0x3f230761	0.63683134
193	0x3d3372a2	0.043810494
194	0xbe9bacf1	-0.3040538
195	0x3e48496d	0.1955926
196	0xbe027bcf	-0.12742542
197	0xbeb1bf97	-0.34716484
198	0xbeae5229	-0.34047058
199	0xbe87f372	-0.26552922
200	0xbef7b39a	-0.48379213
201	0xbe7d9abc	-0.24766058
202	0xbddd6255	-0.10809771
203	0xbe90ab06	-0.2825548
204	0xbe93819d	-0.28809825
205	0xbf42f3d6	-0.76153314
206	0x3e622e50	0.2208798
207	0x3e726ff8	0.23675525
208	0x3e27ab06	0.16373834
209	0xbe7206db	-0.23635428
210	0x3e724001	0.23657228
211	0xbe5754e1	-0.21028472
212	0xbda9548d	-0.0826808
213	0xbe1d33b0	-0.15351748
214	0xbea82515	-0.3284079
215	0xbe836ae3	-0.25667486
216	0xbca34aeb	-0.019933185
217	0xbddc1abb	-0.10747286
218	0x3df783f3	0.12085714
219	0xbd5e009a	-0.054199792
220	0xbe8f63de	-0.2800588
221	0xbe27de30	-0.16393352
222	0x3dd581e9	0.10425169
223	0xbed1ab2f	-0.40950915
224	0xbe12ac5e	-0.14323565
225	0xbf7ed298	-0.9954009
226	0xbea20084	-0.31641018
227	0x3dfafc62	0.122551695
228	0xbf4efebf	-0.8085746
229	0x3eae54af	0.34048983
230	0x3f854d7c	1.0414271
231	0xbf46a15e	-0.77589977
232	0x3f251eae	0.6449994
233	0x3f894574	1.072432
234	0xbf8211dc	-1.01617
235	0xbeaf00d2	-0.34180313
236	0xbfbd6942	-1.4797747
237	0xbf012be0	-0.5045757
238	0xbca0b562	-0.01961774
239	0xbdee4220	-0.11633706
240	0xbf9561ae	-1.1670434
241	0xbf309c3d	-0.689884
242	0xbe2ba655	-0.1676267
243	0xbe1ec88e	-0.15506193
244	0xbdafd580	-0.08585644
245	0x3eb1ba57	0.3471248
246	0xbe625d04	-0.22105795
247	0xbd4792af	-0.048723873
248	0x3f0001a6	0.50002515
249	0x3b67740f	0.003531698
250	0xbef5bd32	-0.47995907
251	0xbe34afde	-0.17645213
252	0xbea59617	-0.32341072
253	0xbe5d80de	-0.2163119
254	0xbeb55c61	-0.35422042
255	0xbea7eb00	-0.32796478

3.bias f4 [16]
0	0x3c8c1a5a	0.01710241
1	0x3e05e0db	0.13074057
2	0xbdce5a1b	-0.1007578
3	0x3c4cc43a	0.012497956
4	0xbd464ba8	-0.048411995
5	0xbc9699e2	-0.018383924
6	0xbe23da7e	-0.16001317
7	0x3c557341	0.013027967
8	0xbd58ebaf	-0.05295914
9	0xbd762380	-0.06009245
10	0xbdbc6718	-0.09199351
11	0xbec08ab2	-0.37605816
12	0x3d157b47	0.03649452
13	0xbf02e209	-0.5112615
14	0x3ddb9ea3	0.10723617
15	0xbdf1def7	-0.11810105

6.weight f4 [8, 16, 3, 3]
0	0xbe64c918	-0.22342336
1	0xbd3a4036	-0.045471393
2	0xbd294ad3	-0.041331124
3	0xbde91412	-0.11380781
4	0x3dc6877a	0.09693809
5	0x3d7808f5	0.060555417
6	0xbe2bd05a	-0.16778699
7	0x3d062b87	0.032756355
8	0x3db98492	0.09058489
9	0xbc7240e0	-0.014785975
10	0xbc585594	-0.013203997
11	0x3da223c8	0.07916981
12	0x3c5839ce	0.013197375
13	0x3f03db5c	0.5150659
14	0x3eaa1482	0.3321877
15	0xbd9a32ba	-0.075292066
16	0x3e9dd657	0.3082759
17	0x3ebf7ce5	0.37399974
18	0xbd168981	-0.036752228
19	0xbc9c09fa	-0.019047726
20	0x3c441e38	0.011970095
21	0x3db2133e	0.086950764
22	0xbe44e4f9	-0.19227971
23	0x3dcb2f81	0.0992117
24	0x3df5f384	0.120093375
25	0x3ce2c38d	0.027681137
26	0xbcdd1754	-0.026988663
27	0x3d000b7f	0.031260964
28	0xbe37ef81	-0.17962457
29	0xbe1985bf	-0.14992426
30	0xbd08b1ca	-0.033372678
31	0x3d332940	0.04374051
32	0xbbe09c12	-0.0068545425
33	0x3cfcdb32	0.03086624
34	0x3e02288c	0.1271078
35	0x3e6a100c	0.22857684
36	0xbe62f2f5	-0.22162993
37	0xbe12734a	-0.14301792
38	0xbd9016dc	-0.0703561
39	0xbd92b971	-0.071642764
40	0x3db3261b	0.087475024
41	0x3e4531d5	0.1925729
42	0xbd4667bb	-0.04843877
43	0x3e3d7175	0.18500312
44	0x3e954236	0.29152077
45	0x3da900a2	0.08252074
46	0xbda5c4ee	-0.08094202
47	0xbd07cb34	-0.033152774
48	0xbeaa6c53	-0.3328577
49	0xbf6253de	-0.8840922
50	0xbf97f9a7	-1.1873063
51	0x3d29889c	0.041390046
52	0xbedb4569	-0.42826393
53	0xbf45a54f	-0.77205366
54	0x3e7cb864	0.24679714
55	0xbe3df53e	-0.18550584
56	0x3e58893f	0.21146105
57	0xbedf7292	-0.43642098
58	0xbf0ccfc4	-0.55004525
59	0xbea70b9c	-0.32626045
60	0x3e54cc92	0.20781162
61	0xbde572c2	-0.11203529
62	0x3d80fb39	0.06297917
63	0x3e8fd5d4	0.28092825
64	0xbd7c84d6	-0.06165012
65	0xbc56e0fe	-0.013115166
66	0xbd2bfb68	-0.041987807
67	0xbee711d7	-0.45130798
68	0xbe43f884	-0.1913777
69	0x3d311aa0	0.043238282
70	0xbe6a1738	-0.2286042
71	0xbf050d08	-0.5197301
72	0xbdf413ea	-0.11917861
73	0xbd158976	-0.036508046
74	0xbe0c1afc	-0.13682169
75	0xbc8fe7ef	-0.01756665
76	0xbdbf1eb3	-0.09332027
77	0x3e02c990	0.12772202
78	0xbd38c3ab	-0.04510848
79	0x3db32e52	0.08749069
80	0x3d86b74b	0.06577929
81	0x3ef80983	0.48444757
82	0x3e857a4e	0.26069874
83	0x3db1957f	0.08671092
84	0xbe94413d	-0.28956023
85	0xbe656fb3	-0.22405891
86	0x3c4a82a3	0.012360248
87	0x3dc8c98e	0.098040685
88	0xbed69cbf	-0.41916463
89	0x3c4ba7da	0.012430156
90	0xbdc4f687	-0.09617334
91	0xbe39b926	-0.18137035
92	0xbe5c450c	-0.21510714
93	0x3b92871e	0.0044716736
94	0x3d36fe1c	0.04467593
95	0xbe460616	-0.19338259
96	0x3b288018	0.0025711115
97	0xbdbf8f98	-0.0935356
98	0xbb7d7b51	-0.0038678239
99	0xbf008ef6	-0.5021814
100	0xbeb20c5f	-0.34775063
101	0x3ed6f9d1	0.4198747
102	0xbf16c5da	-0.5889565
103	0x3ea91d90	0.33030367
104	0x3deb340b	0.11484536
105	0xbe822106	-0.2541582
106	0x3d8bd428	0.06827575
107	0xbca72e3b	-0.020407787
108	0xbe3c7fc8	-0.1840812
109	0x3ec27017	0.37976143
110	0x3e3ac4f6	0.18239197
111	0xbe4fc2e8	-0.20289195
112	0x3e5c61b1	0.21521641
113	0x3e9a9e6c	0.3019899
114	0xbca44758	-0.02005355
115	0x3cfc91e5	0.030831287
116	0xbe72934c	-0.23689002
117	0xbda21b19	-0.07915325
118	0xbe6395b5	-0.22225077
119	0x3d222e23	0.03959478
120	0xbe1df057	-0.15423714
121	0x3db7c7fe	0.08973692
122	0x3e403b6e	0.1877267
123	0x3e5b6d51	0.2142842
124	0x3d1b0711	0.037848536
125	0x3db91645	0.09037451
126	0xbdc252de	-0.09488462
127	0x3d8f40af	0.06994759
128	0xbe0b4904	-0.13602072
129	0xbd25e294	-0.040499285
130	0x3b554367	0.0032541396
131	0x3e5450a4	0.20733887
132	0xbd3c1b0e	-0.04592424
133	0x3ddf1fb1	0.108947165
134	0x3e8c91cd	0.27454987
135	0xbe17c07b	-0.14819519
136	0x3e37d935	0.17953952
137	0x3d91b564	0.07114676
138	0x3e0f534b	0.13996617
139	0x3ec3ef06	0.38268298
140	0xbdef8f0f	-0.11697208
141	0xbdfa48ea	-0.122209385
142	0xbe1237cc	-0.14279097
143	0xbd628ad6	-0.055308186
144	0xbe49591d	-0.196629
145	0xbe6d4e97	-0.23174511
146	0x3e8512cb	0.259909
147	0xbe2ff5dc	-0.17183632
148	0x3e15fdc2	0.14647582
149	0x3e88a2cd	0.26686707
150	0xbe1d4f3f	-0.15362261
151	0x3e51501d	0.20440717
152	0x3d49e7da	0.049293377
153	0x3e672d40	0.22575855
154	0x3df342c6	0.118779704
155	0xbea7f411	-0.32803395
156	0x3dcd4d7e	0.10024546
157	0x3c9fb20f	0.019494085
158	0xbe16cb5b	-0.14726011
159	0xbd2f7ebb	-0.04284547
160	0xbca5c348	-0.020234719
161	0x3e029fcb	0.12756269
162	0x3cd67ab4	0.026181556
163	0x3cb954d9	0.022623466
164	0x3d0c3f15	0.034239847
165	0xbe2cb19b	-0.16864626
166	0xbe1a23ee	-0.15052769
167	0xbaf27164	-0.0018496928
168	0x3d52d276	0.051470242
169	0x3e1087ff	0.14114378
170	0x3e2b7c46	0.16746625
171	0x3c0517a7	0.008123315
172	0x3cf5ab5d	0.029988939
173	0x3c8e1ab7	0.017346723
174	0xbe2ead92	-0.170584
175	0x3d39c435	0.045353133
176	0x3e0358f6	0.12826905
177	0x3e1662d7	0.14686142
178	0x3cac58a2	0.021038357
179	0x3dadb32d	0.08481441
180	0xbe38a650	-0.18032193
181	0xbd769e11	-0.060209338
182	0x3e2b5c96	0.16734537
183	0xbe56b632	-0.2096794
184	0x3c8a6b59	0.01689689
185	0xbdbf6a69	-0.09346468
186	0xbd41024e	-0.04712134
187	0xbdcce622	-0.10004832
188	0xbbc7d180	-0.0060979724
189	0xbd6db7e7	-0.05803671
190	0xbe86a389	-0.26296642
191	0xbd5e594b	-0.054284375
192	0xbe801d3d	-0.25022307
193	0x3e83a0ae	0.25708526
194	0x3e80acc4	0.2513181
195	0xbe248dc7	-0.16069709
196	0x3d5ea338	0.054354876
197	0x3d8db756	0.06919734
198	0xbea9d91c	-0.33173454
199	0xbe654c86	-0.22392473
200	0x3e969f06	0.294182
201	0xbe817406	-0.2528383
202	0xbe342dc9	-0.1759559
203	0x3ea5a17c	0.32349765
204	0xbe30b29d	-0.17255636
205	0x3eab1d15	0.33420625
206	0x3e520356	0.20509085
207	0x3d110e39	0.035413954
208	0x3e1f7936	0.15573582
209	0xbebcd858	-0.36883807
210	0x3d1e490c	0.03864388
211	0xbe35d9d8	-0.17758882
212	0x3cb24ed1	0.021766098
213	0xbdf2f012	-0.11862196
214	0x3e150b76	0.14555153
215	0x3e068f3a	0.13140574
216	0x3c44d8c4	0.012014572
217	0x3de31e64	0.11089781
218	0xbd547bac	-0.051875755
219	0x3d813ece	0.06310807
220	0x3d3e71a6	0.046495102
221	0x3d2f6705	0.042822856
222	0x3dee56c3	0.11637642
223	0xbdc7d231	-0.09756888
224	0xbe063066	-0.131044
225	0x3dea2d80	0.1143446
226	0x3e04fce7	0.129871
227	0x3e68e375	0.22743018
228	0x3e07ac2e	0.13249275
229	0x3e675858	0.22592294
230	0x3cf2d5e8	0.029643014
231	0x3e84827f	0.2588081
232	0xbd4a2c1f	-0.049358483
233	0x3ee83d17	0.45359108
234	0xbe5ea213	-0.21741514
235	0x3ca643ce	0.020296004
236	0x3eb70540	0.35746193
237	0xbda33072	-0.079682246
238	0x3e132715	0.14370377
239	0x3df030c7	0.117280535
240	0xbdaddc25	-0.08489255
241	0xbce12a55	-0.027486006
242	0x3ce73c53	0.028227007
243	0xbdfd2de3	-0.12362268
244	0xbe17d578	-0.14827526
245	0x3acc9f65	0.0015611468
246	0x3bc4b03a	0.006002453
247	0x3e6787aa	0.22610345
248	0x3d6c7d68	0.057736784
249	0x3caf6fc3	0.021415597
250	0x3d19d531	0.03755683
251	0x3d9ececb	0.077542864
252	0xbd8e089b	-0.06935235
253	0x3dbf6e24	0.093471795
254	0x3e11ce96	0.14238963
255	0x3d6e9e6a	0.058256544

6.bias f4 [8]
0	0x3ebf581e	0.37371916
1	0xbf104f3c	-0.563709
2	0x3dbd6e20	0.0924952
3	0x3e5fa1d2	0.21839073
4	0x3e079d92	0.13243702
5	0xbeca417f	-0.39503095
6	0xbea429b2	-0.3206306
7	0xbed62dff	-0.41831967
