Pretrained_cnn/main/saved_feature/feature_extractor_best_epoch_33.pth (torch, 29688 bytes, 6 tensors)

0.weight f4 [32, 3, 3, 3]
000000 a4 df 04 3e 79 ee 2e 3d 2e 09 25 3e 39 a9 27 3e
       0.12975937 0.042707894 0.16116783 0.16373147
000010 0d c8 f2 bd f7 d7 c3 be 0c 82 a8 3d 8e f0 5b be
       -0.11854563 -0.38250706 0.082279295 -0.21478483
000020 7a 7a cf be 68 2f 3c 3e f2 1a 6e 3e 7a 29 57 3e
       -0.4052313 0.18377459 0.23252466 0.21011916
000030 b2 5b 0e 3e 4f 00 49 bd e9 02 8b be f1 23 fa bc
       0.13902166 -0.04907256 -0.27150658 -0.030534716
000040 fe 5d 8d be 79 73 9f be c0 5e 9f 3e b4 8b 9d 3e
       -0.27610773 -0.31142786 0.31126976 0.30770648
000050 66 cc 83 3d 44 0c 3b 3e 4f 3a 03 3e b4 ca 92 be
       0.0643547 0.18266398 0.12815212 -0.28670275
000060 47 e2 d0 3d a7 62 38 be 7a 71 b7 be 14 9f d4 bd
       0.10199409 -0.18006383 -0.35828763 -0.10381904
000070 ea c0 91 be 1f fd b4 be 3d b8 3b be 5b 29 3c be
       -0.28467494 -0.35349366 -0.18332 -0.18375151
000080 57 4d dd bd a1 d1 3a 3e 86 88 a5 bd 6a 23 f9 bd
       -0.10805767 0.1824403 -0.080826804 -0.12164958
000090 75 7d 8c be a4 78 da bd 79 17 59 be 69 be 0a be
       -0.27439466 -0.106675416 -0.2120036 -0.13549198
0000a0 4f 51 49 be d9 b5 a6 be e9 24 07 3e 9e 2e 7c be
       -0.19659923 -0.32560614 0.13197674 -0.24627158
0000b0 c2 30 0b 3d 60 32 b1 be a4 13 e1 be 93 59 00 bf
       0.033982046 -0.34608746 -0.43960297 -0.5013668
0000c0 ad a6 ae be f4 52 a0 be 9d 6c e4 be db 04 26 3e
       -0.3411154 -0.31313288 -0.44614115 0.1621279
0000d0 31 0a 7c be 7c eb bb bd 99 df 82 3e 64 22 f4 3d
       -0.24613263 -0.091757745 0.25561216 0.11920622
0000e0 82 f8 8c 3b 59 8c ea bb 4f 90 aa 3d be be 93 3d
       0.0043020854 -0.007157844 0.08328306 0.072141156
0000f0 c1 dd c4 3d 6b 64 93 bd dd 26 00 3c d7 02 51 3e
       0.09612609 -0.071968876 0.007821766 0.2041124
000100 eb 61 4d be 70 82 79 be b7 7f 13 bd 82 03 6c be
       -0.20056884 -0.24366164 -0.03601047 -0.23048213
000110 c3 f8 b1 bd 30 9c 14 be cc 23 39 bc c8 84 05 be
       -0.08690026 -0.14512706 -0.011300039 -0.13038933
000120 1c 1c 1d be f0 03 d0 be ca ef 99 be c4 02 c0 bd
       -0.15342754 -0.40628004 -0.30065757 -0.093755275
000130 30 b1 1d be 07 bc 51 be 7e 14 13 be 5a de af be
       -0.15399623 -0.20481883 -0.14363286 -0.34349328
000140 e4 47 2a be bf 58 32 be a2 60 28 be f2 ee 32 be
       -0.16628987 -0.17416666 -0.16443112 -0.17473963
000150 75 12 66 be 60 c1 20 be 96 55 33 be a8 28 5e be
       -0.22467978 -0.15698767 -0.17513117 -0.21695197
000160 f2 58 93 bd 7d 3b 64 bc f7 76 1d 3e 29 50 74 3e
       -0.07194699 -0.013930199 0.15377413 0.23858704
000170 36 14 a2 3e 21 e9 90 3e 83 a7 6d 3e 3e dc b0 3e
       0.31656045 0.28302863 0.23208432 0.3454303
000180 3b 0a 98 3e 6c 46 67 3e 1b 9f 13 3e 80 06 be bc
       0.29695305 0.22585458 0.14416163 -0.023196459
000190 7a 71 0c be 40 17 ae bd 8c 02 0c be 66 91 9f bd
       -0.13715163 -0.08500528 -0.13672847 -0.077914044
0001a0 ea 9f ef bd ab 2a f6 bd 81 b9 9c bd 4e 99 1a bc
       -0.11700423 -0.12019857 -0.076525696 -0.009435965
0001b0 5c 20 1e 3e 81 6d 2e 3e 99 ab 69 3e 3a 31 1b 3e
       0.15442032 0.1703396 0.22819366 0.15155497
0001c0 f2 83 a3 3e 0b 33 28 3e 80 67 48 3e 40 8b ad 3d
       0.31936604 0.16425721 0.19570732 0.084738255
0001d0 d8 bb e3 bb 6c c0 56 3e f5 99 f9 bb 7a a3 8f 3e
       -0.006949883 0.2097184 -0.00761723 0.2805441
0001e0 1d 55 66 bd 54 6b 3b bd b3 35 88 3d 6f 15 18 bd
       -0.056233514 -0.045756653 0.06650867 -0.037129816
0001f0 b5 59 0c be e8 1e 1d be 40 55 7c be 5f 1c 7f be
       -0.13706096 -0.15343821 -0.24641895 -0.24913166
000200 e6 5c d3 bd 92 52 06 be 19 7e e4 bd 7e 9f 78 3b
       -0.10320453 -0.13117436 -0.11156864 0.0037936862
000210 7d 48 af bd b2 c0 7b be 74 f5 9c be 7a 52 d1 be
       -0.08558748 -0.24585226 -0.30656016 -0.40883237
000220 a3 43 28 be 75 a2 2c 3e 7f c4 30 be 6a bf 56 bd
       -0.16432051 0.16858847 -0.17262457 -0.05242864
000230 f1 7f 1c 3e 4e 3e 19 3c 91 0e 07 3e cc ec 6f 3e
       0.15283181 0.0093532335 0.1318915 0.23430175
000240 d1 0d 98 be ad 2d ed bc db 69 54 3c ae 34 0d be
       -0.2969804 -0.028952444 0.012964691 -0.13789627
000250 cc 6b 07 be de f2 7c 3e 9d 4d 28 3d 52 40 3c 3e
       -0.13224715 0.24702021 0.041089643 0.18383911
000260 27 4f 80 3e e0 b7 c0 be 7d 40 fe bd 3d ad bf 3c
       0.25060388 -0.37640285 -0.12414644 0.023398036
000270 08 6a c7 be ba e0 6e bd 7e 53 36 3e 88 27 05 3e
       -0.38948083 -0.058319785 0.17805287 0.13003361
000280 be ad 48 3e 13 cb 7c 3e 0b 03 a8 bc 48 90 57 be
       0.19597527 0.24686842 -0.020509264 -0.21051133
000290 d2 c0 c7 bd 44 f1 67 bd 22 78 6c be b5 d7 a5 3d
       -0.097535744 -0.056626573 -0.23092702 0.080977835
0002a0 86 5a 4b bd 79 11 22 be 86 09 26 be ab 7e 68 bd
       -0.049646877 -0.15826978 -0.1621457 -0.056761425
0002b0 3a 4c 6c bc 4d 41 ca 3d 8e f4 cd bc a6 27 e0 3c
       -0.014422471 0.098757364 -0.025141027 0.027362656
0002c0 d5 87 2b 3e 9d 7b 8c 3c e2 1b 1a be 7a 90 e4 3d
       0.16751035 0.017148787 -0.15049699 0.11160369
0002d0 d7 1d 7e 3c e5 d1 60 bd a2 36 5c be cd d4 d2 3d
       0.015510044 -0.05488767 -0.21505216 0.10294495
0002e0 a7 69 af bd c7 a8 4c 3d 09 55 03 be 6d 10 1c be
       -0.085650735 0.049965646 -0.12825407 -0.15240641
0002f0 7f bb be bd 7d 7f 1d be 78 d9 fc 3d e8 ad 00 bd
       -0.09313106 -0.15380664 0.12346166 -0.03141585
000300 c6 4c 37 be 1c 79 25 be a3 0f c7 be 27 6f a6 3d
       -0.1790038 -0.16159481 -0.38879117 0.081266694
000310 ef 9f c8 bd da 3a c6 3d a5 66 27 3e 4d d0 73 3e
       -0.0979613 0.09679194 0.1634775 0.23809929
000320 3b d7 80 bd db 77 c1 3c 07 05 68 bd 64 42 78 be
       -0.06291052 0.023616722 -0.05664542 -0.24244076
000330 f2 93 d0 3b b2 ce 18 3e 14 3e 7a 3e 8d df 0a 3e
       0.0063652927 0.14922598 0.24437743 0.1356184
000340 0d a1 60 3e 9a 93 39 bd 5b 15 15 3e dd bf a8 bd
       0.21936436 -0.04530678 0.14558928 -0.0823972
000350 66 f1 c4 be 81 73 4a 3e 8d fc 54 3d 20 81 03 bd
       -0.38465422 0.19770624 0.051998664 -0.032105565
000360 13 e7 16 3e 9d 55 e6 3d 8f fb 99 3d 8a f0 30 3e
       0.14736585 0.11246798 0.07518684 0.17279258
000370 90 02 85 3d 4a f1 c4 3d ae 26 5f 3d 0a 2e 39 3d
       0.064946294 0.09616335 0.054480247 0.045209922
000380 4e 6d 06 bc 86 2b b0 bd 9e 31 8b bc 28 a3 56 be
       -0.008204771 -0.086020514 -0.016991433 -0.20960677
000390 67 cf 39 be 61 cd a9 be 8d c7 65 be 2a 89 3d be
       -0.18145524 -0.33164504 -0.22439404 -0.18509355
0003a0 57 11 de bd d9 a7 a8 bc b5 3c ee bd 26 33 73 be
       -0.10843151 -0.020587848 -0.11632673 -0.2374998
0003b0 dc c6 6a be e7 12 28 be 14 25 a9 be 88 45 b8 bd
       -0.22927421 -0.1641346 -0.330361 -0.08997637
0003c0 7c 93 f5 3a 71 f1 e7 bd 9a d5 8b be d0 e8 5c bf
       0.001873597 -0.11325348 -0.27311403 -0.86292744
0003d0 06 49 1d 3e 39 2e 16 bd 17 4c 59 bf c7 4a 6d bf
       0.15359887 -0.036665175 -0.8488173 -0.92692226
0003e0 63 74 9a 3d ea 00 92 bf 31 ca 9a bf cb ce 7d 3d
       0.0754173 -1.1406529 -1.2092954 0.06196479
0003f0 f2 6b 4f bf 63 af a6 3d 20 3b 8f bd 0e 47 29 bf
       -0.81024086 0.08138921 -0.06993699 -0.66124046

0.bias f4 [32]
000000 85 92 0d bd ce 49 bf bd 79 d6 88 bc 10 95 1b be
       -0.03456356 -0.09340249 -0.016703831 -0.15193582
000010 46 d8 48 bd 78 ab e8 bd ab 48 03 bd 74 8b 8a bc
       -0.04903438 -0.1136083 -0.032051723 -0.0169122
000020 e0 6b 7c bd 4b 42 25 3e 06 d1 61 3a f0 b9 72 be
       -0.061626315 0.1613857 0.0008614216 -0.23703742
000030 ec 20 86 be e7 3d 5d be 92 50 d5 3c 5a 04 0f be
       -0.26196992 -0.21605645 0.026039395 -0.13966504
000040 e6 7a 90 3e 71 ed 60 bd 3a 02 b2 bd 5b bb 64 be
       0.28218764 -0.05491394 -0.08691831 -0.22337095
000050 3e b9 30 bd 4a 69 ea be d1 d6 6b be d0 fe a4 bd
       -0.04314541 -0.45783454 -0.23031165 -0.08056414
000060 00 f4 b8 3d 2f a8 4b bd 76 27 75 bc c1 0c b6 bc
       0.09030914 -0.04972094 -0.0149630215 -0.022222878
000070 47 49 fc bd a5 cf 68 bd 0e 4d 68 bc cf 2e 61 be
       -0.12318664 -0.05683865 -0.0141785275 -0.21990512

3.weight f4 [16, 32, 3, 3]
000000 37 31 61 be d0 59 c0 bd 3a 6c 06 3e 27 54 5d be
       -0.2199143 -0.093921304 0.13127223 -0.21614133
000010 f4 6e 43 be 09 bc 01 be 86 f5 79 bd 27 01 f7 3d
       -0.19085294 -0.12669386 -0.061025165 0.12060767
000020 0d 04 73 be 76 2e 38 3d 5c d8 cb bd 63 87 58 be
       -0.23732014 0.044966184 -0.09953377 -0.21145396
000030 a7 fd 3e be 22 af 99 3d 42 75 00 3e ac 4b a2 3d
       -0.18651448 0.07504107 0.1254473 0.079245895
000040 e1 3a ad bd f9 86 9b bd 58 41 1a be 19 05 ee 3d
       -0.08458496 -0.07594103 -0.15063989 0.11622066
000050 5b c2 21 be 81 d5 99 ba c0 7e 09 bd e7 d5 78 bd
       -0.15796797 -0.0011736603 -0.033568144 -0.06075087
000060 9e a5 d8 bc 02 fe fa bd 24 19 db 3d e9 14 15 3f
       -0.02644616 -0.122554794 0.106981546 0.5823503
000070 f2 d6 ae 3e c2 c0 f4 bc 00 ad ee 3e be 15 8f 3d
       0.34148365 -0.02987707 0.46616364 0.06986569
000080 65 5a ac be 34 c1 9d 3e 5b 6c de bd 86 df 28 bf
       -0.33662716 0.30811465 -0.10860511 -0.6596607
000090 fc 59 23 bf 41 31 bb be e9 12 33 3e ce e5 f2 be
       -0.6380918 -0.36561015 0.17487682 -0.47440952
0000a0 99 50 02 3d 40 71 cb 3e 3e 08 8c be 26 0e c8 3e
       0.031815145 0.3973484 -0.27350038 0.39073294
0000b0 17 c1 32 3f 71 29 e9 bc 67 69 d8 bd 11 69 10 be
       0.6982588 -0.028462144 -0.10566979 -0.1410258
0000c0 7f 9b 90 be 66 69 9e be 1d 99 a0 bd 23 0c f3 be
       -0.28243634 -0.30939788 -0.07841704 -0.47470197
0000d0 cc 33 b9 be 4e b1 4f be 76 eb 90 3e f3 22 17 3e
       -0.3617233 -0.2028248 0.28304642 0.14759426
0000e0 55 46 dc bd b0 a4 9c 3e 77 8d 73 3d 79 fe 7a bd
       -0.10755602 0.30594397 0.059461083 -0.06127784
0000f0 c4 66 86 3e 19 76 0c 3e b8 61 f7 bd 64 d2 c7 3e
       0.2625028 0.13716926 -0.12079185 0.39027703
000100 77 e9 94 3d 1f f3 37 3b 7e 7d b8 3d 89 f1 69 be
       0.072710924 0.0028068495 0.09008311 -0.22846045
000110 14 d1 69 be f7 00 fe 3c b1 64 ea bd 52 ed 99 be
       -0.22833663 0.03100632 -0.114449866 -0.30063874
000120 f4 9d 3e be e2 b8 79 be 04 fb 28 bd 96 75 9e be
       -0.18614942 -0.24386933 -0.041255012 -0.30949086
000130 4f af 29 be 57 f6 a3 bd 9b 64 97 be 17 23 98 3d
       -0.16570781 -0.0800597 -0.29568943 0.07428568
000140 77 8c 5c 3e c2 99 8c 3d 91 34 14 bf 13 70 aa be
       0.21537958 0.068652645 -0.5789271 -0.3328863
000150 96 40 20 be 5f 8a 86 3d 1d 21 fd bd f3 1b b1 3d
       -0.15649638 0.06569361 -0.123598315 0.08647909
000160 7d f5 75 be 93 b1 42 3c 6f f3 7d 3e 44 90 8a 3c
       -0.24019428 0.011883157 0.24799894 0.016914494
000170 94 c9 ee 3d f9 86 cf 3d 69 82 a6 bd d0 7a 06 be
       0.11659542 0.10133166 -0.081303425 -0.13132787
000180 ee d1 f6 3d 3c 00 7c bd 6d c6 30 be df 20 4e be
       0.1205176 -0.06152366 -0.17263193 -0.20129727
000190 4f 32 97 bd 85 d3 8c 3d 3f 60 05 3e 22 2e bc 3c
       -0.073826425 0.06876282 0.13024996 0.022971217
0001a0 2c a2 0e be 33 89 99 3e 72 1d c3 3c 27 34 5f 3e
       -0.13929051 0.29987487 0.023817752 0.21797238
0001b0 45 09 ba be 9a cc 82 be df e7 7a be 88 d7 14 3d
       -0.36335197 -0.25546724 -0.24502514 0.03633836
0001c0 6e 41 46 3d 6f 04 1f 3e 79 f0 3e 3d b5 f8 9e bb
       0.048402242 0.15529035 0.04661605 -0.0048514255
0001d0 43 e9 20 3e 79 98 71 3c ef f1 85 bd 73 a8 d3 bd
       0.15713982 0.014745825 -0.06540286 -0.103348635
0001e0 54 de 23 3d 33 25 9f 3d f3 ad 4d 3e 48 9b 27 3d
       0.04000695 0.07770767 0.20085888 0.040919572
0001f0 2c 73 a3 bd f2 90 22 3c aa f7 a5 3e b9 33 c9 3d
       -0.07980952 0.009922253 0.32415515 0.098243184
000200 25 3c e1 bc bb ec c0 3e 46 4f 08 3c 05 1e 97 be
       -0.0274945 0.3768061 0.0083196815 -0.2951509
000210 9b 0a 3b 3e df c7 35 3d 9a 26 bf be d7 b7 d7 3d
       0.18265764 0.044380065 -0.37334138 0.105331115
000220 e0 fc 8c 3d f0 3b 69 be 63 34 07 be f8 c9 d9 bc
       0.068841696 -0.2277677 -0.13203578 -0.026585564
000230 04 9f 80 bd 19 94 97 3e 5d 58 cc 3d f9 43 2a bc
       -0.0628033 0.29605177 0.099777915 -0.0103921825
000240 88 34 af be 48 60 7f be 91 45 71 bc 7a 4c 6a 3e
       -0.34219766 -0.24939072 -0.014726059 0.22880736
000250 52 1e d7 3d f1 9f 1b 3e 0f d4 93 3e 48 0a ff ba
       0.1050383 0.15197732 0.28872725 -0.001945802
000260 f8 e8 a2 3c 3a e4 0c bf 3d e3 5d be b3 73 09 3a
       0.019886479 -0.55035746 -0.21668716 0.0005243376
000270 e3 2b 99 be 10 c5 0b bd d0 73 93 3e 2c 33 8b be
       -0.29916295 -0.03412348 0.28799295 -0.2718748
000280 43 77 37 3e 04 bb e9 3e 71 a0 a1 bc a6 ae b3 3d
       0.17916588 0.45650494 -0.019729825 0.08773546
000290 ae 0e 1a 3d 83 49 ec 3d 66 60 18 bd e7 67 81 bc
       0.037611656 0.11537459 -0.037201308 -0.015796615
0002a0 29 49 82 bc c1 c4 18 be b5 bb 3d be 73 48 13 3c
       -0.015904026 -0.14918806 -0.18528636 0.008989441
0002b0 d0 a8 fa bd 15 dd c5 bc 7d f0 d5 3d 20 c3 73 3e
       -0.1223923 -0.024153272 0.1044626 0.23804903
0002c0 86 cd 08 3d 53 3a 01 be 42 7f 87 3d f6 69 c0 3d
       0.033399127 -0.12619905 0.066160694 0.093952104
0002d0 bb 99 8c be 5f 8b f4 be 19 d3 a5 be fc 4d 15 bc
       -0.27461037 -0.47762582 -0.32387617 -0.009112831
0002e0 d8 38 8c 38 5c 15 68 bd da eb 2f 3d 45 9a ed 3d
       6.686308e-05 -0.056660995 0.042949535 0.1160169
0002f0 57 63 08 3f 7c 8b 58 bd 77 41 3a be 38 0c bc bd
       0.5327658 -0.052867398 -0.18189035 -0.09182018
000300 73 f0 68 3e 8c e7 ad bd 0c 40 13 be 8a 81 47 3e
       0.22747974 -0.0849143 -0.143799 0.19483009
000310 9b 2a 37 bd 8a 6f 04 bd b5 f1 f8 bd 4a 75 86 be
       -0.044718366 -0.032332934 -0.12155477 -0.2626136
000320 fe 9b 82 bd f6 a2 57 bd e5 e7 03 be 68 d2 aa be
       -0.063774094 -0.052645646 -0.1288143 -0.33363652
000330 05 99 a3 be e0 54 b9 be a6 15 8d be b1 3d 85 3e
       -0.31952682 -0.36197567 -0.2755558 0.2602363
000340 74 f1 0a 3e 5d e9 34 bc 97 f9 69 3e 7e d1 0d be
       0.1356867 -0.011041966 0.22849117 -0.13849446
000350 92 2c 82 bd 5a 65 14 bd e2 28 87 be b6 67 63 be
       -0.06356157 -0.03622947 -0.2639838 -0.22207531
000360 c6 cb 12 be b7 13 2a be 12 4f 31 be eb 99 c1 bd
       -0.14335546 -0.16609083 -0.17315319 -0.09453186
000370 9c d9 b7 bd 4e 52 ab bd 5c 2a 1a 3d b5 0f 27 be
       -0.089770526 -0.08365308 0.037638053 -0.16314586
000380 29 94 37 3d 85 24 28 bf 91 57 80 bd c9 7d 95 3e
       0.04481903 -0.65680724 -0.06266702 0.2919753
000390 7e d8 10 bf f8 18 54 3e 3f b2 2e 3f c7 0a e9 be
       -0.5658034 0.2071265 0.6824073 -0.45516035
0003a0 3f f7 06 3f f9 a4 2c 3f 24 ec f7 be 6d 4d 8c 3c
       0.5272102 0.6743923 -0.48422348 0.017126763
0003b0 75 8f a3 be c4 85 10 be e2 72 c4 3d 90 a2 25 3d
       -0.31945387 -0.14113528 0.09592225 0.040438235
0003c0 0b 11 bb bd 3d 56 6a be 84 df 08 be c3 33 2c 3e
       -0.0913411 -0.2288446 -0.13366514 0.1681662
0003d0 2a be 6a bd 55 df 0c bd 7e 17 b0 3d c9 b5 85 3e
       -0.05731026 -0.034392674 0.08598231 0.26115254
0003e0 8b 43 6a 3d 14 f4 28 3e ad ae a3 3d c2 df bb 3d
       0.05719332 0.16499358 0.07992301 0.09173538
0003f0 b1 18 27 be 9d e4 e1 bd 02 5c ee 3d 38 83 10 be
       -0.16318013 -0.11029933 0.11638643 -0.14112556

3.bias f4 [16]
000000 fc 07 39 bc 04 12 09 3e 44 6a a7 bd 06 81 93 3d
       -0.0112934075 0.13385779 -0.081745654 0.07202344
000010 00 a9 cc 3c 61 1b 6f bb 51 1a 70 bc 3c 03 3f 3c
       0.02498293 -0.0036484825 -0.014654712 0.011658486
000020 79 3c b1 bc 4b 22 cb bd db 05 8a bb 06 b8 34 be
       -0.02163528 -0.0991865 -0.004212124 -0.17648324
000030 c9 cc 9a 3d 1d 26 52 be 89 6a 77 3d b4 30 45 bd
       0.07558591 -0.20522352 0.060404334 -0.04814215

6.weight f4 [8, 16, 3, 3]
000000 73 01 c3 bd b3 e4 07 3e 0b 3a 57 bb 05 12 36 3d
       -0.09521761 0.13270836 -0.0032840993 0.04445078
000010 33 55 83 3d 58 5d f6 3b 4f 6c 5a bd 66 8b d1 bd
       0.06412735 0.0075184517 -0.053325947 -0.10231666
000020 5f 9c cd 3b 5e 44 79 3d 3f 48 b4 3c 95 1a 47 3d
       0.0062747444 0.060856216 0.022007106 0.048609335
000030 76 7a b2 3d df a7 9f 3e 69 3a 28 3e fa 3c 96 3d
       0.08714764 0.31182763 0.16428532 0.07335849
000040 0a 1b 83 3e 92 9d 98 3e 39 4f 16 bd 4d 8e 35 3c
       0.25606567 0.29807717 -0.036696646 0.01108129
000050 96 b5 90 bc e5 15 84 3d 64 06 2b be e9 c6 04 3e
       -0.017664712 0.064494886 -0.16701657 0.12966503
000060 54 88 d3 3d f7 ac de 3c c5 23 24 bd f4 6f b4 bd
       0.10328737 0.027182085 -0.040073175 -0.08810416
000070 71 28 5a be 88 19 b1 bc 53 d7 0b be bc 7b 7a 3d
       -0.2130449 -0.02161862 -0.13656358 0.06115316
000080 e5 99 ff 3d fe 97 4f 3c 32 14 02 3e c7 e8 18 3e
       0.12480525 0.012670515 0.12703016 0.14932548
000090 ad 3d 3b be 76 dd de bc cc f7 18 3e 2f f9 14 be
       -0.18285246 -0.02720521 0.14938277 -0.14548181
0000a0 11 38 7d 3d f9 d6 45 3e 99 4f bb bd 7c ff d8 bc
       0.061821047 0.19320287 -0.091460414 -0.026489012
0000b0 71 46 5d 3e 3d 38 ac bd 7f a2 3f bd a0 e6 bf bd
       0.21608903 -0.08409164 -0.046785828 -0.0937016
0000c0 2b 39 86 be 3f 7e f0 be d1 c9 b0 be 61 86 01 bb
       -0.2621549 -0.46971318 -0.34528974 -0.0019763934
0000d0 83 f7 12 be cf 78 cd be 52 d2 f0 3d 46 c4 e9 bd
       -0.1435223 -0.40131232 0.117588654 -0.11414389
0000e0 59 36 72 3e b4 4b 88 be d1 ab 0e be db b1 b3 3d
       0.23653544 -0.26620257 -0.1393273 0.087741576
0000f0 39 c2 3d be b8 68 0d be 00 1b b9 3d 34 53 c2 bd
       -0.18531121 -0.13809478 0.09038353 -0.09488526
000100 a0 30 8c bd 17 78 43 be 77 1f b4 bd 11 32 0a be
       -0.06845212 -0.1908878 -0.08795064 -0.13495661
000110 ed 68 d3 bd 75 82 82 be cd b9 4b be e6 c2 1d be
       -0.103227474 -0.25490156 -0.19895096 -0.15406379
000120 ea 13 f4 bd 76 89 15 bd fc 1a 0c be ef e7 8f bc
       -0.11917861 -0.036508046 -0.13682169 -0.01756665
000130 b3 1e bf bd 90 c9 02 3e ab c3 38 bd 52 2e b3 3d
       -0.09332027 0.12772202 -0.04510848 0.08749069
000140 4b b7 86 3d 82 e7 f5 3d a2 be 0b 3e 34 df 0e be
       0.06577929 0.12007047 0.1364694 -0.13952333
000150 d5 3b 02 bc 70 1e 20 be 04 ce be bd a8 55 7a bd
       -0.007948835 -0.15636611 -0.09316638 -0.061116844
000160 1c 57 94 be 8c 7b f3 3a 53 4f 48 bd 9f 91 10 be
       -0.2897271 0.0018576249 -0.048903774 -0.1411805
000170 ca c1 ba bd 82 7d 47 3a 84 96 03 3d 96 74 87 bd
       -0.091189936 0.00076099497 0.032125965 -0.06614034
000180 8a 52 72 3d d5 b6 42 be 27 62 51 3d ab 45 97 be
       0.059160747 -0.19015057 0.051118996 -0.2954534
000190 5d ff 8d bd f0 7c 89 3e 22 1a 8a be 6a 68 91 bc
       -0.06933472 0.26853132 -0.26973063 -0.017749984
0001a0 42 c2 2f be 41 b5 e4 bd 4c 7f 78 be 93 c7 9d 3d
       -0.17163947 -0.11167384 -0.2426731 0.077040814
0001b0 60 55 0a be 6d 04 10 3e 0f 5e 77 3e 64 0b 48 be
       -0.1350913 0.14064188 0.24156974 -0.19535595
0001c0 68 b3 9e 3d 8b 2f 1b 3e 10 95 0d bd e1 e9 f6 3d
       0.07749063 0.15154855 -0.034565985 0.120563276
0001d0 71 d0 05 be 20 f9 ec 3d 9f e9 0a be ae 79 3d 3d
       -0.13067795 0.11570954 -0.13565682 0.04625862
0001e0 ac 10 63 be a6 2d c7 3d 80 4a 84 bd f8 fc 80 bd
       -0.22174329 0.097255036 -0.06459522 -0.0629825
0001f0 a2 fb 57 be 39 c4 ee 3c 88 8a 89 bd bb 31 fc 3d
       -0.21092084 0.0291463 -0.06715876 0.12314173
000200 9d d7 b1 bd b5 7d c9 bb 92 1f 14 bd fe fb 3f 3e
       -0.08683703 -0.0061490186 -0.03616292 0.18748471
000210 26 e6 9d bd b7 3d 8c 3d a8 27 17 3e d1 24 c3 bd
       -0.07709913 0.06847709 0.14761221 -0.095285065
000220 ed 5c 4d 3e e3 e3 6a 3d 03 55 2d 3e 01 a8 94 3e
       0.2005498 0.057346236 0.1692696 0.29034427
000230 59 d2 a4 bd 77 7e 21 3d cd 4c 91 bd 29 d7 a9 bd
       -0.08047933 0.039427247 -0.07094727 -0.08292992
000240 aa 73 43 be 42 94 a8 3c 03 27 a5 3e 41 04 6b be
       -0.19087091 0.020578507 0.32256326 -0.22950841
000250 39 31 bc 3c 89 0c 45 3e 1d a4 6b be 4c 78 08 3e
       0.02297269 0.19243063 -0.23011823 0.1332714
000260 ad 12 13 bd 87 5f 88 3e ef 58 06 3e 0d a3 3e be
       -0.035906482 0.26635382 0.13119863 -0.18616886
000270 4d 4c 5c 3c 8b 23 09 be b6 c8 bb bc 0a 4e 92 3c
       0.013445926 -0.13392465 -0.022922855 0.017859478
000280 66 19 1d be 3d 3a fc 3d b4 7a d6 3c 95 f3 bb 3c
       -0.1534172 0.123157956 0.026181556 0.022943297
000290 15 3f 0c 3d 9b b1 2c be ee 23 1a be 64 71 f2 ba
       0.034239847 -0.16864626 -0.15052769 -0.0018496928
0002a0 76 d2 52 3d 0d 1b f1 3d 46 7c 2b 3e e6 64 3a bd
       0.051470242 0.11772738 0.16746625 -0.04550638
0002b0 49 1c aa bc 53 03 ba 3c 72 db 31 be 83 2a 3d bd
       -0.02076544 0.022706663 -0.17368868 -0.04618312
0002c0 e3 62 33 3e 68 14 75 3c c5 10 0e be 8d b0 d6 3d
       0.17518191 0.0149584785 -0.13873585 0.10482893
0002d0 7f 2c f7 bd 85 24 f6 bd 43 82 21 3e 9d c6 22 be
       -0.12069034 -0.12018684 0.15772347 -0.15896077
0002e0 2d c1 2e bd f3 e5 82 3d a0 ea e8 3c e1 2f 48 3d
       -0.042664696 0.063915156 0.02843219 0.048873786
0002f0 ce e1 9b bd 48 66 94 bd 7f 39 29 be da 2b 74 bd
       -0.07611428 -0.07246071 -0.1652584 -0.059612133
000300 69 3e 85 bd 2d 1a 0c 3e 17 10 28 3e 3f 61 31 be
       -0.065060444 0.1368186 0.16412388 -0.17322253
000310 04 2e ad 3c 67 58 70 3e 91 93 06 be ba f7 16 be
       0.021140106 0.23471223 -0.1314223 -0.14742938
000320 e5 86 88 3d 2d 62 87 bd 69 9f 05 be 7b 93 56 3e
       0.06666354 -0.066105224 -0.13049091 0.20954697
000330 c5 87 c9 bd 4b bd 52 3e 9e 06 4f 3d 04 c2 25 be
       -0.09840349 0.20580022 0.05054342 -0.16187292
000340 f0 c6 b2 bc 9d 18 a9 3a c3 43 eb bd 4c 30 10 be
       -0.021823376 0.0012901012 -0.11487534 -0.14080924
000350 35 ff 50 3d 33 3c f9 bd 80 51 e0 3b e5 f3 36 3e
       0.051024634 -0.12169685 0.006845653 0.17866476
000360 c4 d8 44 3c 64 1e e3 3d ac 7b 54 bd ce 3e 81 3d
       0.012014572 0.11089781 -0.051875755 0.06310807
000370 a6 71 3e 3d 05 67 2f 3d c3 56 ee 3d 9a f2 c7 bd
       0.046495102 0.042822856 0.11637642 -0.097630695
000380 a1 30 06 be c4 39 c2 bd cb b3 14 be 85 9e a9 3e
       -0.13104488 -0.09483674 -0.1452171 0.33128753
000390 be 0c bf bd 97 29 58 3e 93 b5 4c 3e 11 2a d0 3d
       -0.09328602 0.21109615 0.1999114 0.101642735
0003a0 b5 ea 6a 3d 3b 9f b6 3e f5 7f d2 bd ea cb cd bc
       0.05735274 0.35668358 -0.10278312 -0.025121648
0003b0 4b 6e 28 3e 1d 46 bf 3d 62 0c d8 3d a3 5f 70 3c
       0.16448323 0.09339545 0.10549237 0.014671239
0003c0 fd df e7 bd 24 00 bb 3c 5f d6 0e bd d9 26 a2 bc
       -0.11322019 0.022827215 -0.03487241 -0.019793915
0003d0 2c 2f 0a 3e 76 ad 94 3d 8d 30 ed 3d e3 dc 2c 3e
       0.13494557 0.072596475 0.11581526 0.16881137
0003e0 72 3f 86 bd 12 27 0b 3e 17 9b 87 bc 74 55 17 3e
       -0.0655507 0.13589123 -0.016553445 0.14778692
0003f0 05 24 a2 be bf 6e 03 3e 70 88 94 3d c5 32 61 bc
       -0.31668106 0.12835215 0.07252586 -0.013745015

6.bias f4 [8]
000000 69 a4 43 3d c1 e4 34 be c8 f8 6d 3c 3d d5 d6 3d
       0.047764216 -0.17665388 0.014524646 0.10489891
000010 59 34 7c 3d 83 9e 74 be 21 80 ab bd b3 94 e0 bd
       0.06157336 -0.23888592 -0.08374048 -0.10965862
